GWN/best_models/best_model_w120_h30.pth (torch, 354571 bytes, 9 tensors)

adapt_adj f4 [120, 120]
1.0023777 0.0023648336 0.0022718674 0.0023373526 0.0024091138 0.002471356 0.0024023196 0.0025763258
0.002560175 0.0025876309 0.0026262018 0.002563739 0.0025232194 0.0026287737 0.0026476958 0.002695047
0.0026755414 0.0025234031 0.0024777483 0.002495031 0.0025063264 0.0025992233 0.0027159813 0.0028647233
0.0028614816 0.0028791304 0.0028107604 0.0028946043 0.0029668594 0.0030004897 0.0030230407 0.003115836
0.0031757096 0.0033255832 0.0032326907 0.003422947 0.0033849666 0.0034599076 0.0035235758 0.0036509205
0.003761337 0.0037592931 0.0037148502 0.0038242827 0.0039054567 0.0038830983 0.0037498286 0.0036493377
0.0034742113 0.0034184381 0.0033671649 0.0033597895 0.003344866 0.0032083471 0.0031055026 0.0030711198
0.003113012 0.003109663 0.0031318597 0.0031837 0.00314669 0.0032271573 0.0035119976 0.0036802157
0.0038999529 0.003940736 0.0040923897 0.004156281 0.004205283 0.004306939 0.004325825 0.004424875
0.004401461 0.0045240996 0.0046559377 0.004733455 0.004784622 0.0048631714 0.0050626113 0.005225127
0.005278157 0.005412488 0.00555691 0.0057618977 0.0059814784 0.0061782547 0.0064532054 0.00650593
0.006619981 0.0067525003 0.006837949 0.0070447554 0.007111828 0.0071856463 0.007361156 0.0073995343
0.0074010524 0.007517232 0.007531167 0.007632846 0.007749031 0.007913122 0.008132257 0.008253748
0.0082896715 0.008480932 0.008528076 0.008621274 0.008840538 0.008961182 0.009082178 0.009130764
0.009256139 0.009371827 0.009390095 0.009392496 0.009388228 0.009530658 0.00953155 0.009774894
0.0024243796 1.0024103 0.0023179534 0.0023819788 0.0024473919 0.0025113267 0.0024464398 0.0026140977
0.002601503 0.0026306387 0.0026576258 0.0025907077 0.0025567077 0.002659822 0.0026782074 0.00271939
0.002700566 0.0025397262 0.0024963783 0.0025223293 0.0025426724 0.0026306408 0.0027455625 0.0028927855
0.002890473 0.002905639 0.00285132 0.002936478 0.0030136274 0.0030413757 0.0030675752 0.0031713676
0.0032251568 0.0033634536 0.0032736629 0.003456782 0.0034148481 0.0034918922 0.003567017 0.0036905746
0.0037995921 0.0038025123 0.0037574589 0.0038650858 0.0039416743 0.003936533 0.0037946748 0.0036907846
0.003521696 0.003459427 0.0033973793 0.0033853506 0.0033712697 0.00323067 0.0031338166 0.0031031503
0.0031387792 0.0031429147 0.003168584 0.0032219547 0.003191879 0.0032739022 0.0035506797 0.0037220651
0.00393766 0.0039813733 0.004133089 0.004191816 0.004248533 0.004345033 0.004360263 0.0044572954
0.0044443556 0.0045679896 0.004696248 0.004770277 0.0048152953 0.0049024494 0.0051029213 0.0052689803
0.005317685 0.0054537877 0.005593338 0.0057901777 0.0060133785 0.006212384 0.0064889234 0.0065426896
0.0066539873 0.006790358 0.0068678036 0.0070780525 0.007144042 0.007213429 0.007409248 0.007459831
0.0074624713 0.0075676786 0.007571163 0.007684769 0.0078015164 0.00795089 0.008181653 0.00829399
0.008333797 0.0085282875 0.008571437 0.008659445 0.00887495 0.009002354 0.009129884 0.009178767
0.009305787 0.009410379 0.009428405 0.0094316825 0.00942478 0.009550619 0.009535899 0.0097690355
0.0024554362 0.0024361878 1.0023345 0.0023988688 0.00246672 0.0025344773 0.0024698204 0.0026397095
0.0026274105 0.0026624473 0.0026891867 0.0026207727 0.0025808704 0.0026876365 0.0027094171 0.0027576187
00000000: ea4d 803f 53fb 1a3b 9ce3 143b 452e 193b
00000010: 39e2 1d3b 79f6 213b 3c70 1d3b 93d7 283b
00000020: 9cc8 273b 3e95 293b 5b1c 2c3b 6704 283b
00000030: 995c 253b 8147 2c3b f784 2d3b 639f 303b
00000040: 2358 2f3b ae5f 253b b861 223b ad83 233b
00000050: 2e41 243b bb57 2a3b 9bfe 313b 15be 3b3b
00000060: b287 3b3b cbaf 3c3b bc34 383b 67b3 3d3b
00000070: a46f 423b dda3 443b 351e 463b 0e33 4c3b
00000080: 911f 503b 07f2 593b 8ddb 533b 8553 603b
00000090: 51d6 5d3b 9ebf 623b cbeb 663b 4844 6f3b
000000a0: c380 763b 795e 763b d874 733b d1a0 7a3b
000000b0: b1f2 7f3b 947b 7e3b afbf 753b ba29 6f3b
000000c0: 98af 633b e007 603b a7ab 5c3b ea2f 5c3b
000000d0: 8a35 5b3b 2243 523b b085 4b3b d744 493b
000000e0: ad03 4c3b 7dcb 4b3b e33f 4d3b 9fa5 503b
000000f0: b338 4e3b b77e 533b 8b29 663b c62f 713b
00000100: 5a96 7f3b 4a21 813b 7419 863b 6931 883b
00000110: 78cc 893b 3921 8d3b a6bf 8d3b 8bfe 903b
00000120: 223a 903b e63e 943b d690 983b 191b 9b3b
00000130: 52c8 9c3b 3d5b 9f3b 43e4 a53b 8b37 ab3b
00000140: 64f4 ac3b 3d5b b13b bd16 b63b 4dce bc3b
00000150: 4700 c43b f572 ca3b 6975 d33b b22f d53b
00000160: 6dec d83b 1444 dd3b e010 e03b b1d7 e63b
00000170: 560a e93b 9275 eb3b da35 f13b cb77 f23b
00000180: 8784 f23b 1d53 f63b 02c8 f63b f41c fa3b
00000190: 95eb fd3b 0aa6 013c 283d 053c ba3a 073c
000001a0: 67d1 073c 9bf3 0a3c 58b9 0b3c 3e40 0d3c
000001b0: e7d7 103c ecd1 123c 6acd 143c 3399 153c
000001c0: 10a7 173c 4b8c 193c ead8 193c fce2 193c
000001d0: 15d1 193c 7a26 1c3c 382a 1c3c e126 203c
000001e0: 57e2 1e3b fb4e 803f cee8 173b f91a 1c3b
000001f0: 6c64 203b 1295 243b 7354 203b 4851 2b3b
00000200: fa7d 2a3b cb66 2c3b 902b 2e3b ddc8 293b
00000210: 708e 273b 6950 2e3b dd84 2f3b cb37 323b
00000220: fbfb 303b 8971 263b 479a 233b aa4d 253b
00000230: f7a2 263b d466 2c3b e5ee 333b e394 3d3b
00000240: 176e 3d3b 886c 3e3b 36dd 3a3b ed71 403b
00000250: 4780 453b d151 473b 5f09 493b b8d6 4f3b
00000260: 275d 533b 636d 5c3b f38a 563b 2e8b 623b
00000270: a5cb 5f3b 3bd8 643b 9dc4 693b 91dd 713b
00000280: 9402 793b 9233 793b b33f 763b 614d 7d3b
00000290: 2929 813b 08fe 803b 14b0 783b 17e1 713b
000002a0: 41cc 663b 8eb7 623b 91a6 5e3b c2dc 5d3b
000002b0: 85f0 5c3b a6b9 533b b860 4d3b 395e 4b3b
000002c0: fab3 4d3b 5cf9 4d3b 05a8 4f3b 6e27 533b
000002d0: d82e 513b f78e 563b 85b2 683b e4ed 733b
000002e0: 7c07 813b 2e76 823b dd6e 873b 805b 893b
000002f0: 4737 8b3b c760 8e3b 89e0 8e3b 810e 923b
00000300: f5a1 913b 13af 953b fce2 993b fc4f 9c3b
00000310: a0c9 9d3b baa4 a03b 6836 a73b 69a7 ac3b
00000320: fa3f ae3b b0b5 b23b 5248 b73b 88bb bd3b
00000330: e00b c53b 4191 cb3b 09a1 d43b 0f64 d63b
00000340: b109 da3b a781 de3b 500b e13b 02ef e73b
00000350: 9118 ea3b a15e ec3b 47c9 f23b 9971 f43b
00000360: bf87 f43b 4afa f73b 8517 f83b 84d0 fb3b
00000370: dda3 ff3b 7344 023c 570c 063c 84e3 073c
00000380: 7a8a 083c 3bba 0b3c 366f 0c3c 58e0 0d3c
00000390: 3d68 113c 9c7e 133c 8295 153c 8a62 163c
000003a0: 4d77 183c fe2d 1a3c 9979 1a3c 5887 1a3c
000003b0: 646a 1a3c 337a 1c3c 763c 1c3c 4e0e 203c
000003c0: 62eb 203b 73a8 1f3b 7f4c 803f 5736 1d3b
000003d0: b2a8 213b 7919 263b b6dc 213b fafe 2c3b
000003e0: a230 2c3b 747c 2e3b 113d 303b 45c1 2b3b
000003f0: d223 293b 0f23 303b 7a90 313b 2ab9 343b

gc1.fc.weight f4 [128, 30]
0.095246576 -0.15570158 -0.040211834 0.16255364 0.016456867 -0.18175502 0.09331643 0.18126531
-0.018073663 -0.11542475 -0.13885407 0.009647822 -0.13095316 -0.06716205 -0.10058539 0.023415912
-0.084783904 0.0029238542 0.028584158 0.084209196 -0.110993974 0.05941335 -0.14390624 -0.16221099
0.15591891 0.05256276 -0.09372094 0.09394197 0.0021552988 0.13739444 0.0051458967 -0.021725934
0.12238856 -0.15248536 0.09285206 -0.05582718 -0.17478773 0.010464163 0.16973937 0.17933492
0.03708565 0.16374733 -0.03573032 0.08333532 -0.10194111 -0.08649503 0.08476176 -0.106055446
0.06840532 -0.09259508 0.042352974 0.064342655 -0.015899733 -0.13929865 -0.037743498 -0.1706634
0.01657168 -0.050371207 -0.07962561 -0.17034939 -0.05086039 -0.03142203 0.16325854 -0.08555912
0.066979825 -0.09563263 0.16768566 0.021219192 0.018120684 -0.08951027 -0.09573082 -0.15483908
0.08718243 -0.02261629 0.15806912 0.059292354 -0.06573072 -0.18034025 0.13889967 -0.10730448
0.008840419 0.053979304 0.01552599 0.075455315 -0.093738966 -0.11684971 -0.11608 -0.07055724
0.035189837 0.015386613 -0.15062651 -0.13410355 0.014162733 0.18453303 0.065692395 -0.049326565
-0.017964486 -0.034982946 -0.04162744 -0.13873027 0.12356606 0.109655134 0.05755351 0.1061713
-0.024534326 0.043104343 0.12760338 0.09302117 0.15608628 0.020640276 -0.053815234 -0.0059645665
-0.0978396 -0.08953081 0.17568558 0.1355008 -0.10479997 -0.086272694 -0.025321944 -0.03646994
0.1468858 -0.15721011 -0.12274968 -0.055179607 -0.15750459 0.034612197 0.10412484 0.13381027
0.056359157 0.08925811 0.061234258 0.1197484 0.1381959 -0.00065083854 0.100110434 0.07244395
0.12802155 -0.17688458 -0.06479243 0.06897829 -0.12384042 0.041258927 -0.19160652 0.07538872
0.054921497 -0.037658744 0.07712228 -0.034664545 0.14070636 0.024605941 0.1578996 0.12049184
0.1571982 0.04442664 0.122466795 -0.06412267 0.09053446 -0.046448894 0.17519389 -0.1416174
0.17869727 -0.10308007 0.13475586 0.10607434 0.11996049 -0.0859353 0.13985558 0.091288745
-0.010301137 -0.044542935 -0.11634188 -0.00045661896 -0.057285886 0.087259 0.14465061 -0.062336117
0.023169888 -0.09755466 -0.15157329 -0.17396475 0.0030514037 -0.07372539 -0.18387704 -0.18305835
0.06354145 -0.034088578 0.005556268 0.16385621 0.0054820357 -0.12432456 -0.0062050065 -0.031944662
0.03403593 0.07432152 0.1075418 -0.109004036 -0.003532835 0.09470244 -0.018717937 0.011462288
-0.10330363 0.14365831 -0.037470907 0.022665469 0.15465036 -0.024671884 -0.020344637 0.06478132
-0.05984291 -0.13668643 -0.05703689 0.007891357 0.083540685 -0.14758572 0.089137085 0.03446312
0.00935027 -0.15697974 -0.093223736 0.15872663 0.035969075 0.1335834 0.103982165 0.12046649
0.11123201 0.18882032 -0.11064145 0.02326958 -0.010274329 0.0023893258 -0.053227257 0.042474713
0.12804955 0.1280538 -0.14894645 0.032367688 0.0862915 0.068951644 0.15053199 -0.1728444
-0.09775354 0.072389215 0.15882617 -0.11288627 -0.08343649 -0.0845237 -0.13002871 -0.023174442
-0.054730147 -0.09402786 0.17877033 0.16402781 0.042776622 -0.12789601 -0.15295765 -0.068222694
00000000: a310 c33d 3c70 1fbe 2ab5 24bd 7674 263e
00000010: 8dd0 863c fd1d 3abe af1c bf3d 9d9d 393e
00000020: 380f 94bc d063 ecbd c32f 0ebe e611 1e3c
00000030: 9618 06be 428c 89bd b7ff cdbd bad2 bf3c
00000040: 2fa3 adbd 229e 3f3b 5329 ea3c df75 ac3d
00000050: cf50 e3bd 6a5b 733d 285c 13be a31a 26be
00000060: 35a9 1f3e 0c4c 573d c4f0 bfbd a664 c03d
00000070: ea3f 0d3b 21b1 0c3e e99e a83b 96fa b1bc
00000080: daa6 fa3d 1f25 1cbe 3929 be3d 0bab 64bd
00000090: 8efb 32be e171 2b3c 28d0 2d3e 93a3 373e
000000a0: 1fe7 173d 61ad 273e f559 12bd b5ab aa3d
000000b0: 80c6 d0bd 4e24 b1bd 9397 ad3d 9933 d9bd
000000c0: 1718 8c3d 7da2 bdbd 507a 2d3d 15c6 833d
000000d0: 2840 82bc 4ea4 0ebe ed98 1abd 63c2 2ebe
000000e0: 55c1 873c 0a52 4ebd c012 a3bd 1270 2ebe
000000f0: fc52 50bd 63b4 00bd 3f2d 273e 9f39 afbd
00000100: b82c 893d 0adb c3bd cab5 2b3e dfd3 ad3c
00000110: d471 943c 2951 b7bd 850e c4bd 238e 1ebe
00000120: b48c b23d cc45 b9bc dfdc 213e 8adc 723d
00000130: d49d 86bd 1dab 38be b73b 0e3e 74c2 dbbd
00000140: 68d7 103c 6719 5d3d b960 7e3c 5188 9a3d
00000150: 37fa bfbd e74e efbd 5abb edbd 5080 90bd
00000160: 3823 103d 2218 7c3c d63d 1abe 7152 09be
00000170: cf0a 683c 3af6 3c3e bc89 863d a70a 4abd
00000180: 422a 93bc 474a 0fbd 8981 2abd 4f0f 0ebe
00000190: 3410 fd3d df92 e03d 3bbd 6b3d 5770 d93d
000001a0: 36fc c8bc 2e8e 303d 76aa 023e e281 be3d
000001b0: 15d5 1f3e cc15 a93c 5d6d 5cbd 6972 c3bb
000001c0: 2160 c8bd ee5b b7bd ece6 333e b9c0 0a3e
000001d0: 5ea1 d6bd bdaf b0bd f76f cfbc 8161 15bd
000001e0: 3b69 163e b0fb 20be 2f64 fbbd 0304 62bd
000001f0: e248 21be 85c5 0d3d 673f d53d 8f05 093e
00000200: dcd8 663d f5cc b63d c6d0 7a3d a63e f53d
00000210: 3a83 0d3e 099d 2aba b306 cd3d 7e5d 943d
00000220: 1518 033e 3b21 35be e5b1 84bd 7d44 8d3d
00000230: 0ca0 fdbd 1fff 283d 8034 44be 6765 9a3d
00000240: 5df5 603d 0e40 1abd 49f2 9d3d 69fc 0dbd
00000250: 5415 103e 6692 c93c 6fb0 213e 6dc4 f63d
00000260: 91f8 203e b5f8 353d dfcf fa3d bf52 83bd
00000270: 226a b93d 3241 3ebd 0766 333e 2704 11be
00000280: 6bfc 363e a51b d3bd 71fd 093e 813d d93d
00000290: d8ad f53d d9fe afbd 4d36 0f3e 98f5 ba3d
000002a0: 1ac6 28bc a772 36bd a744 eebd 5c66 efb9
000002b0: 9ba4 6abd d9b4 b23d 4a1f 143e 2854 7fbd
000002c0: c7ce bd3c bdca c7bd 0736 1bbe d123 32be
000002d0: 0ffa 473b 56fd 96bd 434a 3cbe a673 3bbe
000002e0: 0522 823d 77a0 0bbd 5b11 b63b ecc9 273e
000002f0: a6a2 b33b e09d febd 5e53 cbbb 68d8 02bd
00000300: 4269 0b3d e235 983d e03e dc3d 823d dfbd
00000310: 2387 67bb 5af3 c13d 5c56 99bc 52cc 3b3c
00000320: db90 d3bd 2a1b 133e 187b 19bd efac b93c
00000330: aa5c 1e3e b11c cabc cca9 a6bc 12ac 843d
00000340: d71d 75bd 87f7 0bbe 849f 69bd c04a 013c
00000350: 6117 ab3d b620 17be 818d b63d 3329 0d3d
00000360: e031 193c 4cbf 20be 16ec bebd 3c89 223e
00000370: 4f54 133d 16ca 083e 9af4 d43d 23b7 f63d
00000380: 9ccd e33d 1d5a 413e fc97 e2bd d99f be3c
00000390: a955 28bc 3c96 1c3b d304 5abd f7f9 2d3d
000003a0: 6c1f 033e 8920 033e 6b85 18be fb93 043d
000003b0: 99b9 b03d 8536 8d3d 0f25 1a3e 1ffe 30be
000003c0: 0233 c8bd cc40 943d 54a3 223e eb30 e7bd
000003d0: c0e0 aabd c31a adbd 3f26 05be 54d8 bdbc
000003e0: b82c 60bd ae91 c0bd 920f 373e e8f6 273e
000003f0: 8a36 2f3d 2cf7 02be eea0 1cbe 57b8 8bbd

gc1.fc.bias f4 [128]
0.15848312 0.14714006 -0.14834365 0.09541701 -0.09899836 0.087386906 -0.020312795 -0.0917931
0.113187075 0.03022199 0.10491845 -0.14643091 -0.026724314 0.17116411 0.067995586 0.17468224
-0.13534382 0.11952835 -0.032534145 0.051545516 -0.17109539 0.11639118 0.13488656 0.10514446
0.005388637 -0.12052623 -0.08642148 0.03985621 0.06287262 -0.005677291 0.0625748 -0.059937075
-0.018917799 0.048245247 0.019244332 0.17070195 0.13686122 0.030073287 0.09340164 0.008835223
0.13046847 -0.07829552 -0.034970976 -0.03485144 0.047227383 -0.11371603 -0.026488567 0.063721634
-0.09325567 0.031638965 0.08198175 -0.105049394 0.04981515 -0.123371586 -0.059226576 -0.098002106
0.07299063 0.11843845 -0.0740893 0.17075247 -0.024251051 -0.05754546 -0.03033261 0.13323341
-0.09574501 0.12542161 -0.07202662 -0.05728333 0.12700571 0.08953904 -0.033240784 0.10809718
-0.009370411 0.053803913 -0.04426646 0.0648082 -0.0895907 0.06710717 -0.067628875 -0.06999184
0.14359602 0.12548776 -0.117372185 -0.13445659 0.14698845 0.011094987 -0.056168463 0.132821
-0.13575803 0.041486677 -0.15465325 0.019748207 -0.07742871 -0.17947929 -0.02155319 0.062456097
-0.1673417 -0.16601063 0.09928541 -0.00493116 -0.026536288 -0.004288398 -0.1750256 0.075992964
-0.12172776 0.10698616 -0.17396961 0.10665071 -0.1466069 -0.14011395 -0.11466359 0.098632514
0.067124814 -0.017824443 0.12989125 -0.14036441 -0.079072155 0.13705707 -0.1218588 -0.15804142
0.12683485 -0.05078306 -0.011462257 -0.05155061 -0.04300276 0.05825908 -0.03886395 0.11391071
00000000: 6649 223e e2ab 163e 66e7 17be fe69 c33d
00000010: a7bf cabd e8f7 b23d 0567 a6bc 05fe bbbd
00000020: a0ce e73d 1b94 f73c 7cdf d63d fcf1 15be
00000030: f3ec dabc a545 2f3e 4541 8b3d e7df 323e
00000040: 9297 0abe 48cb f43d 8642 05bd 6421 533d
00000050: a133 2fbe 805e ee3d b41f 0a3e fb55 d73d
00000060: 2a93 b03b 75d6 f6bd bffd b0bd 4440 233d
00000070: 5cc3 803d 9208 babb 3727 803d 9480 75bd
00000080: 80f9 9abc cf9c 453d 4aa6 9d3c 7ecc 2e3e
00000090: 5925 0c3e 415c f63c 5c49 bf3d 9cc1 103c
000000a0: 8799 053e 6759 a0bd ba3d 0fbd 62c0 0ebd
000000b0: 8071 413d f3e3 e8bd 8dfe d8bc 7d80 823d
000000c0: d4fc bebd dc97 013d 0ce6 a73d 2324 d7bd
000000d0: f90a 4c3d 3eaa fcbd 9197 72bd 54b5 c8bd
000000e0: 1d7c 953d dc8f f23d 22bc 97bd bcd9 2e3e
000000f0: 24aa c6bc cab4 6bbd 187c f8bc 576e 083e
00000100: f615 c4bd 866e 003e b182 93bd eda1 6abd
00000110: c90d 023e 3f60 b73d 7d27 08bd 0e62 dd3d
00000120: 5a86 19bc 7e61 5c3d bf50 35bd 29ba 843d
00000130: 547b b7bd 7c6f 893d 0281 8abd e257 8fbd
00000140: d60a 133e dd7f 003e d460 f0bd fdae 09be
00000150: 2484 163e c0c7 353c e710 66bd 3a02 083e
00000160: 2704 0bbe efed 293d 6c5d 1ebe fec6 a13c
00000170: f292 9ebd 6bc9 37be 5190 b0bc f7d1 7f3d
00000180: 9f5b 2bbe b1fe 29be 2656 cb3d 9195 a1bb
00000190: a162 d9bc b185 8cbb e939 33be 33a2 9b3d
000001a0: 674c f9bd 8f1b db3d 1725 32be b06b da3d
000001b0: 1f20 16be 087a 0fbe bfd4 eabd d8ff c93d
000001c0: bc78 893d 9104 92bc 3602 053e b0bb 0fbe
000001d0: 95f0 a1bd b058 0c3e 1b91 f9bd 9cd5 21be
000001e0: ffe0 013e e601 50bd 31cc 3bbc bc26 53bd
000001f0: a923 30bd 13a1 6e3d ce2f 1fbd 054a e93d

gc2.fc.weight f4 [128, 128]
0.03064518 0.028556168 0.021000318 -0.0035936723 -0.01297523 0.0055367346 -0.022992227 0.047045924
0.08083033 -0.08973635 0.08411903 -0.025460644 0.02718521 -0.040716 -0.032757156 0.033739902
-0.100199014 -0.06498272 0.0029281059 -0.03839588 -0.047590245 0.031271562 0.05644759 -0.050385706
-0.052156392 -0.025198579 -0.073653296 0.025504576 0.038388353 -0.08271432 0.054350138 0.08398271
-0.0115668345 0.051045444 -0.0788826 0.076610655 0.085080855 -0.075724155 -0.1131933 -0.020464504
0.014162144 0.051538263 -0.060444217 0.021403601 0.07585548 0.04446667 -0.017027311 -0.034621984
-0.0768018 -0.04981513 0.03547503 -0.050991196 -0.05595308 -0.028854355 -0.01248478 0.050626095
-0.07189886 -0.00524749 0.02005808 0.08197018 -0.032177266 -0.04595874 -0.028893217 0.008968648
-0.04952892 -0.02671188 0.04040427 -0.021129187 -0.047617607 0.0035308045 0.04929048 -0.057924278
-0.044587534 0.07039867 0.00017234133 0.032326777 0.02761673 0.029837826 0.032805882 -0.09590866
-0.050221864 0.047770448 0.094666615 0.024646444 -0.06889092 0.0963405 0.061068933 -0.007032487
0.0324714 -0.07675853 0.08764289 0.095021285 -0.0420178 0.041560497 -0.013557453 0.02960262
-0.03414243 0.0125163775 0.0178523 -0.006047249 -0.04064393 0.035738774 0.058939446 -0.03183238
0.06039692 -0.041271545 -0.087039344 0.033207517 0.034364015 0.025274651 -0.009380275 -0.0064509935
0.08315563 -0.0034899772 -0.02101203 -0.09434494 0.04611145 -0.011682523 0.023523912 -0.07495031
-0.020497067 -0.047456194 -0.04060574 -0.0718782 0.011815574 0.034715064 -0.0877294 0.008467059
0.07855939 -0.007197155 -0.07914221 -0.01178397 0.07084894 0.045323525 0.026036173 -0.056261044
-0.08256875 0.07118661 -0.067400135 0.04500814 0.0009790276 0.0024856508 -0.025269965 0.058068525
-0.055275895 -0.016119324 -0.08407315 -0.032434512 0.070270486 -0.014242622 -0.05608452 -0.01524884
-0.08588032 -0.054864194 0.018576024 0.011319477 -0.058858715 0.005515853 -0.030794721 0.075383276
-0.014124418 0.09751051 -0.017174518 0.07987019 0.04620946 0.02694411 0.050223608 0.08428395
0.086174 0.015508936 -0.032741252 -0.050633453 -0.00799163 0.019174982 -0.103899464 0.012355114
-0.058103524 -0.058529966 0.0671568 -0.046631873 0.012735275 0.078193754 -0.0074766856 -0.047488954
0.04739956 -0.058255654 -0.04795187 0.014344635 0.050669998 -0.035579346 -0.058014657 0.02032648
-0.01940629 -0.10272336 -0.0657215 -0.050564397 0.043530744 0.019169398 0.09237031 0.02640543
0.035262804 0.007163391 0.014917011 -0.04987517 -0.024503153 -0.020387007 0.08397476 0.015958674
0.027695287 0.0041254284 0.092781186 0.083503306 -0.00893675 -0.014170706 0.036389273 -0.05711079
0.075117655 -0.01180072 -0.026363978 -0.02844775 -0.04964514 -0.039397545 -0.046152316 0.08639733
-0.015906254 0.02660884 -0.08929893 0.09772664 0.05184674 0.08560639 -0.08800911 -0.06368164
-0.07205653 0.0002899835 -0.0029712827 0.07792553 -0.09028306 -0.09248134 0.07185688 0.080720834
-0.0908874 -0.0017352197 -0.037936494 0.07446472 0.015435605 0.012911914 0.03261074 -0.06944344
0.05348222 -0.05466919 -0.030407477 -0.02143801 -0.084213585 -0.013920591 -0.042773828 0.03259478
00000000: 9a0b fb3c a0ee e93c dc08 ac3c d183 6bbb
00000010: 0f96 54bc 7f6d b53b 325a bcbc 3ab3 403d
00000020: 5f8a a53d b1c7 b7bd 9946 ac3d d792 d0bc
00000030: 84b3 de3c d2c5 26bd 5e2c 06bd da32 0a3d
00000040: 2435 cdbd a915 85bd 77e5 3f3b 0045 1dbd
00000050: fded 42bd 9c16 003d 9735 673d 3e61 4ebd
00000060: f1a1 55bd 406d cebc 8ad7 96bd f9ee d03c
00000070: 1b3d 1d3d 2066 a9bd 409e 5e3d 21ff ab3d
00000080: d282 3dbc 0715 513d 338d a1bd 0ce6 9c3d
00000090: df3e ae3d 4415 9bbd e4d1 e7bd 2da5 a7bc
000000a0: 5608 683c c919 533d 5b94 77bd 9b56 af3c
000000b0: 1e5a 9b3d af22 363d dc7c 8bbc c8cf 0dbd
000000c0: 434a 9dbd f30a 4cbd 444e 113d 25dc 50bd
000000d0: 0f2f 65bd f85f ecbc f68c 4cbc 4f5d 4f3d
000000e0: b63f 93bd 23f3 abbb d850 a43c fbdf a73d
000000f0: 4fcc 03bd 3b3f 3cbd 78b1 ecbc 3cf1 123c
00000100: d6de 4abd dfd2 dabc f37e 253d 1e17 adbc
00000110: ae0a 43bd 1265 673b d0e4 493d 0242 6dbd
00000120: 6ba1 36bd 2e2d 903d 86b6 3439 1569 043d
00000130: 7b3c e23c 756e f43c 765f 063d c26b c4bd
00000140: 71b5 4dbd f2aa 433d 92e0 c13d 57e7 c93c
00000150: af16 8dbd 2b4e c53d 6b23 7a3d c770 e6bb
00000160: bb00 053d 9433 9dbd 1e7e b33d 859a c23d
00000170: db1a 2cbd 573b 2a3d 1420 5ebc 3281 f23c
00000180: efd8 0bbd 7e11 4d3c fd3e 923c 0028 c6bb
00000190: 407a 26bd d262 123d 7d6a 713d ab62 02bd
000001a0: c362 773d 5a0c 29bd af41 b2bd 9b04 083d
000001b0: 48c1 0c3d c90c cf3c baaf 19bc db62 d3bb
000001c0: 804d aa3d 1ab8 64bb 6c21 acbc eb37 c1bd
000001d0: 5cdf 3c3d 0e68 3fbc 38b5 c03c 8c7f 99bd
000001e0: 77e9 a7bc 6d61 42bd 3452 26bd e134 93bd
000001f0: 1c96 413c 6231 0e3d 79ab b3bd 6bb9 0a3c
00000200: bfe3 a03d 1dd6 ebbb 5015 a2bd 8d11 41bc
00000210: 4019 913d 29a5 393d d049 d53c fb71 66bd
00000220: ce19 a9bd 49ca 913d 1509 8abd 755a 383d
00000230: b752 803a 4de6 223b f502 cfbc 43d9 6d3d
00000240: fa68 62bd ac0c 84bc 8b2e acbd 0dda 04bd
00000250: f9e9 8f3d e359 69bc e2b8 65bd 45d6 79bc
00000260: 05e2 afbd 47b9 60bd bf2c 983c 5475 393c
00000270: d615 71bd 54be b43b 3645 fcbc 8c62 9a3d
00000280: 1a6a 67bc 97b3 c73d 93b1 8cbc fb92 a33d
00000290: 2146 3d3d e5b9 dc3c 45b7 4d3d 109d ac3d
000002a0: fe7b b03d 3119 7e3c b11b 06bd 0665 4fbd
000002b0: 53ef 02bc da14 9d3c 3ec9 d4bd 1b6d 4a3c
000002c0: f6fd 6dbd 1ebd 6fbd 8189 893d 1001 3fbd
000002d0: 9da7 503c 0c24 a03d fcfe f4bb c783 42bd
000002e0: 0b26 423d 7b9d 6ebd 2e69 44bd c305 6b3c
000002f0: 588b 4f3d a6bb 11bd c7a0 6dbd b883 a63c
00000300: f1f9 9ebc a060 d2bd fe98 86bd 9d1c 4fbd
00000310: 4b4d 323d 2409 9d3c a52c bd3d 3350 d83c
00000320: bb6f 103d e1ba ea3b 7b66 743c e849 4cbd
00000330: d6ba c8bc a702 a7bc f5fa ab3d c4bb 823c
00000340: 3ae1 e23c 9a2e 873b 1004 be3d c803 ab3d
00000350: 726b 12bc 402c 68bc eb0c 153d 01ed 69bd
00000360: 49d7 993d cf57 41bc 45f9 d7bc 410b e9bc
00000370: b458 4bbd 525f 21bd 360a 3dbd 15f1 b03d
00000380: d54d 82bc c8fa d93c 5be2 b6bd e824 c83d
00000390: 3f5d 543d 6752 af3d 1f3e b4bd 856b 82bd
000003a0: 6092 93bd ed08 9839 dab9 42bb 6c97 9f3d
000003b0: 53e6 b8bd db66 bdbd b329 933d f750 a53d
000003c0: 2c23 babd 5070 e3ba 4c63 1bbd f680 983d
000003d0: 9fe5 7c3c 7e8c 533c d792 053d 5d38 8ebd
000003e0: 2c10 5b3d cdec 5fbd 1a19 f9bc c49e afbc
000003f0: 2c78 acbd 3113 64bc 9c33 2fbd 1b82 053d

gc2.fc.bias f4 [128]
-0.0013855225 0.055401392 0.024255693 -0.04502128 -0.064615116 -0.032255135 -0.024988001 -0.032127265
-0.07424279 -0.072415754 0.06943138 -0.03772452 0.0268771 0.051845036 -0.03724791 0.03595045
-0.04146525 0.00074603414 -0.0038897884 0.057426967 0.082488164 -0.084718145 -0.071373045 -0.033857763
-0.00047055923 -0.023313047 0.069799714 -0.08479206 -0.06791051 0.07069979 0.09287549 -0.01329893
-0.03623747 -0.05307371 0.07124354 0.063589565 0.06766111 -0.0071238163 0.01766248 0.0854911
-0.0134678325 0.049488265 0.009170769 0.019318638 0.07643505 -0.024388118 0.07440664 -0.09475646
0.041971564 0.018326672 0.03463262 0.012845784 0.037378903 0.0006373366 0.058311064 -0.025530543
0.049502768 -0.032057524 -0.0626361 0.029633243 -0.00066449924 -0.07430689 0.07920188 -0.0069431597
0.06921379 0.014136173 -0.0043801568 0.026857313 -0.02338148 0.0674229 0.07982238 -0.035707504
-0.045719743 0.07303115 -0.023183044 0.072842054 0.04623202 0.024879726 -0.0047793053 0.029938329
0.0076164375 -0.028644456 -0.033953644 0.019242328 0.08848542 0.05148093 0.024340805 -0.07362719
0.056032978 -0.04551132 -0.008902143 -0.06840341 0.05830711 -0.06117267 -0.046450082 -0.04952084
-0.049023133 0.02898157 -0.027983095 0.07413102 -0.06138422 -0.04844169 0.0386671 0.07355442
-0.046977077 0.048188955 -0.024861105 0.025025515 -0.03535926 0.016834505 0.07215642 -0.04553714
-0.002490127 0.03838421 -0.017285852 -0.012526573 0.050402656 0.096619695 0.09396868 0.06203618
0.09821019 -0.054415017 0.0017107197 0.07192219 0.007492465 0.0010811586 -0.023509989 0.013804007
00000000: 6c9a b5ba 92ec 623d e0b3 c63c 3c68 38bd
00000010: ee54 84bd f61d 04bd a3b3 ccbc e197 03bd
00000020: 9b0c 98bd b64e 94bd 0a32 8e3d 0785 1abd
00000030: 5d2d dc3c 765b 543d 4491 18bd c740 133d
00000040: 77d7 29bd 8191 433a d2eb 7ebb 8a38 6b3d
00000050: 8eef a83d b580 adbd 082c 92bd 70ae 0abd
00000060: 64b5 f6b9 01fb bebc 27f3 8e3d 76a7 adbd
00000070: aa14 8bbd 0dcb 903d 8135 be3d c1e3 59bc
00000080: be6d 14bd d263 59bd 22e8 913d 3f3b 823d
00000090: e891 8a3d e76e e9bb e8b0 903c f515 af3d
000000a0: 2fa8 5cbc 35b4 4a3d fe40 163c 1f42 9e3c
000000b0: fb89 9c3d 97c9 c7bc 8262 983d ad0f c2bd
000000c0: 60ea 2b3d d121 963c efda 0d3d 2077 523c
000000d0: 9f1a 193d ef12 273a 95d7 6e3d 6e25 d1bc
000000e0: 6ac3 4a3d c04e 03bd 5b47 80bd 6ac1 f23c
000000f0: ca31 2eba 362e 98bd 9834 a23d 7283 e3bb
00000100: f6bf 8d3d 689b 673c 6b87 8fbb de03 dc3c
00000110: 848a bfbc 0415 8a3d ea79 a33d 0842 12bd
00000120: a044 3bbd 5b91 953d 5eea bdbc 372e 953d
00000130: c95d 3d3d 91d0 cb3c b89b 9cbb 3a41 f53c
00000140: 4f93 f93b c7a7 eabc fa12 0bbd 16a2 9d3c
00000150: d837 b53d abdd 523d 5e66 c73c dac9 96bd
00000160: d682 653d 146a 3abd 4bda 11bc 1617 8cbd
00000170: 70d3 6e3d 3290 7abd 7142 3ebd 5dd6 4abd
00000180: 7bcc 48bd c26a ed3c ce3c e5bc 01d2 973d
00000190: 056e 7bbd cb6a 46bd 6561 1e3d b3a3 963d
000001a0: 096b 40bd c861 453d 84a9 cbbc 4f02 cd3c
000001b0: dfd4 10bd 84e8 893c bfc6 933d 2785 3abd
000001c0: 6631 23bb c338 1d3d 0f9b 8dbc 413c 4dbc
000001d0: 0473 4e3d 8ce0 c53d a772 c03d a619 7e3d
000001e0: 6d22 c93d 48e2 5ebd 3a3a e03a f14b 933d
000001f0: 5a83 f53b aab5 8d3a 0598 c0bc 342a 623c

temporal_conv.weight f4 [128, 128, 3]
-0.026705759 0.004437592 -0.05030414 0.006903063 0.04226661 0.041193455 0.021518648 -0.05398648
0.028642671 -0.023542887 0.011953815 0.032038417 0.01759817 0.018036999 -0.038268164 -0.020606253
0.019182097 0.024612417 0.025318725 0.06740929 -0.049819533 0.047247387 0.011741683 0.01811861
-0.045967836 -0.008382993 -0.017449835 -0.015115188 -0.012964866 0.022153737 0.033892468 0.0038790435
0.03053993 -0.016255312 0.05633604 0.027628433 -0.03696147 0.03510198 -0.018821673 0.04688819
0.024087831 -0.019230122 0.025602523 0.0013677767 0.004636188 -0.024745984 -0.0009619916 -0.034605425
0.036299415 -0.049793806 0.02324959 -0.01904334 -0.03188093 -0.023188137 -0.062078357 0.031856697
-0.040708452 -0.051362514 0.015108985 0.041381866 0.023285948 0.017458703 -0.050415363 0.00033312177
-0.051651422 0.012941952 0.038196065 0.03808189 0.001165033 0.017110985 -0.029634295 -0.009276908
-0.026552314 0.031671323 0.018187657 0.038548555 0.009554794 0.040541988 0.044418428 0.042708576
0.03648714 -0.046663843 -0.017825015 0.044799067 -0.019092936 -0.0015844544 -0.018163683 0.033032954
-0.0010215436 0.024854105 0.067741275 0.013338537 -0.012566723 -0.022341274 -0.02227973 0.044568304
-0.0028138347 -0.00012271335 -0.025613377 0.012681059 0.023985602 0.04986519 0.031435803 0.0450734
0.007443294 0.062589355 -0.004410427 -0.009849475 0.029472727 0.020040391 -0.040824153 0.023453414
0.000485572 -0.03906473 -0.024041828 -0.052626852 -0.020920668 0.044310648 -0.024417095 0.012844454
-0.042712662 -3.9935927e-05 0.04245188 0.009355376 0.03828304 -0.017371586 0.035252105 0.047410738
-0.00035840197 -0.025996588 -0.023069315 0.047049146 0.01465434 -0.05014251 0.022843154 0.022052258
-0.05018549 -0.026596827 0.037332315 0.021470575 0.010596221 -0.07014156 -0.06402299 -0.043127615
-0.02051896 -0.0075510545 -0.030199777 0.012541179 -0.05662183 -0.0013604857 -0.0026764125 -0.0134664755
0.0031693587 0.018362306 -0.023875158 0.03137759 0.02847559 -0.030487167 -0.02477199 0.021328501
0.027445741 -0.0034383533 0.01466454 0.059983496 -0.025441138 0.039618857 -0.016637221 -0.007581368
0.005178353 -0.019144902 0.0038834373 0.017812062 0.018392542 0.02611714 -0.008814372 0.014940068
-0.010575288 0.0014022802 -0.017598554 0.015938403 -0.06002286 -0.018453578 0.03473885 -0.010073108
-0.016268395 0.0072687436 0.06641725 0.03117772 0.037488803 -0.04610349 0.02703149 -0.044989653
0.017636744 -0.026706954 -0.024835823 0.003352342 -0.061921537 0.0011265556 0.020066991 0.03597369
-0.0197843 -0.02840936 0.04467536 0.017068803 0.059287515 -0.0022869338 0.038790267 -0.055894986
-0.01799324 0.02174482 -0.045286454 0.016218027 -0.0002787402 0.03792892 0.009822462 0.038442366
0.052086826 -0.016535485 -0.030543331 0.021123856 -0.008345101 -0.015286575 0.017979994 0.01926842
-0.009895599 -0.011875422 -0.035621934 -0.008619508 -0.067995146 -0.056611612 -0.008707735 -0.013996502
0.035152856 0.038662966 -0.033004798 0.016023006 -0.021160122 0.030045187 0.0202729 -0.021972915
-0.04952159 0.00019183692 0.012467266 -0.01589948 0.005237236 0.012824835 -0.012612999 -0.015075692
0.040338535 0.043064147 0.0013391043 -0.007265702 -0.018529074 0.003271618 -0.021611148 -0.005686223
00000000: 09c6 dabc 3869 913b b70b 4ebd 1733 e23b
00000010: c11f 2d3d 78ba 283d e047 b03c ed20 5dbd
00000020: 09a4 ea3c 03dd c0bc efd9 433c b73a 033d
00000030: 0a2a 903c 54c2 933c 14bf 1cbd 72ce a8bc
00000040: c623 9d3c fb9f c93c 3769 cf3c e20d 8a3d
00000050: 910f 4cbd 7a86 413d 3060 403c 7b6d 943c
00000060: c548 3cbd d258 09bc f5f2 8ebc b2a5 77bc
00000070: 976a 54bc c17b b53c d4d2 0a3d 8d37 7e3b
00000080: e02e fa3c dc29 85bc 9fc0 663d 0655 e23c
00000090: e964 17bd 18c7 0f3d e92f 9abc d50d 403d
000000a0: d853 c53c 7d88 9dbc 62bc d13c f846 b33a
000000b0: 2aeb 973b 17b8 cabc 2a2e 7cba 6bbe 0dbd
000000c0: b2ae 143d 97f4 4bbd ed75 be3c c700 9cbc
000000d0: 9495 02bd 0cf5 bdbc e045 7ebd 2b7c 023d
000000e0: e8bd 26bd 8061 52bd ad8b 773c 0880 293d
000000f0: 2cc2 be3c 8e05 8f3c 5780 4ebd d9a6 ae39
00000100: 7190 53bd 7b0a 543c 7a73 1c3d c2fb 1b3d
00000110: 05b4 983a 562c 8c3c 9fc3 f2bc 2cfe 17bc
00000120: 3d84 d9bc cab9 013d 48fe 943c 17e5 1d3d
00000130: b68b 1c3c 5b0f 263d 19f0 353d 30ef 2e3d
00000140: 8a73 153d 9622 3fbd c405 92bc 3a7f 373d
00000150: ca68 9cbc 78ad cfba 01cc 94bc 904d 073d
00000160: 51e5 85ba d69a cb3c f0bb 8a3d e189 5a3c
00000170: a8e4 4dbc 0c05 b7bc fb83 b6bc 418d 363d
00000180: 5068 38bb 9dac 00b9 25d3 d1bc 37c4 4f3c
00000190: 747d c43c 713f 4c3d d4c2 003d e39e 383d
000001a0: e0e6 f33b d92e 803d 5885 90bb b15f 21bc
000001b0: ca70 f13c bf2b a43c 3a37 27bd 6021 c03c
000001c0: 5f94 fe39 5702 20bd 5ef3 c4bc 418f 57bd
000001d0: d261 abbc 157f 353d 5c06 c8bc 8b71 523c
000001e0: 79f3 2ebd e080 27b8 06e2 2d3d 4a47 193c
000001f0: adce 1c3d db4e 8ebc 8364 103d c331 423d
00000200: e6e7 bbb9 ccf6 d4bc dcfb bcbc 9bb6 403d
00000210: c218 703c 3c62 4dbd 9121 bb3c f0a6 b43c
00000220: 4d8f 4dbd 97e1 d9bc c5e9 183d 0fe3 af3c
00000230: c69b 2d3c 61a6 8fbd 7c1e 83bd 95a6 30bd
00000240: 6117 a8bc d66e f7bb 8665 f7bc 8479 4d3c
00000250: 4bec 67bd 5352 b2ba c066 2fbb 7ea2 5cbc
00000260: 04b5 4f3b 8c6c 963c d695 c3bc ca85 003d
00000270: a445 e93c 39c0 f9bc a1ee cabc 1cb9 ae3c
00000280: e4d5 e03c ff55 61bb 8a43 703c 41b1 753d
00000290: ef69 d0bc 6247 223d c84a 88bc 206d f8bb
000002a0: 2caf a93b c5d5 9cbc 4481 7e3b 9aea 913c
000002b0: f5ab 963c 9df3 d53c 286a 10bc 30c7 743c
000002c0: f943 2dbc b7cc b73a d82a 90bc 4191 823c
000002d0: 88da 75bd f52b 97bc 534a 0e3d ad09 25bc
000002e0: 4c45 85bc a42e ee3b c405 883d 6b68 ff3c
000002f0: dc8d 193d 03d7 3cbd 2571 dd3c 1247 38bd
00000300: ef7a 903c 8bc8 dabc 7f74 cbbc f7b2 5b3b
00000310: 70a1 7dbd efa8 933a 8863 a43c 2659 133d
00000320: af12 a2bc bfba e8bc 83fd 363d e0d3 8b3c
00000330: 77d7 723d 62e0 15bb 8be2 1e3d 24f2 64bd
00000340: 8f66 93bc 3122 b23c 4a7e 39bd abdb 843c
00000350: e023 92b9 5b5b 1b3d 64ee 203c be75 1d3d
00000360: ff58 553d 6d75 87bc 0236 fabc f00b ad3c
00000370: e4b9 08bc 8b74 7abc c84a 933c ced8 9d3c
00000380: 2721 22bc 2191 42bc 4ee8 11bd d638 0dbc
00000390: 0a41 8bbd 94e1 67bd e3aa 0ebc 9651 65bc
000003a0: 71fc 0f3d 0f5d 1e3d 0a30 07bd ae42 833c
000003b0: fe57 adbc 5321 f63c 5a13 a63c 8b00 b4bc
000003c0: 27d7 4abd d527 4939 8143 4c3c a03f 82bc
000003d0: 1f9d ab3b 421f 523c c1a6 4ebc 0900 77bc
000003e0: 053a 253d 0864 303d e284 af3a 2015 eebb
000003f0: 49ca 97bc a468 563b dd09 b1bc 7f53 babb

temporal_conv.bias f4 [128]
0.05478069 0.04897172 0.026272407 -0.001919525 -0.001694582 -0.041520026 -0.02919255 0.0524453
0.008472688 -0.04768279 0.041017827 0.043720953 0.044175327 0.049994774 -0.0019957572 0.027260467
-0.007249664 0.025680188 0.040955327 -0.002379746 -0.025552724 -0.0064367983 0.013247383 0.033163138
-0.025077822 -0.016988581 0.00811359 0.025713433 0.055254437 0.015203973 0.010563015 -0.018795235
0.028523296 0.04026596 0.016961178 0.05608999 0.055556666 0.05826906 -0.02449047 0.039823737
0.058557644 -0.03174898 -0.008496827 0.05839295 0.062428642 0.02394778 -0.03685883 -0.017849378
0.04229169 -0.030313982 -0.013025204 0.018276589 -0.0061348774 0.013166423 0.022864336 -0.03896847
0.021885332 -0.0018544925 0.029503195 -0.006096125 -0.03255758 0.040419985 0.038659267 0.04470151
-0.008331767 -0.026663817 0.048698615 -0.022623878 0.015526508 0.062609404 0.041643843 0.034169152
-0.01373681 -0.009674554 -0.024852071 -0.009352559 -0.026599884 -0.005375837 -0.009836236 -0.034457345
-0.0010887877 0.012522719 0.0324125 0.04381167 0.034372434 0.042060453 0.032586165 -0.041115534
0.036509603 -0.017082041 0.01706996 0.0022417349 0.05711352 0.029785212 0.039751105 0.008783447
-0.02107624 -0.041490514 0.040228125 0.0017040862 -0.029014338 0.010917122 -0.017212313 0.025706915
0.019001463 0.019755015 -0.016416186 -0.02538645 0.06671564 -0.030291311 -0.019379823 -0.04119068
-0.040665004 -0.0019262388 -0.003933148 0.04377129 0.0424315 0.05677503 0.0068944814 0.011735237
0.060834073 0.02028049 -0.0343824 0.033199627 -0.0039751856 -0.040842563 0.0022915977 0.049203847
00000000: b861 603d 9296 483d 3b39 d73c 9298 fbba
00000010: bd1c deba e710 2abd 3725 efbc e2d0 563d
00000020: 07d1 0a3c 074f 43bd 4f02 283d be14 333d
00000030: 30f1 343d 52c7 4c3d 40cb 02bb 5851 df3c
00000040: 978e edbb 425f d23c c6c0 273d 83f5 1bbb
00000050: f253 d1bc c7eb d2bb 8d0b 593c 12d6 073d
00000060: 0170 cdbc a32b 8bbc ddee 043c faa4 d23c
00000070: 7a52 623d 161a 793c 7f10 2d3c 77f8 99bc
00000080: b0a9 e93c ebed 243d 2bf2 8a3c 9ebe 653d
00000090: 638f 633d 8aab 6e3d 3da0 c8bc 371e 233d
000000a0: 24da 6f3d 380b 02bd 4736 0bbc 722d 6f3d
000000b0: 2db5 7f3d 222e c43c 49f9 16bd dc38 92bc
000000c0: 0d3a 2d3d 0755 f8bc aa67 55bc c9b8 953c
000000d0: 1507 c9bb fbb7 573c fd4d bb3c 679d 1fbd
000000e0: de48 b33c 7112 f3ba afb0 f13c 01c2 c7bb
000000f0: 195b 05bd 6d8f 253d 2e59 1e3d ee18 373d
00000100: f781 08bc 146e dabc 3378 473d b655 b9bc
00000110: e562 7e3c 5c39 803d bc92 2a3d f4f4 0b3d
00000120: 5b10 61bc 0582 1ebc 9296 cbbc 7a3b 19bc
00000130: 00e8 d9bc ca27 b0bb 2a28 21bc 2523 0dbd
00000140: a7b5 8eba 172c 4d3c f8c2 043d de73 333d
00000150: 1cca 0c3d 9547 2c3d 1279 053d c368 28bd
00000160: 188b 153d a3ef 8bbc 4dd6 8b3c 12ea 123b
00000170: deef 693d 1e00 f43c 0ed2 223d 72e8 0f3c
00000180: 14a8 acbc f5f1 29bd 3fc6 243d a55b df3a
00000190: 7aaf edbc badd 323c d600 8dbc 4f97 d23c
000001a0: f5a8 9b3c 45d5 a13c 3d7b 86bc 3ff7 cfbc
000001b0: 36a2 883d 7c25 f8bc 6fc2 9ebc 8fb7 28bd
000001c0: 5990 26bd d979 fcba a3e1 80bb 8649 333d
000001d0: a7cc 2d3d ef8c 683d 1aeb e13b 2745 403c
000001e0: 262d 793d 4523 a63c 8fd4 0cbd 55fc 073d
000001f0: 4642 82bb 884a 27bd a12e 163b f989 493d

fc.weight f4 [30, 128]
0.08887502 0.0178828 -0.07830546 0.027020756 -0.06283814 -0.037216347 -0.000585175 0.03540726
-0.028303597 -0.04790886 0.10818471 -0.053967353 -0.010191641 0.11723196 0.046661455 -0.08720936
-0.018689705 -0.02190551 0.05603522 0.0883962 0.08317333 0.062385496 0.07308803 0.08066882
0.009989462 0.00727698 -0.079411775 -0.02195959 0.040111102 -0.02534074 0.026145294 0.09670291
-0.035004366 -0.012028089 -0.07766972 -0.016952666 0.048992466 0.004377795 -0.020612156 0.08043343
-0.052023042 0.06448847 0.027023088 -2.323086e-07 -0.013506285 0.06159914 0.054877017 0.013523898
0.043579806 0.002246991 -0.056262285 -0.01273029 -0.029815042 0.06399071 0.05034099 0.011360206
0.058088027 0.063251324 -0.09239628 0.027570648 -0.0023145312 -0.05706699 -0.081040345 0.018150482
-0.0075088614 -0.024634562 0.055708047 0.00042311603 0.056649547 0.058400407 -0.0017382554 0.0105984295
-0.08834887 -0.073097594 -0.025758978 -0.07331891 -0.080505 -0.008649935 -0.002624699 -0.07209695
-0.017992567 0.06499254 0.07520016 0.07238439 0.027366338 -0.05009828 0.042475976 -0.0021857496
0.06671348 -0.034628563 0.064560205 -0.074853316 0.027243892 -0.09583974 -0.0648046 -0.04224457
0.059266534 0.010798915 0.040747978 0.076384276 -0.06780827 0.054645527 -0.05870304 -0.074893124
0.00048785988 -0.057589013 0.038853657 0.044881888 0.023684982 0.0141707845 0.064228065 -0.057978775
0.07433766 0.03307911 0.06592298 -0.046717122 -0.06439382 -0.038159516 -0.043655094 0.10257544
0.04190292 0.07788981 -0.09050383 -0.07849489 -0.010050905 -0.08203281 0.00093278714 -0.060044754
-0.022488236 -0.025555205 -0.023455538 0.09156258 -0.038104646 -0.021632606 0.08667891 0.10230264
0.0137528805 -0.008422905 -0.042553257 0.11141965 -0.09079211 -0.049190804 0.018812118 -0.0113162715
-0.05223879 0.06399295 0.015998375 -0.034183145 -0.061186656 -0.050198212 -0.0072280173 0.0075337687
0.05357691 -0.042837843 -0.023213102 0.068739474 0.075547956 -0.05980757 0.05278212 -0.039790526
0.012917135 -0.07003462 -0.047983665 -0.048819058 -0.044673644 0.09040805 0.092123866 -0.07759316
0.0031589584 -0.009085701 -0.0318526 0.009139896 -0.055793714 0.08749266 -0.044756632 -0.0012025055
-0.020457169 0.07970191 -0.006512712 0.011699205 0.045981564 0.04753664 -0.030761352 -0.0010378159
-0.002934448 -0.023136422 -0.032700617 -0.03673423 0.05821078 0.020343015 0.042512204 0.03445934
0.07730814 -0.022808746 -0.024305439 -0.048300747 0.07613835 0.1068418 0.02181448 -0.077373385
0.051212516 -0.036702555 -0.02575975 -0.037961494 0.00053624436 0.05285921 0.033529643 -0.09091117
-0.044288028 0.012971479 -0.030499306 -0.007834296 0.10591562 0.00037390794 0.07105828 -0.082367636
0.033664834 -0.014090842 -0.035717014 0.06014368 -0.0043220036 0.047492288 0.11255556 0.038963947
0.04789821 -0.047735214 -0.080741376 -0.06787008 0.09343605 -0.03187082 -0.071549974 -0.08420563
-0.010895517 -0.041809727 -0.014347432 0.07221771 -0.050096855 -0.053275537 -0.04148775 0.085900955
-0.010715517 -0.045099743 0.070659995 0.01311404 0.024906363 0.011290898 -0.04610911 -0.04686119
0.004501517 0.016090943 -0.021758353 -0.07172691 0.06931271 0.087365106 -0.03647549 0.020267341
00000000: 1b04 b63d f37e 923c 9d5e a0bd a25a dd3c
00000010: 48b1 80bd 2b70 18bd 6e66 19ba 3407 113d
00000020: f2dc e7bc 153c 44bd f28f dd3d df0c 5dbd
00000030: d7fa 26bc 4f17 f03d 1520 3f3d d29a b2bd
00000040: 271b 99bc 2f73 b3bc 3085 653d 1109 b53d
00000050: c756 aa3d ef87 7f3d 2daf 953d b235 a53d
00000060: d7aa 233c bc73 ee3b a4a2 a2bd 99e4 b3bc
00000070: 8a4b 243d 6297 cfbc a82e d63c 2d0c c63d
00000080: bd60 0fbd 7611 45bc 4d11 9fbd 51e0 8abc
00000090: 53ac 483d 9b73 8f3b d3da a8bc 48ba a43d
000000a0: 1d16 55bd 8812 843d 865f dd3c 8070 79b4
000000b0: 7749 5dbc 614f 7c3d b9c6 603d 5793 5d3c
000000c0: bd80 323d 4142 133b 4873 66bd b592 50bc
000000d0: ad3e f4bc 900d 833d 5b32 4e3d 2820 3a3c
000000e0: b6ed 6d3d e989 813d 433a bdbd d7db e13c
000000f0: 64af 17bb 13bf 69bd 7bf8 a5bd 52b0 943c
00000100: e50c f6bb 6cce c9bc 1f2e 643d acd5 dd39
00000110: 5b09 683d 4435 6f3d 2cd6 e3ba 09a5 2d3c
00000120: 41f0 b4bd 31b4 95bd 7e04 d3bc 3a28 96bd
00000130: cedf a4bd 75b8 0dbc 2403 2cbb 91a7 93bd
00000140: 2665 93bc cf1a 853d 8b02 9a3d 443e 943d
00000150: 5f2f e03c db33 4dbd 4afb 2d3d cb3e 0fbb
00000160: 14a1 883d aed6 0dbd 2438 843d b24c 99bd
00000170: 952e df3c a047 c4bd 46b8 84bd a408 2dbd
00000180: 77c1 723d efed 303c 5ae7 263d 5c6f 9c3d
00000190: 10df 8abd fdd3 5f3d 9972 70bd 9161 99bd
000001a0: 72c7 ff39 75e2 6bbd 0325 1f3d 12d6 373d
000001b0: 0207 c23c 942c 683c 018a 833d 277b 6dbd
000001c0: 583e 983d f67d 073d a102 873d 745a 3fbd
000001d0: e8e0 83bd 274d 1cbd afcf 32bd 1313 d23d
000001e0: 65a2 2b3d b184 9f3d 125a b9bd eec1 a0bd
000001f0: 8dac 24bc d100 a8bd 4986 743a 7df1 75bd
00000200: 4039 b8bc 2659 d1bc d425 c0bc 2985 bb3d
00000210: 9e13 1cbd dd36 b1bc b684 b13d 0c84 d13d
00000220: c353 613c 3900 0abc 534c 2ebd fc2f e43d
00000230: 37f1 b9bd 4c7c 49bd df1b 9a3c e267 39bc
00000240: 57f8 55bd bc0e 833d 060f 833c a003 0cbd
00000250: dc9e 7abd a49c 4dbd 01d9 ecbb d5dd f63b
00000260: 7673 5b3d bc76 2fbd 6729 bebc 48c7 8c3d
00000270: e3b8 9a3d c8f8 74bd 1032 583d 64fb 22bd
00000280: 64a2 533c 506e 8fbd 858a 44bd 7ef6 47bd
00000290: b6fb 36bd db27 b93d 70ab bc3d 2ae9 9ebd
000002a0: 8706 4f3b 31dc 14bc df77 02bd 81bf 153c
000002b0: f387 64bd 5a2f b33d bb52 37bd 649d 9dba
000002c0: cb95 a7bc c13a a33d 9768 d5bb 06ae 3f3c
000002d0: 2a57 3c3d c8b5 423d 3bff fbbc 5307 88ba
000002e0: de4f 40bb 9888 bdbc 15f1 05bd a276 16bd
000002f0: 6d6e 6e3d 65a6 a63c 4721 2e3d 3d25 0d3d
00000300: bb53 9e3d 68d9 babc 331c c7bc 01d7 45bd
00000310: 6cee 9b3d e0cf da3d 48b4 b23c f075 9ebd
00000320: 37c4 513d 6b55 16bd 1c06 d3bc 837d 1bbd
00000330: c092 0c3a e682 583d 6156 093d a32f babd
00000340: 5d67 35bd 5486 543c aed9 f9bc 6b5b 00bc
00000350: 4aea d83d 1309 c439 0187 913d 5db0 a8bd
00000360: 23e4 093d 46dd 66bc 014c 12bd 3859 763d
00000370: 989f 8dbb 4687 423d 8883 e63d a998 1f3d
00000380: ea30 443d 0086 43bd bc5b a5bd 78ff 8abd
00000390: 665b bf3d fa8a 02bd cb88 92bd 0074 acbd
000003a0: 1c83 32bc ad40 2bbd 7e11 6bbc e1e6 933d
000003b0: 5c32 4dbd 7337 5abd 0fef 29bd d7ec af3d
000003c0: 2390 2fbc 82ba 38bd 30b6 903d 45dc 563c
000003d0: 6e08 cc3c 75fd 383c e8dc 3cbd 85f1 3fbd
000003e0: 7681 933b 27d1 833c 933e b2bc 8fe5 92bd
000003f0: d2f3 8d3d 7aec b23d 5367 15bd b207 a63c

fc.bias f4 [30]
-0.044501986 0.0063437927 -0.07293876 0.02071747 -0.047307894 -0.06608974 0.056870293 0.030441176
0.008359323 0.05049427 -0.027436282 0.051848058 0.041636236 -0.044503104 -0.011895416 -0.043648187
-0.0077875108 0.049630146 0.043289095 0.035089426 -0.083460025 0.0044063474 0.07096821 -0.030484453
0.06708002 0.013135304 -0.066129565 0.041350786 -0.044118203 0.06027532
00000000: b747 36bd 97df cf3b eb60 95bd afb7 a93c
00000010: ecc5 41bd 0f5a 87bd d3f0 683d c65f f93c
00000020: 8bf5 083c 14d3 4e3d 0ec2 e0bc a15e 543d
00000030: c28a 2a3d e348 36bd fee4 42bc 71c8 32bd
00000040: 602e ffbb fb48 4b3d e84f 313d eeb9 0f3d
00000050: 17ed aabd 1f63 903b c857 913d 88ba f9bc
00000060: 4061 893d 7535 573c f06e 87bd 715f 293d
00000070: 4ab5 34bd 41e3 763d
