GWN/best_models/best_model_w30_h5.pth (torch, 300619 bytes, 9 tensors)

adapt_adj f4 [30, 30]
000000 71 40 80 3f 5a b7 01 3b e9 e8 00 3b ad 87 fd 3a
       1.0019666 0.0019793124 0.0019670075 0.0019342803
000010 d4 fa ef 3a 65 a6 f8 3a e1 41 fd 3a d3 02 00 3b
       0.0018309006 0.0018970488 0.0019322002 0.0019532933
000020 21 bb 00 3b d4 52 07 3b 9d d2 0f 3b 26 a0 1b 3b
       0.0019642788 0.0020648735 0.0021945604 0.002374658
000030 24 46 26 3b 56 98 2d 3b 39 1d 31 3b e3 70 38 3b
       0.0025371397 0.0026488504 0.0027025475 0.0028143458
000040 ef 20 42 3b de 8f 45 3b 08 48 49 3b c5 70 52 3b
       0.002962168 0.0030145566 0.00307131 0.0032110673
000050 2e d2 5c 3b 83 10 65 3b e5 5c 6d 3b 38 e0 71 3b
       0.0033694613 0.0034952469 0.00362187 0.0036907326
000060 c6 43 7d 3b b2 b2 85 3b b0 24 8f 3b 98 a1 97 3b
       0.0038645132 0.00408014 0.004368387 0.004627418
000070 51 a0 9e 3b 22 a4 af 3b f9 45 02 3b 55 41 80 3f
       0.0048408885 0.0053601423 0.0019878133 1.0019938
000080 e4 e7 01 3b e7 39 00 3b 1a 32 f2 3a fa 9a fa 3a
       0.0019822055 0.0019565762 0.0018478066 0.0019119673
000090 2f 86 ff 3a 73 22 01 3b 0c 0f 02 3b 76 68 08 3b
       0.0019494946 0.0019704371 0.0019845394 0.0020814217
0000a0 16 e2 10 3b 39 e1 1c 3b 69 6e 27 3b 21 89 2e 3b
       0.0022107414 0.0023937954 0.0025547987 0.0026632028
0000b0 3c d7 31 3b 29 2f 39 3b 91 2c 43 3b 22 7b 46 3b
       0.0027136346 0.002825687 0.0029781202 0.0030285795
0000c0 2c 05 4a 3b 81 16 53 3b 0f 6d 5d 3b ab a7 65 3b
       0.0030825837 0.0032209458 0.0033786928 0.0035042565
0000d0 ae 1c 6e 3b e2 ac 72 3b 90 e9 7d 3b ba 2f 86 3b
       0.0036333012 0.0037029316 0.003874395 0.004095045
0000e0 8d d3 8f 3b 0f 39 98 3b 26 5a 9f 3b c8 4e b0 3b
       0.0043892325 0.004645474 0.0048630415 0.005380485
0000f0 7b 83 04 3b 82 ac 04 3b 7f 41 80 3f a9 ce 00 3b
       0.002021997 0.0020244424 1.0019988 0.001965443
000100 a3 04 f4 3a a3 6f fc 3a 0f a8 00 3b 0a d6 01 3b
       0.0018617105 0.0019259345 0.001963142 0.0019811415
000110 1c 94 02 3b 22 e2 08 3b 8b 1c 11 3b ea 4c 1d 3b
       0.0019924706 0.0020886739 0.0022142257 0.0024002143
000120 ab f7 27 3b 39 4e 2f 3b 7f e2 32 3b 29 1d 3a 3b
       0.00256298 0.0026749505 0.0027295647 0.0028398728
000130 db 0e 44 3b 33 ac 47 3b c1 02 4b 3b d3 01 54 3b
       0.002991608 0.003046763 0.0030976983 0.003234972
000140 78 80 5e 3b ee 9f 66 3b 58 bb 6e 3b 20 87 73 3b
       0.0033951085 0.003519054 0.0036427584 0.0037159398
000150 60 1d 7f 3b ab a7 86 3b 69 77 90 3b 5a cf 98 3b
       0.003892742 0.004109343 0.004408766 0.00466339
000160 32 d4 9f 3b ad dd b0 3b aa e8 00 3b a2 4c 01 3b
       0.0048775906 0.0053975196 0.0019669929 0.0019729515
000170 ac 04 ff 3a 1b 3e 80 3f 27 99 ea 3a 7b 58 f2 3a
       0.0019456348 1.0018953 0.0017898426 0.0018489504
000180 58 fb f6 3a 78 a2 f9 3a d6 1e fb 3a 77 d1 03 3b
       0.0018843217 0.0019045612 0.001915897 0.0020113864
000190 83 fe 0b 3b c1 27 18 3b 54 c7 22 3b 3d fe 29 3b
       0.0021361418 0.0023217055 0.0024838047 0.0025938891
0001a0 55 7b 2d 3b 68 a7 34 3b 1f a9 3e 3b 12 2b 42 3b
       0.0026471217 0.0027565602 0.0029092503 0.0029627723
0001b0 5e b6 45 3b 1f 91 4e 3b ed c9 58 3b aa fa 60 3b
       0.0030168514 0.0031519604 0.0033079342 0.0034329095
0001c0 4f 66 69 3b 0a fb 6d 3b e3 2d 79 3b 68 bf 83 3b
       0.003561396 0.003631296 0.0038021735 0.00402062
0001d0 0a 62 8d 3b 68 d5 95 3b 69 d8 9c 3b 17 cf ad 3b
       0.0043146657 0.004572559 0.0047865403 0.005304228
0001e0 8d 30 02 3b 97 58 02 3b 3b af 00 3b 77 92 fb 3a
       0.0019865364 0.001988923 0.0019635695 0.001919343
0001f0 30 3b 80 3f be 07 f5 3a 71 15 fa 3a 41 ac fc 3a
       1.0018063 0.0018694324 0.0019079876 0.001927741
000200 16 ae fd 3a 31 14 05 3b a0 0b 0d 3b a6 ef 18 3b
       0.001935425 0.0020306224 0.0021521822 0.00233362
000210 e1 ca 23 3b ae 0b 2b 3b 17 5e 2e 3b 74 d4 35 3b
       0.0024992751 0.002609949 0.0026606375 0.002774504
000220 2d c4 3f 3b 37 31 43 3b 71 f0 46 3b ef b7 4f 3b
       0.0029261217 0.0029783973 0.0030355717 0.0031695326
000230 9f ea 59 3b e8 fb 61 3b 5f 42 6a 3b 90 f8 6e 3b
       0.0033251417 0.0034482423 0.0035745127 0.0036464073
000240 ee 14 7a 3b 5b 2d 84 3b 15 bc 8d 3b 10 23 96 3b
       0.0038159448 0.004033727 0.0043253996 0.0045818165
000250 cf 50 9d 3b 3b 58 ae 3b cb be 03 3b ea 06 04 3b
       0.004800893 0.0053205765 0.0020102735 0.0020145723
000260 ea 39 02 3b a2 39 fe 3a 9c 5e ef 3a 59 3d 80 3f
       0.0019870945 0.0019395838 0.0018262449 1.0018722
000270 5f 40 fa 3a ba f6 fc 3a 43 19 fe 3a d7 79 05 3b
       0.001909267 0.0019299604 0.0019386191 0.0020366812
000280 6e 40 0d 3b dd 17 19 3b e2 8e 23 3b 40 88 2a 3b
       0.0021553296 0.002336017 0.002495699 0.0026021153
000290 30 bc 2d 3b 44 45 35 3b df 0e 3f 3b 9e 95 42 3b
       0.0026509874 0.0027659694 0.002915315 0.002969123
0002a0 cf a1 46 3b 13 a2 4f 3b 2b d3 59 3b 0c 43 62 3b
       0.0030308848 0.0031682297 0.0033237438 0.0034524826
0002b0 71 28 6a 3b cc 71 6e 3b 68 0e 79 3b 77 c8 83 3b
       0.0035729671 0.0036383746 0.0038002972 0.0040217
0002c0 a9 6e 8d 3b e1 e7 95 3b a7 1d 9d 3b 1b 39 ae 3b
       0.0043161702 0.0045747613 0.0047947946 0.005316866
0002d0 7f 6e 06 3b 95 8c 06 3b ee de 04 3b 46 cd 01 3b
       0.0020512638 0.002053057 0.0020274478 0.001980619
0002e0 83 30 f4 3a b1 27 fa 3a 53 3f 80 3f e7 e2 ff 3a
       0.001863018 0.0019085315 1.0019325 0.0019522578
0002f0 56 77 00 3b 94 b0 06 3b 11 91 0e 3b b0 22 1a 3b
       0.001960238 0.0020552026 0.0021753947 0.002351921
000300 67 88 24 3b 8f 72 2b 3b 07 f8 2e 3b 4f 93 36 3b
       0.0025105716 0.0026160812 0.0026698129 0.00278588
000310 59 97 40 3b 0e 52 44 3b 27 46 48 3b 0c 5f 51 3b
       0.0029387085 0.0029956135 0.0030559392 0.0031947521
000320 27 e4 5b 3b 3b 27 64 3b 34 6a 6c 3b dd c9 70 3b
       0.0033552737 0.0034813422 0.0036074044 0.0036741414
000330 ff a7 7b 3b e8 f2 84 3b e2 a4 8e 3b 19 0a 97 3b
       0.0038399694 0.004057277 0.0043531517 0.004609358
000340 e8 55 9e 3b c9 6b af 3b 64 cf 01 3b 3c da 01 3b
       0.004832018 0.005353425 0.0019807452 0.0019813916
000350 a0 c9 ff 3a 4d cd f9 3a 60 8f ea 3a 93 c0 f0 3a
       0.0019515045 0.0019058377 0.0017895512 0.0018367938
000360 b4 b5 f4 3a 74 3d 80 3f ed 4e f7 3a 4e 7b 01 3b
       0.0018669874 1.0018754 0.0018868126 0.0019757333
000370 51 2e 09 3b 1d e2 14 3b b5 7f 1f 3b 28 36 26 3b
       0.0020932148 0.0022717782 0.0024337594 0.002536187
000380 e5 c4 29 3b 81 2f 31 3b c4 28 3b 3b fa 99 3e 3b
       0.0025904712 0.0027036371 0.0028558234 0.0029083476
000390 9f c4 42 3b 7c 70 4b 3b aa f4 55 3b 26 37 5e 3b
       0.0029719246 0.0031042388 0.0032647052 0.0033907383
0003a0 24 8f 66 3b d3 d1 6a 3b 05 c5 75 3b 38 dc 81 3b
       0.0035180533 0.0035830631 0.0037501466 0.0039630197
0003b0 c5 7f 8b 3b 88 c6 93 3b 13 ea 9a 3b ce de ab 3b
       0.0042571747 0.0045097508 0.004727611 0.0052450662
0003c0 f1 ce 02 3b ce bd 02 3b 4d c4 00 3b e6 3a fb 3a
       0.0019959772 0.0019949558 0.0019648254 0.0019167333
0003d0 70 02 ec 3a cc 14 f2 3a 9f ae f5 3a ad 22 f7 3a
       0.0018006098 0.0018469333 0.0018744058 0.0018854939
0003e0 c9 3d 80 3f a7 74 01 3b b2 94 09 3b c1 67 15 3b
       1.0018855 0.0019753368 0.002099317 0.0022797438
0003f0 5d 2f 20 3b 17 2d 27 3b cd 90 2a 3b 8d 5c 32 3b
       0.0024442293 0.0025509053 0.002602625 0.002721581

gc1.fc.weight f4 [128, 30]
000000 18 d8 db 3c 4a d0 e8 3d ec 1d cd bd 61 b7 94 bd
       0.02683644 0.11367853 -0.10015473 -0.07261539
000010 e2 59 1a be 35 17 1e 3e b4 58 d5 bd 86 f9 6d 3d
       -0.1507335 0.1543854 -0.104173094 0.058099292
000020 7e fc 95 bc c8 ad ea bb d9 66 37 3d 17 e9 dd 3d
       -0.018308874 -0.0071618296 0.044775818 0.10835474
000030 83 4d 9e 3d b3 e1 ee 3d 05 f0 97 bd d0 02 86 bd
       0.07729628 0.116641425 -0.07418827 -0.06543505
000040 b5 a6 07 be ae da 08 be fb 73 ae bd a6 8d 7d 3c
       -0.13247187 -0.1336467 -0.08518215 0.015475666
000050 4f 98 8f ba 45 f9 ce bd ed 0f fc 3d da d2 c8 3c
       -0.0010955426 -0.10106138 0.12307725 0.024514604
000060 a7 81 d9 3d 5f e5 25 be 69 26 55 3d 0e ce e8 3d
       0.10620432 -0.1620078 0.052038584 0.11367427
000070 c4 43 2c 3e bb 01 9f bc b1 45 0e be eb 32 bc bd
       0.16822726 -0.019410005 -0.13893773 -0.09189399
000080 68 ee 1d be 64 10 30 be 53 5b 21 be 70 9f d7 3d
       -0.15422976 -0.17193753 -0.15757494 0.10528457
000090 93 72 4b 3d ed 25 3b 3e 91 94 e0 bd be 24 9a 3d
       0.049669813 0.18276186 -0.10965837 0.07526539
0000a0 08 82 a9 3d 7f d7 a9 bd eb 48 93 bc c4 48 1c be
       0.082767546 -0.08293056 -0.017979106 -0.15262133
0000b0 53 d5 b3 3d 01 a8 66 bd ef b2 c8 3c c5 24 15 3e
       0.08780923 -0.056312565 0.024499385 0.14564808
0000c0 32 82 48 bd 5a 0c 76 bd 94 8d ce 3d 44 4a dd 3d
       -0.04895229 -0.060070373 0.10085598 0.10805181
0000d0 b2 a2 00 3e 94 d0 83 3d 58 b3 ef bd 3d e0 46 3d
       0.12562063 0.064362675 -0.11704129 0.048553694
0000e0 a3 7c 49 3d 08 df 94 3d 8a b5 85 3d 6c 70 ce bc
       0.04919113 0.07269102 0.065287665 -0.025200091
0000f0 62 77 b6 3d 4c 1b d0 3c 2e ab 00 3c a0 df 41 bd
       0.08909489 0.025403641 0.007853312 -0.047332406
000100 8a 39 92 bd 58 9c 16 3e 46 87 0f 3d ea 19 2f 3d
       -0.07139881 0.14708078 0.035041116 0.042749323
000110 a1 64 6b 3c 31 4b f6 bd d7 ac e4 bd 78 98 1b be
       0.0143672535 -0.120260604 -0.11165779 -0.15194881
000120 ea 4d 7b 3d 33 30 b8 3c 5d 2f ec 3d c6 3c 14 3e
       0.0613536 0.02248392 0.11532471 0.14476308
000130 e4 c1 8a 3d 82 73 b5 3c cd 94 0f 3d 70 13 dc 3d
       0.06775263 0.022149805 0.035054017 0.10745895
000140 f5 6d d0 3d b9 66 bf 3d ef 37 d7 bd ee bc 32 3e
       0.10177223 0.09345765 -0.10508715 0.17454883
000150 74 a4 39 3d 53 11 f0 3d b5 9e c5 bd dd 73 06 3e
       0.04532285 0.11722054 -0.096494116 0.13130136
000160 a5 2f 32 3e 22 30 25 bd 37 ce 91 bd 83 27 fe bd
       0.17400987 -0.040329106 -0.071194105 -0.1240988
000170 68 73 21 be 31 a1 02 3e 57 1c 08 be c4 bb 79 3d
       -0.1576668 0.12756802 -0.13292061 0.060970083
000180 ac c3 a6 bd 98 14 d8 3d 4f be 1c be c3 b4 ce bd
       -0.0814279 0.10550803 -0.15306972 -0.10093071
000190 67 3b 21 3e 45 f8 ee bd 1b 95 36 bc 71 3a 85 bd
       0.15745316 -0.116684474 -0.011143948 -0.065052874
0001a0 aa ca 7b bd 05 0c 0b be 59 2c f3 bd 9e a8 c4 bc
       -0.061472572 -0.13578804 -0.11873693 -0.024006184
0001b0 b7 b6 66 bd 63 0d dc 3d 3c 1f c7 bd 3b b3 c1 3d
       -0.056326594 0.10744741 -0.09722754 0.094580136
0001c0 d9 76 93 bd 9e 88 2d be 42 6c c4 bd f4 0a c1 bd
       -0.07200403 -0.16946647 -0.09590961 -0.09425917
0001d0 67 77 93 bd 08 85 80 bd 44 29 01 be bc 8c 14 3e
       -0.072005086 -0.06275374 -0.12613398 0.14506811
0001e0 eb c5 1e 3d dd 3f 55 bd 7c 22 6b bd 2f ba af 3d
       0.038762968 -0.052062858 -0.057405934 0.085804336
0001f0 bd 4b e9 bc b9 b8 02 3e a8 a5 2e bc da 43 c3 3d
       -0.028478498 0.12765779 -0.010659613 0.09534426
000200 3b 94 6f bd 56 6d a4 bd 64 90 3e 3e 72 ef 10 bc
       -0.058490973 -0.08028667 0.18609768 -0.008846151
000210 c9 96 e7 3d bd 0f f5 bd e6 f5 09 3e 91 da ad 3d
       0.11308057 -0.119658925 0.13472709 0.08488954
000220 1c 67 fe bc 64 a2 9c bd e6 a0 01 3e 0d 16 6d bd
       -0.031055026 -0.07648161 0.12659034 -0.057882357
000230 76 3b 29 3e 98 36 b7 bd 54 72 71 3d 90 29 91 bd
       0.16526589 -0.0894596 0.058946922 -0.070880055
000240 f1 cd 0a 3c 43 fa aa bb d7 96 c1 3d 2a f5 2d 3e
       0.008471952 -0.005217822 0.094525985 0.16988054
000250 c1 56 20 be 1e 48 22 bd 4a ca 0a 3e 22 9d 14 be
       -0.15658094 -0.039619558 0.1355373 -0.14513066
000260 c6 25 da 3d f1 c3 31 be 84 ef 32 be b6 48 dd 3d
       0.10651736 -0.17359902 -0.1747418 0.10804884
000270 45 42 17 be c6 59 b5 3c 18 84 c1 bd 18 c3 65 bd
       -0.14771374 0.022137534 -0.09449023 -0.05609426
000280 45 7a 0a 3e a2 a7 3d bd 63 2d 36 3e 2c 69 8d 3d
       0.13523205 -0.046302445 0.17790751 0.069048256
000290 8b dd 3f 3d ac 4b a7 bd ac 0b 18 3e ae 1c bf 3d
       0.04684214 -0.0816873 0.14848202 0.09331642
0002a0 fa fa 0b 3e 91 7c 91 3d 89 b6 2e 3e 24 d9 c0 3d
       0.13669959 0.07103837 0.17061819 0.09416416
0002b0 91 29 d9 3c 21 c6 17 3d eb ff 17 3d 17 a2 75 3d
       0.026509078 0.037054185 0.037109297 0.059969034
0002c0 3d 5f 02 be 4f 83 af bd 7a b1 c3 3d ee 6a cf bd
       -0.12731643 -0.08569967 0.09555335 -0.10127817
0002d0 76 af 2a 3e b5 ae bd bd 97 04 d2 3c 65 24 86 3d
       0.16668496 -0.09261838 0.025636954 0.065499105
0002e0 06 d8 1f be fc bd fe bd d0 9b 82 3d 85 f3 0d be
       -0.1560975 -0.124385804 0.06377375 -0.13862427
0002f0 07 b9 e4 3b 5e 4c 20 3d 81 5e 94 3c d8 f8 ea 3d
       0.006980065 0.03913533 0.01811147 0.114732444
000300 42 04 ca bd cd 6b fd 3d 84 d2 ed 3d bf 98 25 3e
       -0.09864093 0.12374077 0.11612418 0.1617155
000310 5a 1c c3 3c 83 91 2b 3e 85 55 14 be 0a 3b 00 bd
       0.02381723 0.16754727 -0.14485748 -0.031306304
000320 ae 3f fc 3d 66 25 61 bd 67 28 81 bd f2 74 1e 3d
       0.123168334 -0.054967307 -0.06306534 0.038685746
000330 61 c6 70 bd 60 e9 b6 3d 05 c6 41 bb f4 4c 0f 3e
       -0.05878294 0.089312315 -0.0029567492 0.13994199
000340 49 e0 db 3b e0 e1 93 bd af 30 db 3d cb cb 18 be
       0.0067100865 -0.072208166 0.10702645 -0.14921491
000350 ad d3 9f bc 8f 5e 1c 3e dc d6 ad bd 9f 86 91 bc
       -0.019510115 0.15270446 -0.08488247 -0.017764388
000360 2f 6e 01 3e 9d e1 36 3d 92 c6 dd bb 4d c3 cb bd
       0.12639688 0.044648755 -0.006768056 -0.0994936
000370 c5 da d4 bd 3a 44 21 3e a9 6e de bd 42 8a 37 be
       -0.103932895 0.15748683 -0.108609505 -0.17923835
000380 1b ec ed bd 42 09 0d be e4 b3 e8 bd 97 9b 37 bd
       -0.11617299 -0.13773063 -0.113624364 -0.044826116
000390 78 43 0f be 10 81 58 bd de 56 03 3d 53 be 4c bd
       -0.13990581 -0.05285746 0.032065265 -0.049986195
0003a0 7a ce 17 be bf 4c 21 be d4 52 23 be 25 03 f6 bc
       -0.14824858 -0.15751933 -0.15949565 -0.030030796
0003b0 ae 4d 1e 3e f8 27 08 3e 47 5d ac 3c 58 77 3d be
       0.1545932 0.13296497 0.021040572 -0.18502557
0003c0 33 f4 c0 3c cc 47 48 bd ea 45 86 3d 06 a3 85 bd
       0.023553943 -0.048896596 0.06556304 -0.06525235
0003d0 ab 2c 3e be fd 2e 10 be b8 17 5d 3e e5 1f b7 bb
       -0.18571727 -0.14080425 0.21591079 -0.005588519
0003e0 56 4c c8 3d 04 3d 98 bd cc 06 e9 bd 3d fb a7 3b
       0.09780185 -0.07433513 -0.113782495 0.0051263855
0003f0 2a d6 a7 bd ea d1 c1 bd dd db 01 3d 89 8e 06 3e
       -0.081951454 -0.09463866 0.03170382 0.1314031

gc1.fc.bias f4 [128]
000000 65 57 b7 3d 4d dc f6 bd d7 2e 3e be 6e 4b 0c bd
       0.08952216 -0.12053738 -0.18572555 -0.034251623
000010 59 93 df bc 5e 09 b6 3d 10 ed 14 3e 1a b4 a0 bd
       -0.02729194 0.088885054 0.14543557 -0.07846852
000020 37 dc 15 3e 31 dc c7 bb 35 a6 d4 3d 6a 14 dc bd
       0.14634787 -0.006099247 0.10383264 -0.10746081
000030 b0 7b cc 3d c0 b8 8c bd aa 85 11 3d b7 f0 a1 bd
       0.09984529 -0.06871176 0.035527863 -0.07907241
000040 fd 40 a3 3d ac 0d fe bd 98 20 57 3d 67 4a 86 3b
       0.0797138 -0.124049515 0.05252132 0.004098225
000050 6b 21 19 3e c3 5d 08 3e 2b 66 19 3e 5a dc 56 bd
       0.14954154 0.13317017 0.1498038 -0.052456237
000060 83 04 2c bd af 47 40 bd d0 6c 64 3d 66 1e b1 bd
       -0.04199649 -0.046943363 0.055767834 -0.08648376
000070 05 5f 05 3e 6e df 5a 3d e6 62 91 bc 9d ca a0 3d
       0.13024528 0.053435735 -0.017747354 0.078511454
000080 86 34 05 be 38 b5 c2 bd c0 bc 89 3d 5c c8 03 be
       -0.13008317 -0.09507221 0.06725454 -0.128694
000090 18 ab 34 3d ef ff e0 bc 45 c1 f3 bd 4e f7 09 be
       0.04410848 -0.027465789 -0.119020976 -0.13473246
0000a0 18 59 ad bd 9d 88 fb 3c 1f ee df bd b0 09 a0 bc
       -0.08464259 0.03070479 -0.1093409 -0.01953587
0000b0 d1 51 89 bd b5 2c 34 be c3 97 b6 3d 6e 95 d4 bd
       -0.06705058 -0.1759518 0.08915665 -0.10380064
0000c0 51 a2 bb bd 34 e1 12 be c7 b2 48 bd e6 ee a3 bc
       -0.09161819 -0.1434372 -0.04899862 -0.020011377
0000d0 c5 c3 16 3e 04 1d 03 3e 4e 77 29 be 95 90 51 bd
       0.14723118 0.12804037 -0.16549417 -0.051163275
0000e0 34 a4 88 3c 94 b0 0f 3e 6c b2 9e bd 51 8c ad 3d
       0.01667986 0.14032203 -0.07748875 0.08474029
0000f0 4b b0 9b 3d 88 2f bb 3d b9 53 2c bc 68 ce ea bd
       0.076019846 0.09139925 -0.010518008 -0.1146515
000100 2e 2e da bd b9 19 16 be a1 ee d2 bc de c2 80 bd
       -0.10653339 -0.1465825 -0.025748553 -0.06287168
000110 f5 db 94 bd bc 1d 38 3e 42 74 26 be fd 34 0f 3e
       -0.07268516 0.17980093 -0.16255286 0.13985057
000120 aa 14 8c 3c cf 05 3e bd 7f cc 29 bd 68 36 0f 3d
       0.017099697 -0.04639226 -0.04145479 0.034963995
000130 cb 3a e9 3d 10 0f a4 3c be 44 33 be fd 8e a4 3d
       0.11388167 0.020026714 -0.17506692 0.08035085
000140 59 75 e0 bc 34 b0 32 bb 07 4a ee bd 78 9e 19 be
       -0.027399706 -0.002726567 -0.11635213 -0.15001857
000150 1c 9a 83 3d e7 c4 d2 3d 0e 5a b9 3c 12 03 27 3e
       0.064258784 0.102914624 0.02262595 0.16309765
000160 3d ff f0 bc d7 d7 b7 bd 3a b2 0f 3e 03 60 3f 3e
       -0.029418582 -0.08976715 0.14032832 0.1868897
000170 df 06 2e be 35 b5 d1 3d 93 16 16 bc bf 96 a6 3d
       -0.16994809 0.102396406 -0.009160656 0.08134221
000180 f4 7a dd bd bd 5a 7a bd 79 8f 21 3d ed d6 bd 3d
       -0.10814467 -0.06112169 0.039443467 0.092695095
000190 8d 9b 0a 3d 9c 8b 42 3d f5 dc 36 be 2b c1 f5 3d
       0.03383975 0.047496423 -0.17857726 0.119997345
0001a0 e5 c8 16 3e 08 89 ce 3d 8f 1c d1 bd eb fa 1f 3e
       0.14725073 0.100847304 -0.10210525 0.15623061
0001b0 12 8f df 3c 1e df 40 3e df e1 f4 bd c0 35 50 3d
       0.0272899 0.18835112 -0.11957144 0.05083251
0001c0 0a af 00 3d 0d 55 e2 bc 1d a5 35 3c 9a aa 0b 3e
       0.03141693 -0.027628446 0.011086729 0.13639298
0001d0 05 e0 c4 3d 84 07 b7 bc 77 b5 17 3e ae ee e1 bc
       0.09613041 -0.02234245 0.14815317 -0.027579632
0001e0 7b 2f 6a 3d 77 87 fc 3c 07 2e 80 3d 06 9a 09 be
       0.057174187 0.030826313 0.06258779 -0.13437662
0001f0 da 4d 9b bd 73 46 21 3e bc 06 e1 3d 1a a8 5b 3d
       -0.075832084 0.1574953 0.109876126 0.05362711

gc2.fc.weight f4 [128, 128]
000000 61 32 b9 3d f0 50 8d bd 98 ac 77 bd 18 b6 ef bd
       0.09042812 -0.06900203 -0.060467333 -0.117046535
000010 20 1b 65 3c bb d0 10 bd 61 59 05 bd f9 0a 87 bd
       0.013983518 -0.03535531 -0.03255594 -0.0659389
000020 3d 19 56 bd 5b 6c 69 bd 0f 9b 87 bd dc 97 dc bc
       -0.052270163 -0.0569881 -0.06621372 -0.026927881
000030 48 20 1d 3c 86 d6 01 bd 87 35 1c bd a2 dc 65 bd
       0.009590216 -0.031698726 -0.038136985 -0.056118615
000040 be ee 85 bc bf 10 09 bd 29 3e 59 bd ad 2a e1 3c
       -0.016349193 -0.033463236 -0.053037796 0.02748617
000050 cd f8 56 bd dd 8a 73 3c 88 b2 a6 3b 29 f7 8f 3c
       -0.05248337 0.014864651 0.0050872006 0.01757391
000060 db 24 db 3c 28 68 5b 3c 50 a4 75 bd 3a 63 89 3d
       0.026750972 0.013391532 -0.059971154 0.06708379
000070 20 c5 a4 bd b6 7a 78 3d 5d d8 54 3d c3 0d 00 bd
       -0.08045411 0.0606639 0.051964153 -0.031263124
000080 86 b1 81 bd c7 7e a1 bd 70 81 9e 3d 26 8f 89 bc
       -0.06332688 -0.07885509 0.07739532 -0.016791891
000090 db d7 50 bc 2a 0d a2 3d 3f cc c3 bd c6 cb 73 3d
       -0.012746776 0.07912667 -0.09560441 0.059520505
0000a0 97 75 7c 3d e6 04 1f bc 79 59 27 bd d7 65 9d bd
       0.06163558 -0.009705758 -0.040856812 -0.0768544
0000b0 d0 82 7d 3b d6 c4 80 bd 14 84 9e 3c 01 bd 79 3d
       0.0038682707 -0.062875435 0.01935009 0.060971264
0000c0 51 d7 a7 bd 8e c1 61 3d 23 57 9d 3d 7a 3e 46 bd
       -0.08195365 0.05511623 0.07682636 -0.048399426
0000d0 f0 00 27 bd 91 c6 9f bd 82 5c be bd c9 ec 3e bd
       -0.04077238 -0.078015454 -0.09294988 -0.046612535
0000e0 ae dd 91 3d cc e5 02 bd d3 33 3d 3d 74 7f 85 bd
       0.0712236 -0.031957433 0.046192 -0.065184504
0000f0 a5 47 cb 3c b9 ec 93 bd 91 8a 1a 3d e9 cf ae 3d
       0.024814436 -0.07222886 0.037729803 0.085357495
000100 56 eb 58 3d 5f 72 a7 3d 0f e3 23 bd 6a ce c4 3d
       0.05295881 0.081761114 -0.04001146 0.09609683
000110 a2 61 9e bd f8 0b 9f 3d 56 fe 00 3c dc 51 5f bd
       -0.07733466 0.07765955 0.007873138 -0.054521427
000120 5f 7a 4f 3d 26 e5 d3 3c 21 2d 90 bd 0d 9e a2 3d
       0.05065381 0.025866102 -0.07039858 0.07940302
000130 af 2f 12 bd fa 0e bb bd 6c 2c 6b bd 5c 2f 41 bd
       -0.035690006 -0.09133716 -0.05741541 -0.047164306
000140 df 6e 83 bc c6 09 b7 bd 1d a7 9f bd 8e e4 a1 3c
       -0.016044078 -0.08937411 -0.07795546 0.019762304
000150 d7 4d ab 3c 05 33 d0 3d 7a 15 03 bd be b0 01 3d
       0.02091114 0.10165981 -0.032002904 0.031662695
000160 07 7a ec bc 27 5b c2 3d ad e2 88 3c 73 d6 e1 bc
       -0.02886678 0.09490042 0.01670965 -0.027568078
000170 9a 48 f5 bc 85 e1 19 3d b4 f3 19 bb f5 7b d5 3c
       -0.029941846 0.037568588 -0.0023491206 0.026060084
000180 e0 08 95 3d 34 8c c1 3d fb ee b0 3d ae 85 a7 3d
       0.072770834 0.0945057 0.08639332 0.08179794
000190 f5 32 c2 ba 87 13 ce 3d f6 37 67 bc c8 48 1d ba
       -0.0014816212 0.10062318 -0.014112463 -0.000599992
0001a0 1e 86 9b 3d c6 f6 8d bd 62 bb 56 3d 87 93 b0 3d
       0.0759394 -0.06931834 0.052424796 0.086218886
0001b0 6a 0f 66 bd c3 12 9b bd 84 c6 18 bd 6d c8 91 bd
       -0.056167044 -0.07571938 -0.037298694 -0.07118306
0001c0 af 8e f3 3d ea f3 12 3c 8f d1 9c bd 47 7e 8a 3d
       0.11892449 0.008969286 -0.07657158 0.06762367
0001d0 be ca 4c 3d 38 2a 83 bd 16 78 b2 bc c1 04 2d bc
       0.049998038 -0.06404537 -0.021785777 -0.010560215
0001e0 79 37 6f 3c d0 b4 1e 3d aa c2 34 bd cd fb 45 3d
       0.014600628 0.038746655 -0.04413096 0.04833584
0001f0 74 09 09 bd 91 ae b6 3d 32 63 c6 bd 90 39 ae 3d
       -0.03345628 0.08920015 -0.09686889 0.08507073
000200 33 6e 47 3c 67 9f 8a 3c eb 7d a3 3a ba b3 d2 bd
       0.01217227 0.016921712 0.001247344 -0.10288186
000210 1f df 24 3d 13 62 6c 3c a8 3c 06 bd 86 31 2e bb
       0.040251847 0.01442768 -0.03277269 -0.0026579811
000220 c5 ea ff bc 8d d1 55 3d f5 a9 76 3d f0 61 88 bc
       -0.031239877 0.052201796 0.060220677 -0.016648263
000230 09 07 09 3c 4d 45 ad bd 7e 04 81 3b 10 b4 31 bd
       0.008363494 -0.08460484 0.003937303 -0.04338461
000240 5a 79 79 3d 6d 08 05 bd 32 b2 c2 3d b0 3b 14 bc
       0.060906745 -0.03247874 0.09506644 -0.009047434
000250 7b 24 4a 3d 02 16 15 bb 06 79 8f bd 94 60 57 3d
       0.049351197 -0.0022748713 -0.07005505 0.05258234
000260 c7 0d 79 bc 35 db 90 3d 6d a0 2c 3d 14 52 a6 bc
       -0.015201039 0.070730604 0.04214518 -0.02030281
000270 ce 74 8e bd 03 25 9c 3d a7 93 bb 3d 01 19 81 3c
       -0.069558725 0.07624247 0.09159022 0.015758993
000280 d2 91 9b bc c4 aa 8d bd 2a 16 88 bd c3 7f 97 bd
       -0.018990431 -0.069173366 -0.066448525 -0.073974155
000290 c3 1a d1 3c a4 46 a9 bd af 9e 4f 3c c4 62 73 bd
       0.025525456 -0.08265427 0.01267211 -0.059420362
0002a0 8c 96 0f 3d 15 40 ce bc e6 b3 a8 3c e3 19 5d bd
       0.035055682 -0.025177041 0.020593595 -0.053979766
0002b0 31 ec 38 bd e0 4c 8c 3b cc 40 17 bd f5 73 b5 3d
       -0.045147125 0.004281625 -0.03692703 0.08860008
0002c0 85 54 9b bd 16 89 c6 bd 83 27 29 bd 8f 17 0e 3d
       -0.0758448 -0.09694116 -0.041297447 0.034690436
0002d0 2a d4 82 3d 00 8f 7c 3d a5 6e 59 bd 2e 8c b9 bc
       0.06388123 0.061659813 -0.053084034 -0.02264985
0002e0 3c d7 83 3d b3 45 4d bc ef f5 41 bc c9 98 fc 3a
       0.06437537 -0.012528825 -0.01183842 0.0019271608
0002f0 4e b8 af 3d a5 3b 6c bd 4a 8a 01 3d 26 56 b9 bc
       0.08580075 -0.05767407 0.031626023 -0.022624087
000300 8e b6 08 bd 16 8d 33 3d 52 3b 2b 3d 4b b8 07 3d
       -0.033377223 0.043835722 0.04180462 0.03313474
000310 18 a2 ef 3a fb 43 b1 3d 00 aa b9 ba c1 66 0d 3d
       0.0018282561 0.08655544 -0.0014165044 0.034521822
000320 8c d1 4a 3d a4 56 4b 3c c4 1f 91 bd 54 64 98 3d
       0.049516246 0.012410793 -0.07086137 0.07441011
000330 64 db 93 bd f5 9a db 3c c5 49 8e bd 0a 65 84 3d
       -0.0721958 0.026807288 -0.06947664 0.06464584
000340 c8 b8 78 3c 1c 7c cb 3c 2a 80 08 3d 9f 25 93 3d
       0.015180774 0.024839453 0.03332535 0.0718491
000350 af 37 3d 3d 3b 27 8f 3d 71 bb 96 3d 41 97 26 bd
       0.046195682 0.069899045 0.0735997 -0.04067159
000360 fe de 4f 3d 09 b2 1f 3a e2 bc a6 3d 3c ec a2 3d
       0.05074977 0.0006091898 0.08141495 0.079552144
000370 f8 6d 4c bd 2e 4f 5a bd 9f 91 a0 bd 7c e7 b9 3c
       -0.049909562 -0.053298168 -0.07840275 0.022693388
000380 68 9a a3 bc ca eb a7 bc 0a da 81 bd ad d6 37 bd
       -0.019971088 -0.020498175 -0.06340416 -0.044882465
000390 1c 79 33 3d 66 9b 5e 3b 53 0f cc 3d 1d 51 8e 3d
       0.04381667 0.0033967136 0.0996386 0.06949065
0003a0 4c 06 8d 3d 35 84 a1 3d 8a 24 40 bd 13 3b e2 3c
       0.06885967 0.078865446 -0.046909846 0.02761606
0003b0 b1 05 2d 3d 0b cb 5c bd 73 16 5b 3b 9d 75 19 bd
       0.042241756 -0.053904574 0.0033430129 -0.03746568
0003c0 43 2e c4 3b ac a7 89 bd f9 be b1 3d 60 b5 8e bd
       0.00598696 -0.06721434 0.08679003 -0.06968188
0003d0 e6 0b d5 bd ed 70 af bc 11 6b 1b 3c da d2 a3 bd
       -0.1040266 -0.021416152 0.009485976 -0.07999201
0003e0 57 d0 ff bc 4d 3b 0c bd 6e 16 fd 3c d1 84 9e bd
       -0.031227274 -0.03423624 0.030894484 -0.077401765
0003f0 04 63 a1 3c 70 d5 b3 bd 77 56 01 bd 60 07 c3 3d
       0.019700535 -0.08780944 -0.0315766 0.09522891

gc2.fc.bias f4 [128]
000000 c3 d3 b9 3d e0 c6 31 3d b5 9e 9b bc 4c e4 07 3d
       0.090735935 0.043402553 -0.018996576 0.033176705
000010 37 8d 18 3d 90 2e a6 bd 78 19 9e 3d ae f0 ae bd
       0.037244048 -0.0811435 0.077197015 -0.08542
000020 f9 4b ce 3c e3 e1 d5 3b cb 51 7f bd 3a 78 2b 3d
       0.025182711 0.006527172 -0.062333863 0.041862704
000030 34 b0 06 3d 33 23 36 bc 8a 2a c1 3d 2d 13 99 3d
       0.032882884 -0.011116791 0.09431942 0.074743606
000040 94 86 aa bc 00 ac 96 3c 07 33 55 bc ea f2 a8 3c
       -0.020816125 0.018392563 -0.013012654 0.020623643
000050 18 40 ec 3c 24 40 f3 3c 40 e0 05 bd 5b 7f 4f 3a
       0.028839156 0.02969367 -0.032684565 0.0007915401
000060 45 88 cd 3d 22 ef ab 3d 86 3f 86 3d c1 8b bf bc
       0.10035757 0.0839522 0.06555085 -0.02338207
000070 ad 72 33 bd 9c 75 c0 3c 2c 89 9f 3b b6 e7 8d bd
       -0.043810535 0.02349358 0.004868647 -0.06928961
000080 6d 82 99 3d 4a 2c 93 bd f0 d4 65 bd 12 99 ba bc
       0.0749558 -0.07186182 -0.056111276 -0.022778068
000090 6b 89 82 3d 04 6b 95 3c bf 18 44 3d 0a 9a 88 bc
       0.06373867 0.018239506 0.047875162 -0.016675014
0000a0 45 84 0b 3d 73 ef 91 3d 40 f4 5a bd 0d f5 21 bd
       0.03406169 0.071257494 -0.05345559 -0.03954034
0000b0 9c f1 d7 bc fe 6a 79 bd e6 b5 85 3d 7e e8 bd 3d
       -0.026360326 -0.06089305 0.06528835 0.0927286
0000c0 e2 0c 3f 3d 70 0a 89 bd 02 9f 1b 3d 97 31 92 3c
       0.046643145 -0.06691444 0.03799344 0.017845912
0000d0 c5 b8 2f 3d 9b cd b1 bc 11 3e 4c bd 94 40 37 3d
       0.04290082 -0.021704486 -0.04986388 0.04473932
0000e0 43 61 f9 bc 84 9a b0 3d 3c 15 72 3d fd 4c 5e 3c
       -0.030441886 0.086232215 0.059102282 0.01356816
0000f0 15 bb 4a 3d 22 ae a9 3d e1 2f 3a 3c f4 c3 99 bd
       0.04949482 0.08285166 0.011363954 -0.07508078
000100 6b a4 2e bc 91 87 43 bd c3 6d b6 bd ff 45 bc 3d
       -0.0106593175 -0.047736708 -0.08907654 0.09193038
000110 40 f9 58 3b 92 fe 91 3c 84 93 70 3d ba 69 f1 bb
       0.003310755 0.017821584 0.058734432 -0.00736734
000120 b2 55 26 3c 11 2f 95 3d 2c 30 b9 3d f5 c2 42 3c
       0.010152267 0.07284368 0.09042391 0.011887302
000130 ab 13 13 3d 7f 80 af 3d 84 d9 99 3d f7 b1 0d 3d
       0.03590743 0.085694306 0.07512191 0.03459355
000140 a7 41 ce bc d1 b5 c5 bc ff 4d 34 3d 0d b2 16 3d
       -0.02517779 -0.024134548 0.044019695 0.036790896
000150 2f 76 37 3d 30 64 2c bc f4 48 1b bd 89 2a 92 bc
       0.044790443 -0.010521933 -0.03791137 -0.017842548
000160 78 ec 16 bd a4 92 81 bd 0c 47 d5 3b 37 35 ae bb
       -0.036846608 -0.063267976 0.0065087136 -0.0053164023
000170 cc ca 0e bd e2 6f 9c 3c c4 37 af b9 c8 fd 9d 3d
       -0.03486137 0.019096319 -0.0003342015 0.077144206
000180 5d 18 da 3c f3 94 23 bd 44 01 68 3d 38 fe 18 3d
       0.026622945 -0.03993697 0.056641832 0.037351817
000190 c9 21 b4 3d 20 3c 98 bc fe 3a bc bc 2b b6 8f bc
       0.087955065 -0.018583357 -0.022977348 -0.01754292
0001a0 66 60 fc 3c b0 3c a8 3d 84 a5 a8 bc f5 88 ae 3c
       0.030807685 0.082147 -0.020586737 0.02130554
0001b0 bc 74 b9 3d ac 28 84 bd 9a a0 15 3d 1e 9f e1 3b
       0.090554684 -0.0645307 0.036530115 0.0068854233
0001c0 1d 92 77 bb 12 61 5c 3d 48 54 1f 3d 0a 4a 00 bc
       -0.00377763 0.05380351 0.038898736 -0.007830152
0001d0 d4 29 8e bb ab 45 4a bb 69 46 88 3c db 8b c0 3d
       -0.0043384824 -0.003086428 0.016635137 0.09401675
0001e0 e8 c2 a1 bc c0 b1 9e bd e9 69 45 3d 46 22 97 bd
       -0.019746259 -0.07748747 0.048196707 -0.07379584
0001f0 0f 90 6e 3d a7 65 7b bc 47 3e c0 3b 6e 2a 00 3d
       0.058242854 -0.01534406 0.005866799 0.031290464

temporal_conv.weight f4 [128, 128, 3]
000000 3e b5 83 3d b0 da f6 3c d7 a5 23 3d ca ee db bc
       0.064310536 0.030133575 0.03995308 -0.026847262
000010 17 c0 1e 3d 27 fb 51 3c 2c e2 e6 bc 6d 27 62 bd
       0.03875741 0.012816227 -0.028184019 -0.05521338
000020 27 6c cb 39 d5 ae 50 3d 7a b0 2a 3d 13 12 0f 3d
       0.00038799757 0.050947983 0.041672207 0.034929346
000030 65 97 d4 3c 6e c9 a2 bc cc ed f0 3b 42 53 7f bd
       0.025951097 -0.01987144 0.0073525663 -0.06233526
000040 5b d5 d8 bc a7 b3 aa 3c 0b ff f3 bc f2 6f ed 3b
       -0.026468923 0.020837618 -0.0297847 0.007246011
000050 2d af 89 bc 7e 63 a5 3c eb d9 82 bc 7a 75 2c 3c
       -0.016807163 0.020189043 -0.015973052 0.0105260555
000060 02 fd 23 bd 6e f9 93 ba 07 a5 19 3d 4f 10 57 3d
       -0.04003621 -0.0011289546 0.037510898 0.052505787
000070 f8 5e e1 bb 3d 8d a0 bc 5a 0b 42 bc 8f 50 91 bc
       -0.0068777762 -0.019598598 -0.011843527 -0.017738609
000080 38 b8 2f bd aa 1d b8 bc 97 88 80 3c 40 e0 22 bd
       -0.042900294 -0.022475082 0.015690131 -0.039764643
000090 7a 7d 2e 3c 94 d6 90 3c 4a 50 05 bd 5e 5a a5 bc
       0.010650033 0.017680444 -0.032547273 -0.020184692
0000a0 67 50 03 3d 87 a9 e8 3c 85 ba f8 bb 0b 5a 12 bd
       0.0320591 0.02840115 -0.0075905942 -0.035730403
0000b0 0e 58 40 3c 0f f3 27 bd 1a 75 9b bc d3 30 20 3c
       0.011739744 -0.041003283 -0.018976737 0.009777266
0000c0 1e 93 81 3c a4 90 ca 3c 62 0b 08 3d 3b d9 24 3d
       0.015817221 0.024727173 0.03321398 0.04024623
0000d0 44 b9 c4 3c eb 97 77 bc 5d ba 39 3d 02 9b ab bc
       0.024014123 -0.015111904 0.045343745 -0.020947937
0000e0 a6 7b 76 bc 6d ab 15 3d 4d fb 6a 3c 41 7f 06 bb
       -0.0150441285 0.036540437 0.014342141 -0.0020522627
0000f0 5d 95 0b 3d bf 8b c6 3d 30 25 bc 3c 5f 6d 57 3d
       0.03407799 0.09694623 0.022966951 0.05259454
000100 36 d5 98 3d 5e 75 21 3d 12 21 17 3d c9 db 40 3d
       0.07462542 0.03941857 0.036896773 0.047084603
000110 49 bd 3e 3d 70 2f ad 3c 9f c3 34 bd 9d cd 86 3c
       0.046567235 0.021140784 -0.04413187 0.016455466
000120 2b d3 2a 3c a0 e1 1e 3d b2 96 c4 3c c6 41 66 bd
       0.010426323 0.03878939 0.023997638 -0.05621507
000130 e7 8f 77 3c 14 e2 ca 3c db 1b 41 bd bb de 22 3d
       0.015109993 0.024766006 -0.047145706 0.039763194
000140 26 3b 08 bc a0 b6 97 3c a2 37 1f bd 75 84 b5 ba
       -0.008314883 0.0185197 -0.038871415 -0.0013848679
000150 62 0c 6c bd 2b a1 6d bb bf a5 3e bd d9 ca eb 3c
       -0.057628997 -0.0036259394 -0.046544787 0.028783249
000160 45 95 25 3d 23 c1 01 3d bf d2 57 bb 7e bd 89 bb
       0.040425558 0.03167833 -0.003293201 -0.0042034974
000170 a2 61 4e bd 47 a1 7a 3b 0a e2 e3 bc 10 e7 0f bd
       -0.05038608 0.0038243101 -0.027817745 -0.035132468
000180 15 57 0f bd d4 49 4a bd c2 33 1d bd f0 6e 5f 3c
       -0.034995157 -0.049386814 -0.03837944 0.013637289
000190 04 83 33 bd f4 8d 85 3c 6e 12 27 3d 3d e3 8e bc
       -0.043826118 0.01630304 0.04078906 -0.01744234
0001a0 e5 d3 2f 3d 29 fa 9c bd 72 f9 7c bd c3 d8 b9 bc
       0.042926688 -0.07664902 -0.061761327 -0.022686368
0001b0 65 e4 82 bc 18 8d 67 bd 9a 5a b8 3c 45 be 29 3b
       -0.015978048 -0.05653104 0.02250414 0.0025900763
0001c0 dd 5a c0 3a fe c4 29 3b ba 25 2b bd 6f 6f 92 3c
       0.0014675517 0.002590477 -0.041784026 0.017875401
0001d0 c6 47 fc 3c f6 00 48 bd 7f 2e 3c bd 56 c3 84 bb
       0.030795943 -0.04882904 -0.04594278 -0.004051606
0001e0 4f 8c d7 3c 2a 62 13 3c 83 c5 78 3b b8 97 39 bd
       0.026312022 0.008995572 0.0037959523 -0.045310706
0001f0 a7 78 98 3c 97 b2 f4 bb a7 c5 56 bc a4 64 a5 3c
       0.018612219 -0.0074675786 -0.013108647 0.02018959
000200 22 d4 17 3d f3 9a 85 bb a2 81 0c 3c d6 69 2e 3c
       0.03706754 -0.0040773093 0.008575829 0.01064535
000210 e9 be e5 bc bc 8d 81 bc 3c 86 9c bb 0e f7 cd 3c
       -0.028045135 -0.015814655 -0.004776744 0.025142219
000220 f2 1d ee 3d 80 35 1d bd af ff 00 bd a1 76 b3 bd
       0.11626805 -0.0383811 -0.03149384 -0.08762861
000230 33 21 d9 bc 31 aa 70 bc 0c cd 87 3c d5 bf a2 bc
       -0.026505088 -0.014689014 0.016577266 -0.019866863
000240 a5 ab e9 bd 5d b3 36 bd 0a 5e 4c bb 31 55 ba bd
       -0.11409692 -0.044604648 -0.0031183981 -0.0909828
000250 70 0d 45 bd 28 3f eb bc de a9 7b 3d 64 e2 78 3d
       -0.048108518 -0.028716639 0.061441295 0.060762778
000260 c0 3e b9 bc 7f bf f4 bc 07 4f 7c bd 62 07 4d bd
       -0.02261293 -0.029876469 -0.061598804 -0.05005587
000270 bb 4a 7c bc 78 65 a3 3c 74 f1 2d bd f9 3b 1a bd
       -0.0153986765 0.019945845 -0.042466596 -0.03765485
000280 34 81 34 3d 32 db 88 3c 3f 97 24 bd d0 f0 55 bd
       0.04406853 0.016706083 -0.040183302 -0.05223161
000290 9e 21 3f 3d 08 8d 81 bd b9 d6 44 bd 41 3b 3f bd
       0.04666292 -0.06325728 -0.048056338 -0.04668737
0002a0 fb bf 2d bd 4b 85 0d 3d e4 1b 06 3d 86 fd 9c 3d
       -0.042419415 0.034550946 0.032741442 0.07665543
0002b0 fa 53 f0 3c 02 82 24 bd 3e a5 d1 bc fc c2 73 bd
       0.029336918 -0.040163048 -0.025591489 -0.059512123
0002c0 a8 f2 50 3d 78 37 be 3c ca 6b 38 3d 08 3a ca bc
       0.051012665 0.023219809 0.04502467 -0.024685875
0002d0 9c 4b 1b bc 6a 59 8d 3b f6 e4 21 3c b3 05 89 bd
       -0.009478476 0.0043136375 0.009881249 -0.0669054
0002e0 ac c5 15 bd b0 d0 25 bc 64 b2 6d 3c 62 74 86 3d
       -0.036565468 -0.010120556 0.014507864 0.06565167
0002f0 70 0c 0a bd 66 f5 3e 3d 81 49 1d 3d 40 b7 b8 bb
       -0.033703268 0.04662075 0.038400177 -0.0056370795
000300 94 2c ac bd b5 c3 c9 39 3d 52 3b bd af 4f 7c bc
       -0.0840694 0.0003848352 -0.045732725 -0.015399857
000310 38 4d ae 3c c2 7f db bc 97 9c 98 bc 39 20 82 3c
       0.021277055 -0.026794318 -0.018629355 0.015884506
000320 64 1a cb bc 9b 1b 53 3d 38 9c 17 3d 1a 57 b9 3c
       -0.024792857 0.05154 0.037014216 0.022624541
000330 7f b2 26 3d 78 9c d2 bb 23 83 05 3c 1d 38 b7 3c
       0.04069757 -0.006427344 0.008148941 0.022365624
000340 86 4c ba 3b 83 ba 6f 3c 12 1e c2 bb f0 9e 16 bd
       0.005685392 0.01463187 -0.005923995 -0.03677267
000350 5a 2f d4 3c ae 80 eb 3c 3f 47 1b bd fb 4b f3 3c
       0.025901485 0.028747883 -0.037909742 0.029699316
000360 3d c8 d0 3b e9 39 93 3c 9f 6e 4c bd b0 2b 94 3d
       0.0063715265 0.01797195 -0.049910184 0.07234895
000370 48 eb f2 3c f6 5a 03 3d 9c 3e 1a bd 8a 93 b8 bc
       0.029653206 0.03206917 -0.037657365 -0.02253129
000380 18 8e 25 bc 08 2c d5 3a 34 b7 2d bb be 0f 49 3c
       -0.010104679 0.0016263733 -0.0026506903 0.01227182
000390 f6 aa 47 bd a1 b2 f4 3c f7 b1 87 3c 40 db 7e bd
       -0.048747025 0.029870333 0.016564352 -0.06222081
0003a0 be e2 bb ba 16 8a 14 3d 89 76 be bc 0d 60 ba bb
       -0.0014334542 0.0362645 -0.023249881 -0.0056877197
0003b0 58 97 27 3d 51 45 86 3d 49 12 50 3d 9d 98 90 bc
       0.040915817 0.0655619 0.050798688 -0.017650897
0003c0 a0 da 56 3d fc 07 b9 3c 22 d6 46 bb 19 38 9c bb
       0.05245459 0.022586815 -0.0030340035 -0.0047674295
0003d0 ac 50 87 bc b3 19 6c bc 2a 01 d1 3b 6c 8c fe bc
       -0.01651796 -0.014410424 0.0063783126 -0.031072818
0003e0 9f b4 0a bd c5 5f ec bc a5 e3 c7 bc 15 1c 31 bc
       -0.03386366 -0.02885426 -0.024400542 -0.010809918
0003f0 56 47 1b 3d d8 69 23 3d dc 4d 80 3c 2d 31 85 3c
       0.037909828 0.039895862 0.015662126 0.0162588

temporal_conv.bias f4 [128]
000000 bb 77 f0 bc 7a 8a 0e 3d ab 4a b7 3b db 0f 2e 3d
       -0.029353967 0.03480003 0.005593618 0.04249559
000010 45 9d ca bc 68 36 0a bc bd 6b a5 bc f0 21 6e bb
       -0.024733195 -0.008435823 -0.020192975 -0.0036336146
000020 08 69 94 3c 99 47 e6 bc 37 9b 03 3c 6a 3c e9 3c
       0.018116489 -0.028110312 0.008032612 0.02847119
000030 8f 8b 00 3c 1c 46 25 3d b0 88 9a 3c aa 59 04 3d
       0.007845773 0.040350065 0.018864006 0.032312073
000040 2e 1f 1f 3d 7d 36 e8 3a 43 24 10 3b 95 09 c2 3c
       0.038848095 0.0017716434 0.002199427 0.02368621
000050 3f c1 2a 3d 18 4f af bc 16 35 de 3c 93 52 e5 bb
       0.0416882 -0.02140002 0.027124923 -0.006998369
000060 9b e7 1a 3d a8 1c 6b bc 7a 07 67 3d 69 eb 33 bc
       0.037818532 -0.014350094 0.056403615 -0.010981419
000070 24 9c e7 bb ab 73 16 bd fe 58 33 3d a6 bc 00 3d
       -0.007068174 -0.036731403 0.04378604 0.03142991
000080 cc 7a 65 3b 31 91 0c 3d 84 0c 1b bd 44 55 11 3d
       0.003501582 0.034318153 -0.037853733 0.035481706
000090 31 06 27 bc 1b e1 a6 3c 4b ab 57 3d 9f be 60 3c
       -0.010194347 0.02037101 0.052653592 0.013717323
0000a0 ad 61 c9 3c e1 0a 12 bd 4e a2 e9 bc d7 ee ce bc
       0.024582708 -0.035654906 -0.028519776 -0.025260372
0000b0 5d 4b 73 3d 6e e3 0d bb a6 ab 10 bd 89 a7 ee bc
       0.059398044 -0.0021650451 -0.035319947 -0.029132621
0000c0 e6 ae 5a 3d 34 13 2f bd d9 b6 3a 3d 56 e0 1e 3a
       0.053389452 -0.042742923 0.045584533 0.00060606503
0000d0 c0 3e a6 bb 42 67 5c 3d ad d6 56 bc 7f e3 3e 3d
       -0.0050733984 0.05380941 -0.013112706 0.046603676
0000e0 e6 41 58 3d 51 2a 72 3d 86 73 c6 bb f1 08 9c bc
       0.05279722 0.059122387 -0.006056252 -0.019047232
0000f0 64 46 36 3d cb 52 dc 3c 44 9d 7d 3d 5f c7 dc bb
       0.044500723 0.026894948 0.06191756 -0.006737634
000100 20 a4 1a bd 61 ea 2c 3d f5 bb 8b 3d 06 72 09 3d
       -0.037754178 0.04221571 0.06822959 0.033556007
000110 a8 90 16 bd 24 a6 14 3d 60 3e b5 3c 61 63 39 bc
       -0.03675905 0.036291257 0.02212447 -0.011315198
000120 06 3f f5 bc 1e fd e3 bc 35 f4 f9 bb f1 64 60 3d
       -0.029937278 -0.027830657 -0.0076279887 0.054783765
000130 80 68 cf b9 10 99 26 3d 86 c7 78 3b 6e 4b 14 3d
       -0.00039559975 0.040673316 0.0037960722 0.036204748
000140 2d f0 4a 3d 0f ff 04 bd 16 2b f8 3b 9b 18 74 bc
       0.049545456 -0.032469805 0.0075734956 -0.0148984445
000150 53 43 7c 3d e7 f4 f6 bc 50 e5 14 bd 2f ef e7 3c
       0.061587643 -0.030146075 -0.036351502 0.028312294
000160 2d 5b 7d 3b e4 c7 55 3d e6 0e 59 3d 58 01 87 3c
       0.0038659081 0.052192584 0.052992724 0.016480133
000170 40 aa 9f 3c fa 46 3b 3d 40 75 32 3d ab 36 df 3c
       0.019490361 0.045721985 0.04356885 0.027247747
000180 a5 b5 c9 ba 02 25 cd bc 29 95 04 bd cb d2 58 3d
       -0.0015389217 -0.02504206 -0.032368813 0.052935403
000190 33 c6 35 3d f3 3a 1a bd 86 09 75 3d af ab 7d bb
       0.04437847 -0.037653875 0.059823535 -0.0038707068
0001a0 2f d2 8f 3c 1b d8 50 3c e9 27 3f 3d 15 89 09 3d
       0.017556278 0.012746836 0.04666892 0.033577997
0001b0 8e f0 63 3d 5f 34 8f 3d fb 34 59 3c 80 1e db 3b
       0.055649333 0.06992411 0.01325726 0.0066869855
0001c0 10 64 58 3d 7d d6 79 bc 2c 89 7b 3c b1 b0 80 3b
       0.052829802 -0.015248892 0.015352529 0.0039273133
0001d0 c1 7f ec bc b0 ba 22 3d 98 37 57 bc 1f 9d c1 3c
       -0.028869512 0.03972882 -0.013135813 0.023634491
0001e0 14 d9 b6 bc 83 73 ff bc 3a fc 6a 3d 31 33 d5 bc
       -0.022320308 -0.03118301 0.05736945 -0.026025387
0001f0 88 bc 83 bc 9f 5e e4 bc dd ee 53 3d 1f 46 15 3d
       -0.01608111 -0.02787715 0.05174147 0.036443826

fc.weight f4 [30, 128]
000000 f0 66 6d 3d 93 9c 84 bd dc 1b a8 bd e6 15 b7 3c
       0.057959497 -0.06475177 -0.08208439 0.02234931
000010 3c 1f ed 3c 5c ba f5 bc 05 b4 bc bc f4 3b 4c bc
       0.028945558 -0.02999609 -0.023035059 -0.012465466
000020 21 b6 47 bd f0 82 0a 3d 5c ea db bc 36 3f e4 3c
       -0.048757676 0.033816278 -0.02684515 0.027862173
000030 8d 50 c9 3c f1 54 bd bc 8b 9c 58 3d 74 72 93 bd
       0.024574542 -0.023111792 0.052883666 -0.071995646
000040 51 6c b3 bd b7 c7 84 3d b9 d3 44 bd 41 09 39 bc
       -0.08760894 0.06483405 -0.048053477 -0.01129371
000050 2e 4b a4 bd c6 af 74 bc b1 5e 33 3c ed 23 20 bb
       -0.08022152 -0.014934486 0.010947869 -0.0024435476
000060 65 36 58 bd b3 5e 9b 3c be 39 e1 3d ee 51 8a 3d
       -0.05278625 0.018966055 0.109973416 0.06753908
000070 8d 56 54 3d 74 ab 18 3c 87 45 b8 3c cd cc d8 bb
       0.051840354 0.009318221 0.02249409 -0.006616211
000080 aa fb 35 3d 6a f0 d1 3b 7e 3b 18 bd e5 f5 80 bd
       0.04442946 0.0064068334 -0.03716611 -0.06296901
000090 db 3c 1a bd 54 89 d5 3c 59 83 9f bd ca c3 d7 3d
       -0.037655693 0.02606646 -0.077887245 0.10535391
0000a0 61 d8 64 bd 44 e7 e9 3c 51 8e 92 3b e5 69 9b 3d
       -0.055870418 0.028552659 0.004472532 0.07588557
0000b0 6d 20 f7 3d c0 a7 e2 bd 34 ab 6c 3b 46 27 b5 3d
       0.120667316 -0.11067152 0.0036112787 0.088453814
0000c0 79 25 5b bd 6d 11 2f 3d 1b 86 80 3c 51 14 77 3c
       -0.053502534 0.042741228 0.015688946 0.015080527
0000d0 40 43 9c bd fa 19 52 3d fe 9b d6 3c 57 4e 34 3d
       -0.076300144 0.051294304 0.02619743 0.044020023
0000e0 43 e3 03 bd e0 59 57 bd b6 ba 40 3d 85 cf 9b 3c
       -0.032199156 -0.052575946 0.04705306 0.019019851
0000f0 ad 3e a9 3d 82 a4 cd 3c ff 1c 5e 3d 50 f3 9d 3d
       0.082639076 0.025102858 0.05422687 0.07712424
000100 a8 22 56 3d cf 7b 9e 3d b5 9c 8c bd d3 9d bd bd
       0.052279145 0.07738458 -0.06865827 -0.09258618
000110 39 cf 9a bd 80 b6 ba 3d c9 8b a8 3d 88 17 04 3b
       -0.07559056 0.0911684 0.08229787 0.0020155627
000120 a8 1f c9 bd 63 10 44 3d 2c 13 ea 3c 84 55 bd 3b
       -0.09820491 0.04786719 0.028573595 0.0057780165
000130 3f 07 ad 3d b5 3d 43 bd 32 d1 81 3d 9d 19 81 bd
       0.08448648 -0.04766627 0.06338729 -0.063037135
000140 c1 01 6a bd 68 d3 27 3c a0 3e 93 3c cb 64 9d bd
       -0.05713058 0.010243274 0.017974198 -0.0768524
000150 44 68 56 3d cf 09 b0 bc f0 85 52 bd 05 69 03 bb
       0.05234553 -0.021489052 -0.051397264 -0.002005161
000160 bd d3 8c bd f2 27 93 3c be 29 a9 3d 95 5c 1a bd
       -0.06876323 0.017963383 0.08259915 -0.03768595
000170 da 5b 1a bd 82 19 3e bd 0f 0a 30 bd e1 a6 ce 3d
       -0.037685253 -0.046411045 -0.042978343 0.100904234
000180 e2 8a 44 bd d4 a9 00 bd b3 ef dd 3d 7f e7 45 bd
       -0.04798401 -0.03141196 0.108367346 -0.048316475
000190 ef 1d 93 3d a0 c7 27 bd eb f7 21 3c f6 7a 8c bd
       0.07183444 -0.04096186 0.009885768 -0.068593904
0001a0 ce 02 c0 bd 60 bb 2a 3d 7f fc c2 bb c3 90 58 3c
       -0.09375535 0.0416826 -0.00595051 0.013218108
0001b0 4c ea bf 3d fe 3f b2 bd 7e 03 aa 3c 97 09 dd 3c
       0.093708605 -0.08703612 0.020753618 0.026982112
0001c0 58 e7 aa 3d 78 cb 65 3c da ba f7 3c a3 fe b0 bd
       0.083449066 0.0140255615 0.030240465 -0.08642318
0001d0 b3 94 21 3d 56 dd d0 3d 01 e4 91 bd c3 fc 47 bc
       0.03944845 0.101984665 -0.071235664 -0.012206259
0001e0 2f ef 70 bd c9 e1 29 3d d9 17 cd 3d aa 96 ba bd
       -0.058821853 0.04147509 0.10014314 -0.09110768
0001f0 fb c9 3c bd 4b 64 fb bc 77 03 9b bd bd 70 65 3d
       -0.04609106 -0.030687472 -0.0756902 0.05601572
000200 16 07 d4 3c 2d e1 43 bd 31 3f 27 bc ab 5f 39 bc
       0.025882285 -0.047822166 -0.010207937 -0.011314313
000210 8c e1 f3 3c 9e ae 85 3b 1c 5f 86 3d ad 2a c1 3d
       0.029770635 0.004079654 0.065611094 0.09431968
000220 d5 35 8f bc ef 30 70 bd 1f fe 2a bd 77 ae 80 bd
       -0.017481724 -0.058640417 -0.041746255 -0.062832765
000230 de 80 7a bd 09 54 27 bd 6c 9e 90 3b 96 ba 89 bd
       -0.061158054 -0.040851627 0.0044134166 -0.067250416
000240 1f 72 6b 3c 38 13 6d bb a0 7f a5 bd 2b 0b 31 3d
       0.01437047 -0.0036174785 -0.08080983 0.04322354
000250 01 2d 37 bd d7 c7 a9 3d 75 8a 9d bd 00 09 56 3d
       -0.044720653 0.082900696 -0.07692424 0.052254677
000260 b1 f8 15 bd 64 3a 3f 3d 42 24 ba bc 81 47 96 bd
       -0.036614124 0.046686545 -0.022722367 -0.07337857
000270 1c 15 73 3d a4 86 01 3c bb 84 97 bd 1c 8c 8b 3d
       0.059346303 0.007905636 -0.07398363 0.06813833
000280 e7 78 ab 3d 97 02 a5 bb b3 8b 44 bc 7d 80 8c 3d
       0.0837267 -0.005035709 -0.0119961975 0.06860445
000290 56 1e 60 bd 5d db bb bd 20 95 37 39 cc 0a 70 bd
       -0.05471643 -0.091726996 0.00017507793 -0.058604047
0002a0 6f ef 33 bd 86 2d 7a bd 55 d5 9f 3b 20 f6 36 bc
       -0.043929514 -0.06107857 0.004877726 -0.011167079
0002b0 4c 2c 58 bd db c7 a9 3d 7f eb b8 3d af 23 94 3d
       -0.05277662 0.082900725 0.09029292 0.072333686
0002c0 bd c4 84 3c da f8 45 3d 4d 81 e7 3c 59 07 a5 bd
       0.016207093 0.048333026 0.028259898 -0.08058042
0002d0 cd e9 97 bd 0c 27 1f 3d 85 21 6a bd 3d cf 46 bd
       -0.07417641 0.038855597 -0.057160873 -0.04853748
0002e0 ec 6d 21 3d 7a dc 0e 3d 69 42 88 bd 4e 0c dc 3d
       0.03941147 0.03487823 -0.06653292 0.107445344
0002f0 ba 8d 8f bd b4 ca 85 bc 5c de c7 bd 67 4d 01 3d
       -0.07009454 -0.016332008 -0.097592086 0.031567957
000300 f7 ed f4 3c e6 42 b8 bc 78 b2 2f 3d 0c 96 57 3c
       0.029898627 -0.022492837 0.04289481 0.013158333
000310 b0 71 61 bc 4f db d5 bb 10 de b2 3d 9a cd f2 3c
       -0.013760015 -0.0065263878 0.08733761 0.029639054
000320 03 75 d1 3c 0e b0 a0 3c d2 cb ad 3c 0c 34 08 3d
       0.02556849 0.0196152 0.021215353 0.03325276
000330 96 58 9b bd 07 5a bb 3d c1 8e 09 bd 07 8f 92 3d
       -0.07585256 0.09148031 -0.033583406 0.071561866
000340 4d 5d cd 3c e5 4b 74 3c 8c cb 96 bd 00 5e 45 3d
       0.025068903 0.014910673 -0.07363042 0.04818535
000350 59 49 b8 bd d0 d3 d2 3b 20 b7 26 bd cf 9f 4c 3c
       -0.08998365 0.0064339414 -0.040701985 0.012489273
000360 76 2a 01 3d cc b6 f3 bb 6c b5 3a bc eb 98 66 bd
       0.031534635 -0.0074375626 -0.011395793 -0.056298178
000370 34 56 b9 bd b0 e7 b3 3d bc 0c 9d bc ab cc fa 3c
       -0.09049645 0.08784425 -0.019171111 0.030615171
000380 27 4b 4d bd d0 38 56 3c 80 9e 17 3d 42 ac 18 bd
       -0.0501205 0.013075069 0.03701639 -0.037273653
000390 0a 41 68 bd e1 f0 af 3d 0e f8 bb 3d 25 09 69 bd
       -0.05670265 0.08590866 0.09178172 -0.056893487
0003a0 d4 89 1e bd 39 af b5 bb 93 5f 34 3d 4e 07 a9 3d
       -0.038705662 -0.00554457 0.04403646 0.082533464
0003b0 cc eb 2d bd 95 dd 88 3c 0d 47 db bc d2 d9 68 3d
       -0.0424612 0.016707221 -0.026767278 0.056848355
0003c0 11 ab 57 bb 16 59 08 3c e1 8b 60 3d 08 d9 a2 3b
       -0.003290836 0.008322021 0.0548209 0.00496972
0003d0 2c af b8 bd 15 51 da 3c 2a bd ae 3d 73 d6 34 bd
       -0.090177864 0.026649991 0.08532174 -0.044149827
0003e0 ac 8c 44 bd 66 09 bd 3d 7e 58 02 bd 88 69 b8 3d
       -0.047985718 0.09230308 -0.031822674 0.090045035
0003f0 e0 52 b4 3c 96 cd e7 3c ae 99 9a bc 28 98 5f 3d
       0.022012174 0.028296273 -0.018872108 0.054588467

fc.bias f4 [30]
000000 69 be f8 3c 74 d5 06 bd 83 a9 29 3d dc b6 1f 3d
       0.030364232 -0.03291841 0.041421425 0.038992748
000010 59 71 7b bd 4a fb 8c 3d 0f 24 ea bc ed 34 35 bd
       -0.061387394 0.06883867 -0.028581647 -0.044239927
000020 78 23 10 bd 96 46 8c bd fe c4 1c bd fd b9 e6 3c
       -0.035190076 -0.06849401 -0.038273804 0.028164858
000030 6d 5e 56 3d 4a 3e 85 bd 39 db 5d 3d 58 93 ac bd
       0.052336145 -0.06506021 0.054164145 -0.08426541
000040 14 58 9a 3d 31 88 5f 3d e6 19 54 bd 1c f7 ab 3c
       0.07536331 0.05457324 -0.05178251 0.020991854
000050 06 29 5f 3c e8 19 00 3d 62 26 3e bd c0 36 e0 ba
       0.013620621 0.031274706 -0.046423323 -0.001710616
000060 42 f8 8a bc 6f 32 55 3c 73 49 57 3d 93 b0 15 bd
       -0.016964082 0.013012513 0.05256028 -0.036545347
000070 7a e1 59 3c f6 6a 07 bd
       0.013298387 -0.03306099
