GWN/best_models/best_model_w60_h10.pth (torch, 311371 bytes, 9 tensors)

adapt_adj f4 [60, 60]
0.99880016 -0.0011724089 -0.0011401133 -0.0010089881 -0.00091136544 -0.0008154258 -0.00069064647 -0.00064732216
-0.0005804851 -0.0004796707 -0.0005042364 -0.00047587638 -0.00040386888 -0.00036538133 -0.00030129834 -0.00031662485
-0.00039734892 -0.0003558077 -0.00038283915 -0.00029692965 -0.00018791838 -1.7830263e-05 0.00012488193 0.00025149464
0.00039865155 0.0006196684 0.00079392246 0.00097582926 0.0011585725 0.0012464714 0.0013171248 0.001426578
0.0014187879 0.0014512972 0.0015114103 0.0014947746 0.0014122627 0.0014813796 0.0014475158 0.0014918521
0.001602781 0.0018153635 0.0019318814 0.0021737781 0.002380301 0.0025859615 0.0027998756 0.0030927488
0.003314953 0.0035495705 0.003673943 0.0037559508 0.0039159358 0.0041073714 0.0042011123 0.004292144
0.0044799466 0.004737817 0.0049016452 0.0053483695 -0.0012181523 0.9987846 -0.0011816486 -0.0010571945
-0.0009572002 -0.0008681953 -0.00074052205 -0.00069883204 -0.00063290115 -0.00053495984 -0.0005588154 -0.00052923046
-0.00046932272 -0.00042524043 -0.0003647185 -0.0003760365 -0.0004495109 -0.00041649034 -0.0004444674 -0.000363706
-0.00024965088 -8.619011e-05 5.6266035e-05 0.00018594235 0.00033509464 0.00055085035 0.000720877 0.0009055169
0.0010914836 0.0011777979 0.0012518371 0.0013656282 0.0013541675 0.0013828399 0.0014432481 0.001432088
0.0013445596 0.0014160537 0.0013773366 0.0014249352 0.001535566 0.00175736 0.0018687313 0.0021098938
0.00231233 0.0025126538 0.0027290927 0.0030174835 0.003240257 0.0034777755 0.0036099604 0.0036945425
0.0038493075 0.0040453775 0.0041411836 0.0042266864 0.004409089 0.004665261 0.0048272666 0.0052755065
-0.0012007982 -0.0011966112 0.9988056 -0.00106036 -0.0009552456 -0.0008631678 -0.00073658535 -0.0006952214
-0.0006336083 -0.0005344736 -0.00056224107 -0.0005317872 -0.00046968868 -0.0004318861 -0.00036855802 -0.0003849661
-0.0004670276 -0.0004338588 -0.00046599322 -0.0003722548 -0.00025914918 -8.9741276e-05 4.8247475e-05 0.00017707223
0.0003251314 0.0005416116 0.0007119335 0.0008905492 0.0010775088 0.0011645592 0.0012385079 0.001357226
0.0013405051 0.0013712961 0.0014394288 0.0014271833 0.0013455931 0.0014169143 0.0013831944 0.0014283771
0.0015366289 0.0017544712 0.0018669798 0.0021029816 0.0023031705 0.0025090917 0.0027198591 0.0030083407
0.0032236609 0.0034612573 0.003595019 0.003684902 0.0038434886 0.0040399916 0.0041411207 0.00422782
0.004409255 0.0046648355 0.004822473 0.0052768644 -0.0011691425 -0.0011666077 -0.0011610162 0.99894536
-0.000953539 -0.0008537431 -0.00072509714 -0.00068385067 -0.0006147419 -0.0005155063 -0.00054523174 -0.00051705557
-0.00044964044 -0.0004086383 -0.00034337206 -0.000357482 -0.00044074663 -0.00040822782 -0.00043587165 -0.000351642
-0.00023929303 -7.176289e-05 6.7591056e-05 0.00018893494 0.00034343524 0.0005629159 0.0007323643 0.0009123962
0.0010950794 0.0011840516 0.0012618302 0.0013750908 0.0013594014 0.0013893578 0.0014527381 0.0014432991
0.0013628853 0.0014388805 0.0014039406 0.0014541221 0.0015679804 0.0017928701 0.0019078503 0.0021494164
0.002344302 0.0025466392 0.0027562329 0.0030427757 0.003258925 0.0034953027 0.0036289769 0.0037144748
0.0038769967 0.0040803077 0.004174079 0.0042615267 0.00444199 0.004695984 0.0048532635 0.0053105173
-0.0011160527 -0.0011108378 -0.0011064797 -0.00100486 0.99907815 -0.00082178984 -0.00068700075 -0.0006474019
-0.0005800923 -0.00048187783 -0.00050972874 -0.0004801221 -0.00041250308 -0.00036474626 -0.0002967313 -0.0003110847
00000000: 5eb1 7f3f 84ab 99ba db6f 95ba 0640 84ba
00000010: b3e8 6eba 4dc2 55ba 800c 35ba 0eb1 29ba
00000020: b22b 18ba 507c fbb9 bb2e 04ba 0c7f f9b9
00000030: 5dbe d3b9 a790 bfb9 94f7 9db9 ab00 a6b9
00000040: 4553 d0b9 b38b bab9 cdb7 c8b9 39ad 9bb9
00000050: f50b 45b9 3392 95b7 bdf2 0239 0adb 8339
00000060: 1b02 d139 3e71 223a 3c1f 503a cbce 7f3a
00000070: 3edb 973a a460 a33a 60a3 ac3a 04fc ba3a
00000080: 9ff6 b93a 7439 be3a 841a c63a 50ec c33a
00000090: ac1b b93a da2a c23a 92ba bd3a 408a c33a
000000a0: 6814 d23a 7ef1 ed3a 2f37 fd3a f275 0e3b
000000b0: d3fe 1b3b 3c79 293b 1e7e 373b b7af 4a3b
000000c0: af3f 593b e99f 683b 89c6 703b 6626 763b
000000d0: 4051 803b 2197 863b 7ca9 893b 1da5 8c3b
000000e0: 84cc 923b b13f 9b3b fb9d a03b 6041 af3b
000000f0: 69aa 9fba 59b0 7f3f 8ce1 9aba 9091 8aba
00000100: 9eec 7aba 9a97 63ba 981f 42ba d331 37ba
00000110: 47e9 25ba 8c3c 0cba 777d 12ba 0ebc 0aba
00000120: 6e0f f6b9 cef2 deb9 b037 bfb9 c426 c5b9
00000130: 55ac ebb9 635c dab9 6807 e9b9 cbaf beb9
00000140: 93e3 82b9 f7c0 b4b8 32ff 6b38 85f9 4239
00000150: a4af af39 f166 103a 3df9 3c3a 3660 6d3a
00000160: 1d10 8f3a 5760 9a3a af14 a43a e1fe b23a
00000170: 527e b13a 6840 b53a 5f2b bd3a e6b4 bb3a
00000180: ef3b b03a e19a b93a bf87 b43a e4c4 ba3a
00000190: 0c45 c93a 3757 e63a 38f0 f43a 2546 0a3b
000001a0: 768a 173b 56ab 243b 94da 323b f9c0 453b
000001b0: 7e5a 543b 64eb 633b 1695 6c3b 2320 723b
000001c0: aa44 7c3b 168f 843b c4b2 873b 0480 8a3b
000001d0: 1f7a 903b 0cdf 983b 0c2e 9e3b 28de ac3b
000001e0: 1a64 9dba 9cd7 9cba b9b1 7f3f c7fb 8aba
000001f0: 7269 7aba 3646 62ba 6817 41ba 853f 36ba
00000200: bc18 26ba eb1b 0cba 5c63 13ba a367 0bba
00000210: 8c40 f6b9 c56e e2b9 053b c1b9 46d5 c9b9
00000220: 62db f4b9 8b77 e3b9 8d50 f4b9 322b c3b9
00000230: 6ade 87b9 7b33 bcb8 555d 4a38 77ac 3939
00000240: 6676 aa39 f0fa 0d3a 0ca1 3a3a bf73 693a
00000250: 323b 8d3a 1fa4 983a 6e55 a23a f3e4 b13a
00000260: e3b3 af3a 10bd b33a 37ab bc3a 5310 bb3a
00000270: 9d5e b03a c1b7 b93a 4d4c b53a 6238 bb3a
00000280: b668 c93a 49f6 e53a 72b5 f43a 2dd2 093b
00000290: caf0 163b 936f 243b aa3f 323b 9527 453b
000002a0: 0e44 533b 43d6 623b 699a 6b3b 667e 713b
000002b0: 0ae3 7b3b e861 843b 3db2 873b 8689 8a3b
000002c0: 837b 903b 7adb 983b d605 9e3b 8ce9 ac3b
000002d0: ea3d 99ba dce8 98ba 3d2d 98ba e2ba 7f3f
000002e0: ebf6 79ba bbcd 5fba 7214 3eba 7144 33ba
000002f0: a126 21ba 0b23 07ba e2ed 0eba 038b 07ba
00000300: b8bd ebb9 813e d6b9 9e06 b4b9 6c6c bbb9
00000310: 0314 e7b9 6907 d6b9 b485 e4b9 975c b8b9
00000320: bcea 7ab9 687f 96b8 acbf 8d38 d61c 4639
00000330: 190f b439 a690 133a 23fc 3f3a df2d 6f3a
00000340: c488 8f3a 2e32 9b3a ff63 a53a 643c b43a
00000350: f12d b23a 1d1b b63a cd69 be3a 152d bd3a
00000360: d8a2 b23a d198 bc3a 6e04 b83a 3e98 be3a
00000370: b184 cd3a bdfe ea3a d510 fa3a 39dd 0c3b
00000380: dca2 193b 84e5 263b eaa1 343b 4e69 473b
00000390: b093 553b 7311 653b 21d4 6d3b 8c6e 733b
000003a0: 3615 7e3b 1ab4 853b b6c6 883b 47a4 8b3b
000003b0: 1d8e 913b c5e0 993b 2008 9f3b d903 ae3b
000003c0: 8448 92ba 8899 91ba 4c07 91ba 82b5 83ba
000003d0: 96c3 7f3f 626d 57ba d717 34ba 68b6 29ba
000003e0: 5611 18ba 8ca4 fcb9 519f 05ba e6b8 fbb9
000003f0: 3a45 d8b9 6a3b bfb9 9a92 9bb9 1519 a3b9

gc1.fc.weight f4 [128, 30]
-0.06409127 -0.0029191463 0.011908589 0.06493824 0.115159504 0.037945863 0.16636415 0.107788414
0.14926748 0.17173484 0.07203606 0.051125728 -0.14255022 -0.030053757 0.11896345 0.16931559
0.077555336 0.13344286 -0.037402242 0.062266294 -0.17978847 -0.11439551 0.11125117 0.009393552
0.044664077 -0.021220513 -0.017412478 0.15474346 0.15242353 0.117137335 0.07331101 0.071899004
0.013829485 -0.14533615 -0.24975921 0.10699662 -0.13875078 -0.14524804 0.104930475 0.017776642
0.09951551 0.10246607 -0.16920185 -0.011978553 -0.14321427 -0.022738494 0.12169077 0.03998678
0.057821404 0.03082733 -0.09297103 0.07576858 -0.05433167 -0.06793177 0.12585557 0.031168396
0.12359585 0.039600912 -0.113881305 0.09542667 0.045570984 -0.107949786 -0.058030084 -0.1785098
0.06476269 -0.035351414 0.14007741 -0.04058998 -0.022947358 -0.053258143 0.047467295 0.10783962
0.09452699 -0.12230142 0.09694349 0.028650746 0.022287406 -0.15972121 -0.14007059 0.15914695
0.07919339 0.032754935 0.16496743 -0.077698976 0.036204588 -0.046179365 0.07372704 -0.007779406
-0.14618418 -0.1428895 -0.16768377 -0.11015265 -0.12626511 0.16238011 0.13051517 0.17942372
-0.12729685 0.17347826 -0.1709891 0.041608535 -0.06516489 0.1237985 -0.0905751 0.11637268
-0.025916582 0.013710839 0.041133843 -0.135806 0.040529933 -0.073952414 0.011827393 0.16924733
-0.101660185 -0.019717552 -0.17831965 -0.038478687 -0.1369463 0.15640318 0.046306536 0.1411882
-0.076653376 0.12556756 -0.11298419 -0.0028816618 -0.1682605 0.18016252 0.14965506 -0.19726841
0.15936935 0.1300281 0.12823382 -0.1573191 -0.08198703 -0.071624815 -0.12985168 0.109508276
0.14692459 0.11469398 -0.16914083 -0.05986374 -0.043412004 0.15808901 0.07654129 -0.10050066
-0.06113968 0.1681404 0.021804422 -0.06638796 0.1812023 0.029391678 -0.059123438 -0.14184436
0.13166118 0.036198437 0.123026215 0.0256535 0.08155907 -0.09384968 -0.09008855 -0.18108524
0.03226606 -0.15589233 -0.12557052 0.0869771 -0.13456023 0.0040369704 -0.003060385 0.0038736253
-0.15611646 -0.10574164 0.0971502 -0.16879994 -0.15718684 0.10386502 -0.14372717 -0.05617202
0.16088565 0.09561706 -0.003097768 0.14229622 -0.16282663 0.06058669 -0.1487197 0.0129827075
0.09311629 -0.033686165 -0.13472219 -0.04934327 -0.11375887 -0.13307206 -0.04434066 0.108441204
0.13556844 0.018729975 0.016089737 -0.1370233 -0.0054718996 -0.1519726 -0.052853826 0.14825808
0.0942988 0.04375366 -0.051794704 -0.041167945 0.17895651 -0.16905765 -0.04935829 -0.14814954
-0.08136039 -0.14050476 0.057647236 0.0042318082 -0.12466794 0.07046029 0.039744943 0.18258125
0.089600705 0.045834363 0.040168785 0.13972798 0.037904743 -0.073514156 -0.05863963 0.12360434
-0.018660098 -0.17776656 -0.0035854338 -0.16704792 -0.07130424 -0.017057087 -0.0078107407 0.09341177
-0.026792118 -0.18656984 0.035303034 0.14098284 -0.15137012 -0.12082957 0.030669166 0.060412325
0.13373041 -0.027225712 -0.13349378 0.06462412 0.060134865 -0.1153272 0.010472607 -0.041162036
-0.10355929 -0.09514538 0.032950494 -0.12525176 0.0031914515 -0.13965237 -0.20992158 -0.01355206
00000000: 4942 83bd 264f 3fbb 3e1c 433c 57fe 843d
00000010: bfd8 eb3d 1f6d 1b3d 5d5b 2a3e 2cc0 dc3d
00000020: 93d9 183e 42db 2f3e a487 933d 3669 513d
00000030: aff8 11be 4c33 f6bc 1ca3 f33d 1161 2d3e
00000040: 55d5 9e3d 3fa5 083e 1833 19bd f10a 7f3d
00000050: 781a 38be 3148 eabd a7d7 e33d 6ae7 193c
00000060: aef1 363d a4d6 adbc 9da4 8ebc 1275 1e3e
00000070: ea14 1c3e b3e5 ef3d 1524 963d c93f 933d
00000080: 1095 623c 00d3 14be e1c0 7fbe 0b21 db3d
00000090: af14 0ebe e7bb 14be cae5 d63d 52a0 913c
000000a0: cace cb3d bbd9 d13d 4043 2dbe b141 44bc
000000b0: c3a6 12be 1446 babc 0339 f93d 2ec9 233d
000000c0: 23d6 6c3d 9989 fc3c 9867 bebd 8f2c 9b3d
000000d0: e38a 5ebd d01f 8bbd 48e0 003e dd54 ff3c
000000e0: d21f fd3d 9134 223d 9a3a e9bd 0f6f c33d
000000f0: a4a8 3a3d c714 ddbd f4b0 6dbd 46cb 36be
00000100: 4da2 843d a5cc 10bd 7470 0f3e ae41 26bd
00000110: 19fc bbbc 3625 5abd 116d 423d 05db dc3d
00000120: 5e97 c13d 2b79 fabd 4f8a c63d f8b4 ea3c
00000130: 1494 b63c f58d 23be aa6e 0fbe 6bf7 223e
00000140: 2530 a23d 0a2a 063d 39ed 283e a420 9fbd
00000150: 434b 143d 9326 3dbd 34fe 963d 63ea febb
00000160: 4eb1 15be a051 12be 4bb5 2bbe b697 e1bd
00000170: a44b 01be f946 263e c5a5 053e daba 373e
00000180: 1b5a 02be 49a4 313e c417 2fbe b66d 2a3d
00000190: 2b75 85bd 118a fd3d 707f b9bd cd54 ee3d
000001a0: 034f d4bc 6da3 603c f67b 283d ba10 0bbe
000001b0: b702 263d 5d74 97bd afc7 413c 2c4f 2d3e
000001c0: 3733 d0bd b486 a1bc 6d99 36be d49b 1dbd
000001d0: a73b 0cbe 2828 203e ecab 3d3d a493 103e
000001e0: 72fc 9cbd c894 003e 4164 e7bd 43da 3cbb
000001f0: 7b4c 2cbe 867c 383e 2d3f 193e bb00 4abe
00000200: b831 233e 1626 053e ba4f 033e 4218 21be
00000210: d1e8 a7bd 08b0 92bd d7f7 04be e045 e03d
00000220: 6673 163e ade4 ea3d 4133 2dbe ae33 75bd
00000230: c9d0 31bd 16e2 213e aec1 9c3d 4ad3 cdbd
00000240: 9a6d 7abd ff2c 2c3e 309f b23c 69f6 87bd
00000250: 198d 393e d1c6 f03c 6b2b 72bd a63f 11be
00000260: 30d2 063e d044 143d 2bf5 fb3d 4a27 d23c
00000270: 7108 a73d 4334 c0bd 5880 b8bd 696e 39be
00000280: 6b29 043d 3da2 1fbe 8f95 00be 0d21 b23d
00000290: 28ca 09be 9048 843b bd90 48bb a6dc 7d3b
000002a0: fedc 1fbe 138f d8bd aff6 c63d e4d9 2cbe
000002b0: 96f5 20be 2fb7 d43d 372d 13be a214 66bd
000002c0: 35bf 243e e1d2 c33d ec03 4bbb 1ab6 113e
000002d0: 06bc 26be c029 783d fa49 18be 6cb5 543c
000002e0: c1b3 be3d 81fa 09bd 9df4 09be 2b1c 4abd
000002f0: 69fa e8bd 0b44 08be 8d9e 35bd 6c16 de3d
00000300: 74d2 0a3e 9b6f 993c a0ce 833c d64f 0cbe
00000310: 9f4d b3bb b59e 1bbe 417d 58bd f7d0 173e
00000320: bb1f c13d 0a37 333d af26 54bd b89f 28bd
00000330: 6040 373e 731d 2dbe eb2b 4abd 83b4 17be
00000340: 47a0 a6bd 7be0 0fbe 821f 6c3d fbaa 8a3b
00000350: e851 ffbd 7c4d 903d 98cb 223d 94f6 3a3e
00000360: 9380 b73d d0bc 3b3d 0688 243d da14 0f3e
00000370: 0142 1b3d 978e 96bd 1c30 70bd 4624 fd3d
00000380: 10dd 98bc 7008 36be 99f9 6abb 9c0e 2bbe
00000390: f507 92bd 4ebb 8bbc 3ef1 ffbb ac4e bf3d
000003a0: 257b dbbc 2a0c 3fbe ea99 103d ce5d 103e
000003b0: c500 1bbe 7e75 f7bd e73d fb3c ea72 773d
000003c0: a0f0 083e 7508 dfbc 98b2 08be a759 843d
000003d0: fa4f 763d ab30 ecbd 4c95 2b3c 8699 28bd
000003e0: e516 d4bd 95db c2bd 19f7 063d ff41 00be
000003f0: ac27 513b 0801 0fbe aff5 56be 7609 5ebc

gc1.fc.bias f4 [128]
0.10390005 -0.16735922 -0.15453458 -0.088747606 0.15125579 0.08476528 -0.04122182 0.108252965
-0.019879734 -0.11968805 -0.07746911 -0.019445708 -0.028827386 0.18735313 -0.1551422 0.066187896
0.015722435 -0.16867419 0.07950452 0.10435553 -0.01760013 0.093112014 0.14899434 0.15298553
0.086125545 0.039771885 0.113008216 -0.12220014 0.04983434 0.13760337 -0.16285723 -0.09917567
0.0697982 0.15973696 0.20291436 -0.060681894 0.028983688 -0.020406472 0.066850536 -0.050977405
-0.07697899 0.008976005 0.07174327 -0.14877667 -0.066286996 0.10837685 0.017839573 0.05057075
0.06487365 -0.09853747 0.09763555 -0.008176032 -0.057826623 -0.09271973 -0.16243905 0.12222128
0.0764851 0.038829498 -0.17430769 0.15358956 -0.15577559 0.049673002 0.023048434 0.15136209
0.15835342 0.047485463 -0.13603735 0.00878928 0.12803204 0.15782924 0.101673536 0.15046228
-0.1500374 0.0967715 -0.14875166 -0.14698714 -0.10803026 0.021345168 -0.20002724 -0.061685484
0.089642614 0.1486056 0.117341414 -0.14211108 -0.0061298567 -0.07342373 -0.044445395 0.11309997
-0.02934891 0.062681414 -0.09190398 0.0032586274 -0.120831035 0.1575937 -0.046338614 0.17305899
0.084704585 0.050312188 0.036360744 0.09539993 -0.10671846 0.045982916 0.02147213 -0.1473711
0.025178 0.13906732 0.15667558 -0.08022579 0.14172836 0.03413781 0.14961383 -0.06323312
0.00798608 -0.14100876 0.14390793 -0.07603371 0.0760375 -0.08679682 0.08769978 0.068311036
0.12797877 0.08954878 -0.15758601 -0.1273549 -0.109737664 0.086155556 0.05661351 -0.103318855
00000000: 8dc9 d43d 3760 2bbe 503e 1ebe 4ec1 b5bd
00000010: cce2 1a3e 6b99 ad3d 36d8 28bd bbb3 dd3d
00000020: d3da a2bc 021f f5bd 20a8 9ebd 9b4c 9fbc
00000030: 6927 ecbc 80d9 3f3e 99dd 1ebe 858d 873d
00000040: 56cc 803c edb8 2cbe 44d3 a23d 5ab8 d53d
00000050: 262e 90bc 83b1 be3d f991 183e 3da8 1c3e
00000060: 9762 b03d d8e7 223d da70 e73d 1144 fabd
00000070: 181f 4c3d e6e7 0c3e 0cc4 26be 9d1c cbbd
00000080: 5cf2 8e3d 1692 233e c8c8 4f3e 948d 78bd
00000090: 336f ed3c 792b a7bc efe8 883d afcd 50bd
000000a0: 29a7 9dbd 1810 133c 23ee 923d e958 18be
000000b0: 7ac1 87bd aff4 dd3d 4c24 923c 4623 4f3d
000000c0: 7adc 843d 03ce c9bd 26f5 c73d c4f4 05bc
000000d0: 9cdb 6cbd d8e3 bdbd 6c56 26be 274f fa3d
000000e0: 38a4 9c3d ae0b 1f3d b77d 32be 9546 1d3e
000000f0: a383 1fbe eb75 4b3d 12d0 bc3c aafe 1a3e
00000100: 6627 223e 1e80 423d 604d 0bbe ea00 103c
00000110: d51a 033e fd9d 213e 373a d03d c912 1a3e
00000120: 67a3 19be 2330 c63d 5b52 18be cc83 16be
00000130: f83e ddbd 10dc ae3c f1d3 4cbe eba9 7cbd
00000140: 8c96 b73d 112c 183e b250 f03d 9185 11be
00000150: f7dc c8bb 2e5f 96bd 600c 36bd f5a0 e73d
00000160: 206d f0bc 1d5f 803d 2738 bcbd b28e 553b
00000170: 4376 f7bd 3e60 213e 8fcd 3dbd 6036 313e
00000180: 9979 ad3d 2714 4e3d 01ef 143d 0a61 c33d
00000190: 358f dabd 9558 3c3d 52e6 af3c 73e8 16be
000001a0: 1842 ce3c aa67 0e3e 906f 203e 6b4d a4bd
000001b0: 3d21 113e 17d4 0b3d 5e34 193e 5e80 81bd
000001c0: 0cd8 023c 9a64 10be 9a5c 133e 90b7 9bbd
000001d0: 8cb9 9b3d 88c2 b1bd f19b b33d a8e6 8b3d
000001e0: de0c 033e 5a65 b73d 3a5e 21be 5369 02be
000001f0: 24be e0bd 5372 b03d 91e3 673d d698 d3bd

gc2.fc.weight f4 [128, 128]
-0.01848435 -0.07862785 -0.032200135 0.017165327 0.0257243 -0.012271153 -0.054282643 -0.025356757
-0.072422795 0.08600811 0.0070202537 -0.0154464645 0.09247492 0.020833764 0.090949155 -0.01495029
0.0022025742 0.104187556 0.07163141 0.026152067 0.09144642 0.062740944 -0.05444464 -0.020737316
-0.009693324 -0.051475085 0.02308085 -0.11267617 -0.0474628 -0.11081237 0.04511072 0.008476563
0.05040816 0.030049255 0.1191002 -0.009467106 -0.06510806 0.012278001 -0.021740712 -0.026654204
0.057147935 -0.0070153363 0.048664995 0.020840721 -0.049501438 0.042224653 -0.020927588 0.09958086
-0.087445475 -0.008072726 -0.01693235 -0.008593388 -0.060733248 -0.050008364 0.075892754 -0.010446088
0.032103956 -0.040866677 0.0048931562 0.04285 -0.044664793 -0.023229918 0.01950532 0.068635374
-0.069968306 0.07486287 0.08718704 -0.06141305 -0.091753066 0.1000184 0.0011283702 -0.06604482
0.0013661529 0.024552764 -0.052179873 -0.08705594 0.028603595 -0.042690672 0.013095836 -0.10422058
-0.055146653 0.08732043 -0.026303489 0.08621171 -0.053860348 0.044488434 -0.033830218 0.09771783
0.011893178 -0.086353004 -0.04401024 0.05645861 0.09996137 -0.03881155 0.081877746 0.022028046
-0.003962835 -0.07120492 -0.040576153 0.05296991 0.026941229 0.060447365 0.037548285 -0.09002551
0.062476784 0.07458789 -0.08260558 0.009720262 -0.04682781 -0.014619724 0.05480691 0.050702993
-0.09940526 0.017727934 0.09575183 0.019720057 0.048747323 0.059955772 0.08934163 -0.05526128
-0.071194224 0.07928422 0.0625542 -0.060912117 0.0787799 0.04548939 0.09239179 0.070395276
-0.033867262 0.052966423 -0.009360881 0.0113822725 -0.052617494 0.10552486 -0.027120093 -0.008765349
-0.0017869202 -0.052418813 -0.055483576 -0.056184266 0.009536132 0.071646444 -0.017301725 -0.06719775
0.039351977 -0.002344349 -0.042441465 0.02120365 0.008911571 0.0651301 0.030043816 0.06879337
-0.0006204303 0.11802306 -0.032226767 0.015015597 0.05191284 -0.02564914 -0.109440364 0.035468433
-0.07004998 -0.05329007 0.07785794 0.10050999 -0.053508576 -0.101344176 -0.050010007 -0.0056533017
-0.026466954 0.011963592 -0.03851748 -0.06718304 -0.04380693 0.022505969 -0.02954146 -0.05778089
-0.048584357 0.046386342 0.015023244 -0.045932744 0.0014509421 -0.042788282 0.06785312 0.06926907
0.056973405 0.011978476 -0.010487194 -0.028072415 -0.07553024 0.025886664 0.099716574 -0.06890262
-0.004746036 0.071871795 -0.048015162 0.010523277 -0.033250168 0.06856289 -0.05707686 0.015901724
0.029277915 0.11265728 -0.027788157 -0.0066854926 0.057448976 0.0564142 0.0021391842 -0.0053004893
-0.017398952 0.06269257 0.080084026 -0.055404935 0.028689897 -0.012255444 -0.054678783 -0.0013421149
0.08326384 -0.039719347 0.021416683 0.0064036404 -0.013710872 0.046572637 -0.064221 0.07765803
0.022098055 -0.085285075 -0.031437356 -0.022854019 -0.07411474 0.06741376 -0.05870716 0.027417988
-0.05006139 -0.09446145 -0.07559212 -0.12182176 -0.035724282 -0.022360662 -0.028693555 -0.051174626
-0.028358638 0.039049577 0.055390444 0.041974787 0.05562559 0.10033305 0.035796348 -0.03306141
0.0038469927 0.06819159 -0.0002542527 0.04002331 -0.035375793 -0.04289174 0.014626502 -0.05112639
00000000: 7e6c 97bc a307 a1bd 4ae4 03bd 4d9e 8c3c
00000010: c4bb d23c f20c 49bc 7a57 5ebd f9b8 cfbc
00000020: 6752 94bd 0525 b03d 280a e63b 2b13 7dbc
00000030: 7e63 bd3d 92ab aa3c 8d43 ba3d 10f2 74bc
00000040: 1059 103b 4960 d53d 7db3 923d dc3c d63c
00000050: 4348 bb3d 537e 803d 5801 5fbd 4ee1 a9bc
00000060: bfd0 1ebc 8ad7 52bd 0d14 bd3c c4c2 e6bd
00000070: 5a68 42bd 99f1 e2bd 05c6 383d 48e1 0a3c
00000080: c978 4e3d db29 f63c ceea f33d ec1b 1bbc
00000090: 6057 85bd ab29 493c 9419 b2bc eb59 dabc
000000a0: f413 6a3d e8e0 e5bb f254 473d 29ba aa3c
000000b0: 05c2 4abd c2f3 2c3d 5570 abbc 0df1 cb3d
000000c0: 9d16 b3bd 7843 04bc b6b5 8abc 48cb 0cbc
000000d0: 6dc3 78bd 92d5 4cbd a96d 9b3d 1226 2bbc
000000e0: 707f 033d d163 27bd c556 a03b 7b83 2f3d
000000f0: 6ef2 36bd ab4c bebc 9fc9 9f3c b490 8c3d
00000100: 8b4b 8fbd b451 993d 1e8f b23d 408c 7bbd
00000110: 08e9 bbbd 72d6 cc3d d2e5 933a 8242 87bd
00000120: 7c10 b33a e122 c93c 90ba 55bd 624a b2bd
00000130: 1652 ea3c 6adc 2ebd eb8f 563c 9971 d5bd
00000140: 75e1 61bd 0ed5 b23d 6a7a d7bc c48f b03d
00000150: ab9c 5cbd 8139 363d 8e91 0abd 4920 c83d
00000160: 9bdb 423c d8d9 b0bd 1544 34bd 2541 673d
00000170: 8cb8 cc3d dcf8 1ebd 85af a73d 2974 b43c
00000180: abda 81bb e3d3 91bd 2e33 26bd faf6 583d
00000190: dab3 dc3c a897 773d 3bcc 193d 4b5f b8bd
000001a0: a8e7 7f3d 89c1 983d 1d2d a9bd bc41 1f3c
000001b0: 85ce 3fbd 9187 6fbc 367d 603d f1ad 4f3d
000001c0: fc94 cbbd 2c3a 913c 8919 c43d f58b a13c
000001d0: 46ab 473d 2f94 753d bff8 b63d a759 62bd
000001e0: 47ce 91bd c45f a23d 6b1c 803d fc7e 79bd
000001f0: 5b57 a13d 1553 3a3d e837 bd3d 662b 903d
00000200: 66b8 0abd 52f3 583d 615e 19bc b67c 3a3c
00000210: 7185 57bd 6b1d d83d f52a debc 8a9c 0fbc
00000220: 1837 eaba 1cb5 56bd bf42 63bd 7921 66bd
00000230: 703d 1c3c 5fbb 923d 59bc 8dbc f99e 89bd
00000240: 8a2f 213d a6a3 19bb 1ad7 2dbd 47b3 ad3c
00000250: d701 123c ee62 853d 731e f63c 8ae3 8c3d
00000260: 5fa4 22ba 13b6 f13d 3700 04bd fb03 763c
00000270: 8fa2 543d 251e d2bc 4522 e0bd 5947 113d
00000280: 5d76 8fbd b046 5abd fc73 9f3d 2ed8 cd3d
00000290: cf2b 5bbd 898d cfbd 4bd7 4cbd 553f b9bb
000002a0: 3ad1 d8bc f102 443c 81c4 1dbd 4397 89bd
000002b0: e56e 33bd 705e b83c ef00 f2bc a8ab 6cbd
000002c0: 6400 47bd 9bff 3d3d 0d24 763c f923 3cbd
000002d0: 8a2d be3a c442 2fbd 94f6 8a3d f1dc 8d3d
000002e0: f25c 693d 5f41 443c 7bd2 2bbc 1ff8 e5bc
000002f0: 99af 9abd 4510 d43c 3438 cc3d d11c 8dbd
00000300: a384 9bbb 8531 933d 8cab 44bd d369 2c3c
00000310: 5431 08bd b36a 8c3d 6dc9 69bd 5544 823c
00000320: 3dd8 ef3c dcb8 e63d fda3 e3bc fa11 dbbb
00000330: 9e4f 6b3d 9412 673d 8e31 0c3b baaf adbb
00000340: 3f88 8ebc f664 803d 1803 a43d 49f0 62bd
00000350: 1307 eb3c 0fcb 48bc dcf6 5fbd e7e9 afba
00000360: 3b86 aa3d c1b0 22bd 0a72 af3c a1d5 d13b
00000370: 91a3 60bc f3c2 3e3d 4d86 83bd 2c0b 9f3d
00000380: fb06 b53c f1a9 aebd 75c4 00bd 5a38 bbbc
00000390: 78c9 97bd 3a10 8a3d eb76 70bd b09b e03c
000003a0: 2c0d 4dbd 0175 c1bd 0bd0 9abd b07d f9bd
000003b0: a053 12bd b52d b7bc bf0e ebbc 7c9c 51bd
000003c0: 6050 e8bc 73f2 1f3d 17e1 623d c1ed 2b3d
000003d0: a9d7 633d 6a7b cd3d 319f 123d 676b 07bd
000003e0: d41d 7c3b 08a8 8b3d 384d 85b9 7bef 233d
000003f0: 35e6 10bd 40af 2fbd ffa3 6f3c e869 51bd

gc2.fc.bias f4 [128]
-0.07116292 0.054470632 0.06674488 -0.08900767 -0.044676077 0.029250443 0.0964485 -0.00490643
0.034280464 -0.054307684 -0.057994153 -0.0909117 -0.05517516 -0.06695237 -0.04283407 0.06626501
-0.05895791 0.074027166 -0.06827581 -0.05729094 -0.034421764 0.016295675 -0.0165961 0.08630026
0.0011134979 0.08384017 -0.018924112 -0.009057428 0.04919935 -0.07687131 0.042603694 0.037234996
-0.008071048 0.058761325 0.0260078 0.023928706 0.056169905 0.050710175 -0.033998586 -0.059005834
-0.06934937 0.0397823 -0.050872218 -0.03538292 -0.03587552 -0.04143836 -0.022349557 -0.038413323
-0.013161829 0.007996108 -0.047899082 0.020460475 -0.050210733 0.050263397 -0.07214303 -0.054256335
-0.036755715 0.006798533 0.05088631 0.0035384914 0.0012190632 0.05863107 0.029235363 0.013580788
0.058466036 0.062887244 -0.03981886 0.0052005835 -0.040851388 0.06513182 -0.007033536 -0.07350342
0.012486062 0.020170633 0.10010706 0.066165045 0.005455326 -0.08748892 0.09205458 0.048159655
0.08916845 0.012233584 -0.044003844 0.06764554 0.009294847 0.09370231 0.03590392 -0.059082672
0.029302223 -0.037441563 -0.028964216 0.09212324 0.090249896 0.08965726 0.026391175 0.068834946
-0.023455506 0.045677118 0.090210214 0.07209806 -0.0456233 -0.0001225393 0.092209674 -0.0127689615
0.038825653 0.065806635 -0.009867642 0.049673133 0.093003705 0.047182262 0.02204552 -0.023243178
0.013612401 -0.064514145 0.08007526 0.028487192 -0.040017903 0.06821696 0.032482892 0.0975288
0.041786548 -0.028293569 0.019791156 -0.0139731895 -0.05356367 0.008730083 -0.012375735 -0.07826853
00000000: ddbd 91bd 991c 5f3d 8ab1 883d a749 b6bd
00000010: 43fe 36bd a09e ef3c cb86 c53d 1ec6 a0bb
00000020: ac69 0c3d bc71 5ebd 478b 6dbd ea2f babd
00000030: 59ff 61bd 531e 89bd c772 2fbd f3b5 873d
00000040: d97d 71bd 8e9b 973d 30d4 8bbd e8a9 6abd
00000050: d6fd 0cbd 827e 853c 8bf4 87bc 31be b03d
00000060: caf2 913a 65b4 ab3d bd06 9bbc 9b65 14bc
00000070: 4285 493d b56e 9dbd 3681 2e3d b983 183d
00000080: 6e3c 04bc b7af 703d 4f0e d53c 2206 c43c
00000090: 6a12 663d 79b5 4f3d 1a42 0bbd 1ab0 71bd
000000a0: 0b07 8ebd c4f2 223d 635f 50bd aeed 10bd
000000b0: 36f2 12bd 45bb 29bd 6b16 b7bc 4a57 1dbd
000000c0: b6a4 57bc 1c02 033c d431 44bd ba9c a73c
000000d0: c5a9 4dbd fee0 4d3d babf 93bd e43b 5ebd
000000e0: 298d 16bd 3ac6 de3b 2a6e 503d 09e6 673b
000000f0: f9c8 9f3a 2227 703d 007f ef3c f481 5e3c
00000100: 157a 6f3d 07cb 803d 1a19 23bd a869 aa3b
00000110: c953 27bd d563 853d 9479 e6bb f688 96bd
00000120: 5792 4c3c e23c a53c ee04 cd3d 8a81 873d
00000130: 97c2 b23b 642d b3bd 1d87 bc3d 0f43 453d
00000140: f39d b63d 5f6f 483c 603d 34bd bf89 8a3d
00000150: 6a49 183c ffe6 bf3d fd0f 133d ac00 72bd
00000160: 370b f03c 535c 19bd 5d46 edbc 1cab bc3d
00000170: f0d4 b83d 3a9e b73d 4e32 d83c 56f9 8c3d
00000180: c325 c0bc ee17 3b3d 22c0 b83d 26a8 933d
00000190: 7fdf 3abd e57d 00b9 6dd8 bc3d e834 51bc
000001a0: a607 1f3d a1c5 863d e4ab 21bc 0e76 4b3d
000001b0: ba78 be3d 3042 413d ce98 b43c 7a68 bebc
000001c0: 8c06 5f3c fe1f 84bd 7ffe a33d f95d e93c
000001d0: d0e9 23bd 55b5 8b3d c80c 053d 2ebd c73d
000001e0: 5f28 2b3d eac7 e7bc 1021 a23c ceef 64bc
000001f0: 9465 5bbd 9f08 0f3c 98c3 4abc 404b a0bd

temporal_conv.weight f4 [128, 128, 3]
-0.11096431 -0.09078438 0.043086074 -0.06968478 -0.08183447 0.018764136 0.0063102595 -0.011127303
0.033096205 -0.04813664 -0.016255066 -0.037353948 -0.0840267 -0.03545278 0.044129096 -0.0044721114
-0.023604896 0.05102879 -0.06654973 -0.05029574 0.03726064 0.045968186 0.069447026 -0.049289946
0.025899088 -0.040167443 -0.028439194 0.0141442735 -0.030378947 -0.0098864315 0.036399342 0.015576447
-0.024384407 0.04583103 0.021810627 0.03894551 0.01886134 -0.052571554 -0.0043166648 -0.043201074
-0.017284881 -0.015879577 -0.03259791 -0.09183953 0.0013002969 0.02273986 0.080708176 -0.008790019
-0.0059926216 -0.010826417 0.042458434 -0.0075003617 -0.0650731 0.008388778 -0.014960744 -0.021853546
0.0109135 -0.0064559733 -0.035400588 -0.043720312 -0.049196266 -0.05162371 -0.043101475 -0.10980481
-0.08772335 -0.04344843 0.01985278 0.04160215 0.011807852 0.0007590412 -0.06099066 -0.03159842
0.0047397725 -0.016688375 0.031368587 -0.05055838 -0.04940087 -0.040744107 -0.06457112 -0.10317469
-0.02515778 -0.051681757 -0.033627696 0.03959134 -0.052439366 0.002761491 0.0005077792 0.03863589
0.008079666 -0.0039389906 -0.010924701 -0.02674469 0.026946304 -0.04575497 -0.043123372 0.011892278
0.014998349 0.075187914 -0.042002775 0.00068115536 0.016705336 0.0005503993 0.051517826 0.013414605
-0.02585971 -0.03605139 -0.08048564 0.047350705 -0.040937193 0.03865067 -0.03353916 -0.016785445
0.038900368 -0.0051979874 -0.0018689103 -0.10082683 -0.03536848 -0.02556625 -0.054361314 -0.009225011
-0.0069586197 0.039275724 -0.043788046 0.036067802 0.016059946 0.01843418 -0.07148107 -0.07352492
-0.025342155 4.0690975e-05 -0.001492039 -0.002036531 -0.008826676 0.024591679 -0.01088054 0.0567759
0.086210355 -0.044263918 0.01070331 0.051724426 -0.035469323 -0.06562601 -0.081810005 -0.0142179765
-0.056198973 -0.036606416 -0.032061387 -0.04503466 0.00893181 -0.04682303 0.07404161 0.055765584
0.020731602 0.10313942 0.036645174 0.021330535 -0.085783735 -0.06658971 -0.046397436 -0.056292
-0.0110898 -0.02881752 -0.036614195 0.0036178632 0.012186622 -0.012915706 -0.018544486 0.04758144
0.026338937 -0.04526964 -0.015202807 -0.06767106 -0.038556285 -0.0015689143 -0.009689785 0.022897856
0.023184499 0.012530066 -0.013900209 0.025558455 -0.07678629 -0.10530322 0.04500651 0.027227921
-0.027734026 -0.040631846 -0.054985918 0.012506463 0.03923989 -0.05950991 0.010804492 -0.02851315
0.031008882 0.02862671 -0.018826496 0.061327826 0.05279435 -0.0042377636 -0.015264879 -0.0026164742
-0.041867264 0.0064711478 -0.0021640551 -0.037587367 0.043944534 0.012938974 -0.00031140182 0.0082119545
-0.051891427 0.032528292 0.011443568 0.041945003 -0.005284852 -0.006100597 0.052080896 0.02491818
0.06297231 0.036551684 0.0026224207 -0.027341364 0.00428894 0.033997264 -0.09362938 -0.0776271
-0.021835625 -0.004706283 0.0004138569 0.027529767 0.0076590963 -0.023190264 0.03688591 -0.025838891
-0.045778506 0.008955134 -0.003052373 -0.019087413 0.0006785821 -0.03482199 -0.028183801 -0.010668735
-0.026930975 -0.006361434 0.025083788 -0.06188679 -0.05620098 -0.030105826 -0.079852015 -0.03748792
0.041489583 0.016498392 0.044340037 0.0314294 0.023584418 0.09219961 -0.05002384 -0.014003585
00000000: 4241 e3bd 29ed b9bd 067b 303d e5b6 8ebd
00000010: d598 a7bd 3fb7 993c 4bc6 ce3b 4b4f 36bc
00000020: e38f 073d ed2a 45bd 5829 85bc 7400 19bd
00000030: 3116 acbd ef36 11bd b6c0 343d ca8a 92bb
00000040: 0e5f c1bc 9103 513d 3a4b 88bd e802 4ebd
00000050: 9d9e 183d 2349 3c3d 3e3a 8e3d 41e4 49bd
00000060: 532a d43c 9e86 24bd 50f9 e8bc 62bd 673c
00000070: 45dd f8bc b3fa 21bc 7a17 153d 5b34 7f3c
00000080: cfc1 c7bc 51b9 3b3d 33ac b23c 5485 1f3d
00000090: 1983 9a3c 4555 57bd cf72 8dbb 9cf3 30bd
000000a0: 0699 8dbc e315 82bc 6385 05bd 5d16 bcbd
000000b0: b96e aa3a f148 ba3c 544a a53d 0304 10bc
000000c0: c15d c4bb 4961 31bc e5e8 2d3d 98c5 f5bb
000000d0: 0c45 85bd 1671 093c e91d 75bc 3506 b3bc
000000e0: 89ce 323c a18c d3bb 3500 11bd 1214 33bd
000000f0: 0682 49bd 6273 53bd 2c8b 30bd 58e1 e0bd
00000100: 4da8 b3bd fbf6 31bd 4ca2 a23c 0467 2a3d
00000110: b975 413c 65fa 463a 58d1 79bd 586d 01bd
00000120: 1850 9b3b 0fb6 88bc 597c 003d 4e16 4fbd
00000130: 9158 4abd 4be3 26bd dd3d 84bd 404d d3bd
00000140: b017 cebc 40b0 53bd 32bd 09bd 872a 223d
00000150: a9ca 56bd 22fa 343b 7c1c 053a ab40 1e3d
00000160: 9360 043c a612 81bb 84fd 32bc ae17 dbbc
00000170: 7fbe dc3c 9069 3bbd 22a2 30bd d4d7 423c
00000180: a3bb 753c 1ffc 993d 1a0b 2cbd 908f 323a
00000190: a1d9 883c ac48 103a 5b04 533d eec8 5b3c
000001a0: bed7 d3bc 9faa 13bd a8d5 a4bd d0f2 413d
000001b0: c2ad 27bd 2a50 1e3d 5c60 09bd a181 89bc
000001c0: fe55 1f3d e153 aabb 39f6 f4ba 4c7e cebd
000001d0: 8ade 10bd 5070 d1bc f8a9 5ebd 8024 17bc
000001e0: 2205 e4bb 95df 203d 185b 33bd d5bb 133d
000001f0: 2690 833c 4703 973c ab64 92bd 3c94 96bd
00000200: 5a9a cfbc 9aab 2a38 8590 c3ba 5277 05bb
00000210: c39d 10bc 7d74 c93c 4b44 32bc d98d 683d
00000220: 0e8f b03d 154e 35bd f05c 2f3c fedc 533d
00000230: 4848 11bd ee66 86bd 018c a7bd 84f2 68bc
00000240: e530 66bd 9cf0 15bd cd52 03bd 4376 38bd
00000250: ba56 123c 81c9 3fbd 21a3 973d 746a 643d
00000260: 52d5 a93c c33a d33d 4019 163d 60bd ae3c
00000270: 62af afbd 3060 88bd 3d0b 3ebd 7192 66bd
00000280: feb1 35bc b812 ecbc c4f8 15bd ac19 6d3b
00000290: 66aa 473c 669c 53bc 9bea 97bc c2e4 423d
000002a0: c1c4 d73c a86c 39bd 3215 79bc 2097 8abd
000002b0: 32ed 1dbd 07a4 cdba e7c1 1ebc 4994 bb3c
000002c0: 6bed bd3c e84a 4d3c b4bd 63bc f75f d13c
000002d0: 2142 9dbd 37a9 d7bd bf58 383d 170d df3c
000002e0: 7832 e3bc 946d 26bd ea38 61bd e8e7 4c3c
000002f0: 02ba 203d aac0 73bd 5305 313c 6994 e9bc
00000300: 5706 fe3c 9082 ea3c 063a 9abc e332 7b3d
00000310: e33e 583d f0dc 8abb 8b19 7abc 2779 2bbb
00000320: 027d 2bbd ec0b d43b d2d2 0dbb 36f5 19bd
00000330: 2fff 333d fefd 533c a543 a3b9 6f8b 063c
00000340: 1b8c 54bd 633c 053d ce7d 3b3c 86ce 2b3d
00000350: 8d2c adbb 84e7 c7bb c752 553d 3621 cc3c
00000360: a0f7 803d 38b7 153d ebdc 2b3b fffa dfbc
00000370: 3d8a 8c3b b740 0b3d c3c0 bfbd f5fa 9ebd
00000380: a0e0 b2bc 2a37 9abb effa d839 1b86 e13c
00000390: 28f9 fa3b 82f9 bdbc ae15 173d 15ac d3bc
000003a0: 3e82 3bbd 8eb8 123c 520a 48bb 355d 9cbc
000003b0: e0e2 313a 81a1 0ebd b7e1 e6bc ebcb 2ebc
000003c0: 599e dcbc 9373 d0bb 847c cd3c 017d 7dbd
000003d0: 0033 66bd 7ea0 f6bc 7489 a3bd ef8c 19bd
000003e0: fbf0 293d a327 873c e69d 353d 1dbc 003d
000003f0: 1c34 c13c 26d3 bc3d cce5 4cbd 4b6f 65bc

temporal_conv.bias f4 [128]
0.009114776 0.01879347 0.015265436 -0.021846421 0.0067741214 -0.0052803783 0.023608182 -0.0041304883
-0.0048152125 0.028606392 -0.0347976 -0.022275764 -0.00726508 -0.018578954 0.032800455 0.0005492701
-0.012495168 0.0104466155 -0.030408327 0.036410056 0.009501732 0.011171791 -0.017120508 -0.023713201
-0.03479328 -0.03144041 -0.0021621806 -0.022762762 -0.012001685 -0.028640518 -0.005822043 -0.008725494
0.022208953 0.043476522 -0.01802892 0.06783426 0.036794398 -0.015049235 -0.059593957 -0.024985166
0.037689034 -0.032581884 -0.012437233 -0.027495036 0.0016735962 0.0054471777 0.017724263 0.041092064
-0.029952573 0.040672038 -0.008257606 -0.017775014 -0.01683415 0.05613949 -0.00264213 0.015848266
-0.021293886 0.03210793 -0.0019888827 0.05860731 0.0024140016 0.04698638 -0.008954691 0.031297892
-0.0054799886 0.0062288684 0.019990146 0.064352095 -0.0012079629 0.0059540975 0.049550097 -0.03836507
-0.011104 0.0043140007 0.013722876 0.030727461 0.060324155 0.011203718 0.038718786 -0.014697098
-0.029594703 -0.031206595 0.054901984 0.007907391 -0.06065755 -0.034965366 0.04478239 0.0034742428
0.048345145 -0.017430509 0.027887015 -0.033314127 0.012926574 -0.027938597 -0.008159562 0.019262657
-0.022665432 0.0042542405 0.017383032 -0.0031486289 -0.045907136 0.0465503 0.04468366 0.04937511
-0.0004323214 0.035555538 0.031620074 -0.0029491228 0.059375767 -0.007855827 0.0458918 0.00030582026
0.013066688 0.030783253 -0.0049828677 -0.04344912 -0.05402417 0.04209533 0.050253727 0.04634957
0.0064773206 0.021263225 -0.0059551755 0.051702876 0.03154955 0.061467003 -0.0063573266 -0.017770542
00000000: 2456 153c c3f4 993c e11b 7a3c 44f7 b2bc
00000010: 73f9 dd3b 0607 adbb f265 c13c 0c59 87bb
00000020: eec8 9dbb f457 ea3c ee87 0ebd aa7b b6bc
00000030: e90f eebb e432 98bc c559 063d e4fc 0f3a
00000040: 88b8 4cbc 4828 2b3c e21a f9bc b622 153d
00000050: 27ad 1b3c e309 373c 4f40 8cbc 3042 c2bc
00000060: 6683 0ebd a9c7 00bd 5fb3 0dbb f978 babc
00000070: b7a2 44bc 859f eabc d6c6 bebb 60f5 0ebc
00000080: 8def b53c 7014 323d 63b1 93bc b0ec 8a3d
00000090: b9b5 163d 1191 76bc cb18 74bd b1ad ccbc
000000a0: d15f 1a3d 9574 05bd 89c5 4bbc 453d e1bc
000000b0: 925c db3a 3d7e b23b 7932 913c 2750 283d
000000c0: 195f f5bc b997 263d e94a 07bc e89c 91bc
000000d0: c5e7 89bc 86f2 653d 9627 2dbb 39d4 813c
000000e0: 8470 aebc 9b83 033d ea57 02bb 380e 703d
000000f0: 3a34 1e3b ca74 403d b2b6 12bc 3832 003d
00000100: 7a91 b3bb 891b cc3b 60c2 a33c 08cb 833d
00000110: 8254 9eba 971a c33b 0bf5 4a3d b124 1dbd
00000120: 8ded 35bc 765c 8d3b ead5 603c 28b8 fb3c
00000130: 7616 773d cd8f 373c 9797 1e3d 19cc 70bc
00000140: 9770 f2bc f9a4 ffbc e7e0 603d 008e 013c
00000150: 0d74 78bd d837 0fbd bd6d 373d 1fb0 633b
00000160: 8f05 463d 6dca 8ebc 4f73 e43c 6574 08bd
00000170: fbc9 533c 7cdf e4bc afaf 05bc b8cc 9d3c
00000180: dbac b9bc 2867 8b3b dc66 8e3c 3a59 4ebb
00000190: 1f09 3cbd 87ab 3e3d 3706 373d 8e3d 4a3d
000001a0: 32a9 e2b9 afa2 113d 0d84 013d 1246 41bb
000001b0: 0134 733d bab5 00bc 0af9 3b3d 8056 a039
000001c0: a915 563c 292d fc3c 5347 a3bb b4f7 31bd
000001d0: 7348 5dbd 276c 2c3d dad6 4d3d 0cd9 3d3d
000001e0: b43f d43b 3730 ae3c a223 c3bb 65c6 533d
000001f0: 1a3a 013d d3c4 7b3d 1f51 d0bb 8793 91bc

fc.weight f4 [30, 128]
0.035375655 0.012891599 0.015688315 -0.0014201315 -0.030626517 -0.044366516 -0.02801808 -0.016810866
0.0077013043 -0.0019428715 -0.029363412 -0.08221123 -0.07286198 0.010243398 0.01637957 -0.030178398
-0.0038216803 0.06306481 0.099701025 -0.0714923 -0.034656234 -0.12701835 -0.048747644 0.018687516
-0.024538666 -0.018566934 0.04065707 0.043090943 0.05535194 0.07175849 -0.023979941 -0.11427088
0.044422295 0.0045084646 0.050651904 0.08729536 0.019707292 0.010122422 0.037752386 -0.08124458
0.080574505 -0.023307173 -0.044862494 0.05305287 -0.08904999 -0.04395377 -0.004337548 -0.04495589
0.014362948 0.0034944718 0.03092251 0.06568207 -0.06233801 -0.050461203 -0.027557127 -0.054779284
0.014163215 0.07351435 -0.057260823 -0.026533324 -0.0668315 -0.031563196 0.03677466 -0.02474559
-0.012869543 -0.09288638 -0.029732948 0.07166735 0.004192165 0.031877737 -0.020305991 -0.014242035
-0.035170954 -0.06545712 -0.014615055 -0.073982805 0.00074752024 0.058473557 0.07953563 -0.06525309
-0.076615356 -0.030285269 0.09724987 -0.049276385 -0.042959213 0.08414615 0.04222321 -0.088600755
0.035573944 0.054315384 -0.04969343 -0.057084776 -0.07472859 0.010087773 0.07457106 0.09266496
-0.04002475 0.009762543 -0.008862717 0.023491496 0.07559971 -0.040350143 -0.094959185 -0.019482734
-0.050227944 0.04380474 0.0073229205 -0.06255203 0.075653024 0.04190722 -0.039668065 -0.0406906
0.02802726 -0.031042581 -0.03784638 -0.01745131 0.01636859 0.0457237 0.106166735 -0.087618485
0.0757293 0.054330193 0.13362713 0.02791429 0.06551002 0.04752397 -0.040682234 0.05650146
0.02143935 -0.012163897 -0.012515101 0.060076736 0.0401298 -0.03895296 -0.05635391 -0.057425562
0.05380119 -0.05004774 0.104787715 0.024172332 0.044290747 0.014693768 -0.022263097 0.0150429625
-0.042196207 -0.08680897 -0.06650166 0.10909425 -0.07867904 0.076932006 -0.0011459653 0.023075564
-0.014178405 0.051751275 0.080108896 -0.06921916 0.0039250497 0.050946478 -0.020943351 0.08038378
0.018338734 0.030594587 0.046365544 -0.011332307 0.020613091 0.079001 0.09521861 0.04525723
-0.0454015 -0.071654476 0.025578165 0.089607924 -0.027396917 0.042648967 0.002946988 -0.108216
-0.044608995 -0.05005337 -0.037730232 0.009776668 0.017574657 0.060565013 0.0563181 -0.014748191
0.0033719605 -0.021846022 -0.10860882 0.015610628 0.028573167 0.033281267 0.08919492 -0.081460945
0.02748938 -0.013287893 -0.03748744 0.0132979425 0.062137835 0.05711563 0.04549215 -0.022435132
0.0766304 -0.040060338 -0.020435525 0.050108273 -0.06829402 0.003516208 -0.035053205 -0.036556277
-0.047146767 0.008873267 0.009784145 0.045655563 0.048729796 -0.004749481 -0.027593825 0.028248314
-0.09351249 0.07356649 -0.023778804 0.048170175 0.092716075 0.07911921 0.033208672 -0.076330386
-0.054195765 0.087725945 -0.008049695 -0.06315583 -0.038857073 0.0061238785 -0.047543902 0.058603887
0.09316476 -0.03273188 -0.033760417 0.05327684 -0.02327809 0.04620776 0.07892821 -0.02410851
-0.09154563 0.051503856 -0.09358654 -0.046168473 -0.07139677 0.038178455 -0.038965072 0.047450766
-0.0013862385 0.042357974 0.022862263 0.003794841 -0.038503863 0.017781734 -0.080061 -0.085156165
00000000: 10e6 103d 4937 533c c884 803c b523 baba
00000010: 76e4 fabc aab9 35bd 2c86 e5bc f1b6 89bc
00000020: 395b fc3b f3a7 feba 8a8b f0bc 5d5e a8bd
00000030: a938 95bd edd3 273c 732e 863c b038 f7bc
00000040: 2875 7abb 2028 813d 0d30 cc3d 8e6a 92bd
00000050: b2f3 0dbd 1911 02be 9cab 47bd 9016 993c
00000060: 5005 c9bc af19 98bc 0788 263d 2180 303d
00000070: b7b8 623d 1df6 923d 9571 c4bc da06 eabd
00000080: 27f4 353d bebb 933b 5f78 4f3d e9c7 b23d
00000090: 3071 a13c 84d8 253c 3fa2 1a3d 8f63 a6bd
000000a0: 3f04 a53d afee bebc bcc1 37bd f74d 593d
000000b0: d75f b6bd de08 34bd fd21 8ebb ab23 38bd
000000c0: 9252 6b3c 8203 653b 3451 fd3c 5284 863d
000000d0: 2456 7fbd 68b0 4ebd 7cbf e1bc 3e60 60bd
000000e0: d40c 683c b18e 963d 538a 6abd 6a5c d9bc
000000f0: f4de 88bd 6948 01bd 07a1 163d 43b7 cabc
00000100: c7da 52bc 373b bebd 8392 f3bc 55c6 923d
00000110: 6e5e 893b 3b92 023d c058 a6bc 6d57 69bc
00000120: 6b0f 10bd 620e 86bd fc73 6fbc 4c84 97bd
00000130: 3cf5 433a f881 6f3d 94e3 a23d 69a3 85bd
00000140: 83e8 9cbd d018 f8bc f12a c73d 09d6 49bd
00000150: 00f6 2fbd d154 ac3d 3ff2 2c3d 5074 b5bd
00000160: fcb5 113d cf79 5e3d 578b 4bbd bad1 69bd
00000170: 4e0b 99bd 3047 253c b6b8 983d 20c7 bd3d
00000180: fef0 23bd 13f3 1f3c ee34 11bc 3d71 c03c
00000190: 05d4 9a3d 3146 25bd f679 c2bd 419a 9fbc
000001a0: d1bb 4dbd 996c 333d 1cf5 ef3b 471b 80bd
000001b0: f9ef 9a3d e8a6 2b3d fb7a 22bd 30ab 26bd
000001c0: 6d99 e53c 034d febc ce04 1bbd 0df6 8ebc
000001d0: 6c17 863c c648 3b3d f26d d93d 5271 b3bd
000001e0: f717 9b3d 5689 5e3d 8dd5 083e 82ac e43c
000001f0: 1e2a 863d 7fa8 423d 6aa2 26bd 136e 673d
00000200: 93a1 af3c 154b 47bc 230c 4dbc 0613 763d
00000210: 255f 243d 248d 1fbd 5cd3 66bd 1137 6bbd
00000220: a35e 5c3d dcfe 4cbd f19a d63d 0e05 c63c
00000230: 376a 353d 21be 703c 1961 b6bc c276 763c
00000240: eed5 2cbd e7c8 b1bd 0632 88bd ce6c df3d
00000250: 7a22 a1bd 878e 9d3d 3734 96ba f708 bd3c
00000260: 8a4c 68bc 25f9 533d 2210 a43d c6c2 8dbd
00000270: b49d 803b 41ad 503d 6491 abbc 40a0 a43d
00000280: 1d3b 963c 80a1 fa3c cce9 3d3d 24ab 39bc
00000290: c9dc a83c 47cb a13d f901 c33d a55f 393d
000002a0: ecf6 39bd 95bf 92bd 4d89 d13c 5c84 b73d
000002b0: 806f e0bc afb0 2e3d 4122 413b 5aa0 ddbd
000002c0: ecb7 36bd c304 4dbd 048b 1abd 512e 203c
000002d0: baf8 8f3c 0513 783d cfad 663d 66a2 71bc
000002e0: 1cfc 5c3b 6ef6 b2bc 4d6e debd b8c3 7f3c
000002f0: 4612 ea3c f051 083d d4ab b63d ffd4 a6bd
00000300: 6931 e13c 76b5 59bc 6e8c 19bd 9ddf 593c
00000310: 3e84 7e3d 14f2 693d fa55 3a3d e2c9 b7bc
00000320: 66f0 9c3d 4f16 24bd 6768 a7bc 553e 4d3d
00000330: bcdd 8bbd 2e70 663b f393 0fbd 09bc 15bd
00000340: f81c 41bd 2e61 113c ae4d 203c 5401 3b3d
00000350: e598 473d 89a1 9bbb 720c e2bc 0269 e73c
00000360: 7a83 bfbd 07aa 963d c4cb c2bc 174e 453d
00000370: ede1 bd3d 4109 a23d d105 083d 1b53 9cbd
00000380: 61fc 5dbd a9a9 b33d dee2 03bc d857 81bd
00000390: 9828 1fbd d1aa c83b 65bd 42bd a10a 703d
000003a0: 2acd be3d dd11 06bd 5d48 0abd d138 5a3d
000003b0: b1b1 bebc 5944 3d3d 1da5 a13d 367f c5bc
000003c0: 467c bbbd b5f5 523d 4daa bfbd 271b 3dbd
000003d0: 7838 92bd 0361 1c3d d799 1fbd bc5b 423d
000003e0: 72b2 b5ba 8e7f 2d3d a449 bb3c deb2 783b
000003f0: 3ab6 1dbd 00ab 913c 06f7 a3bd 5b66 aebd

fc.bias f4 [30]
-0.06941126 -0.053127997 0.034669396 0.095810585 0.012387036 0.011806062 -0.02774445 -0.0010783006
0.0042758966 0.029106587 0.053105526 -0.06503559 0.045783233 -0.03762073 -0.041552793 0.025739511
0.012079313 0.06405842 -0.010654671 -0.058010075 0.003099249 -0.010237913 -0.03320529 -0.0432643
-0.013818308 0.046431113 0.08851161 0.009193025 0.09216167 0.065865494
00000000: 7e27 8ebd be9c 59bd 7f01 0e3d 5738 c43d
00000010: fff2 4a3c 376e 413c 5448 e3bc c455 8dba
00000020: d21c 8c3b f070 ee3c 2e85 593d 6131 85bd
00000030: 3387 3b3d 3218 1abd 4333 2abd abdb d23c
00000040: 50e8 453c 1031 833d ee90 2ebc f99b 6dbd
00000050: c51c 4b3b ebbc 27bc 4502 08bd e835 31bd
00000060: 2f66 62bc 8d2e 3e3d 9345 b53d 579e 163c
00000070: 42bf bc3d 7de4 863d
