GWN/best_models/best_model_w60_h30.pth (torch, 311371 bytes, 9 tensors)

adapt_adj f4 [60, 60]
0	0x3f809ddc	1.0048175
1	0x3b9e1e89	0.0048254174
2	0x3ba20baa	0.004945238
3	0x3ba42bf4	0.0050101224
4	0x3ba578ff	0.0050498242
5	0x3ba84649	0.005135332
6	0x3babbb45	0.00524083
7	0x3baf05ca	0.0053412663
8	0x3bb381b2	0.0054781074
9	0x3bb3946a	0.005480339
10	0x3bb41982	0.005496205
11	0x3bb69f0e	0.00557316
12	0x3bb95eb2	0.0056570405
13	0x3bbc3b89	0.005744402
14	0x3bbefa97	0.0058282125
15	0x3bc0f3cb	0.0058884374
16	0x3bc1ba7f	0.0059121246
17	0x3bc373f3	0.00596475
18	0x3bc5c95f	0.006035968
19	0x3bca38ac	0.0061713066
20	0x3bca6873	0.006177002
21	0x3bcda7ea	0.0062761204
22	0x3bd1338f	0.00638432
23	0x3bd78709	0.0065773767
24	0x3bddb4db	0.0067659444
25	0x3be1f4f3	0.0068956553
26	0x3be7bc54	0.007072011
27	0x3bea7cf8	0.0071560107
28	0x3bee1e78	0.0072668158
29	0x3bf3ed0c	0.0074440297
30	0x3bf477d3	0.007460573
31	0x3bf4c305	0.007469537
32	0x3bf3da0f	0.007441766
33	0x3bf34888	0.007424418
34	0x3bf4da30	0.007472299
35	0x3bf6df87	0.0075339708
36	0x3bf49b1b	0.007464779
37	0x3bf96a6b	0.007611563
38	0x3bfac62b	0.007653018
39	0x3bff6afb	0.0077947355
40	0x3c01eece	0.007930471
41	0x3c055e6f	0.0081401905
42	0x3c08743a	0.008328492
43	0x3c0aad7e	0.008464215
44	0x3c0d56df	0.008626669
45	0x3c102727	0.008798397
46	0x3c11d071	0.008899794
47	0x3c14b739	0.009076887
48	0x3c18dcb0	0.00932996
49	0x3c1bc86f	0.009508236
50	0x3c1b9305	0.009495501
51	0x3c1c6709	0.00954605
52	0x3c1d3943	0.009596172
53	0x3c1ebe5f	0.009688943
54	0x3c1eb08e	0.009685649
55	0x3c1d47a1	0.009599597
56	0x3c20acc2	0.009806814
57	0x3c20af30	0.009807393
58	0x3c22bda7	0.009932912
59	0x3c272c77	0.010203472
60	0x3b9e6af5	0.0048345276
61	0x3f809d93	1.0048088
62	0x3ba1bf22	0.004936115
63	0x3ba40972	0.005006009
64	0x3ba5658f	0.005047507
65	0x3ba823c9	0.005131219
66	0x3babc26a	0.005241682
67	0x3baf1e21	0.005344168
68	0x3bb38740	0.0054787695
69	0x3bb3a671	0.005482488
70	0x3bb42649	0.005497728
71	0x3bb6a091	0.00557334
72	0x3bb8f9a2	0.005644993
73	0x3bbbfbcc	0.0057368036
74	0x3bbefd2e	0.005828521
75	0x3bc0d263	0.005884455
76	0x3bc1952e	0.005907676
77	0x3bc372f8	0.005964633
78	0x3bc58c32	0.0060286755
79	0x3bc9f999	0.0061637876
80	0x3bca1d14	0.006168017
81	0x3bcd8922	0.006272451
82	0x3bd15ed6	0.006389479
83	0x3bd7b146	0.006582412
84	0x3bde04b5	0.0067754635
85	0x3be28876	0.00691324
86	0x3be85419	0.0070901033
87	0x3beb232f	0.007175825
88	0x3bee9565	0.007280993
89	0x3bf4a5bc	0.007466046
90	0x3bf4e834	0.00747397
91	0x3bf5497f	0.007485568
92	0x3bf42bc9	0.0074515087
93	0x3bf3a3a2	0.007435278
94	0x3bf55604	0.0074870605
95	0x3bf73b2c	0.0075448956
96	0x3bf538ac	0.0074835625
97	0x3bf9c5e4	0.0076224674
98	0x3bfaea01	0.00765729
99	0x3bffcd2c	0.007806441
100	0x3c024d60	0.007953018
101	0x3c05ca13	0.008165854
102	0x3c08e419	0.008355164
103	0x3c0b1ee3	0.008491251
104	0x3c0dc90c	0.00865389
105	0x3c1090bb	0.008823569
106	0x3c124350	0.008927181
107	0x3c1523ae	0.009102745
108	0x3c19462f	0.009355112
109	0x3c1c1be7	0.009528137
110	0x3c1bd22d	0.009510559
111	0x3c1cb010	0.009563461
112	0x3c1d841a	0.009614015
113	0x3c1eeb5d	0.00969967
114	0x3c1ee7b4	0.009698797
115	0x3c1d7daa	0.00961248
116	0x3c20e50c	0.009820234
117	0x3c20fb9b	0.009825612
118	0x3c2305c0	0.009950101
119	0x3c27830b	0.010224114
120	0x3b9e668d	0.0048340023
121	0x3b9d52cd	0.0048011304
122	0x3f80a028	1.0048876
123	0x3ba25954	0.0049544964
124	0x3ba3b923	0.0049964353
125	0x3ba6852f	0.0050817947
126	0x3baa0020	0.005188003
127	0x3bad3bce	0.0052866703
128	0x3bb19c20	0.005420223
129	0x3bb1e4ad	0.0054288716
130	0x3bb25036	0.005441691
131	0x3bb4a3ac	0.0055126753
132	0x3bb705b2	0.0055853957
133	0x3bb9fde1	0.0056760167
134	0x3bbd3015	0.005773554
135	0x3bbf5332	0.005838775
136	0x3bbff67b	0.00585824
137	0x3bc1c91d	0.005913867
138	0x3bc42357	0.005985658
139	0x3bc89e84	0.006122412
140	0x3bc8e0ea	0.0061303275
141	0x3bcc703e	0.0062389662
142	0x3bd01469	0.0063500893
143	0x3bd68106	0.0065461425
144	0x3bdcdb5e	0.006740018
145	0x3be1386d	0.0068731816
146	0x3be6df78	0.0070456825
147	0x3be97248	0.007124219
148	0x3becb34c	0.0072235223
149	0x3bf27e50	0.0074003115
150	0x3bf2c86a	0.007409145
151	0x3bf3148a	0.00741822
152	0x3bf20bff	0.007386684
153	0x3bf1c6ec	0.0073784497
154	0x3bf34deb	0.00742506
155	0x3bf524d6	0.007481198
156	0x3bf33c71	0.0074229767
157	0x3bf7e44b	0.0075650564
158	0x3bf904b9	0.00759944
159	0x3bfdbe44	0.0077436287
160	0x3c0136ed	0.0078866305
161	0x3c04da59	0.008108699
162	0x3c07f09a	0.00829711
163	0x3c0a5db8	0.008445196
164	0x3c0d145b	0.00861081
165	0x3c100226	0.008789575
166	0x3c11a1c7	0.008888668
167	0x3c146a31	0.009058521
168	0x3c187f6d	0.009307724
169	0x3c1b5710	0.009481207
170	0x3c1b19c1	0.009466589
171	0x3c1c0cbc	0.0095245205
172	0x3c1cfa74	0.009581197
173	0x3c1e64b4	0.009667564
174	0x3c1e6b90	0.0096692
175	0x3c1d0966	0.00958476
176	0x3c206e72	0.009791957
177	0x3c20a7ad	0.009805602
178	0x3c22a599	0.009927177
179	0x3c272579	0.010201805
180	0x3b9f403b	0.004859952
181	0x3b9e7f9a	0.0048369886
182	0x3ba125ef	0.004917852
183	0x3f80a200	1.0049438
184	0x3ba37780	0.0049886107
185	0x3ba65f39	0.0050772694
186	0x3ba9d273	0.005182558
187	0x3bad1d9a	0.00528307
188	0x3bb1a658	0.005421441
189	0x3bb1bbf5	0.0054240176
190	0x3bb22285	0.005436244
191	0x3bb47f4f	0.0055083404
192	0x3bb6d71c	0.0055798423
193	0x3bb9ce54	0.005670348
194	0x3bbcd3e9	0.0057625663
195	0x3bbf1f57	0.0058325934
196	0x3bc019c5	0.005862447
197	0x3bc1e3d2	0.005917051
198	0x3bc420f6	0.0059853746
199	0x3bc8ab4c	0.006123936
200	0x3bc8cc32	0.0061278576
201	0x3bcc392f	0.0062324028
202	0x3bcfd8bd	0.006342976
203	0x3bd668fa	0.006543276
204	0x3bdc8546	0.0067297546
205	0x3be104ee	0.0068670427
206	0x3be6d5da	0.007044536
207	0x3be94175	0.007118399
208	0x3bec95d8	0.007220011
209	0x3bf28496	0.0074010594
210	0x3bf2e89f	0.0074129845
211	0x3bf31c59	0.007419151
212	0x3bf24056	0.0073929233
213	0x3bf1dc5e	0.007381006
214	0x3bf326b5	0.0074203857
215	0x3bf4d7ed	0.0074720294
216	0x3bf2d9cc	0.0074112173
217	0x3bf770a4	0.0075512696
218	0x3bf87e8e	0.007583446
219	0x3bfcfe5b	0.007720751
220	0x3c00bb0d	0.007857096
221	0x3c044ae1	0.008074493
222	0x3c076794	0.008264441
223	0x3c09d8bd	0.008413491
224	0x3c0c7ffb	0.008575435
225	0x3c0f6233	0.00875144
226	0x3c112f5b	0.008861388
227	0x3c1403cc	0.009034108
228	0x3c182f41	0.00928861
229	0x3c1af5a0	0.009457976
230	0x3c1a9c1a	0.009436632
231	0x3c1b7914	0.0094893165
232	0x3c1c7c65	0.009551142
233	0x3c1dfcf3	0.009642827
234	0x3c1df02e	0.009639783
235	0x3c1c8edc	0.009555545
236	0x3c200a12	0.009768026
237	0x3c203522	0.009778293
238	0x3c223465	0.009900187
239	0x3c269284	0.010166768
240	0x3b9e1234	0.0048239473
241	0x3b9d4c04	0.0048003215
242	0x3ba00269	0.0048831
243	0x3ba10b94	0.0049147103
244	0x3f80a178	1.0049276
245	0x3ba467ec	0.0050172713
246	0x3ba7d326	0.0051216064
247	0x3bab443a	0.005226639
248	0x3bafa839	0.00536063
249	0x3bafe775	0.005368168
250	0x3bb080fe	0.005386471
251	0x3bb2ddb6	0.005458559
252	0x3bb54101	0.0055314307
253	0x3bb80e4c	0.0056169387
254	0x3bbae2c1	0.0057033007
255	0x3bbccd3c	0.0057617705

gc1.fc.weight f4 [128, 30]
0	0x3c8359bb	0.016033998
1	0xbdc0cd8c	-0.09414205
2	0xbd41fdcf	-0.04736119
3	0x3e3852a9	0.18000282
4	0xbe1c9be2	-0.1529384
5	0x3e31e19e	0.17371222
6	0x3e18afb6	0.14910778
7	0xbd8fe26d	-0.07025609
8	0x3dbfdce7	0.09368306
9	0xbdedc592	-0.11609949
10	0x3e3dec36	0.18547139
11	0x3ca20462	0.01977748
12	0xbe1a09c1	-0.15042783
13	0x3de13e66	0.1099823
14	0x3b0ec931	0.00217874
15	0x3d986237	0.07440608
16	0x3d98b17a	0.07455726
17	0x3d840ba9	0.064475365
18	0xbca7649c	-0.020433716
19	0x3dd6a6ea	0.10481055
20	0xbce49684	-0.027903803
21	0x3db1a961	0.086748846
22	0x3d1ba4ef	0.03799909
23	0xbe10b671	-0.14132096
24	0x3e488476	0.1958178
25	0xbdd9f784	-0.10642913
26	0xbe1411e0	-0.14459944
27	0x3d5353b1	0.051593486
28	0xbe1eb58a	-0.15498939
29	0x3e3b2ea2	0.18279508
30	0xbe30372a	-0.17208543
31	0x3e3b4a38	0.18290031
32	0x3d96e40d	0.07367716
33	0xbd769136	-0.060197078
34	0xbe2a3750	-0.16622663
35	0xbcbad3dc	-0.0228061
36	0xbd88ffe1	-0.0668943
37	0x3ca85378	0.020547614
38	0x3d9f4520	0.077768564
39	0x3e189073	0.14898853
40	0x3d19d48a	0.03755621
41	0x3e39d093	0.18145971
42	0x3ccce33e	0.025010701
43	0x3d1edb82	0.038783558
44	0x3d8f1108	0.0698567
45	0x3dfc2de4	0.123134404
46	0x3e3f7f23	0.18700843
47	0x3dd21b83	0.10259154
48	0xbc2d4476	-0.010575404
49	0x3dceaeff	0.100919716
50	0xbd730ffb	-0.059341412
51	0x3c2a77f2	0.010404574
52	0x3d95ef9d	0.07321093
53	0x3e246b53	0.16056566
54	0xbe2f81f8	-0.17139423
55	0x3d1f4cbf	0.03889155
56	0xbb522815	-0.0032067348
57	0x3bb1e075	0.0054283687
58	0xbdb63f46	-0.08898787
59	0x3df8a895	0.121415295
60	0xbdc8f217	-0.098118
61	0x3dd33249	0.103123255
62	0xbe18de0b	-0.14928453
63	0xbe2add96	-0.16686091
64	0xbdc20498	-0.094735324
65	0x3da40d37	0.08010333
66	0x3e19dde4	0.15026051
67	0xbc4eca4e	-0.012621475
68	0x3d931d2d	0.07183299
69	0xbe035b8b	-0.1282789
70	0x3d4dd24a	0.050249375
71	0xbd5a434f	-0.053286847
72	0xbde04dbc	-0.10952327
73	0x3d6752e9	0.056475554
74	0x3d1e6a2d	0.038675476
75	0xbe360f82	-0.17779353
76	0x3aa6eed3	0.001273597
77	0x3dc2dba5	0.0951455
78	0xbd90e951	-0.070757516
79	0xbe3a1792	-0.18173054
80	0x3d813c65	0.063103475
81	0xbcae341d	-0.021265084
82	0x3e173d9c	0.14769596
83	0xbdb1e018	-0.086853206
84	0xbc94099b	-0.018070986
85	0x3d623c3a	0.055233218
86	0x3d2460cc	0.040131375
87	0xbe2f04bc	-0.1709165
88	0xbde30f83	-0.11086943
89	0xbd85e9f0	-0.06538761
90	0x3e2b1151	0.16705824
91	0x3d8616ce	0.065473184
92	0xbe0ee847	-0.13955794
93	0xbdb1ae9a	-0.08675881
94	0xbd115005	-0.035476703
95	0x3d7acb2a	0.06122891
96	0xbd31110e	-0.043229155
97	0x3bf32f55	0.007421414
98	0x3ddff8cd	0.10936127
99	0xbdfd0839	-0.12355084
100	0xbd24859d	-0.040166486
101	0x3dd61145	0.10452513
102	0xbe3968f6	-0.18106446
103	0x3df28995	0.11842648
104	0xbd8764be	-0.06611012
105	0xbd706565	-0.058690447
106	0xbe127d9c	-0.14305729
107	0xbe40f184	-0.18842131
108	0xbde67d79	-0.11254401
109	0xbdfb42ce	-0.12268601
110	0xbde1720f	-0.11008083
111	0x3dae450c	0.085092634
112	0x3db0a578	0.08625311
113	0xbdf8df06	-0.12151913
114	0x3c25033a	0.01007157
115	0xbd586ad9	-0.052836273
116	0xbd8d4653	-0.06898179
117	0x3dff012d	0.12451396
118	0xbd3d533c	-0.046221957
119	0xbbca6ab0	-0.006177269
120	0x3e07bc84	0.13255507
121	0xbdc2de40	-0.09515047
122	0xbd68de85	-0.056852836
123	0x3d6e8bd0	0.058238804
124	0xbd8ea18e	-0.06964408
125	0xbe3595bc	-0.177329
126	0xbc68ded5	-0.014213284
127	0xbe0ffb92	-0.1406081
128	0xbdc3ae59	-0.095547386
129	0x3d209532	0.039204784
130	0x3c9a8c26	0.018865656
131	0x3e0c403a	0.13696375
132	0xbdbe39a1	-0.092883356
133	0xbcd10117	-0.025513215
134	0x3e2b68fd	0.16739269
135	0xbe1108f5	-0.14163573
136	0xbe23b002	-0.1598511
137	0x3dd38569	0.1032818
138	0x3da4ce67	0.080471806
139	0x3d936ea7	0.0719884
140	0x3e1e4d4e	0.15459177
141	0x3e18080a	0.14846817
142	0xbe2aae84	-0.16668135
143	0xbd188698	-0.037237734
144	0xbe2f62f7	-0.17127596
145	0xbc182b96	-0.009287735
146	0x3d314a09	0.043283496
147	0x3ddb73c9	0.10715444
148	0xbe181361	-0.14851142
149	0xbe0c1bc0	-0.13682461
150	0xbd99eea7	-0.075162224
151	0x3df75f7c	0.12078759
152	0xbc8fe4c6	-0.017565142
153	0xbdca9961	-0.09892536
154	0x3d541c8e	0.051785044
155	0x3d4066f6	0.04697319
156	0x3db21ee6	0.086973
157	0xbd9b153d	-0.0757241
158	0xbdff9fd7	-0.12481659
159	0x3c60402e	0.013687177
160	0x3e035c24	0.12828118
161	0xbd7ddee1	-0.061980132
162	0x3dcf1779	0.10111899
163	0xbd0c49dd	-0.03425013
164	0x3dbd7851	0.09251464
165	0x3d0a1a1c	0.033716306
166	0x3e2458ba	0.16049471
167	0xbdda50a6	-0.10659914
168	0x3dfff6e4	0.124982625
169	0x3d8d1166	0.06888084
170	0x3dee5108	0.11636549
171	0xbd03bf32	-0.03216476
172	0x3c340f35	0.010989954
173	0xbcd60bed	-0.026128734
174	0x3cefdcc2	0.02928007
175	0x3e11a94e	0.14224741
176	0xbdf1ead9	-0.11812372
177	0xbdd402a8	-0.10352069
178	0x3d56aba0	0.052409768
179	0xbd257979	-0.04039905
180	0xbddc6815	-0.107620396
181	0xbd838585	-0.06421951
182	0xbe1b39cf	-0.15158771
183	0x3d93d64b	0.072186075
184	0x3e33e7d6	0.17568907
185	0xbe12a33d	-0.14320083
186	0xbba512aa	-0.0050376253
187	0xbdd8eb99	-0.10591812
188	0xbe14ea87	-0.1454259
189	0x3e1299b2	0.14316443
190	0x3deca267	0.11554413
191	0x3e24a9f7	0.16080461
192	0x3b45c084	0.0030174563
193	0xbdf10065	-0.117676534
194	0x3cc3b61b	0.023890546
195	0x3d9584a0	0.07300687
196	0xbdd7dd93	-0.10540309
197	0x3ce365af	0.027758447
198	0x3dc73cf0	0.0972842
199	0xbd3969a7	-0.045266774
200	0x3cc0fdc1	0.0235585
201	0x3df29e52	0.118466035
202	0x3c3c1b83	0.011481169
203	0xbd7e199c	-0.06203614
204	0x3e311553	0.17293291
205	0x3dd6210a	0.104555205
206	0xbc0cc2f7	-0.008591405
207	0xbdf9db10	-0.12199986
208	0xbe0c336e	-0.13691494
209	0xbe2af65a	-0.16695538
210	0x3d857465	0.06516341
211	0x3e38aa86	0.180338
212	0x3cf08308	0.029359356
213	0xbb181b0e	-0.0023209485
214	0x3e041749	0.12899508
215	0xbd8793b3	-0.06619968
216	0x3e07d8b7	0.13266264
217	0x3e2bb2c4	0.16767412
218	0xbe0bec99	-0.13664474
219	0xbd2efb34	-0.042720035
220	0xbc8964a7	-0.016771628
221	0x3e18806c	0.14892739
222	0x3e2b7e51	0.16747405
223	0xbe2572a1	-0.16157009
224	0x3cbd26a0	0.023089707
225	0x3d5fe33c	0.054660067
226	0x3e1e1708	0.15438473
227	0xbd99be8f	-0.07507049
228	0xbe283418	-0.16426122
229	0x3d3dea19	0.04636583
230	0xbdb1c9eb	-0.08681091
231	0xbd55f5d7	-0.052236404
232	0xbe1ba73b	-0.15200512
233	0xbc594d24	-0.013263021
234	0xbdf8470f	-0.12122928
235	0xbdf39b1e	-0.11894821
236	0xbe383bc4	-0.17991549
237	0x3e1bdd55	0.1522115
238	0x3e48bb61	0.1960273
239	0x3e2bd385	0.16779907
240	0xbe18ae28	-0.14910185
241	0xbdb0d42b	-0.08634218
242	0x3e28290f	0.16421913
243	0xbcd80d59	-0.026373552
244	0x3e37b316	0.1793941
245	0x3d135c72	0.035976835
246	0xbc91e008	-0.017807022
247	0x3e149499	0.1450981
248	0x3d8ee0ef	0.069764964
249	0xbd26cb22	-0.040721066
250	0xbe0c3bce	-0.13694689
251	0x3e2efd69	0.17088856
252	0xbdec1837	-0.11528056
253	0xbdb9a1fc	-0.09064099
254	0x3db2b8dd	0.08726666
255	0x3d5451f9	0.051835988

gc1.fc.bias f4 [128]
0	0xbda44383	-0.08020689
1	0xbd2c5262	-0.042070754
2	0xbca1b290	-0.019738466
3	0x3d853800	0.06504822
4	0x3d0f0889	0.03492025
5	0x3d5fe0ac	0.054657623
6	0xbdb5194b	-0.08842715
7	0x3d32a50c	0.043614432
8	0x3e0084d8	0.12550676
9	0x3d25b29d	0.040453542
10	0xbe1b1ea6	-0.1514841
11	0x3dacfb8f	0.084464185
12	0x3de636cc	0.112409204
13	0xbc30802d	-0.010772747
14	0x3e0ada23	0.13559775
15	0x3c469a28	0.012121715
16	0x3ac384d3	0.0014916904
17	0x3e144c61	0.14482261
18	0xbe2416f8	-0.16024387
19	0x3cc6344c	0.024194859
20	0xbdf7f6cd	-0.121076204
21	0x3dcf5507	0.101236396
22	0xbe11f10d	-0.1425211
23	0x3d585cfa	0.052823044
24	0x3e3ff60e	0.18746206
25	0xbe143d42	-0.14476493
26	0xbd8a8e2b	-0.06765398
27	0x3e491d4b	0.1964008
28	0xbe0cfac3	-0.13767533
29	0x3d6901a4	0.05688633
30	0xbe137703	-0.14400868
31	0xbdcd0723	-0.10011127
32	0xbe1319ab	-0.1436526
33	0x3d417266	0.04722824
34	0x3ddcc9ad	0.10780654
35	0xbe1f5477	-0.15559565
36	0xbd88df15	-0.066831745
37	0x3e1e3823	0.15451102
38	0xbdfe8645	-0.12427954
39	0x3dd963b7	0.10614722
40	0xbde62f7b	-0.11239525
41	0xbd3c2605	-0.045934696
42	0x3e249c92	0.16075352
43	0x3dcbfdcd	0.09960518
44	0x3d35f5c9	0.044423852
45	0x3d64fbc9	0.055904184
46	0xbdf45b98	-0.119315326
47	0x3cb8605a	0.022506882
48	0xbdc3af69	-0.09554941
49	0x3e34c57d	0.17653461
50	0xbe3930ab	-0.18084972
51	0x3d2967fc	0.041358933
52	0xbe01ef4b	-0.1268894
53	0x3cca8589	0.024721878
54	0xbe2b6d92	-0.16741017
55	0x3dbc8524	0.09205082
56	0xbdfabdd7	-0.1224324
57	0xbd48b8ed	-0.049004484
58	0x3ddf07ef	0.10890185
59	0xbdf12b47	-0.117758326
60	0x3e2ffa30	0.17185283
61	0x3dd7c7d6	0.105361626
62	0x3da387d5	0.07984892
63	0x3dbb6ee4	0.0915201
64	0xbc9b8c71	-0.018987866
65	0xbdf03dea	-0.11730559
66	0xbdfeefce	-0.12448083
67	0x3d8e8c25	0.06960324
68	0xbe1bb722	-0.15206578
69	0xbe14bf08	-0.14525998
70	0x3d2435c2	0.04009033
71	0xbe119a75	-0.14219077
72	0x3e19e514	0.15028793
73	0x3d57ffe6	0.05273428
74	0x3e07a273	0.13245563
75	0x3db0120a	0.08597191
76	0x3d70aa42	0.05875612
77	0x3cb88e8f	0.022528915
78	0x3e2a95d8	0.16658723
79	0x3d326a69	0.043558512
80	0xbcb3e414	-0.021959342
81	0x3d903a6d	0.07042394
82	0xbe2dc618	-0.16970098
83	0x3bfc4552	0.0076986933
84	0x3d42995c	0.047509536
85	0x3e1a1477	0.15046869
86	0xbe251132	-0.1611984
87	0x3e1b9b1a	0.15195885
88	0x3d127c10	0.035762846
89	0x3e1e39ee	0.15451786
90	0x3d5a0e4b	0.053236287
91	0x3dbb4288	0.09143549
92	0xbd8baa44	-0.06819585
93	0x3cf77eaa	0.030211765
94	0x3d807881	0.06272984
95	0x3db9930f	0.09061252
96	0x3e120b92	0.14262226
97	0xbd00ee64	-0.031477347
98	0xbe1933e5	-0.14961202
99	0x3db80249	0.08984811
100	0xbe080ab9	-0.1328534
101	0xbe03c183	-0.12866788
102	0x3e204ea1	0.15654995
103	0x3e1219ef	0.14267705
104	0xbd8ba4f5	-0.068185724
105	0x3db8db9b	0.090262614
106	0xbe160fc3	-0.1465445
107	0x3a6e7a2e	0.00090971857
108	0x3dac17d3	0.084029816
109	0x3d77b520	0.06047547
110	0xbd1280b5	-0.035767276
111	0xbc89aa12	-0.016804729
112	0xbd4e1830	-0.050316036
113	0x3dc6c2d6	0.09705131
114	0x3e0fa145	0.14026363
115	0xbe388c87	-0.18022357
116	0x3ce14f62	0.027503673
117	0xba459de3	-0.00075384806
118	0xbc69917c	-0.014255878
119	0xbdee77c2	-0.11643936
120	0x3ddfd538	0.1092934
121	0x3e10f77c	0.14156908
122	0xbd4303d9	-0.04761109
123	0x3e15f4ba	0.14644137
124	0xbdd9376b	-0.10606273
125	0x3e362770	0.17788482
126	0x3dd551a5	0.10415963
127	0xbdd678d2	-0.104722634

gc2.fc.weight f4 [128, 128]
0	0xbd5ca582	-0.053868778
1	0x3ceb0684	0.02868963
2	0xbd893379	-0.06699271
3	0xbba10b77	-0.004914697
4	0xbcb6044c	-0.022218846
5	0xbd4549aa	-0.048165955
6	0xbd0c6410	-0.034275115
7	0xbc4b06f1	-0.012391792
8	0xbc0d8842	-0.008638443
9	0x3d08ba11	0.03338057
10	0xbbf29c65	-0.0074038976
11	0x3c394180	0.01130712
12	0xbd0ac880	-0.033882618
13	0x3c779243	0.015110555
14	0x3d48f7e2	0.049064524
15	0x3d886ec2	0.066617504
16	0x3dd40102	0.10351755
17	0x3cc32fc6	0.023826491
18	0x3d85eb91	0.06539071
19	0xbdb46013	-0.08807387
20	0xbc6827aa	-0.014169613
21	0xbd4aa6a2	-0.04947532
22	0x3d349b8f	0.044093665
23	0x3c1d95f0	0.009618267
24	0x3c582b45	0.01319391
25	0x3d093139	0.033494208
26	0xbd837344	-0.064184695
27	0xbdc96a61	-0.09834743
28	0x3d021cf7	0.031765904
29	0xbd315bbe	-0.043300383
30	0x3d222de1	0.039594535
31	0x3d923709	0.071394034
32	0x3d4e832d	0.050418068
33	0xb9b6bbbe	-0.00034853624
34	0x3d96f0b8	0.07370132
35	0x3d6f57b0	0.058433235
36	0x3c80555f	0.015665708
37	0xbcdfb558	-0.027308151
38	0x3da5aaa6	0.08089189
39	0xbd64561f	-0.055746194
40	0x3d86e006	0.06585698
41	0x3db3c10a	0.08777054
42	0x3d263b80	0.040584087
43	0x3cec629b	0.028855613
44	0x3d3cbbd0	0.04607755
45	0xbc58ff4c	-0.013244461
46	0xbd5868a0	-0.052834153
47	0xbd0240a1	-0.031799916
48	0x3d660ae3	0.056162726
49	0xbda03635	-0.07822839
50	0xbd586f39	-0.052840445
51	0x3d80d138	0.06289905
52	0xbd3af879	-0.04564712
53	0xbd873b1b	-0.0660307
54	0xbc10eca1	-0.008845479
55	0xbcb305fd	-0.021853441
56	0xbd50a728	-0.050940663
57	0x3cfde781	0.030994179
58	0x3db59184	0.088656455
59	0xbd91ff78	-0.07128805
60	0xbcc54c4e	-0.024084236
61	0x3cbdc5bf	0.023165582
62	0xbd60561c	-0.05476962
63	0x3c9031d1	0.01760188
64	0xbdb0b447	-0.08628135
65	0xbce5a070	-0.028030604
66	0x3d74cbb1	0.059764568
67	0xbd1d9d97	-0.038480368
68	0xbdcfe93d	-0.101519085
69	0xbcc10514	-0.023561992
70	0x3db0209c	0.0859997
71	0x3d152921	0.036416177
72	0x3d756891	0.059914175
73	0x3d074eae	0.03303402
74	0xbd342a34	-0.04398556
75	0x3d34ac9d	0.04410993
76	0x3c4f4e17	0.012652895
77	0xbcee1ae1	-0.029065551
78	0x3cd41e76	0.025893431
79	0xbd7d2acb	-0.06180839
80	0x3d051c71	0.032497827
81	0xbd19412d	-0.037415672
82	0x3d61b5e4	0.055105105
83	0xbcd99ad3	-0.026563084
84	0x3d0a9640	0.033834696
85	0xbccb96f5	-0.024852255
86	0xbda4e7df	-0.080520384
87	0xbd29a7e5	-0.041419882
88	0x3dba792f	0.09105145
89	0xbd873a2c	-0.06602892
90	0x3d446462	0.047947295
91	0x3da1f506	0.07908063
92	0x3d3d09c5	0.046151895
93	0x3d8b3ab3	0.06798305
94	0xbcc344f9	-0.0238366
95	0x3d5c1f59	0.053740833
96	0xbd7900c1	-0.060791735
97	0xbdaa3abd	-0.08311985
98	0xbd948912	-0.072527066
99	0x3c228dc0	0.009921491
100	0x3b46ee5a	0.003035447
101	0xbc234c72	-0.009966956
102	0xbdaab7b2	-0.08335818
103	0xbd092bd0	-0.03348905
104	0xbca6707d	-0.02031731
105	0x39fe0272	0.00048448477
106	0xbd32d4d6	-0.043660007
107	0x3d93201b	0.07183858
108	0xbca1218d	-0.019669319
109	0x3d72def7	0.059294667
110	0xbd045666	-0.03230896
111	0x3d08fdca	0.033445157
112	0x3d8ec670	0.06971443
113	0x3b2ba5d4	0.002619137
114	0x3b21e746	0.00247045
115	0xbdb1c974	-0.08681002
116	0x3d6396a2	0.055563577
117	0xbd8ef783	-0.06980803
118	0xbd9420a7	-0.072327904
119	0x3c813008	0.015769973
120	0x3d9147b5	0.07093755
121	0xbd2be865	-0.041969676
122	0x3cbae092	0.022812162
123	0x3b212c9c	0.002459324
124	0x3d43558f	0.047689017
125	0xbc6a1087	-0.014286167
126	0xbd4b7db6	-0.049680434
127	0x3c9311ca	0.017952818
128	0xbd0665cb	-0.03281192
129	0xbd66bb58	-0.05633101
130	0x3d46011d	0.048340905
131	0xbd1e4eb2	-0.03864927
132	0xbd933e1b	-0.0718958
133	0xbd61ed58	-0.05515799
134	0xb95d00c5	-0.00021076489
135	0x3d39d7f7	0.045371976
136	0x3cc5a362	0.024125759
137	0x3d5d4ea0	0.05403006
138	0x3cce1896	0.025158208
139	0xbdbdef86	-0.09274201
140	0xbd9747d8	-0.0738675
141	0xbd457fd1	-0.0482176
142	0x3c8cf461	0.017206373
143	0xbd942f23	-0.07235553
144	0x3b2077e6	0.0024485528
145	0xbcbbe884	-0.02293802
146	0x3d523fcb	0.05133037
147	0x3da4bea1	0.08044172
148	0x3cc5690f	0.024097947
149	0x3d3308be	0.04370951
150	0x3d7cbf74	0.06170602
151	0x3d769c92	0.06020791
152	0x3dcba021	0.099426515
153	0xbcab3498	-0.020899102
154	0xbdc87f39	-0.09789891
155	0xbd592722	-0.053015836
156	0xbddf34ce	-0.108987436
157	0x3dc0682a	0.09394868
158	0x3d22a094	0.03970392
159	0x3da89e94	0.082333714
160	0x3dab90b1	0.08377207
161	0xbc2a84dc	-0.010407653
162	0xbd619096	-0.05506953
163	0xbd535ead	-0.05160396
164	0xbc57bfc9	-0.013168284
165	0x3c985124	0.018593378
166	0x3c57feb8	0.013183288
167	0x3d1facaf	0.038983043
168	0xbca3fcba	-0.02001797
169	0x3d80d072	0.06289758
170	0xbb55cff9	-0.0032625182
171	0xbd94786e	-0.07249533
172	0x3d6dffa4	0.058105126
173	0xbd4a5fa2	-0.04940761
174	0xbdac81f6	-0.084232256
175	0xbda9e953	-0.08296456
176	0x3daa303b	0.083099805
177	0x3db68f03	0.08913996
178	0xbd86b4a2	-0.06577422
179	0x3d4b4303	0.049624454
180	0x3d014cb9	0.03156731
181	0xbd1bfe9e	-0.03808462
182	0xbdb966f7	-0.09052842
183	0xbd7e7e13	-0.062131952
184	0x3d4cb41b	0.04997645
185	0xbda51f8d	-0.080626585
186	0x3db24f94	0.087065846
187	0xbc4b7115	-0.012417098
188	0xbd2dd77d	-0.042441834
189	0x3c65b6e0	0.014020652
190	0x3da1d0e6	0.07901172
191	0x3d0f59a4	0.034997597
192	0x3d934ef9	0.07192797
193	0x3d5bad31	0.053631965
194	0xbd883c3f	-0.06652116
195	0x3d78e41c	0.060764417
196	0xbdb18aa2	-0.0866902
197	0xbd86a6af	-0.06574761
198	0x3da3c39a	0.079962924
199	0x3bc1e9b2	0.005917751
200	0x3d59cdd1	0.053174797
201	0xbd5c02b8	-0.05371353
202	0xbc751278	-0.014958017
203	0x3d9acd19	0.075586505
204	0xbce73615	-0.02822403
205	0xbcf0dfc0	-0.029403567
206	0x3d71d32c	0.05903928
207	0x3d4c8ec1	0.04994083
208	0x3d6b3169	0.057420168
209	0xbd7774e8	-0.060414225
210	0x3dafebdf	0.08589911
211	0x3dacd316	0.08438699
212	0x3d8cd8b2	0.06877269
213	0x3ca00951	0.019535692
214	0xbcdccef7	-0.026954157
215	0x3d05e68d	0.032690573
216	0xbd68571c	-0.0567237
217	0xbdcab633	-0.09898033
218	0xbd197764	-0.037467375
219	0x3da1b82b	0.078964554
220	0xbd4454c5	-0.047932405
221	0xbd1f2f75	-0.038863618
222	0xbdc84115	-0.097780384
223	0xbd8eaca7	-0.069665246
224	0x3cd39bcd	0.025831128
225	0x3d337edd	0.043822158
226	0x3b696dd7	0.0035618448
227	0xbdac3f2b	-0.08410486
228	0xbdafa3d9	-0.08576173
229	0xbda74007	-0.08166509
230	0xbc43d6e7	-0.011953092
231	0xbc355ec1	-0.011069954
232	0x3dc2a8b9	0.095048375
233	0xbdb68b32	-0.08913268
234	0x3d387456	0.04503282
235	0xbd9221ba	-0.07135339
236	0xbd51fa51	-0.05126411
237	0x3d0edd40	0.03487897
238	0x3c93f9b3	0.018063402
239	0x3d3de5e5	0.046361823
240	0x3cc864ca	0.024462122
241	0x3db43b98	0.08800429
242	0x3d84cb28	0.064840615
243	0xbd9ecf4a	-0.07754381
244	0xbcbfc626	-0.023409914
245	0xbd87b425	-0.06626157
246	0xbc9bbcfa	-0.01901101
247	0x3c84c999	0.01620941
248	0x3c5de1b7	0.013542584
249	0x3c458310	0.0120551735
250	0x3d5b0e11	0.05348021
251	0x3d5dcfdc	0.05415331
252	0x3d69620c	0.05697827
253	0xbceb1fb3	-0.028701639
254	0xbbc29621	-0.005938307
255	0x3cb05345	0.021524081

gc2.fc.bias f4 [128]
0	0x3d324227	0.04352012
1	0x3a93a959	0.001126568
2	0x3d969cee	0.07354151
3	0x3dca8a99	0.09889717
4	0x3d820fdb	0.063506804
5	0x3bfd3c0a	0.0077281045
6	0xbd33ee21	-0.04392827
7	0xbd7b17c1	-0.06130195
8	0x3dc4fcba	0.09618516
9	0xbc17d680	-0.009267449
10	0xbd1f3c53	-0.03887589
11	0x3d41f0d0	0.047348797
12	0xbc24f226	-0.010067498
13	0x3d11bd24	0.03558077
14	0x3dc7ec7b	0.09761902
15	0x3d9e56e1	0.077314146
16	0x3d5fed46	0.05466964
17	0x3cbc43ff	0.022981642
18	0xbd2f83c0	-0.042850256
19	0xbd5e4250	-0.05426246
20	0xbd7a05ec	-0.061040804
21	0x3d0fa45d	0.03506886
22	0x3d950fe0	0.072784185
23	0x3d48e57d	0.049046982
24	0xbd3474af	-0.04405659
25	0xbd3d0ee9	-0.046156798
26	0x3d99ab99	0.07503433
27	0xbc5e355c	-0.013562527
28	0xbc9bbf46	-0.019012105
29	0x3daa029a	0.083012775
30	0xbc1f4c69	-0.009722807
31	0xbdae2b83	-0.08504393
32	0xbcfa0698	-0.030520722
33	0x3dc2a09f	0.09503292
34	0x3be618e2	0.007022009
35	0xbab24553	-0.0013600982
36	0xbccd1f4d	-0.02503934
37	0xbd1d8d73	-0.038464975
38	0x3d03079d	0.031989682
39	0xbc070741	-0.008241476
40	0xbb3a09bd	-0.0028387152
41	0xbd2fd343	-0.042926084
42	0x3c214463	0.009842965
43	0x3b5d465a	0.0033763857
44	0x3c530f74	0.012882102
45	0xbd2d1574	-0.042256787
46	0x3d5902a0	0.05298102
47	0x3a9b6baf	0.0011857654
48	0xbbe5b0cf	-0.0070096026
49	0x3db2960a	0.08720024
50	0x3c8dafda	0.017295767
51	0x3db6dd2c	0.08928904
52	0xbd0e3cb7	-0.03472587
53	0x3b08040c	0.0020754365
54	0x3d1b70d7	0.03794941
55	0xbcfd9517	-0.03095488
56	0xbd0aaf16	-0.03385838
57	0x3c0ac430	0.008469626
58	0xbd431398	-0.047626108
59	0x3d35eecf	0.0444172
60	0x3d5ce646	0.053930543
61	0xbd765c31	-0.060146514
62	0x3d9b3a3e	0.07579468
63	0xbc35d9ea	-0.011099318
64	0x3c2b38d4	0.010450561
65	0xbcaa0ac9	-0.020757096
66	0x3d937a87	0.072011046
67	0xbc74795b	-0.0149215115
68	0xbb8fb677	-0.004385765
69	0x3d57f13e	0.0527203
70	0x3da718c7	0.08159023
71	0x3dbb8180	0.091555595
72	0xbacc5bf3	-0.0015591368
73	0x3d4ebd38	0.05047342
74	0x3cb20a1c	0.021733336
75	0x3d784b48	0.06061867
76	0xbd5c1a8d	-0.05373626
77	0xbd8bd776	-0.06828205
78	0x3c2807bc	0.01025575
79	0x3dc1f7ba	0.09471078
80	0x3d556ad9	0.05210385
81	0x3d924445	0.07141928
82	0x3db82e22	0.08993174
83	0x3dcc53c5	0.09976915
84	0x3d9d3d35	0.0767769
85	0xbd65f562	-0.05614222
86	0x3d7eecbd	0.06223749
87	0x3db6a87f	0.08918857
88	0x3d93f2c6	0.0722404
89	0x3d652152	0.05593998
90	0x3db475c4	0.088115245
91	0x3d71b2aa	0.059008278
92	0xbb73ef89	-0.0037221632
93	0xbd52a513	-0.05142696
94	0x3caf3ea3	0.021392172
95	0x3aff4601	0.0019475819
96	0xbd06bd8a	-0.032895602
97	0x3d4e1beb	0.050319593
98	0xbc983bf2	-0.018583272
99	0x3d1f73a9	0.03892866
100	0xbc2a024a	-0.010376522
101	0xbba2dc15	-0.0049700835
102	0x3c7b46e5	0.015336727
103	0x3d700bd0	0.058605015
104	0xbd8eddc4	-0.06975892
105	0x3db31850	0.087448716
106	0x3d90e719	0.070753284
107	0x3c56c15a	0.013107622
108	0xbd450a2c	-0.048105404
109	0xbcb6bcc1	-0.022306802
110	0x3db256b4	0.087079436
111	0xbcb6ae8e	-0.022300031
112	0x3d8223e7	0.06354504
113	0x3d76f395	0.06029089
114	0xbd246a3d	-0.04014038
115	0xbb256288	-0.002523573
116	0xbd936ce9	-0.07198507
117	0x3d6c1593	0.057637762
118	0xbd824908	-0.06361586
119	0xbc1375f8	-0.009000294
120	0xbd8a51bc	-0.06753871
121	0xbd9457c6	-0.07243304
122	0xbd4a758d	-0.04942851
123	0xbdba85de	-0.091075644
124	0xbcb1cf30	-0.02170524
125	0x3bf15bad	0.007365665
126	0x3d523ac7	0.051325586
127	0xbd27e831	-0.04099292

temporal_conv.weight f4 [128, 128, 3]
0	0xbc984d41	-0.018591525
1	0x3d27f6bc	0.04100679
2	0xbd437d6b	-0.04772703
3	0xbd379fd5	-0.044830162
4	0xbbd8450b	-0.0066000274
5	0xbd2ab520	-0.04167664
6	0x3d31315d	0.043259967
7	0xbbe9940c	-0.0071282443
8	0xbd3afcdb	-0.045651298
9	0xbb961a0b	-0.0045807413
10	0x3caaa06c	0.020828448
11	0xbd24e0d1	-0.040253464
12	0x3cc5d390	0.024148732
13	0x3d4667b6	0.04843875
14	0xbd030f1c	-0.03199683
15	0x3c933343	0.01796878
16	0xbcbe962b	-0.023264965
17	0xbc6937b6	-0.014234474
18	0x3d442263	0.047884356
19	0xbbab7a36	-0.0052330745
20	0x3d35dc12	0.04439933
21	0xbd1fe0ef	-0.039032873
22	0xbd943690	-0.072369695
23	0x3d2d3857	0.042290058
24	0x3cb5ca43	0.022191172
25	0xbbfc9d98	-0.0077092163
26	0xbbf0568a	-0.007334535
27	0xbc3a25ab	-0.01136152
28	0xbd110f9c	-0.035415277
29	0x3d3ebb1a	0.046565153
30	0x3d0e238a	0.03470186
31	0x3c197fde	0.009368865
32	0xbd0a576d	-0.033774782
33	0x3c60e607	0.013726718
34	0x3d2f5364	0.042804137
35	0x3ba093bf	0.004900425
36	0x3d4881c4	0.04895188
37	0xbc83e706	-0.016101371
38	0xbb8ee3dd	-0.0043606595
39	0xbb1d17e9	-0.002397055
40	0x3c2f8dc9	0.010714957
41	0x3d2be111	0.041962687
42	0x3d1781fb	0.036989193
43	0x3a7d1f8c	0.0009655885
44	0x3b3354a5	0.0027363684
45	0x3c2e3013	0.010631579
46	0x3d69bc80	0.057064533
47	0x3c94ff5b	0.01818817
48	0xbd2084d2	-0.039189167
49	0xbd547690	-0.051870883
50	0xbd1c513c	-0.03816341
51	0x3c24e53a	0.0100644175
52	0x3d60fc3c	0.05492805
53	0x3c7b39e2	0.015333625
54	0xbc1f2bf8	-0.009715073
55	0x3d95ddd3	0.073177
56	0xbbb58821	-0.0055399095
57	0xbd4d8bc8	-0.050182134
58	0x3b8b0582	0.0042426
59	0x3d3e6382	0.046481617
60	0x3d0853b3	0.033282947
61	0xbc73f480	-0.014889836
62	0x3d1b3bf5	0.037898976
63	0xbd57acd7	-0.052655067
64	0x3c97403a	0.018463243
65	0xbcd965cd	-0.0265378
66	0xbcfd2e5f	-0.0309059
67	0xbc648d3b	-0.013949688
68	0x3bad86b9	0.005295601
69	0xbce9f212	-0.028557811
70	0xbc0f9571	-0.008763657
71	0x3c30d8e0	0.0107938945
72	0x3c712024	0.014717136
73	0x3d0f5280	0.034990788
74	0x3a031ae9	0.00050012633
75	0x3c220d3c	0.009890851
76	0xbc89360a	-0.0167494
77	0x3cf7e745	0.030261645
78	0x3cb30305	0.021852026
79	0x3c0667a7	0.008203424
80	0xbb49ff62	-0.0030822386
81	0xbd80172d	-0.062544204
82	0xbd011e3b	-0.03152297
83	0x3b5996ee	0.0033201533
84	0xbd30cb49	-0.043162618
85	0xbd41ecc5	-0.04734494
86	0xbcb1c60e	-0.021700885
87	0x3b6ea77d	0.0036415749
88	0x3cdc2e7b	0.026877632
89	0x3cfb2b74	0.030660369
90	0xbb80ce0d	-0.003930813
91	0xbcd30cb5	-0.025762895
92	0x3c5265ef	0.012841686
93	0xbc913175	-0.017723778
94	0xbd18df0d	-0.037322093
95	0x3b76c90a	0.003765645
96	0xbcbd610b	-0.023117563
97	0xbc667a9d	-0.014067319
98	0xbd3ad0fa	-0.04560945
99	0x3d3a3b03	0.045466434
100	0x3d209151	0.039201085
101	0x3cd46e1b	0.025931409
102	0x3cf579f6	0.029965382
103	0x3d4b37cb	0.049613755
104	0x3cb8364b	0.022486826
105	0x3d8452b0	0.06461084
106	0x3d3f05c6	0.046636365
107	0xbc855dbe	-0.016280051
108	0xbd861204	-0.06546405
109	0x3c255004	0.010089878
110	0x3ba7ce56	0.0051210327
111	0xbd91e8ec	-0.071245044
112	0xbd400605	-0.04688074
113	0xbcfa468e	-0.030551221
114	0xbd133fbb	-0.03594945
115	0xbce6ea56	-0.028187912
116	0xbccb2331	-0.024797054
117	0x3d481741	0.0488503
118	0xbc55f9c3	-0.013060036
119	0x3b43b8ed	0.0029864863
120	0x3b5da336	0.0033819205
121	0xbd1f5cab	-0.038906734
122	0x3cb58631	0.022158714
123	0x3c435eb7	0.011924437
124	0x3c8b4006	0.016998302
125	0xbbe75ea8	-0.0070608445
126	0x3d0d29fd	0.03446387
127	0xbd0194d7	-0.031636085
128	0xbbb342d6	-0.005470614
129	0x3d59ef04	0.05320646
130	0x3c83c5ec	0.016085587
131	0xbbdaf8a0	-0.0066824704
132	0x3d2fdd21	0.042935494
133	0xbd361f87	-0.04446366
134	0xbd2cec66	-0.042217635
135	0xbbe66851	-0.0070314785
136	0xbc5c04f6	-0.013428917
137	0x3ca148ba	0.019687999
138	0xbb144946	-0.0022626682
139	0x3cf3c46f	0.029756753
140	0xbca954ea	-0.020670373
141	0xbcfcf58f	-0.03087881
142	0xbcf4537c	-0.029824965
143	0xbc986d51	-0.018606814
144	0xbc56809d	-0.013092187
145	0x3c8b19bc	0.016980045
146	0x3b4f3d80	0.003162235
147	0xbd1e2359	-0.03860793
148	0xbd0ddfa6	-0.034637116
149	0x3c377b85	0.011198883
150	0x3c7ba5d4	0.015359361
151	0xbb18e65a	-0.002333066
152	0xba4afd85	-0.0007743466
153	0xbc1b82bd	-0.00949162
154	0x3d0acef8	0.033888787
155	0x3c47cf24	0.012195382
156	0xbd0eae67	-0.03483429
157	0x3d315d39	0.043301795
158	0x3d15b413	0.036548685
159	0xbd8d42ca	-0.06897505
160	0xbd56c133	-0.052430343
161	0x3bf2807c	0.0074005704
162	0xbd241476	-0.040058576
163	0xbc121e19	-0.008918309
164	0x3b968ddb	0.004594547
165	0x3d217708	0.039420158
166	0xbc3a8383	-0.011383894
167	0xbb05ba2c	-0.0020405157
168	0x3cb52afc	0.022115223
169	0xbd070dca	-0.032972135
170	0x3d040195	0.03222807
171	0x3ccef5e1	0.025263729
172	0x3bb32eb6	0.005468215
173	0xbada3ed2	-0.0016650802
174	0xbd3171e0	-0.04332149
175	0x3cbf24ad	0.023332918
176	0xbc8a1758	-0.016856834
177	0xbc6a2ace	-0.014292432
178	0x3d340bfc	0.04395674
179	0xbcd6419d	-0.026154334
180	0x3beafe02	0.0071713934
181	0x3cebc7c5	0.028781781
182	0xbd3eda47	-0.046594884
183	0xbbf53341	-0.0074829166
184	0xbd22fe57	-0.03979334
185	0x3c4b043b	0.012391145
186	0x3cde39d1	0.027127178
187	0x3d37d88b	0.044884246
188	0x3c025d61	0.007956834
189	0xbcbc0f49	-0.022956507
190	0xbbec7b4e	-0.0072168475
191	0x3d31db4c	0.04342203
192	0x3d5267a0	0.051368356
193	0xbd0be974	-0.034158185
194	0x3bcf37d6	0.006323795
195	0x3d1b78f6	0.037957154
196	0x3d6d7cf8	0.057980508
197	0xbd3f68bb	-0.046730738
198	0xbc9e69db	-0.019337585
199	0x3c9d7b7d	0.019223923
200	0xbd18f2e4	-0.037341014
201	0xbb009240	-0.0019618422
202	0xbce7624f	-0.02824512
203	0xbc25986d	-0.010107142
204	0xbcf0f918	-0.029415652
205	0xbcf680ab	-0.03009065
206	0x3c8a4fe0	0.01688379
207	0xbc80d30b	-0.015725633
208	0x3b1fa6aa	0.0024360814
209	0xbcecc145	-0.028900752
210	0x3d311686	0.04323437
211	0x3d56426d	0.052309442
212	0xbca976dd	-0.020686561
213	0xbd0710b0	-0.0329749
214	0xbcda87fa	-0.026676167
215	0xbd38754e	-0.045033745
216	0x3d3c6518	0.045994848
217	0x3d2bb1a1	0.041917447
218	0xbcfbc018	-0.030731246
219	0x3d728961	0.059213046
220	0xbca5ad2c	-0.020224176
221	0xbc87c5e1	-0.016573848
222	0x3d14fdf0	0.036374986
223	0x3c476057	0.012168965
224	0x3b962e6d	0.004583171
225	0xbd6d66dd	-0.057959426
226	0x3be7c205	0.0070726895
227	0x3ca6eca0	0.020376503
228	0x3be1f43c	0.00689557
229	0xbc8bfa50	-0.017087132
230	0xbc1dc068	-0.009628393
231	0x3c56ea0b	0.013117324
232	0x3ce968e9	0.028492408
233	0x3d054b93	0.032542776
234	0xbd781288	-0.060564548
235	0xb809bf29	-3.2841377e-05
236	0xbcf07ded	-0.029356921
237	0x3acb0053	0.0015487768
238	0xbadc26a6	-0.0016796186
239	0xbd32bbd7	-0.04363617
240	0xb9b33f2f	-0.00034188616
241	0xbd0b0ff8	-0.033950776
242	0x3d0a5030	0.03376788
243	0xbd09fcc9	-0.03368834
244	0xbd233d85	-0.03985359
245	0x3cffdd2b	0.03123339
246	0x3c7b23c2	0.01532835
247	0xbcec1c86	-0.028822195
248	0xbcc8e71f	-0.02452427
249	0x3d3c7a3d	0.046015013
250	0x3d294b6a	0.041331686
251	0x3cf5ff9b	0.030029109
252	0x3d8a08f3	0.06739988
253	0xbc098735	-0.008394052
254	0xbcbc4f18	-0.022986934
255	0x3c982f30	0.018577188

temporal_conv.bias f4 [128]
0	0xbbeef856	-0.0072927875
1	0xbd1783de	-0.036990993
2	0xbc1de98e	-0.009638203
3	0x3d0f3239	0.034960005
4	0x3d377743	0.04479147
5	0x3d11deab	0.035612743
6	0x3d1a09c4	0.03760697
7	0x3a2956e1	0.00064597843
8	0xbb91d924	-0.004450934
9	0xbccf9a4b	-0.025342127
10	0xbcd785e0	-0.026308954
11	0x3d36677e	0.04453229
12	0x3cc90ca4	0.02454216
13	0x3d0ad1c7	0.033891466
14	0xbd141f42	-0.036162622
15	0x3d7cdfae	0.061736755
16	0xbb5daa13	-0.0033823296
17	0x3cd6b4ca	0.026209254
18	0xbcaa64ca	-0.020800013
19	0x3c0262e2	0.007958146
20	0x3d34885a	0.044075347
21	0x3ca42186	0.020035516
22	0x3d81d7fc	0.06340024
23	0x3ca584e2	0.020204965
24	0x3c81d653	0.015849268
25	0xbba144e7	-0.004921544
26	0x3c5bf031	0.013423965
27	0x3d197d68	0.037473112
28	0x3d1375b2	0.036000915
29	0x3d860d84	0.06545547
30	0x3d774b43	0.06037451
31	0x3d2a708b	0.041611236
32	0xbc889d6a	-0.016676623
33	0x3c9df000	0.01927948
34	0xbc074b79	-0.00825774
35	0x3d3e48ce	0.04645615
36	0xbd091e4c	-0.03347616
37	0x3c85d458	0.016336605
38	0xbccf6c38	-0.025320157
39	0xbc9ea534	-0.019365884
40	0x3cfb555b	0.03068035
41	0xbb42c742	-0.0029720818
42	0xbd15911e	-0.036515348
43	0xbcc8ef6a	-0.024528224
44	0x3ce7227b	0.028214684
45	0xbbef6be0	-0.007306561
46	0xbd132a1a	-0.035928823
47	0xbd248c5f	-0.04017293
48	0xbce427ad	-0.02785095
49	0x3d3bf4eb	0.04588787
50	0x3ce470f4	0.027885891
51	0xbcf2a2cd	-0.029618645
52	0xbc260a63	-0.010134312
53	0x3d47b536	0.0487568
54	0xbad6c40d	-0.0016385332
55	0xbbf69de0	-0.0075261444
56	0xbc920e23	-0.017829007
57	0xbd034533	-0.032048415
58	0x3d1ddba7	0.038539555
59	0xbd2e4002	-0.04254151
60	0x3d440bd7	0.047862854
61	0xb708abe8	-8.146257e-06
62	0x3d66f122	0.056382306
63	0x3c7b7889	0.015348562
64	0x3c8dd1a3	0.017311877
65	0xbc837578	-0.016047224
66	0xbcf67a5a	-0.030087639
67	0x3d5c6663	0.05380858
68	0x3d97b4af	0.074075095
69	0xbd28a8b5	-0.041176517
70	0x3d1aecca	0.037823476
71	0xbc2fc072	-0.010727035
72	0x3d19d6d4	0.03755839
73	0x3d19ed9d	0.03758012
74	0x3bb97d52	0.0056606913
75	0x3b9ef9d2	0.0048515582
76	0x3d43a094	0.04776056
77	0xbc9cc8bb	-0.019138684
78	0x3c84ae71	0.016196461
79	0x3c908b7c	0.017644636
80	0x3d01be9d	0.031675924
81	0x3d4a0632	0.049322315
82	0x3ccfb77d	0.025356049
83	0xbc979478	-0.018503413
84	0xbbfd7d63	-0.0077358945
85	0xbd2c41d4	-0.042054966
86	0xbc84ae33	-0.016196346
87	0x3d69972f	0.057028946
88	0xbcd17f07	-0.025573267
89	0xbcf1fb36	-0.029538732
90	0x3d2666ff	0.04062557
91	0xbcf775e6	-0.030207586
92	0x3d04169c	0.032248124
93	0x3c0cec31	0.008601234
94	0x3d33873c	0.04383014
95	0x3d074ac3	0.033030283
96	0x3d317d76	0.04333254
97	0xbaa4e672	-0.0012580885
98	0xbc914159	-0.017731356
99	0x3c2804db	0.010255064
100	0x3d835c91	0.0641414
101	0x3d8834fb	0.0665073
102	0xbc5ab466	-0.013348674
103	0x3d1f8d77	0.03895327
104	0xbc802ba7	-0.015645815
105	0xbc61a77f	-0.013772844
106	0x3c18d2e0	0.00932762
107	0xbd1ddbdf	-0.038539764
108	0x3cea5024	0.028602667
109	0x3d0b909d	0.03407346
110	0xbb9a6700	-0.0047119856
111	0x3d38eb00	0.04514599
112	0x3d672e0f	0.05644041
113	0x3c353c65	0.011061762
114	0x3c4763e2	0.01216981
115	0x3d1833a9	0.037158642
116	0xbbf42ab8	-0.0074513815
117	0x3d38ed5e	0.045148246
118	0x39bdb281	0.00036181885
119	0xbd098a9a	-0.033579446
120	0x3ba70612	0.005097159
121	0xbc87d712	-0.016582046
122	0xbd02281f	-0.031776544
123	0xbd00cb5d	-0.031443942
124	0x3c0abed3	0.008468348
125	0xbc9d2eff	-0.019187449
126	0xbc53b0d4	-0.012920577
127	0xbd2a2ced	-0.04154675

fc.weight f4 [30, 128]
0	0xbc891dfa	-0.016737927
1	0x3c3ff7c0	0.011716783
2	0xbd751ca8	-0.05984178
3	0xbd14ee10	-0.036359847
4	0xbd9db1ae	-0.07699905
5	0x3da4d6d6	0.08048789
6	0x3c8eaf39	0.017417537
7	0xbd29c2ca	-0.04144553
8	0xbcfb6f72	-0.03069279
9	0xbd65b020	-0.05607617
10	0xbdbd0c2a	-0.09230836
11	0x3d6607dd	0.056159843
12	0xbc9c5c44	-0.019086964
13	0xbcfc358f	-0.030787257
14	0xbd8f7507	-0.07004743
15	0x3d433490	0.04765755
16	0x3da90144	0.082521945
17	0x3d8eed88	0.06978899
18	0x3c82466f	0.015902726
19	0xbd0c8677	-0.034307923
20	0xbb8c5d9a	-0.004283619
21	0xbd48ffb0	-0.049071968
22	0xbd0b5ee5	-0.034026045
23	0xbdaac761	-0.0833881
24	0xbcee0a6b	-0.029057702
25	0x3b407d8f	0.0029371714
26	0x3d181c7c	0.03713654
27	0x3cf0552c	0.029337488
28	0x3dc80184	0.09765914
29	0xbd889628	-0.06669265
30	0xbd50bff5	-0.050964314
31	0xbc150ca5	-0.009097253
32	0xbce8533f	-0.028360007
33	0xbc443c18	-0.011977218
34	0x3d107376	0.035266362
35	0x3de9bc27	0.1141284
36	0xbda0cf84	-0.078520805
37	0x3d0012c4	0.031267896
38	0xbc1bbfc5	-0.009506171
39	0x3c48e1df	0.012260883
40	0x3db09161	0.08621479
41	0xbd9c7a99	-0.07640571
42	0xbdb6a1b7	-0.089175634
43	0x3d0970d6	0.033554874
44	0x3bb403ec	0.0054936316
45	0x3df8a3dc	0.12140629
46	0x3d88c80e	0.066787824
47	0xbd999f29	-0.075010605
48	0x3d77f402	0.06053544
49	0x3cd17808	0.02556993
50	0x3a2c0672	0.000656224
51	0xbc9bed63	-0.019034093
52	0xbd5f7215	-0.054552156
53	0x3e0484ca	0.1294128
54	0xbd7d7f91	-0.061889235
55	0xbdb0858f	-0.08619224
56	0xbdbe8b28	-0.09303886
57	0xba605f0b	-0.00085590844
58	0x3bbddca6	0.0057941256
59	0xbd938095	-0.072022595
60	0xbd80e983	-0.06294539
61	0xbc45fcde	-0.012084214
62	0x3dd5ad47	0.10433441
63	0xbd1130e5	-0.03544702
64	0x3c6203d5	0.013794859
65	0x3ac6a898	0.0015156446
66	0x3b41c15d	0.0029564716
67	0xbd8e9355	-0.06961695
68	0x3d454518	0.048161596
69	0xbbddfa3f	-0.0067742164
70	0x3dc452b7	0.09586089
71	0x3cedcd06	0.029028427
72	0xbdb6ef03	-0.089323066
73	0xbd43565d	-0.047689784
74	0xbd2c5525	-0.042073388
75	0x3d895ff6	0.06707756
76	0x3d049109	0.03236488
77	0x3d974b66	0.07387428
78	0x3d80b327	0.062841706
79	0x3d8d983d	0.06913803
80	0xbdaf1de4	-0.08550623
81	0xbdb9625a	-0.09051962
82	0x3cc39f03	0.023879534
83	0xbc2d44ae	-0.010575457
84	0xbdac8ad2	-0.084249154
85	0xbd71b03d	-0.059005965
86	0x3d4de19e	0.050263993
87	0xbd808ca0	-0.06276822
88	0x3d0e4747	0.034735944
89	0xbd60f27e	-0.05491876
90	0x3b383c45	0.0028112095
91	0xbd40ba8c	-0.047052905
92	0x3c24aaad	0.010050458
93	0x3c0f31d8	0.008739911
94	0x3dad1b6c	0.08452496
95	0xbd4846e4	-0.04889573
96	0xbd73774a	-0.059439935
97	0x3c6af535	0.0143406885
98	0xbd07dc2c	-0.033168957
99	0xbc1ce42a	-0.009575883
100	0xbd8c058e	-0.06836997
101	0x3db9c518	0.09070796
102	0x3bdeee08	0.006803278
103	0xbd9452e0	-0.0724237
104	0xbc01616d	-0.007896763
105	0x3d01ed83	0.03172065
106	0x3d1a009f	0.03759825
107	0x3c726410	0.014794365
108	0x3db8e321	0.090276964
109	0x3d871041	0.06594897
110	0xbdd85d68	-0.10564691
111	0xbd1c1a9b	-0.03811131
112	0xb8861a5b	-6.394527e-05
113	0xbb564240	-0.0032693297
114	0x3d2c2bb1	0.042033855
115	0xbd8fa614	-0.07014099
116	0x3d76a291	0.06021363
117	0x3dc7fef1	0.09765423
118	0x3d178fe8	0.037002474
119	0x3d0eea33	0.03489132
120	0x3d5f3dc4	0.054502264
121	0xbcd67a6a	-0.026181418
122	0x3d2930f2	0.041306444
123	0x3c8d131a	0.017221022
124	0xbd3fe67a	-0.04685066
125	0xbd40443a	-0.046940066
126	0x3d0d5536	0.03450509
127	0x3d8ca097	0.068665676
128	0x3d8ccf2c	0.068754524
129	0x3cd3bb48	0.025846139
130	0xbd4853cb	-0.048908036
131	0xbd05a844	-0.032631174
132	0xbd00dd92	-0.031461306
133	0xbd861f36	-0.06548922
134	0x3d889549	0.06669099
135	0x3d880b38	0.06642765
136	0xbd3c9ca9	-0.04604784
137	0x3d469df8	0.048490494
138	0xbd631fc3	-0.055450212
139	0x3d6cea85	0.057840843
140	0x3d4272ab	0.047472637
141	0x3b04564b	0.0020193036
142	0x3d84b9bd	0.06480739
143	0x3d680bda	0.056651928
144	0x3c6eccbb	0.014575179
145	0xbbdfc573	-0.0068289577
146	0xbc95324c	-0.01821246
147	0xbc8fe557	-0.017565412
148	0x3d20d0e2	0.039261706
149	0xbc0c8d5b	-0.008578624
150	0xbca0bf5b	-0.019622495
151	0x3b08aab3	0.0020853698
152	0x3d59d668	0.05318299
153	0x3d4e80ff	0.05041599
154	0xbc8134d9	-0.01577227
155	0x3d75a7d8	0.05997452
156	0xbd437d54	-0.047726944
157	0xbbc3e382	-0.005978049
158	0xbd12d66a	-0.035849012
159	0xbd88955f	-0.06669115
160	0x3c39cb05	0.011339908
161	0x3d92e3d8	0.07172364
162	0xbd33faad	-0.043940235
163	0xbd06454c	-0.03278093
164	0x3bd38188	0.0064546503
165	0x3d5c1202	0.05372811
166	0x3d58ff6a	0.052977957
167	0x3d12ef86	0.03587296
168	0x3d13e1df	0.03610408
169	0x3dbd3ff2	0.09240712
170	0xbd7b6403	-0.061374675
171	0xbd489785	-0.048972625
172	0xbdbe142c	-0.09281191
173	0xbc133e09	-0.008986958
174	0x3d5e5729	0.05428234
175	0x3c2eefde	0.010677306
176	0x3d059a6e	0.03261798
177	0x3d1897e9	0.037254248
178	0xbd905260	-0.07046962
179	0x3cb3b2c5	0.02193583
180	0x3c39d92a	0.01134328
181	0xbdb922d9	-0.0903985
182	0xbdc2a963	-0.09504964
183	0x3db8fd8f	0.090327375
184	0xbce53282	-0.027978186
185	0x3d6a167e	0.057150356
186	0x3cbf7f44	0.023376115
187	0x3d442c4b	0.047893804
188	0x3d20847d	0.03918885
189	0xbc9a7f07	-0.0188594
190	0xbdad6314	-0.08466163
191	0xbbebd49f	-0.0071969773
192	0xbd25a4e9	-0.040440474
193	0xbc0b7fca	-0.008514354
194	0xbb351ba4	-0.0027634883
195	0x3deff7b0	0.117171645
196	0xbd6ca2e8	-0.057772547
197	0xbd6a2f30	-0.057173908
198	0xbcc9df45	-0.024642596
199	0x3ce3f266	0.027825546
200	0x3cde2eaa	0.02712186
201	0xbda27bea	-0.07933791
202	0x3d976c6b	0.07393726
203	0xbda3f9e4	-0.08006647
204	0x3d6fb83e	0.058525316
205	0x3d597837	0.05309316
206	0x3d8ab277	0.06772321
207	0xbd872da8	-0.06600505
208	0x3b48f0a8	0.003066102
209	0xbd1415c0	-0.036153555
210	0x3c937196	0.017998498
211	0xbd395886	-0.04525044
212	0x3d8e84e9	0.06958944
213	0xbd1fb8b8	-0.03899452
214	0x3db4a636	0.08820765
215	0x3d1987e9	0.03748313
216	0xbd42d68b	-0.047567885
217	0xbb8a1332	-0.004213714
218	0x3c48d133	0.012256908
219	0xbd304afa	-0.043040253
220	0xbd83ac74	-0.06429377
221	0x3d3a56ff	0.045493122
222	0xbd4dca9c	-0.05024205
223	0xbd7c86d6	-0.061652027
224	0xbcf38f61	-0.029731454
225	0xbc0233d1	-0.007946924
226	0xbd254888	-0.040352374
227	0xbda681a5	-0.081301965
228	0xbd8fae8e	-0.070157155
229	0x3c043783	0.008069876
230	0xbdaec673	-0.08533945
231	0xbccb4700	-0.024814129
232	0xbd9c9c71	-0.07647026
233	0xbdb9ab46	-0.09065871
234	0x3d0bb799	0.03411064
235	0xbc0f8ba7	-0.008761323
236	0xbc8628c1	-0.016376855
237	0xbd5d2412	-0.053989477
238	0x3dbfea8f	0.093709104
239	0xbd269516	-0.040669523
240	0xbd330904	-0.04370977
241	0x3d82e2b9	0.063909
242	0xbb87d6aa	-0.004145463
243	0x3d8e95ab	0.06962141
244	0x3db29815	0.087204136
245	0x3cb10dbc	0.021612994
246	0xbd6c60f2	-0.05770964
247	0xbc63635e	-0.013878671
248	0x3d85678c	0.065138906
249	0x3d6f407f	0.058411118
250	0x3d53304c	0.05155973
251	0x3d929723	0.07157733
252	0xbd277616	-0.0408841
253	0xbdb42899	-0.08796806
254	0xba9b8a21	-0.0011866727
255	0x3da7cd49	0.08193452

fc.bias f4 [30]
0	0xbd344adf	-0.044016715
1	0x3d81f33e	0.06345223
2	0x3d5a62ed	0.053317
3	0x3dc33994	0.095324665
4	0x3d499536	0.049214564
5	0xbd418616	-0.047247015
6	0x3c8364ab	0.016039213
7	0x3c787ee8	0.015166976
8	0xbd50be4b	-0.050962728
9	0xbb763ad7	-0.0037571692
10	0xbcfee959	-0.031117128
11	0x3c0597d3	0.0081538735
12	0xbb180eb8	-0.0023202132
13	0xbcdbd10c	-0.02683308
14	0x3ca26344	0.019822724
15	0xbd25bded	-0.04046433
16	0x3d415000	0.047195435
17	0x3d3ad2a6	0.045611046
18	0xbcd2daf2	-0.025739167
19	0xbd883323	-0.066503786
20	0xbd368217	-0.044557657
21	0x3d42c402	0.04755021
22	0x399cbd54	0.000298957
23	0x3d24d722	0.04024423
24	0xbda26133	-0.079286955
25	0x3d1669f6	0.036722146
26	0x3d4c91b5	0.049943645
27	0x3d10b565	0.03532924
28	0x3c9413c5	0.018075833
29	0x3c57261d	0.0131316455
