GWN/best_models/best_model_w30_h30.pth (torch, 300619 bytes, 9 tensors)

adapt_adj f4 [30, 30]
000000 dc 9a 80 3f 1a 50 a0 3b 84 d1 9d 3b 0a d9 9c 3b
       1.0047259 0.0048923614 0.004816236 0.0047866153
000010 1c 6e 9b 3b af 12 9a 3b a7 6f 99 3b f6 19 96 3b
       0.0047433507 0.0047019343 0.0046824994 0.0045807315
000020 cc 4f 91 3b 3b bd 94 3b 0e 4d 96 3b a7 79 9d 3b
       0.0044345614 0.0045391596 0.0045868224 0.004805762
000030 a0 ca a0 3b 55 40 a5 3b 48 70 a6 3b 7a 00 ad 3b
       0.0049069673 0.0050430694 0.005079303 0.005279598
000040 b4 b0 b0 3b f0 69 b5 3b 4c 09 b9 3b 2b c6 b9 3b
       0.0053921584 0.0055363104 0.00564686 0.0056693754
000050 c5 46 bb 3b 57 bc ba 3b 69 c5 b8 3b 3c 00 ba 3b
       0.0057152235 0.0056987214 0.0056387675 0.0056762975
000060 5d be bc 3b bd 5e ba 3b 4d 81 ba 3b 4a 08 b5 3b
       0.0057599978 0.005687563 0.0056916834 0.00552467
000070 78 91 af 3b 9c b2 bc 3b ef e4 9c 3b ee a0 80 3f
       0.0053579174 0.0057585966 0.004788033 1.0049112
000080 96 6a 9e 3b 06 68 9d 3b 6c 06 9c 3b 0f 3e 9b 3b
       0.0048344834 0.0048036603 0.0047615077 0.0047376226
000090 a4 98 9a 3b 27 02 97 3b 27 70 92 3b 55 f5 95 3b
       0.004717903 0.004608411 0.004468936 0.004576365
0000a0 bf 6c 97 3b 6f 6c 9e 3b 5b f5 a1 3b cd 9e a6 3b
       0.004621118 0.0048347036 0.0049425787 0.0050848485
0000b0 ea dd a7 3b 00 81 ae 3b 97 39 b2 3b 8c 8e b7 3b
       0.0051228898 0.0053254366 0.005438994 0.0056017097
0000c0 1d ef ba 3b 42 d0 bb 3b 20 42 bd 3b 89 c3 bc 3b
       0.005704774 0.0057316134 0.005775705 0.0057606143
0000d0 5a bf ba 3b 37 fc bb 3b 9f b1 be 3b 21 f8 bb 3b
       0.0056990804 0.0057368535 0.005819514 0.0057363664
0000e0 2d b0 bb 3b 3a 24 b6 3b 83 c4 b0 3b 9a 22 be 3b
       0.005727789 0.0055585178 0.00539452 0.0058024647
0000f0 5f 33 9b 3b ca 69 9f 3b 55 9b 80 3f 76 32 9a 3b
       0.0047363485 0.004864906 1.0047404 0.0047057224
000100 a7 e4 98 3b d9 c6 97 3b 0d 19 97 3b 43 bb 93 3b
       0.0046659294 0.004631859 0.0046111406 0.0045084073
000110 2e 36 8f 3b 62 24 93 3b 8b d2 94 3b 71 e8 9b 3b
       0.0043704724 0.004490421 0.0045417002 0.004757934
000120 d4 3b 9f 3b 44 e4 a3 3b 1f 51 a5 3b 55 17 ac 3b
       0.004859427 0.0050015766 0.005045071 0.005251805
000130 cc 09 b0 3b bf 35 b5 3b da 18 b9 3b 45 ba b9 3b
       0.0053722616 0.0055300887 0.0056487145 0.005667957
000140 28 b6 bb 3b 22 35 bb 3b 3b d6 b8 3b c4 11 ba 3b
       0.005728502 0.005713121 0.0056407726 0.0056783874
000150 3b d1 bc 3b f9 25 ba 3b d8 eb b9 3b 03 56 b4 3b
       0.005762247 0.005680796 0.0056738667 0.0055034175
000160 5b 02 af 3b 3a 33 bc 3b 82 00 9e 3b aa ee a1 3b
       0.005340857 0.0057434114 0.004821838 0.004941781
000170 bb d8 9d 3b 3c 9b 80 3f bf b7 99 3b 25 ce 98 3b
       0.004817096 1.0047374 0.0046910937 0.004663246
000180 25 45 98 3b b1 19 95 3b a1 80 90 3b e7 74 94 3b
       0.0046469145 0.004550182 0.004409865 0.0045305374
000190 d2 28 96 3b 61 10 9d 3b df 54 a0 3b 66 09 a5 3b
       0.004582503 0.0047932123 0.00489293 0.005036521
0001a0 9f ac a6 3b db 3a ad 3b 2e 4d b1 3b 39 78 b6 3b
       0.005086496 0.005286557 0.005410812 0.005568531
0001b0 e7 5a ba 3b 4b 5e bb 3b 8a 2c bd 3b 14 aa bc 3b
       0.005687106 0.0057180277 0.0057731317 0.0057575796
0001c0 aa 86 ba 3b ff a0 bb 3b 62 2c be 3b df 5d bb 3b
       0.0056923227 0.0057259793 0.0058036307 0.0057179774
0001d0 0b 19 bb 3b 0a e5 b5 3b 6d 91 b0 3b 82 e0 bd 3b
       0.0057097725 0.005550985 0.00538843 0.0057945857
0001e0 52 9b 9d 3b 0e 74 a1 3b c1 78 9d 3b 03 f4 9a 3b
       0.0048097754 0.004927165 0.0048056548 0.0047287955
0001f0 8a 98 80 3f a6 6d 97 3b 27 d0 96 3b 87 be 93 3b
       1.0046551 0.0046212254 0.0046024504 0.0045087966
000200 ae 27 8f 3b 3f 0b 93 3b a2 89 94 3b 4f 84 9b 3b
       0.004368744 0.0044874246 0.0045330087 0.004745997
000210 ce d4 9e 3b ad 61 a3 3b 72 af a4 3b 4e 68 ab 3b
       0.0048471456 0.004986009 0.0050257975 0.00523094
000220 a8 7e af 3b 69 d7 b4 3b 01 ef b8 3b f3 22 ba 3b
       0.005355675 0.005518843 0.005643726 0.005680436
000230 96 5c bc 3b c1 e6 bb 3b 22 6b b9 3b 83 3d ba 3b
       0.005748342 0.005734295 0.005658523 0.0056836023
000240 59 d2 bc 3b 99 48 ba 3b c4 1b ba 3b bb 98 b4 3b
       0.00576238 0.005684924 0.0056795795 0.005511371
000250 32 07 af 3b be 2b bc 3b 8c ce 9e 3b 12 b9 a2 3b
       0.005341434 0.005742519 0.0048463996 0.0049659098
000260 3c c8 9e 3b cb 63 9c 3b 01 a5 99 3b 59 97 80 3f
       0.004845647 0.0047726384 0.0046888595 1.0046188
000270 af c4 96 3b 48 ce 93 3b 5a 79 8f 3b 6b 9a 93 3b
       0.004601083 0.0045106746 0.00437848 0.004504492
000280 27 aa 95 3b 36 99 9c 3b bd d3 9f 3b 3a 9e a4 3b
       0.004567403 0.0047790064 0.004877536 0.005023745
000290 ab 3a a6 3b 65 9a ac 3b be a3 b0 3b 56 11 b6 3b
       0.0050729117 0.0052674287 0.0053906133 0.005556266
0002a0 5f 25 ba 3b 63 7d bb 3b 2f 9a bd 3b 35 7f bd 3b
       0.0056807245 0.0057217344 0.0057862024 0.0057829865
0002b0 7a 25 bb 3b 5c 49 bc 3b 6e 9d be 3b 0c fe bb 3b
       0.0057112547 0.00574605 0.005817107 0.005737072
0002c0 dc bd bb 3b 75 a1 b6 3b b5 5b b1 3b 1c 70 be 3b
       0.00572942 0.0055734464 0.0054125437 0.0058117043
0002d0 73 92 9c 3b b2 b0 a0 3b a9 dc 9c 3b a1 7b 9a 3b
       0.0047782003 0.004903876 0.004787047 0.0047144447
0002e0 bc d0 97 3b c3 42 95 3b 8f 93 80 3f 9a bc 90 3b
       0.0046330374 0.0045550778 1.0045031 0.0044170143
0002f0 aa b2 8c 3b f2 b4 90 3b e9 6d 92 3b a8 10 99 3b
       0.0042937594 0.0044161016 0.0044686687 0.004671175
000300 b5 fb 9b 3b 12 b5 a0 3b eb 44 a2 3b 79 9c a8 3b
       0.0047602304 0.0049043978 0.0049520633 0.005145606
000310 db 2e ac 3b 6f b8 b1 3b aa fd b5 3b 20 72 b7 3b
       0.005254609 0.0054235975 0.0055539208 0.0055983216
000320 1a 95 b9 3b 5e a4 b9 3b 95 a7 b7 3b c8 7f b8 3b
       0.0056635262 0.005665346 0.005604694 0.005630467
000330 b5 f2 ba 3b bc 43 b8 3b 3c f2 b7 3b aa 81 b2 3b
       0.0057052025 0.005623309 0.0056135934 0.005447586
000340 fc 48 ad 3b b8 52 ba 3b 48 9b 9d 3b 66 95 a1 3b
       0.0052882414 0.0056861304 0.0048097707 0.0049311398
000350 fb b9 9d 3b f7 23 9b 3b 8c e5 98 3b 10 a3 96 3b
       0.0048134304 0.004734512 0.004666036 0.0045970753
000360 54 e5 94 3b c3 90 80 3f 45 59 8c 3b 93 3b 90 3b
       0.0045439396 1.0044178 0.0042831027 0.004401633
000370 c6 bb 91 3b 81 81 98 3b 55 74 9b 3b 5c fa 9f 3b
       0.004447433 0.00465411 0.0047440925 0.00488214
000380 55 7d a1 3b 3e 14 a8 3b 56 d7 ab 3b 12 fa b0 3b
       0.004928271 0.005129366 0.005244176 0.0054009045
000390 2c 36 b5 3b 78 d4 b6 3b 8b ef b8 3b ea 37 b9 3b
       0.0055301394 0.0055795275 0.00564379 0.0056524174
0003a0 06 b2 b7 3b 3c cc b8 3b c5 00 bb 3b 4b 30 b8 3b
       0.005605939 0.005639581 0.005706879 0.0056209913
0003b0 4f b5 b7 3b dd 6c b2 3b c1 36 ad 3b 26 73 ba 3b
       0.0056063305 0.0054451064 0.005286068 0.0056899963
0003c0 be a4 9d 3b 43 7a a1 3b c3 90 9d 3b cf 2e 9b 3b
       0.0048108986 0.004927905 0.0048085167 0.0047358046
0003d0 a1 05 99 3b 0a 9b 96 3b 4d d4 94 3b 73 9e 90 3b
       0.0046698605 0.004596119 0.00454191 0.00441342
0003e0 f8 8a 80 3f e6 fc 8e 3b 6e cd 90 3b fa 9c 97 3b
       1.004241 0.004363644 0.0044190204 0.0046268674
0003f0 6e b3 9a 3b 28 7a 9f 3b ca e8 a0 3b 41 6f a7 3b
       0.0047210967 0.004866857 0.004910563 0.005109698

gc1.fc.weight f4 [128, 30]
000000 76 91 32 be d5 cc 9d bc 25 e8 85 3d 16 59 9b 3d
       -0.17438301 -0.01926271 0.06538419 0.07585351
000010 c1 a0 5e 3d 51 f7 e9 3d fc 84 05 be 62 7d 28 3e
       0.054352526 0.11424125 -0.13039011 0.1645408
000020 5b 77 d9 bd 17 12 a0 bc 7d b3 08 be cd 7c b1 3c
       -0.106184684 -0.019539876 -0.1334972 0.021665955
000030 b9 59 23 3c 9c c7 30 be 5d 14 c8 bd 3f e7 13 be
       0.009970122 -0.17263645 -0.09769509 -0.14443682
000040 1a 99 75 3c a7 58 99 bd 7d 9c 35 be 57 b9 2a 3b
       0.014990116 -0.07487612 -0.17735477 0.0026050413
000050 8f ce ce bd 45 4e 3b be 67 c8 06 be 78 0e 0c be
       -0.10097992 -0.18291576 -0.13162385 -0.13677394
000060 ea d9 d9 bd 58 78 28 3c 58 b2 88 bd 01 fd ba 3d
       -0.10637267 0.010282598 -0.06674641 0.09130288
000070 f9 77 2b 3d 77 b5 41 bd 73 b2 a1 bd 3b 9d aa 3c
       0.04186246 -0.0472922 -0.078953646 0.020826926
000080 e5 e8 46 3d a2 f5 96 bc b1 ce 25 3d b1 d0 2f 3e
       0.04856195 -0.018427674 0.04048032 0.17169453
000090 1a 01 28 be 12 2d 01 bd 0d 8a a7 3d 79 32 86 bd
       -0.1640667 -0.031537123 0.08180628 -0.06552596
0000a0 c8 96 40 bd ca 2d c6 3d 21 bb 61 3d 2e a6 ff 3d
       -0.047018796 0.09676702 0.0551101 0.12482868
0000b0 45 10 86 3d b0 b0 36 bd f2 d2 14 3e be e0 03 3c
       0.06546072 -0.044602096 0.14533594 0.008049188
0000c0 58 c5 d8 3d 3e e2 d2 3d 8d 6f e6 3d de 76 2e be
       0.10584515 0.102970585 0.112517454 -0.17037532
0000d0 cf 04 bf 3d ba 79 de 3d 2f 38 06 3e cc d9 2a 3e
       0.09327089 0.10863061 0.1310737 0.16684645
0000e0 b3 ec 16 be 38 93 97 3d 99 08 02 3e 97 15 8d bc
       -0.14738731 0.074011266 0.12698592 -0.017222209
0000f0 e6 e3 8d bc 77 93 38 3e 1f 5d 1f 3e 70 51 11 3e
       -0.017320585 0.18025003 0.15562867 0.14191222
000100 6b 4e 3b bd 1f a7 26 3d 0e 02 00 3e 8d fd f2 bc
       -0.045729082 0.040686723 0.12500784 -0.029661918
000110 b7 66 f0 3d 73 91 2a 3c 4e d2 71 3d d5 06 79 bd
       0.11738341 0.010410654 0.059038453 -0.06079753
000120 c8 f7 1f be f2 da 24 3a c4 4f 3f bd 92 6e a1 3d
       -0.15621865 0.0006288729 -0.04670693 0.07882418
000130 aa f0 a1 bd b5 09 a3 bc dd a6 f3 3d 46 8f 0a 3e
       -0.07907231 -0.01990209 0.11897061 0.13531217
000140 59 66 35 3e 61 1d 0e be e0 93 f4 bd 66 09 00 be
       0.17714824 -0.13878395 -0.119422674 -0.12503585
000150 35 49 c3 bd 03 03 b2 3d b8 b2 ad 3d 09 05 a2 3d
       -0.095354475 0.08691981 0.084813535 0.07911117
000160 9d da d2 3d 8e 7d f5 bc 32 34 42 be b6 5a 0c 3d
       0.102956034 -0.029967096 -0.18965223 0.034266196
000170 dd c9 b9 bd 63 7c 1f be b5 07 ef bd 66 d8 02 be
       -0.090717055 -0.15574794 -0.11671392 -0.12777862
000180 8c 90 b5 bd bf c0 09 be 90 17 99 3d a2 25 e3 3b
       -0.08865461 -0.13452433 0.07475197 0.0069319764
000190 8c 9e 16 be 83 3d b4 3d 28 07 34 3d 69 e5 de 3c
       -0.14708918 0.08800795 0.043952137 0.027209
0001a0 b8 b8 e1 bc dd 60 f4 bc 6c 62 1f be 97 a6 8b bd
       -0.027553901 -0.029831344 -0.15564889 -0.06818884
0001b0 ba 26 1d 3e ce 92 94 3d 6e ef e9 3c bc 6c 29 3e
       0.15346804 0.07254563 0.028556552 0.16545385
0001c0 2a e6 94 bd 4b 21 39 bd ba df 7e 3d 74 01 9c bd
       -0.07270463 -0.045197766 0.06222508 -0.07617465
0001d0 0e 02 a2 3a d1 39 18 be 2e 1d 2d be 92 e0 ff 3d
       0.0012360231 -0.14865805 -0.16905662 0.12494005
0001e0 fb d6 23 be 69 82 dd bd 7f 25 df 3d 6b c5 b8 3d
       -0.15999977 -0.108158894 0.10895824 0.090220295
0001f0 97 43 4e bd 95 e2 d7 bd f2 a9 a2 3d 34 76 22 be
       -0.050357427 -0.10541264 0.07942571 -0.15865403
000200 ee 10 2f be 4f 0e ef 3d 7f d0 bf 3d 6c c2 82 bd
       -0.17096302 0.11672651 0.09365939 -0.06384739
000210 51 07 40 3d b0 c9 77 bd ee ec 00 be e5 fb 5f 3d
       0.046881977 -0.06049508 -0.12590382 0.054683585
000220 be f0 06 bd 42 42 31 be 7c 0d c5 bd 04 ee d2 3a
       -0.032944433 -0.17310432 -0.096217126 0.0016092663
000230 d9 c2 ed bc 3c 1e 0f 3d a2 e8 69 3c 24 c1 83 bd
       -0.029023575 0.034940943 0.014276655 -0.06433323
000240 ca 91 f7 3d e9 ae 08 3d fb 38 94 bd ce d4 0b be
       0.12088354 0.033369932 -0.07237431 -0.13655397
000250 94 c7 58 3d 95 94 e5 3a fc cf 35 3e 77 63 be 3d
       0.052924708 0.0017515594 0.17755121 0.09296315
000260 9f 25 0c 3e fa 91 86 3d fc d0 03 bb 38 75 05 3e
       0.13686226 0.065708116 -0.0020113578 0.13032997
000270 c0 a3 d1 bd ea 4c 17 be 27 c2 25 be 16 38 a6 3d
       -0.10236311 -0.14775434 -0.16187344 0.08116166
000280 55 15 5c 3d 01 bc 1c be 7e cd fd 3c 96 75 10 be
       0.05373128 -0.15306093 0.030981775 -0.14107355
000290 f8 59 b0 3d 60 5d 12 be 75 8b 09 be 44 af 35 be
       0.0861091 -0.14293432 -0.13432105 -0.1774264
0002a0 05 5f 93 3d d8 31 b2 3d 95 f5 a0 3c 2c ad dc bd
       0.07195858 0.08700913 0.019648353 -0.107752174
0002b0 1d e5 ef 3d 3c 49 8e 3c 73 4d 24 bd 32 56 ac 3a
       0.11713622 0.017368905 -0.040112924 0.0013148247
0002c0 f0 86 11 be 5f 0b 91 bd f8 06 07 3e 32 70 17 be
       -0.14211631 -0.07082247 0.13186252 -0.14788893
0002d0 d0 71 cc bd c8 d5 d7 3d a4 e4 b3 3c 0c 07 11 3e
       -0.099826455 0.105388224 0.02195961 0.14162844
0002e0 ab c9 fa 3d 35 b0 ac bd 28 df 2a 3e 2f b3 49 3d
       0.12245496 -0.08432046 0.1668669 0.04924315
0002f0 dd e3 d2 3d 01 e2 c3 bd ab b3 12 be 63 04 5d bc
       0.10297368 -0.09564591 -0.1432635 -0.013489815
000300 91 58 18 be ee ae b4 3d 0a e3 4c bd bc fc 0b 3e
       -0.14877535 0.08822428 -0.05002121 0.1367063
000310 4e 94 b9 3b c0 ad e3 3d 90 e3 c8 bd 1c 05 a5 bd
       0.0056634312 0.111171246 -0.09809029 -0.08057615
000320 33 8c 3a 3d 93 06 70 bc 94 b7 e2 bd 8f 77 5a bd
       0.04554386 -0.014650005 -0.11070171 -0.053336676
000330 cc 55 76 3d c0 88 cb bd 01 25 bd bd 1c 3b 81 bd
       0.060140416 -0.09938192 -0.092355736 -0.06310102
000340 34 5c ba 3d 43 e3 e4 bd 64 b6 8a bd 54 88 ba bd
       0.090996176 -0.11176159 -0.067730695 -0.09108034
000350 f0 5b 0f 3e 2c 30 35 3e 68 61 67 3c 79 91 72 bd
       0.13999915 0.17694157 0.014122345 -0.059220765
000360 a9 2a 30 bd f3 ee 09 be 0c e5 32 3d 75 1a 28 3e
       -0.043009434 -0.13470058 0.043675467 0.16416343
000370 77 93 05 be d4 40 84 bd ca 6c 19 3e 29 28 06 bd
       -0.13044535 -0.064576775 0.14982906 -0.032753143
000380 4d a2 b3 bd 1f 77 a0 3d 18 cd 22 be 56 77 94 3d
       -0.08771191 0.078352205 -0.1589855 0.07249324
000390 4a a8 1f 3e 7c 98 bb bd 80 e1 19 be 0f 96 24 be
       0.15591541 -0.091599435 -0.15027428 -0.16072868
0003a0 43 93 2e be 46 96 fa 3c 4d ee e7 3d 1e e4 8f bd
       -0.17048363 0.030589234 0.11324749 -0.07025932
0003b0 30 2a cc 3d d4 48 00 be 60 07 79 bd aa d0 f9 3d
       0.09968984 -0.12527782 -0.06079805 0.12198003
0003c0 84 3c 2a be 48 da 17 be 1c 96 93 3d 7d c8 d0 3c
       -0.16624647 -0.14829361 0.072063655 0.025486225
0003d0 12 4c 86 3c b3 50 00 3d e5 aa 85 bd 7f e1 86 bb
       0.016393695 0.03132696 -0.06526736 -0.0041162367
0003e0 5e a3 4c bc dd 30 cb bd d6 0d b4 bd ac 5e 30 3e
       -0.012490122 -0.09921429 -0.087917015 0.17223614
0003f0 97 42 13 be 64 d6 05 be cc 07 39 3c d3 ee 0e 3e
       -0.14380871 -0.13070065 0.011293363 0.13958292

gc1.fc.bias f4 [128]
000000 c3 52 f4 bd cb fb 82 bd d4 81 6f 3d cd 6c 68 3d
       -0.11929848 -0.06395682 0.058473423 0.056744386
000010 f8 7a 24 3e 73 e5 b8 3d 12 bb b0 bc ed 20 0f be
       0.16062534 0.09028139 -0.021573577 -0.13977404
000020 28 f3 1d bd cb 6b ec 3d d7 b2 e7 bc f4 6f bf 3b
       -0.03856197 0.115439974 -0.02828352 0.0058422033
000030 1d 2a a9 bd a0 ae 8d bd 6a 1c 4a bd 62 1d b3 bb
       -0.082599856 -0.06918073 -0.049343504 -0.005466149
000040 ba 29 24 3e 65 2f 2a 3e cd e8 79 3d b0 6a 25 3e
       0.16031542 0.16619642 0.06101303 0.1615398
000050 3b bf 7f bd 9b 65 ad bd de 29 21 3d 5c 95 ce bd
       -0.06243823 -0.08466645 0.03934657 -0.10087082
000060 55 94 3f be d0 b3 01 be ef 89 0a 3e 0c 95 48 3e
       -0.18708928 -0.1266625 0.1352918 0.19588107
000070 c3 b9 e5 3d f0 9a a4 3c d7 1a 8a 3d 32 f4 03 3e
       0.11217072 0.020093411 0.067434005 0.12886122
000080 09 a2 58 3d d4 d5 0d 3e 7e fe de 3c 74 b6 41 3d
       0.052888904 0.138511 0.02722096 0.04729314
000090 f7 bd e8 3c e3 a9 36 be 71 7a dc bd e6 fb d6 3d
       0.028410895 -0.17838244 -0.10765541 0.104972646
0000a0 5c a4 85 3d f5 c0 65 3b 5d ff 07 3e 97 e4 20 3c
       0.0652549 0.0035057638 0.13281007 0.009820125
0000b0 74 c6 c5 bd d1 15 25 3e ce d8 0b 3e 96 eb 93 bd
       -0.096569926 0.16121604 0.13656923 -0.07222669
0000c0 9f 0e 8a bc 31 7d b9 3d e4 5d ca 3d 9e b0 bc bd
       -0.016852675 0.090570815 0.098811895 -0.092133746
0000d0 00 e1 d6 bd 18 4d f7 bd 76 7e 14 3e b4 9e 06 bc
       -0.10492134 -0.12075251 0.14501366 -0.008216549
0000e0 bc af 21 bd 3d bc 1f 3d a9 8c c0 bd dd 81 7e bc
       -0.039474234 0.038997877 -0.09401829 -0.0155338915
0000f0 b9 26 bb bc 4c 8e a0 3d f8 83 e3 3d b1 02 1a 3e
       -0.022845613 0.07839641 0.111091554 0.15040089
000100 f0 6d a1 bd 12 2e 94 bd f3 50 df 3d d0 b9 d2 3d
       -0.07882297 -0.0723535 0.10904112 0.10289347
000110 20 e9 36 3e fd aa f9 3d 9d 6f 82 3d 64 29 58 3d
       0.17862368 0.121908166 0.06368945 0.05277385
000120 77 01 3e bd 3f 42 96 bd 88 27 af 3c 7e e2 12 bd
       -0.046388116 -0.07336854 0.021381155 -0.03586053
000130 be 6e a1 bc fe 62 e5 3d 87 8b 18 3e 55 0f 11 3d
       -0.019706126 0.11200522 0.14896975 0.035415012
000140 49 98 36 3d 20 29 0a 3c fd 1b 7d 3d ee f2 1f be
       0.044578824 0.0084326565 0.06179427 -0.15620014
000150 b3 c9 82 3d 4f 31 2c be d9 5d 19 be ef 7d de bc
       0.06386127 -0.16815685 -0.14977206 -0.02715966
000160 02 5c c6 3d ae 19 26 3e 15 5d f6 3d 79 b5 0f 3e
       0.09685518 0.16220734 0.12029473 0.1403407
000170 f3 fd 04 bd 36 31 9f bd da 41 32 be d1 cc 00 3e
       -0.032468747 -0.07773058 -0.17407933 0.12578131
000180 c6 cd 17 be 6c b7 65 3d 08 8d 8c bd 01 cb 8b 3d
       -0.1482459 0.056083128 -0.06862837 0.06825829
000190 4a 45 00 3d 1e ff a0 3c 40 94 87 3d 83 52 09 3e
       0.03131608 0.0196529 0.06620073 0.13410382
0001a0 78 7c 87 3d e5 a3 25 bd 94 56 fd 3d 0d 61 19 3e
       0.066155374 -0.040439505 0.12370029 0.14978428
0001b0 34 09 ea 3c b8 a4 12 be 67 0d cb 3d ff ab 10 be
       0.028568842 -0.14320648 0.09914666 -0.14128111
0001c0 e8 68 25 3e cc 9c 15 bd 29 98 b2 bd c0 40 26 3d
       0.161533 -0.036526486 -0.087204285 0.040589094
0001d0 b6 89 0a be e1 c9 96 3c 53 1d bd 3d 72 21 0e be
       -0.13529095 0.01840681 0.09234109 -0.13879946
0001e0 63 0c fc bd ab 8d 37 3c 50 59 93 3d 09 0d 19 3e
       -0.1230705 0.01120321 0.071947694 0.14946379
0001f0 03 4f 5c 3c 9f 9b 76 bd 2b a8 30 3e 60 f6 d6 3d
       0.013446572 -0.060207006 0.17251651 0.10496211

gc2.fc.weight f4 [128, 128]
000000 ea 39 3b 3b 13 a5 8e 3b c9 fd 80 3c 95 3b 80 3d
       0.0028568455 0.0043531745 0.015746014 0.06261364
000010 03 6d d9 ba 52 d2 94 bc 38 20 89 3d ea a1 02 bd
       -0.0016588274 -0.018166695 0.06695598 -0.031892695
000020 a4 ce a3 bd 39 76 9c bc 16 5b 42 3c 20 2a 51 bd
       -0.07998398 -0.019099342 0.011862537 -0.051065564
000030 ed 0f 91 3c 59 74 5f bd 56 c6 9b bd b4 c7 f8 bb
       0.01770779 -0.054554317 -0.07606189 -0.007592166
000040 20 95 f7 3b e6 eb 12 3d 86 47 fb 3a 71 ef 13 bd
       0.007555619 0.0358695 0.0019171096 -0.03611702
000050 7e fd 62 bd b9 92 fc bd a6 81 5f 3d a1 ca ba bd
       -0.05541753 -0.123326726 0.054567 -0.0912068
000060 c2 a4 d2 3d 0a 6e 47 3e f6 a3 c4 3d 77 6c 09 be
       0.10285331 0.1947557 0.096015856 -0.13420282
000070 78 74 09 be d6 39 b1 3d 72 8b 6b bc 80 ba 93 3c
       -0.13423336 0.086536095 -0.014376508 0.018033266
000080 c5 08 29 bd 32 6f fd bd e7 2d 65 bd d8 15 72 bd
       -0.04126813 -0.123747244 -0.05595198 -0.059102863
000090 a3 b4 b4 bd 0a 7f 65 3d a7 92 ad 3d 3b 2b ab 3d
       -0.08823516 0.056029357 0.08475237 0.08357855
0000a0 7d 86 75 bd 1d 18 80 bd 79 c6 fd bc 33 d2 b8 3d
       -0.05994271 -0.06254599 -0.030978428 0.09024467
0000b0 a1 63 07 bd 89 bd 70 3b 3f a4 5c 3d 80 11 e1 3b
       -0.033053998 0.0036734066 0.053867575 0.0068685412
0000c0 b5 6b 51 bc b7 f0 d6 3d 50 2d 97 3d ed c4 0e bd
       -0.012782027 0.104951315 0.073816895 -0.03485577
0000d0 a3 ab 0e 3e a2 a4 1a bd d2 f7 f6 3d 9f 64 e9 3b
       0.13932662 -0.037754662 0.12058987 0.0071225907
0000e0 47 81 b6 bc a4 60 e4 bb b3 53 6e 3d 48 53 cc 3d
       -0.022278441 -0.0069695283 0.05818529 0.09976822
0000f0 9d 68 ae bd 21 7e 8e bc af 1b 7d bd b6 be 97 bc
       -0.08516047 -0.017394127 -0.06179398 -0.018523555
000100 b7 a4 ea bc 1c df ea bc c9 29 6a 3b f4 34 30 bd
       -0.028642995 -0.02867084 0.0035730472 -0.04301925
000110 4d 03 59 3d 12 83 7a bd 41 9a f9 3a 3d 99 b3 bd
       0.052981663 -0.061160155 0.0019043164 -0.08769462
000120 3d 67 9c 3d 75 94 a2 3d b1 6e 8e 3d 18 5d 83 bd
       0.07636879 0.07938472 0.069547065 -0.064142406
000130 89 a5 3b 3d 5e de 37 3e 69 bc aa bd 4f 0e 81 bc
       0.045812164 0.1795592 -0.08336718 -0.015753893
000140 34 34 3d 3c ab e1 69 bd 9e 3f e4 3d c9 d1 9f 3d
       0.011548091 -0.05709998 0.111449465 0.07803685
000150 f4 1b 6e bd 34 63 da bd e3 1d 19 3d 11 a7 89 3d
       -0.058132127 -0.10663453 0.037382018 0.067213185
000160 06 99 a1 bd 23 f6 b5 bd b2 e3 0a 3d 30 3b 81 bc
       -0.07890515 -0.088848375 0.033908553 -0.015775293
000170 70 c3 ae bd ba c2 e2 bd 5f d8 9e 3d e1 e7 af 3c
       -0.085333705 -0.110722974 0.07756113 0.021472873
000180 04 61 51 3a ee 89 a7 bd a9 4a a1 3b 97 2d d2 3c
       0.0007987174 -0.08180605 0.0049222303 0.025656505
000190 7a 94 d9 bd f7 1f 77 3d 7e 4e ca bd c0 66 24 bd
       -0.10624023 0.06033322 -0.098782524 -0.040137053
0001a0 3f b5 13 3d f9 c2 1d bd 3f 8e 39 bd a0 0f 3e be
       0.03606152 -0.03851602 -0.045301672 -0.18560648
0001b0 d3 24 4c 3d bf 4d 3f 3d 3b 6b 02 be 11 35 9f 3c
       0.049839806 0.046705004 -0.12736218 0.019434484
0001c0 cb b6 5b bc fb d0 b3 bd 3c 02 50 3d 00 c2 e0 bd
       -0.01341028 -0.08780094 0.05078338 -0.109745026
0001d0 e8 e6 98 bc b6 fe 1e 3d 14 b1 17 be bb ec 25 3e
       -0.018664792 0.03881713 -0.14813644 0.16203587
0001e0 14 02 be bb d7 c3 7d bd 14 8c 47 3d c8 6a 07 3d
       -0.0057985876 -0.061954346 0.048717573 0.03306082
0001f0 2b 5f fc 3d 32 eb b8 3c 47 8f 13 be 1c d6 e9 3b
       0.12322839 0.022573087 -0.14410125 0.0071361195
000200 e2 8b 4c bc 04 e7 a5 3d 2e 47 83 bd a6 2f 10 3e
       -0.012484523 0.08100703 -0.06410061 0.14080676
000210 54 39 36 3e fd d4 57 bd 06 23 81 3d 42 fa ec 3a
       0.17795306 -0.052693356 0.06305508 0.0018079954
000220 ba 46 f9 bd 47 6e b0 3d 4b 4f 22 bd a6 0c 88 3c
       -0.12171693 0.08614784 -0.0396264 0.016607594
000230 46 98 8f bd 8d 48 83 3d ed 0d f7 bd 94 4b ac bd
       -0.07011466 0.06410322 -0.12063203 -0.08412853
000240 09 f4 28 be 82 87 48 3d 7f df ad 3d 8c d0 e9 bc
       -0.16499342 0.048957355 0.08489894 -0.028541826
000250 8f 41 2b 3d 0d 19 2c bc 6d 83 9c 3d 3d 2d 17 be
       0.04181057 -0.010504019 0.07642255 -0.14763351
000260 39 82 4b bd 30 92 b5 bd 56 c2 da 3d c8 a9 b9 bd
       -0.049684737 -0.08865774 0.10681598 -0.09065586
000270 a9 f2 a1 bd 51 69 1e 3d b7 bf e6 bc 65 01 22 3d
       -0.07907612 0.038674656 -0.028167589 0.03955211
000280 ac 52 84 bd 27 4f 48 3d 32 44 aa 3d 9c 4f 7f 3d
       -0.06461081 0.04890361 0.083137885 0.06233178
000290 4a 9f 0d be 32 2a 7f bd a9 76 8a bb d1 9e 11 3e
       -0.13830295 -0.0622961 -0.004225571 0.1422074
0002a0 85 bf eb 3c b1 a3 6f 3c cb 10 ad 3d 12 ac ae bd
       0.028777847 0.014626429 0.08450469 -0.085289136
0002b0 59 b1 2c 3c 81 31 8f bc 0b 68 fa bc c4 c0 fe 3c
       0.01054033 -0.01747966 -0.03056719 0.031097777
0002c0 07 3d 64 3d 3e 65 9e bd 76 23 69 bd bb 41 8e bd
       0.055722263 -0.07734154 -0.056918584 -0.06946131
0002d0 e0 67 ca bd 85 4e 92 bd fa c9 8e 3d 4d 97 89 3b
       -0.09883094 -0.07143883 0.06972118 0.0041989447
0002e0 ae 30 f6 3d 7d 11 18 3d b5 96 de bd 40 d5 b2 3d
       0.12021004 0.037126053 -0.10868589 0.087320805
0002f0 51 de 89 bd fa d8 b9 3d 0d 64 9c bd 83 76 de bc
       -0.067318566 0.09074588 -0.07636271 -0.02715612
000300 34 0d 9c 3d a1 b9 d2 3d 13 79 2e bc f4 86 31 be
       0.07619706 0.10289312 -0.0106489835 -0.17336637
000310 bd 8d d9 3c bd c6 91 3d 35 84 a4 bd 54 2a 17 3d
       0.026556844 0.071179844 -0.08033029 0.0369056
000320 2f 96 4f 3d 75 b7 7d bd 69 48 04 be e2 ee c5 bc
       0.050680336 -0.061942536 -0.12918247 -0.02416176
000330 dc 8d 9f bd 04 28 0b 3d 5e 78 62 bd 61 9e a4 bd
       -0.077907294 0.03397371 -0.055290572 -0.08038021
000340 71 d7 be bc 53 c4 19 be a1 c7 83 bc ac e8 11 bd
       -0.02329609 -0.15016298 -0.016086401 -0.035622284
000350 0e e6 69 bc 26 24 4d bd b7 47 35 bd 08 ae c0 3c
       -0.014276041 -0.050083302 -0.044257846 0.023520485
000360 3d f9 69 bc cd 16 5a bd 2b f3 54 bd fe a3 56 3d
       -0.014280614 -0.0532444 -0.051989716 0.05240249
000370 5e 1e 56 3d 1a a0 e5 bc f2 8b 1d 3d 64 91 1a bc
       0.052275054 -0.028030444 0.03846354 -0.009434078
000380 37 e2 2b bc 7f 84 d6 3d 50 be 58 3d ba 38 f4 bd
       -0.010490946 0.104744904 0.05291587 -0.11924882
000390 8e 15 1a bb f0 62 44 b9 a7 d9 b9 bc 2a 7c 5d bd
       -0.0023511383 -0.00018728874 -0.022686793 -0.05407349
0003a0 2c bf 6f 3d 92 38 4b 3d c3 bf a1 bd 4d 94 aa bd
       0.058531925 0.049614497 -0.07897904 -0.083290674
0003b0 d1 71 9e bb 09 5a a6 bd 1a 96 25 3c f7 2e 87 bd
       -0.0048353453 -0.081226416 0.010106588 -0.06600755
0003c0 40 f6 62 bc e8 e3 97 bc 96 fc 84 ba 22 ad 74 bc
       -0.013852656 -0.018541291 -0.0010146077 -0.014933856
0003d0 e3 fb 84 bd 9d 33 21 bd 55 90 ce 3d a4 bb 9d bd
       -0.06493356 -0.039355863 0.10086123 -0.07701805
0003e0 f8 f0 48 3d 26 e0 24 be 66 a2 c4 3d 2e e7 15 be
       0.04905793 -0.16101131 0.096012875 -0.1463897
0003f0 3b a9 81 3d 54 07 77 3d e6 bb 07 3b 98 02 dc bd
       0.06331106 0.060309723 0.0020711361 -0.10742682

gc2.fc.bias f4 [128]
000000 e7 4d b2 3c ef 43 4c 3d 96 d0 c4 bc 90 cb 15 3b
       0.021765662 0.049869474 -0.024025243 0.0022856928
000010 6b 22 8a 3d 4b 7a 88 3d 17 5a 80 3d ea 52 a0 3d
       0.06744846 0.066639505 0.06267183 0.078283146
000020 80 d3 47 3c ca c9 29 bd f5 8a 96 3d 52 3c 88 bc
       0.012196422 -0.041452207 0.07350723 -0.016630325
000030 a1 f7 2b 3d 6d cf 0f bd b9 4e d0 3c 61 6d 72 3d
       0.041984204 -0.035109926 0.025428163 0.059186343
000040 4b 98 1d bd e8 c6 76 3d aa fd 4e bc 9f 44 dc 3b
       -0.038475316 0.060248286 -0.01263372 0.0067220475
000050 b6 8c 43 bc 93 3a c1 3d bd bf cc 3c 17 47 e1 3d
       -0.011935404 0.09435 0.024993772 0.109998874
000060 eb 8c ef bc 96 ed 84 bd 1e 73 ea bc 1f 24 dd 3c
       -0.029242 -0.064906284 -0.028619345 0.026994763
000070 19 08 84 3c 4b 02 81 bd f7 89 8c 3c c9 56 f3 3c
       0.016117143 -0.062992655 0.01715563 0.029704468
000080 e6 42 3c 3d 0a 0f 59 3d 06 aa b6 3d 8c d7 4a 3d
       0.045962237 0.052992858 0.08919148 0.049521968
000090 81 21 c5 ba ab 8b 53 3d ae a6 c0 3c 7f df 90 bd
       -0.0015039892 0.05164687 0.023516979 -0.070738785
0000a0 2f 5f 94 bd db 02 f8 3c bc 89 96 bd f4 a6 87 bd
       -0.07244717 0.0302748 -0.073504895 -0.06623641
0000b0 62 02 5d 3d 49 9a d0 3d 19 2e 17 ba c8 fe 60 bd
       0.05395735 0.101856776 -0.0005767062 -0.05493048
0000c0 76 d1 03 bd 56 af 2d bd e1 80 da bc 36 15 99 3c
       -0.03218218 -0.04240354 -0.026672782 0.018686872
0000d0 73 fb 41 bd bf 51 45 bc 06 e7 80 bd 37 bd ce 3d
       -0.04735894 -0.012043416 -0.06294064 0.100946836
0000e0 f8 84 48 3b 64 08 c6 3c 3c 6a 8b bd fe 72 90 39
       0.0030596834 0.024173923 -0.06807372 0.00027551496
0000f0 2d 36 82 3c df 8b 07 bd 20 9c 66 3d c8 23 49 bd
       0.015894974 -0.033092376 0.056301236 -0.04910639
000100 74 38 e4 3c 5b e5 aa 3d 6a 68 83 3c b7 e3 d1 3b
       0.02785895 0.08344527 0.016041 0.0064053196
000110 8e dd 53 bd 8e e1 30 3d 68 a8 75 3d 4d 50 43 3d
       -0.051724963 0.043183856 0.059975058 0.047684003
000120 d6 82 84 bd a3 88 cb bc f7 b6 74 bd be 1e cb 3d
       -0.064702675 -0.024845427 -0.0597448 0.09917973
000130 33 ea 6b bd 64 7e 3b 3d 63 61 95 bc 2b 64 14 3d
       -0.057596397 0.045774832 -0.018234914 0.03622834
000140 94 72 8f bc a4 36 1a bd 59 c2 92 3c 94 26 99 3d
       -0.01751069 -0.037649766 0.017914938 0.07478061
000150 07 e3 07 3c 8a e7 74 ba da bd a4 3d 0a 66 31 bc
       0.008293874 -0.00093423633 0.08044024 -0.010827551
000160 69 1f c5 ba c2 3a c5 bc 71 85 76 bc f3 d4 5b bd
       -0.0015039268 -0.02407587 -0.015046463 -0.05366988
000170 8f a4 95 3d 14 b1 ec 3d 39 e6 02 bd cd d1 9a 3d
       0.07306778 0.115572125 -0.03195784 0.075595476
000180 ea b2 06 bd 5a 6b c7 3d eb be d2 bc 7b bf 3e bd
       -0.03288547 0.097372726 -0.025725802 -0.04656933
000190 f2 7a e3 bc f2 d2 1c 3d 7b ae b3 3c 4d ae 98 3d
       -0.027768586 0.03828711 0.021933785 0.0745512
0001a0 dc 74 42 3c 36 2c 87 bc bc 5a af 3d cf c1 3f bd
       0.011868682 -0.016500574 0.08562228 -0.04681569
0001b0 fc d5 10 3d 00 7a a0 3d af 1e af 3d 7c df f2 bc
       0.03536032 0.0783577 0.08550774 -0.029647581
0001c0 4a b4 b5 3c 88 da c7 bc 75 ee 70 3d 4f 31 59 3d
       0.022180695 -0.024396196 0.05882116 0.05302554
0001d0 c5 5d bd bc 2e 04 7b bd 65 7f 5a 3d 4c c7 c7 3d
       -0.023116002 -0.061283283 0.05334415 0.0975481
0001e0 ec c8 7d 3d 07 f3 28 bd 79 77 09 3c ce 83 51 3c
       0.061959192 -0.041247394 0.008390301 0.012787772
0001f0 90 63 a7 3d 62 93 97 bd f7 f0 95 bd ef d1 3d 3d
       0.08173287 -0.07401158 -0.07321351 0.046342786

temporal_conv.weight f4 [128, 128, 3]
000000 91 5c 79 3c b1 4e ba 3b 34 f7 85 3c ab f5 08 3c
       0.015219823 0.0056856503 0.016353227 0.008359353
000010 8e 08 42 3b 23 aa a4 bc 44 1d 2d bc 66 35 b1 3c
       0.002960715 -0.020100659 -0.0105660595 0.021631908
000020 a0 93 f0 bc 62 94 b3 bb 0e 3a e1 bc 9f d6 d3 3c
       -0.029367268 -0.005480335 -0.027493503 0.025859175
000030 b2 a1 ab bb eb 6f 56 3b 5d 5b 70 bc ce 4d dc 3c
       -0.0052377814 0.0032720517 -0.01467022 0.026892569
000040 80 65 8f bc b7 00 5b 3c e9 c6 4d 3c 40 91 89 3d
       -0.017504454 0.01336687 0.012559631 0.06717157
000050 6a 5a f2 bc ed ce ed bc a5 96 aa bb e3 0e 29 3c
       -0.029584128 -0.029029334 -0.0052059465 0.010318491
000060 a8 50 3a 3d f5 55 0f bd b8 09 0c 3d 9d ea 76 3d
       0.045487076 -0.034994084 0.034188956 0.06028234
000070 e6 a8 91 bc a4 b4 1f 3c 76 c4 b2 ba 1a ab 17 bc
       -0.017780732 0.009747658 -0.0013638872 -0.009257102
000080 fb fc 06 bd f5 48 0c bd c5 b7 04 bd 93 46 ee 3b
       -0.032956105 -0.034249265 -0.03240182 0.0072715967
000090 32 c5 8f bc 0e 15 ca 3c 82 ad a4 bb 81 91 f6 bc
       -0.017550085 0.024668243 -0.0050255666 -0.030098679
0000a0 79 ca 5a bc 69 e6 75 3c 62 8e 66 bd 6e 3b 8b bd
       -0.013353937 0.015008547 -0.05628813 -0.06798445
0000b0 d9 0c 9f ba 21 f4 5d bc 8f 5c 83 bd 73 7e 42 3c
       -0.0012134566 -0.013546974 -0.064141385 0.011870968
0000c0 0e ac 93 bc 64 40 fd bb 3e 49 1f 3d 5a bd 83 3d
       -0.018026378 -0.007728623 0.03888821 0.064326
0000d0 7d d8 8c 3d 71 59 98 bb 34 d5 07 3c 12 82 31 3c
       0.06877229 -0.004649334 0.008290578 0.010834234
0000e0 8f 93 33 3d 2e b4 48 3c a2 e0 43 bc 23 b4 1a bd
       0.043841895 0.012249989 -0.011955412 -0.037769448
0000f0 c1 70 10 bd 55 c0 50 3c c7 5a 16 bd f2 61 87 3d
       -0.03526378 0.012741168 -0.036707666 0.066104785
000100 45 11 84 bc aa fc b3 3c 0a 74 32 bd fa 89 67 bd
       -0.016121516 0.021971066 -0.043567695 -0.05652807
000110 a0 b7 f1 bc 21 36 8a bd b2 7f 0b bd da 0a 06 3d
       -0.029506505 -0.067486055 -0.034057327 0.032725193
000120 13 39 43 3c f2 bc 14 bc cd 94 46 bd f7 f4 c5 3c
       0.011915463 -0.009078251 -0.04848175 0.02416466
000130 d2 b3 4a 3c ef a3 6f bc b1 6a 79 3d 79 db 48 3d
       0.012371974 -0.014626487 0.060892764 0.04903743
000140 55 ab e6 bc 7d 2b 1c 3d 0b 05 11 3d fb 1b c8 bc
       -0.02815787 0.03812741 0.0354052 -0.024427405
000150 4a 5e c3 3c 82 bb 30 3c 05 84 3c 3d c2 15 44 3d
       0.023848671 0.010786893 0.04602434 0.047872312
000160 78 61 11 3d c5 63 59 3c 6e 8b 76 bd 85 1e 04 bc
       0.035493344 0.013268416 -0.060191564 -0.008063917
000170 b7 cf 10 3d b0 9e 3b 3d 56 54 3c 3d ac ae 4c ba
       0.035354342 0.045805633 0.045978867 -0.00078080106
000180 ad aa bc 3b 25 3a 1c 3c cb 6d 2d bd d8 36 e7 bd
       0.005757651 0.009535347 -0.042341035 -0.112897575
000190 8d c5 1a bd cb dd 8d 3c c4 f0 2a 3c 85 ec b1 3c
       -0.037786055 0.017317673 0.01043338 0.021719227
0001a0 bd 1b d6 bc 9d d7 78 3d b6 d4 05 3c 83 f2 3b bb
       -0.026136274 0.0607525 0.00816839 -0.0028678484
0001b0 32 96 19 bd b7 29 a9 bc 4d 08 2c 3d dc 10 07 3d
       -0.037496753 -0.020649774 0.042000104 0.032975063
0001c0 8d 5b 81 3c 7c c3 aa bc f4 09 0a bc 49 57 4c 3d
       0.015790725 -0.020845167 -0.008425225 0.04988793
0001d0 96 7d 2e 3d 17 92 79 bd 2d 22 95 bd 99 f8 04 bd
       0.042600237 -0.060930338 -0.07281909 -0.032463644
0001e0 83 a6 87 3b 1f 40 07 3d 07 63 03 bd c0 19 e5 3a
       0.004139723 0.033020135 -0.03207686 0.0017478988
0001f0 da 0e 1b 3d e4 b5 47 3d 42 ce 3b 3d 57 f4 aa ba
       0.03785596 0.04875745 0.045851 -0.001304279
000200 18 05 5e 3c 82 25 c3 3c b8 bc d0 bc 7b 57 d2 3c
       0.013551019 0.023821596 -0.025480613 0.02567648
000210 f7 ea 9c 3c db 16 eb 3c f4 a9 54 3a 28 3e e3 bc
       0.019155009 0.028697422 0.0008112483 -0.0277396
000220 69 5a 20 3b 81 39 4c 3c 73 78 bd bc bf 98 f0 3c
       0.002446795 0.012464882 -0.023128724 0.02936971
000230 ff 99 d8 bc 70 63 5d 3c 07 05 ac bc 52 3f b0 bc
       -0.026440619 0.013512477 -0.020998491 -0.021514568
000240 be 51 0f bc 04 47 0e 3d 37 96 cb bc cc 0f a2 bd
       -0.008747516 0.034735695 -0.024851901 -0.07913169
000250 c7 93 42 bd ad 4d dd bc 68 c5 90 bb 25 65 1c 3b
       -0.047504213 -0.027014578 -0.004418064 0.0023863998
000260 dd 7a 99 bc af 7b 50 3c 1c d2 03 bd d1 4d ef 3c
       -0.018735344 0.012724801 -0.032182798 0.02921191
000270 6b eb 49 3b a1 25 9d bc ad 76 ac 3b eb fc 81 3d
       0.0030810486 -0.019182982 0.0052631707 0.063470684
000280 ab 30 6f 3d 03 52 87 3b 6d e1 ad 3c 80 1c ad bb
       0.058396023 0.0041296496 0.021225655 -0.0052829385
000290 56 a5 13 3d c0 26 24 bc 0b 7a ac 3b 22 13 a6 3c
       0.03604635 -0.010019004 0.005263572 0.020272795
0002a0 71 4c f3 bc e8 6b 84 bc 2b 65 a4 bc fe 96 4a bd
       -0.029699536 -0.016164735 -0.020067772 -0.049460404
0002b0 55 10 68 3c ef c6 0b 3d e9 86 0b bd a3 03 99 3b
       0.01416405 0.034125265 -0.034064207 0.004669623
0002c0 a1 59 1d bd c1 af d3 3c 00 9e ae bc 1c 65 67 bc
       -0.038415555 0.025840642 -0.021315575 -0.014123227
0002d0 f3 87 74 ba 57 2f 92 3c c8 eb 42 3a 44 f1 fb bb
       -0.00093281193 0.017844839 0.0007435647 -0.007688673
0002e0 84 fb b3 3c f0 6c 03 3d b5 e1 5f bc 6e 8d bf bb
       0.021970518 0.032086313 -0.013664653 -0.005845717
0002f0 e5 d4 4e bd 0c 12 5d 3c a2 14 1b bc cd 15 0e 3b
       -0.050496 0.013493072 -0.009465368 0.0021680475
000300 b1 c8 01 3c f0 0c f8 3c f8 cd 0f bd ab 58 a1 bd
       0.007921384 0.030279607 -0.035108536 -0.0787824
000310 b8 ba dd bc 31 4d 98 3b 8b 72 40 bd 11 c8 af ba
       -0.027066574 0.004647874 -0.046984237 -0.0013411065
000320 9a 0c 2e 3d bc e1 c8 bc 06 e0 7a 3c 87 d9 86 3b
       0.042492487 -0.024521701 0.0153122 0.0041152867
000330 d7 22 e9 3c 66 a6 21 3c 79 14 4f 3d cf 6e 5d bd
       0.028458996 0.009866333 0.050556634 -0.054060753
000340 e5 85 2a bd 38 ab 3a bd 2a 10 aa 3c 08 9f 2d bd
       -0.041631598 -0.045573443 0.02075966 -0.042387992
000350 0c 75 cb 3c 37 2c e5 bb f2 2c 83 bc 9a 3e 56 3c
       0.024836086 -0.006993796 -0.016012643 0.013076449
000360 01 77 c1 bc a0 94 8f bc 58 81 74 3c a8 06 cc 3c
       -0.023616316 -0.017526925 0.014923416 0.024905518
000370 90 fa 8c 3b 55 c7 12 bd 3e 9a f0 bc c6 3a 83 bd
       0.0043023303 -0.03583463 -0.029370423 -0.064076945
000380 c9 1d f3 3c 9e 0d 8c 3c b4 71 02 bc e7 5b e5 38
       0.029677289 0.017096337 -0.007961679 0.00010936689
000390 f6 be 19 3c cd ab cb 3c 20 36 3b bd 84 38 1e 3b
       0.009383908 0.024862194 -0.045705914 0.0024142573
0003a0 95 e9 4f 3d 9d 11 3b 3d 6b 1e 8f 3c fb dd 12 bd
       0.05075987 0.045671094 0.01747056 -0.03585623
0003b0 c1 ea 3a bd 96 15 d7 bc 25 06 20 bd a3 f8 42 bd
       -0.045634035 -0.02625541 -0.03906836 -0.0476004
0003c0 21 89 9b bc 76 84 18 3b e2 05 36 bd 9a 32 8d b7
       -0.018986287 0.0023272312 -0.044439204 -1.6832073e-05
0003d0 2b ab 12 bb bf 19 08 3c 0b ae fe 3c 56 7c 62 3d
       -0.0022379856 0.00830692 0.03108885 0.055294357
0003e0 bc e0 2b bd 81 9d 0e bc e1 c9 23 bd 8d 78 e8 3b
       -0.04196237 -0.008704544 -0.03998745 0.007094449
0003f0 ad fb b2 3c 26 91 12 bd c8 63 1e bd 53 d7 46 bd
       0.021848524 -0.035782956 -0.038669378 -0.048545193

temporal_conv.bias f4 [128]
000000 03 1f dd 3c 60 99 3e 3d 22 49 61 3d 58 95 56 bd
       0.026992327 0.04653299 0.055001386 -0.05238852
000010 92 11 63 3d 7d 97 98 3c 57 58 73 3d 91 34 1d 3d
       0.05543668 0.018626923 0.05941042 0.03838021
000020 a8 d3 b8 3b 8c 8d e5 3c 24 e0 92 ba c7 bf 67 3d
       0.0056404658 0.028021596 -0.0011205715 0.056579378
000030 da 76 1f 3c ec 3d 5d bb 17 3d df 3c fc 3b 93 3c
       0.009732926 -0.0033758832 0.02725081 0.017972939
000040 2c 3c bd 3c 2c ab c7 bb 3a 8b a3 bc 94 3e c1 3c
       0.023099981 -0.0060934033 -0.01996385 0.02358941
000050 87 32 1e 3d dc da 54 bc e2 d0 40 bd c4 0f 01 3d
       0.038622405 -0.012991633 -0.047074206 0.031509176
000060 06 d9 87 bc 3c 97 db bc 89 78 4c 3d 63 f7 bc bc
       -0.016582977 -0.026805513 0.04991964 -0.023067182
000070 02 34 30 bd 7c 3f 89 3c 87 71 76 bc d6 75 09 3d
       -0.04301835 0.016753905 -0.015041715 0.033559643
000080 73 8c ab 3c 87 d3 10 bc b2 d6 d4 3b 3b 23 2e 3d
       0.020940995 -0.008839495 0.0064953202 0.042514067
000090 9f c8 0b 3d ba 18 c2 bc a3 79 20 3d 61 a5 b8 bc
       0.034126874 -0.023693431 0.0391785 -0.022539796
0000a0 ef a4 e2 bc 22 19 96 bc d9 3d c7 bc 19 99 8a 3c
       -0.027666537 -0.018322531 -0.024321483 0.016918706
0000b0 de fd e4 3b d9 55 6e 3c 4c d7 00 3c b2 0b 44 3d
       0.006988271 0.014546835 0.007863831 0.047862716
0000c0 a3 da a7 3c a0 16 50 3d 63 6d 2c 3d 87 10 e8 bc
       0.020489996 0.050802827 0.042096507 -0.028328193
0000d0 ca eb 6b 3d 9d b3 4c bd d9 03 80 bc 63 87 c9 ba
       0.057597913 -0.04997598 -0.015626835 -0.0015375431
0000e0 13 41 eb 3c 87 6f 2a 3d 96 2b eb bb 30 87 46 3b
       0.028717553 0.041610267 -0.0071768267 0.003029298
0000f0 d4 a8 04 3c ba 12 c3 bc d1 26 8f bc 6d ee c4 3c
       0.008096892 -0.02381264 -0.017474564 0.024039472
000100 84 23 01 3b eb eb b6 bc 1a 43 20 bc b0 ce 34 bd
       0.0019705007 -0.022329291 -0.009781623 -0.044142425
000110 4e 8d 2f 3d ea d6 26 3d 16 e5 d3 3c 91 97 20 bd
       0.042859368 0.0407323 0.025866073 -0.039207045
000120 57 6e f8 3c 78 c1 bb bb cd 1d f4 bc 6d 54 21 3d
       0.030326052 -0.0057298504 -0.029799366 0.039387155
000130 07 36 20 bd ac 76 e6 bc 3c 8c 8c bc 43 58 8a bb
       -0.039114024 -0.028132759 -0.017156713 -0.0042219474
000140 34 f7 51 3d d3 59 3c bd 81 20 19 3d c4 15 5e 3d
       0.051261142 -0.0459841 0.037384514 0.054219976
000150 94 c7 24 bc 9d 06 08 3b 0a 37 74 3d 1e 5b df bc
       -0.010057349 0.0020755895 0.0596228 -0.027265128
000160 92 86 a3 3b 01 31 1d 3d a4 28 f3 3c ca a4 c8 3c
       0.0049904073 0.038376812 0.029682465 0.02449264
000170 bb 85 4b bc 60 14 fd 3c 7a c7 33 bc 83 ec 88 3b
       -0.012422021 0.030893505 -0.010972852 0.004178585
000180 d6 fe 17 3d c9 18 f7 b9 eb 02 40 3d 59 03 16 bd
       0.037108265 -0.00047129978 0.046877783 -0.036624286
000190 43 c2 ad 3c c4 54 cc bc ce 0f 11 3d c8 40 6e bc
       0.021210795 -0.024942763 0.035415463 -0.014541812
0001a0 4f b8 3f 3d 1b 81 07 3d b9 3b a8 bc ea ee e9 3c
       0.04680663 0.03308211 -0.02053629 0.028556306
0001b0 66 62 e6 3c 05 0d 69 3d c9 d5 a3 3b 66 c7 14 bd
       0.028123092 0.056897182 0.0049998504 -0.036322974
0001c0 e1 35 72 bd f9 43 a2 bb e4 fb 4d 3d 20 59 fa 3a
       -0.059133414 -0.0049519506 0.05028905 0.0019100048
0001d0 3f 47 8e bc 4b 71 53 3d bb b7 d6 3c 13 ea f7 3b
       -0.017367957 0.051621716 0.026210656 0.0075657456
0001e0 97 1a 39 bc 07 fe 72 3d 1d b0 95 bc d1 74 c2 bb
       -0.011297843 0.05932429 -0.018272454 -0.0059343358
0001f0 d1 a4 dc bc 9f 04 63 3d e3 d0 94 3c b0 a2 62 3d
       -0.02693406 0.05542433 0.018166011 0.055330932

fc.weight f4 [30, 128]
000000 49 ea 9e bd a8 c9 7e 3c 68 84 a1 3c c8 c4 18 bd
       -0.0775953 0.015551008 0.019716457 -0.03729704
000010 00 87 c6 3d c0 af 86 3b 3e 0b df bc 5a fd 0a 3d
       0.09693718 0.0041103065 -0.02722704 0.03393302
000020 24 29 bc bd b1 62 89 bc 6f a4 b9 3d 7c e6 21 bd
       -0.091875345 -0.016770693 0.09064566 -0.039526448
000030 dc 7d e3 3b 93 8d 43 3d 92 e1 68 bd 38 98 56 bd
       0.006942494 0.047742438 -0.056855746 -0.05239126
000040 a3 90 53 3c df 47 47 bd 14 a2 41 bd ce 96 d3 bd
       0.012912902 -0.048652526 -0.04727371 -0.10331498
000050 b0 27 0b bd 99 5a 0d 3d b8 8f 1f bd 01 6f 42 bd
       -0.033973396 0.03451023 -0.03895542 -0.047469143
000060 1a 91 14 be 75 33 d3 3c 9f ae 09 3d dd c4 c4 bc
       -0.14508477 0.025781373 0.033613797 -0.024019653
000070 27 ee 19 bd 6e b6 1d 3d 74 70 8d 3d fb af 0c 3d
       -0.037580635 0.038504057 0.06906214 0.034347516
000080 2d e6 00 3d 99 3b 3b 3d a2 14 f8 3c ec 51 4a bc
       0.031469513 0.045711134 0.030283276 -0.012348633
000090 94 fb 45 3d f9 04 bf 3d 12 fa 78 3c ac cb be 3b
       0.048335627 0.0932712 0.01519634 0.0058226194
0000a0 83 a2 47 3d 39 e9 51 bd a8 7f c7 3d f3 ff 2a 3d
       0.048738968 -0.05124781 0.09741145 0.041748
0000b0 15 1a 8c 3d a5 b2 a3 bd d7 cc ad 3d 14 07 db 3c
       0.06840912 -0.07993058 0.08486336 0.026736774
0000c0 f3 3e 3e 3c 1f e0 92 bd 98 a7 d0 bc 07 47 67 bc
       0.011611688 -0.07171654 -0.02547054 -0.014116055
0000d0 95 78 cc 3c 81 70 82 3d 05 e1 48 bc 56 6c b1 3d
       0.024959842 0.06369115 -0.01226068 0.086632416
0000e0 b9 7d 80 3d 5f c6 d2 3d d2 82 f6 bc 63 38 ad bc
       0.0627398 0.102917425 -0.030091677 -0.021145051
0000f0 6b 94 b3 bd c9 be 93 3d 6b a3 07 3c 28 a1 32 3d
       -0.08768543 0.07214124 0.008278708 0.04361072
000100 a4 f9 6d 3d 62 ad e9 3b c8 66 20 3c 4b e5 b1 bd
       0.058099404 0.0071312645 0.00979013 -0.08686312
000110 75 bb 86 bd ed 0a 60 bd 0a 76 2a bd 2a 74 52 bd
       -0.06578723 -0.05469792 -0.041616477 -0.051380314
000120 fe ce f8 3b cc 6b 87 3d b5 d4 20 3d f6 8d ba bc
       0.0075930348 0.066123575 0.039265353 -0.02277277
000130 4f f2 77 3d c1 c1 67 3d 9e cb 0f bd 15 36 c0 3d
       0.060533818 0.056581262 -0.035106294 0.09385315
000140 97 8b 37 bd 89 69 0f 3d 42 ef 1d 3d f9 19 a8 bc
       -0.044810858 0.035012756 0.038558252 -0.020520197
000150 62 7b a7 3c 66 2b 88 3c a3 eb b3 3d 2c a6 9e 3c
       0.020444576 0.016622256 0.087851785 0.019366346
000160 d4 30 14 3c db f1 4d bd 7a 66 61 3d 4e 74 e6 3d
       0.009044845 -0.05027948 0.05502937 0.11252652
000170 b2 6e cd bd bd 33 93 bd e9 f2 fa bc 02 62 1a bc
       -0.10030879 -0.07187603 -0.030633407 -0.009422781
000180 64 6b 6a bc ed 58 c1 bd ce 6f 6a bd d3 b1 3c 3d
       -0.0143078305 -0.09440789 -0.05723553 0.046068024
000190 2f cd 6b bd 78 e2 55 bd 3a 10 11 bc ae 3b d3 bd
       -0.057568725 -0.05221793 -0.008853966 -0.10314117
0001a0 b4 8f a0 bd e0 92 d2 3a 0f 0b 38 bd 3d df 72 3d
       -0.07839909 0.0016065501 -0.04493242 0.059294928
0001b0 b8 25 3f 3d e6 cf 72 3c ad c2 c7 3c 56 0e b2 3d
       0.04666683 0.014820075 0.02438482 0.086941406
0001c0 a8 78 32 bd 64 d9 58 bd f6 bc cf bd 8b 6f 3b 3d
       -0.043572098 -0.052941695 -0.10143463 0.045760673
0001d0 46 90 57 bd 5d 2f 74 3d 16 41 70 bd 4e 20 8a bd
       -0.052627824 0.05961548 -0.05865582 -0.06744443
0001e0 a1 e3 98 bd 9d f3 6f bc 94 fb 82 bd 34 be e9 bc
       -0.07465292 -0.014645484 -0.06395641 -0.028533079
0001f0 2a 1e 23 bd f8 ca 5e 3c a4 63 89 3d 3d 87 a4 3d
       -0.03982369 0.013598196 0.06708458 0.08033607
000200 19 6c 79 bd 7a da 81 bd 16 12 c3 bc e1 88 08 bd
       -0.060894106 -0.06340499 -0.023812335 -0.033333663
000210 1a e7 90 bd 6a ae ce bd b5 e7 c6 3c 31 fb 76 3d
       -0.07075329 -0.100918606 0.024280408 0.06029815
000220 fe 98 81 3d 35 17 1e 3d 6c 87 85 bd a4 93 62 bc
       0.06328009 0.03859635 -0.0651997 -0.013829146
000230 7c 4f b2 bb 42 81 9c bd dd d6 b8 bd c6 89 d2 3c
       -0.005441604 -0.076418415 -0.09025357 0.025700461
000240 1c 4f 92 3d 5e 57 0e bc 2f 74 dd bb 79 c2 67 3d
       0.07143995 -0.008687822 -0.006758235 0.056581948
000250 9e ee af 3d 5a c8 20 3d 63 7e 09 bd 66 b5 a4 bd
       0.085904345 0.03925357 -0.033567797 -0.080424115
000260 d9 09 db 3d e6 e5 e3 bd 3a 3d 3d 3b 70 83 4c 3d
       0.10695238 -0.11127834 0.0028875605 0.049930036
000270 20 f8 3d bb 44 89 00 3b 01 2c 60 3d 8a 6d c7 3d
       -0.0028987005 0.0019613067 0.054729465 0.0973769
000280 41 5e 1c bd 9b 1e 77 bd fc 82 9d 3d c4 f3 05 bd
       -0.038175825 -0.060331922 0.07690999 -0.032703176
000290 3d 4f 97 bd 74 c7 08 bc e2 bc c3 3d 35 ff 82 3d
       -0.073881604 -0.008348335 0.09557511 0.06396333
0002a0 73 3b 36 3d 70 b7 80 3c 62 b4 65 bc 5a 32 75 3d
       0.04449029 0.01571247 -0.014020057 0.059862472
0002b0 ed f1 3a 3d 60 6f ef bd 18 24 99 3d 4c c8 78 3d
       0.045640875 -0.11691165 0.074775875 0.060737893
0002c0 e7 d1 0f 3c 10 3a 4a 3c 75 d8 7b 3d 6e d6 f8 3c
       0.008778072 0.012342945 0.061485726 0.030375686
0002d0 fd 46 46 3a 13 a4 94 3c 76 7b da 3c 0e 73 d4 bb
       0.00075636787 0.018144643 0.026670199 -0.006483442
0002e0 ff fe aa bc d4 07 b5 bd 19 9f 45 3c fe a5 92 bc
       -0.020873545 -0.08839384 0.012061858 -0.017901417
0002f0 b0 54 81 bd 9c cf 88 bc c3 74 30 3b 0d 3f d1 3d
       -0.06314981 -0.016700558 0.0026925064 0.10217104
000300 97 c3 04 bb fa 06 7f 3d eb d0 4c bd f9 5b 70 ba
       -0.0020258182 0.062262513 -0.050003927 -0.00091689784
000310 55 45 e5 bc a0 15 c8 3d 24 49 ed bb b0 81 41 3d
       -0.027987162 0.0976975 -0.007241385 0.04724282
000320 b2 ea 1a bd 6a 38 26 3d 85 4f 37 3d a5 3a 62 3d
       -0.03782148 0.040581144 0.04475357 0.05523171
000330 5c 4a 80 3d 5e 3f 48 3d 52 8a 79 bd a9 fe 5b bd
       0.06264183 0.048888557 -0.06092293 -0.05370966
000340 e1 56 8b 3d fc 9d 15 bc 06 aa 6d 3d 4f 1d 02 3d
       0.0680368 -0.009131905 0.058023475 0.031766232
000350 18 4b 59 3c be 00 49 3d 44 59 96 3d 5f 05 d5 3d
       0.013262533 0.049072973 0.07341245 0.10401415
000360 5c 38 85 3d 7c 44 25 3d 64 fb f2 bc 14 ad 6d bc
       0.0650489 0.040348515 -0.029660888 -0.014506597
000370 53 7b be bd f2 e5 5a bd 8a ba c1 3d 99 6d 6c bd
       -0.09300866 -0.05344195 0.09459408 -0.057721708
000380 07 13 30 3b 27 84 1a 3d 73 79 c9 3b 70 93 08 3c
       0.002686681 0.037723687 0.006148511 0.008335933
000390 2b d9 c4 bd 09 60 00 bc 03 4a 64 bd 85 80 e2 3c
       -0.09611734 -0.007835397 -0.055734646 0.027649174
0003a0 18 d1 1d bd 9c f2 73 bc de fb 98 3d 59 e4 69 bc
       -0.038529485 -0.014889386 0.07469915 -0.014275634
0003b0 bf 84 41 bc ea 9a 8f 3d e3 bd 41 3d cf a5 8d bd
       -0.011811434 0.070119694 0.04730023 -0.06916391
0003c0 27 44 9d bd d8 61 52 bd 7f 7e d6 bd d2 a3 01 bd
       -0.07679015 -0.051362842 -0.10473346 -0.03165037
0003d0 93 55 4b 3d ed f0 94 3c 51 6b 24 bd 90 b1 ba bb
       0.049642157 0.018181289 -0.040141407 -0.0056974366
0003e0 05 da d2 bc 0b 6b dd 3c ea f5 82 bd 13 75 03 3d
       -0.025738725 0.027028581 -0.06394561 0.032094073
0003f0 74 73 dc 3b 77 42 9c 3b ee e5 10 3d d3 50 1d bd
       0.0067276303 0.0047686654 0.035375528 -0.038407158

fc.bias f4 [30]
000000 c8 f9 a8 bc 71 2c 54 bc 4e e7 3f 3d 12 60 04 3c
       -0.020626917 -0.012950049 0.04685145 0.008079546
000010 7c 84 c9 bc df 44 95 3c 71 0f 04 bd 85 b4 cc 3d
       -0.024599306 0.018221317 -0.03224129 0.09995369
000020 9d e8 b6 3b be 81 1d 3d 6e 67 82 bc 03 06 72 3d
       0.005581929 0.03845381 -0.01591846 0.059087764
000030 35 81 ab bc 18 9f 73 3c cf b4 7a bd fd 28 ae bb
       -0.020935634 0.014869474 -0.06120759 -0.005314945
000040 01 80 b0 3b 4c 1e f3 3b 8d d9 30 3b b4 19 aa bd
       0.005386353 0.007419383 0.002698514 -0.08305684
000050 6d 6e df bc b2 f6 c7 3c 6d bf 06 3d dd 30 75 3d
       -0.027274335 0.024409626 0.0328974 0.059861053
000060 f8 84 27 3c b3 66 4d 3d 16 16 89 3d 70 b9 6c bd
       0.010224573 0.05014677 0.06693666 -0.057794034
000070 85 e4 5e 3d 87 c0 51 3d
       0.054417152 0.051209
