GWN/best_models/best_model_w60_h1.pth (torch, 311371 bytes, 9 tensors)

adapt_adj f4 [60, 60]
0.9990469 -0.0009324827 -0.00090848457 -0.00089244376 -0.00088933716 -0.0008583469 -0.0008363921 -0.0008459735
-0.0008641996 -0.00084884086 -0.0008800444 -0.00084471045 -0.00073544553 -0.0006839016 -0.0006022793 -0.0005524533
-0.00046696726 -0.0003937081 -0.00031250884 -0.00023861094 -0.00014624777 -3.3754317e-05 2.6930835e-05 0.000114723305
0.00018431779 0.00023417603 0.00030172186 0.00037104613 0.00045105902 0.00050824834 0.0005819031 0.0006867652
0.000779286 0.00085684104 0.00096457277 0.0010793969 0.001178233 0.0013422959 0.0015006209 0.0016268193
0.0018095056 0.0019503923 0.0020320478 0.0021055774 0.0022487487 0.002389981 0.0025651369 0.002691987
0.002830672 0.0030280536 0.0032155623 0.0033721344 0.0035818014 0.003850156 0.004076371 0.0043049688
0.0045684343 0.0048094825 0.0050011273 0.005557332 -0.00094745826 0.99906147 -0.0009136578 -0.00089525746
-0.0008919443 -0.0008622809 -0.0008325328 -0.000836836 -0.00085712736 -0.0008367448 -0.000866859 -0.0008294205
-0.0007216159 -0.000668906 -0.0005920798 -0.0005402913 -0.00045587405 -0.0003851144 -0.0003043496 -0.00023186453
-0.00013845426 -2.1638609e-05 4.273498e-05 0.00012443749 0.00019711693 0.00024981113 0.00031365495 0.00037765742
0.000454482 0.0005160834 0.00058986555 0.000691544 0.0007858084 0.00086502096 0.00097473455 0.0010889019
0.0011849091 0.0013481156 0.0015096245 0.0016377294 0.0018196937 0.0019593334 0.0020406942 0.0021183605
0.0022668766 0.0024104083 0.0025849615 0.002707649 0.0028438955 0.0030430707 0.0032301527 0.0033896116
0.003601257 0.0038660497 0.0040909927 0.0043252865 0.00459095 0.004831812 0.0050290315 0.005583509
-0.00093454274 -0.000922396 0.9990874 -0.00089797366 -0.00089717424 -0.0008670671 -0.0008417017 -0.0008490122
-0.0008662495 -0.00085183186 -0.00088167546 -0.00084148365 -0.00073119625 -0.00068621984 -0.00060886436 -0.0005549817
-0.00047380425 -0.00040248025 -0.00032116775 -0.00024636937 -0.00015780554 -4.601181e-05 2.0670901e-05 0.000103524304
0.00017212577 0.00022563143 0.00029243057 0.0003571402 0.0004345867 0.00049639505 0.00057244167 0.00067838206
0.0007721851 0.0008483103 0.00096059835 0.0010740022 0.0011698456 0.001334624 0.0014960733 0.0016291605
0.001813281 0.0019513187 0.0020320718 0.0021052575 0.0022511631 0.0023927935 0.0025683343 0.0026925881
0.0028317648 0.0030337411 0.0032222604 0.0033761617 0.0035869794 0.0038580329 0.004084336 0.004314941
0.0045848414 0.0048246738 0.0050187525 0.0055785687 -0.00091442803 -0.00090402045 -0.000896895 0.99911356
-0.0008863112 -0.0008494899 -0.00082759134 -0.0008358335 -0.00085616764 -0.0008420764 -0.000872752 -0.00083342503
-0.000725068 -0.0006782471 -0.00060065405 -0.0005494825 -0.00046819684 -0.00039537234 -0.00031832207 -0.00024259055
-0.0001461013 -3.2554315e-05 3.0244672e-05 0.00011930712 0.00018541348 0.00023878033 0.00030722126 0.0003740663
0.00045174724 0.0005145725 0.0005915036 0.00069725077 0.0007863078 0.00086756476 0.00097518973 0.0010927435
0.0011936866 0.001355534 0.0015178024 0.0016492824 0.0018315823 0.0019725643 0.0020582683 0.0021313215
0.0022757407 0.0024174498 0.0025919382 0.002722123 0.0028623242 0.0030636468 0.0032536099 0.0034141801
0.00362159 0.0038941104 0.0041255564 0.0043581882 0.0046240008 0.004866761 0.0050608674 0.0056209643
-0.00088934094 -0.0008808888 -0.0008698237 -0.0008602098 0.99913484 -0.0008323278 -0.0008070599 -0.00081246597
-0.0008343801 -0.00081570423 -0.00084926473 -0.00080905814 -0.00070258597 -0.00064981804 -0.0005704204 -0.00052260066
00000000: 8ac1 7f3f db71 74ba 5e27 6eba e3f2 69ba
00000010: 6822 69ba af02 61ba 5341 5bba 52c4 5dba
00000020: 748b 62ba bf84 5eba c8b2 66ba 8f6f 5dba
00000030: eaca 40ba dc47 33ba 48e2 1dba 83d2 10ba
00000040: 49d3 f4b9 9b6a ceb9 3ad8 a3b9 a333 7ab9
00000050: 165a 19b9 6c93 0db8 87e9 e137 9b97 f038
00000060: 6e45 4139 268d 7539 6c30 9e39 f888 c239
00000070: 1e7c ec39 f83b 053a db8a 183a 0808 343a
00000080: 0049 4c3a a19d 603a 62db 7c3a 8d7a 8d3a
00000090: f06e 9a3a faef af3a 7bb0 c43a ff3a d53a
000000a0: ef2c ed3a 4ea4 ff3a 1b2c 053b bafd 093b
000000b0: be5f 133b 3aa1 1c3b db1b 283b 0c6c 303b
000000c0: cc82 393b 4f72 463b 2fbc 523b 07ff 5c3b
000000d0: a8bc 6a3b e652 7c3b 1493 853b b210 8d3b
000000e0: ceb2 953b dd98 9d3b 7fe0 a33b 481a b63b
000000f0: d95e 78ba 7ec2 7f3f 8982 6fba b6af 6aba
00000100: 5ed1 69ba b10a 62ba 553e 5aba 1d5f 5bba
00000110: d8b0 60ba fe58 5bba ec3d 63ba 786d 59ba
00000120: d32a 3dba 8659 2fba ce35 1bba 56a2 0dba
00000130: 6102 efb9 2ee9 c9b9 1d91 9fb9 a920 73b9
00000140: 082e 11b9 8f84 b5b7 563e 3338 6f7b 0239
00000150: 2cb1 4e39 15f9 8239 0e72 a439 5200 c639
00000160: 8b47 ee39 c549 073a 35a1 1a3a bb48 353a
00000170: b6fe 4d3a 93c2 623a 5485 7f3a 7cb9 8e3a
00000180: f44e 9b3a 41b3 b03a 98de c53a 14a9 d63a
00000190: ca82 ee3a 2968 003b 2bbd 053b 31d4 0a3b
000001a0: e18f 143b f1f7 1d3b 7568 293b d072 313b
000001b0: a660 3a3b 416e 473b f8b0 533b 3f24 5e3b
000001c0: 1103 6c3b 8d5d 7d3b bc0d 863b 22bb 8d3b
000001d0: ae6f 963b 2d54 9e3b 93ca a43b def5 b63b
000001e0: 1afc 74ba f3cc 71ba 31c4 7f3f fe65 6bba
000001f0: 5830 6bba e34b 63ba a5a5 5cba 3f90 5eba
00000200: 0515 63ba 784d 5fba 3d20 67ba 0397 5cba
00000210: c0ad 3fba 6fe3 33ba 329c 1fba 317c 11ba
00000220: ee68 f8b9 fc03 d3b9 6862 a8b9 232b 81b9
00000230: 9a78 25b9 cefc 40b8 6c66 ad37 301b d938
00000240: a97c 3439 7a97 6c39 5e51 9939 8c3e bb39
00000250: 3dd9 e339 8220 023a e90f 163a 73d5 313a
00000260: 776c 4a3a 2461 5e3a aad0 7b3a 89c5 8c3a
00000270: 8155 993a 8dee ae3a e417 c43a 8e89 d53a
00000280: 9dab ed3a 64c3 ff3a 822c 053b 5cf8 093b
00000290: 4088 133b 6ad0 1c3b 8051 283b 2276 303b
000002a0: 2195 393b bbd1 463b 8f2c 533b 9842 5d3b
000002b0: 8713 6b3b 0dd7 7c3b e5d5 853b 5964 8d3b
000002c0: 703c 963b 4c18 9e3b 5974 a43b 6dcc b63b
000002d0: 3ab6 6fba c9fb 6cba 9b1d 6bba e8c5 7f3f
000002e0: 5657 68ba 4db0 5eba b7f2 58ba d61b 5bba
000002f0: 7070 60ba cabe 5cba 65c9 64ba 357a 5aba
00000300: 7d12 3eba 64cc 31ba 3675 1dba 250b 10ba
00000310: 5178 f5b9 fa49 cfb9 77e4 a6b9 e85f 7eb9
00000320: c532 19b9 ee8a 08b8 f0b5 fd37 8634 fa38
00000330: 8d6b 4239 1b61 7a39 8a12 a139 541e c439
00000340: 7dd8 ec39 60e4 063a 220f 1b3a b5c7 363a
00000350: 3920 4e3a 496d 633a e0a3 7f3a 633a 8f3a
00000360: 7a75 9c3a 2cac b13a fff0 c63a bc2c d83a
00000370: b411 f03a 2346 013b 03e4 063b a4ad 0b3b
00000380: 9824 153b 146e 1e3b 82dd 293b a565 323b
00000390: d595 3b3b 77c7 483b 843a 553b 70c0 5f3b
000003a0: 3358 6d3b 5534 7f3b ad2f 873b 22cf 8e3b
000003b0: ee84 973b 5a79 9f3b a2d5 a53b 1130 b83b
000003c0: a922 69ba 72eb 66ba e104 64ba b47f 61ba
000003d0: 4dc7 7f3f 9330 5aba e090 53ba abfb 54ba
000003e0: 4dba 5aba fcd4 55ba 31a1 5eba f916 54ba
000003f0: bf2d 38ba 8d58 2aba 4488 15ba 23ff 08ba

gc1.fc.weight f4 [128, 30]
-0.17868327 0.11728918 0.054236677 0.07267787 -0.13209848 0.05020246 0.09777435 0.06497068
0.1216451 -0.118922405 -0.048972834 -0.096832246 0.14083058 0.16253835 -0.10005109 0.010031194
-0.016268443 0.026073668 -0.021413427 -0.041337788 0.0028685546 0.17113967 0.15052904 0.12860413
-0.00951714 0.1932226 0.13147001 0.1845883 -0.1690972 -0.16004556 -0.12015415 0.058617007
-0.032241262 0.07110177 -0.19390626 -0.008973766 -0.119577564 -0.00091493875 0.16906457 -0.12089582
-0.115217574 -0.18069786 0.17368987 0.14977743 0.039875466 -0.1569953 -0.09198707 0.09740581
0.1718493 -0.011636429 0.06593272 0.12320394 0.09304641 -0.14949128 -0.06184481 0.088282734
-0.07199577 0.050613664 -0.17733838 0.03445846 -0.14492267 -0.18053305 0.16786836 0.11136902
0.15528421 -0.101081304 0.037252758 0.14509775 -0.11926082 0.093472086 0.09388889 0.055060267
0.011129738 -0.08282436 0.17941816 -0.13992748 -0.08170039 -0.11071994 -0.03229123 -0.029011864
-0.06779183 -0.029409675 0.11724955 0.007780601 -0.030562874 0.030354274 -0.08966598 0.038671926
-0.13234803 -0.118137166 0.114881486 -0.016789906 -0.16384833 -0.16295458 -0.06517178 -0.13248275
-0.01820918 -0.11995881 0.158922 -0.1683374 -0.1189017 0.16099046 0.06529678 0.12590934
-0.044847287 0.008833977 0.11427391 -0.18004934 0.07962149 -0.042566407 0.18041559 -0.15036397
0.15050171 -0.058326554 0.055312876 0.08144962 -0.08097787 -0.019468872 -0.15155038 0.18830161
0.01690697 -0.014008404 0.19421443 -0.053620048 0.0654291 -0.08204155 -0.1034016 0.20051825
0.12867118 -0.050634447 -0.021878548 -0.08815033 -0.062068857 0.021660097 0.05473553 0.15043268
0.06294513 0.024365755 0.08424468 0.085883394 -0.077253014 0.02619788 -0.05740954 0.033934895
0.051014595 -0.18027219 -0.027734082 -0.12300841 0.15924905 0.06865717 0.13582455 -0.16035381
-0.07983479 -0.03070993 0.05513386 0.15394647 -0.17573659 -0.04312572 0.1585206 -0.17565638
-0.0075382194 0.04960773 -0.009670516 -0.12897818 -0.022543382 -0.05176978 0.043750934 -0.15719603
0.13363422 0.1326256 0.08029826 0.12039073 -0.09842684 -0.029840166 0.036014304 0.05223359
-0.20290673 -0.10615032 -0.13991399 -0.14623861 0.16861726 -0.17592588 -0.0842847 0.03495658
0.04183288 0.12485844 0.0037190912 -0.055371556 0.09905194 0.07923995 -0.05010834 -0.10886232
-0.024242263 0.13492072 -0.18691255 -0.13456845 -0.18638445 -0.16978179 -0.03895228 0.06550215
-0.08082997 0.14470528 -0.05734655 -0.20224951 0.09262092 -0.16126484 0.1468026 0.028221348
-0.10433297 -0.036061425 0.123276375 -0.1308007 -0.031861167 0.18501605 0.113109455 0.0019303866
0.033426046 -0.08871718 -0.081249796 -0.0033708033 0.014291033 -0.021642284 0.16023132 0.0008407243
0.04208219 0.15031013 -0.11133094 -0.11910231 0.04417112 -0.12962227 -0.025371935 0.064902045
0.06527843 -0.15264334 0.06964639 -0.08670289 0.16359614 -0.10435222 -0.0030143254 0.024809921
0.1359626 -0.066670835 0.08800008 -0.0059861005 -0.017847395 -0.11415614 -0.066851184 -0.046266623
0.14574446 -0.039438106 0.013885066 -0.026838087 -0.013987828 0.12969078 0.11348961 -0.024968578
00000000: bff8 36be 4f35 f03d 4727 5e3d 23d8 943d
00000010: d344 07be 18a1 4d3d eb3d c83d 590f 853d
00000020: 1121 f93d 978d f3bd bd97 48bd fc4f c6bd
00000030: e435 103e 7470 263e 96e7 ccbd e159 243c
00000040: 6645 85bc 7298 d53c 366b afbc d051 29bd
00000050: 5cfe 3b3b 3d3f 2f3e 4924 1a3e cdb0 033e
00000060: c7ed 1bbc 25dc 453e 13a0 063e b704 3d3e
00000070: d127 2dbe fce2 23be 6113 f6bd 6318 703d
00000080: 6a0f 04bd ce9d 913d 5d8f 46be b406 13bc
00000090: 15e5 f4bd 80d8 6fba 431f 2d3e 3a98 f7bd
000000a0: 31f7 ebbd dc08 39be c2db 313e 415f 193e
000000b0: 7554 233d 60c3 20be b863 bcbd b37c c73d
000000c0: 43f9 2f3e b8a6 3ebc bc07 873d 5952 fc3d
000000d0: 1e8f be3d 3e14 19be fc50 7dbd 94cd b43d
000000e0: 8572 93bd 4650 4f3d 3198 35be 5024 0d3d
000000f0: 9c66 14be a8dd 38be afe5 2b3e 7115 e43d
00000100: d302 1f3e b703 cfbd 5996 183d 8194 143e
00000110: 043f f4bd 4b6e bf3d d248 c03d e086 613d
00000120: 8159 363c d19f a9bd 65b9 373e 2649 0fbe
00000130: 8952 a7bd 23c1 e2bd cf43 04bd 4aaa edbc
00000140: 71d6 8abd 8fec f0bc 8820 f03d 69f4 fe3b
00000150: fe5e fabc 87a9 f83c cca2 b7bd 7466 1e3d
00000160: 3e86 07be e6f1 f1bd fc46 eb3d fc8a 89bc
00000170: dbc7 27be 91dd 26be c878 85bd 8fa9 07be
00000180: 6b2b 95bc f7ac f5bd 73bc 223e a460 2cbe
00000190: bc82 f3bd afda 243e 51ba 853d 61ee 003e
000001a0: cab1 37bd 63bc 103c 7108 ea3d db5e 38be
000001b0: 9710 a33d 1d5a 2ebd ddbe 383e 03f9 19be
000001c0: 1f1d 1a3e d3e7 6ebd c18f 623d 0fcf a63d
000001d0: bad7 a5bd 2f7d 9fbc 0630 1bbe 23d2 403e
000001e0: 7c80 8a3c 8183 65bc 26e0 463e b2a0 5bbd
000001f0: b1ff 853d 6605 a8bd 38c4 d3bd a854 4d3e
00000200: 61c2 033e 1166 4fbd a43a b3bc 2988 b4bd
00000210: ea3b 7ebd 8470 b13c 5d32 603d 060b 1a3e
00000220: 60e9 803d b19a c73c 7a88 ac3d a2e3 af3d
00000230: d436 9ebd f09c d63c 4426 6bbd 51ff 0a3d
00000240: aef4 503d 4699 38be 9632 e3bc d5eb fbbd
00000250: 2f12 233e 219c 8c3d 9715 0b3e ca33 24be
00000260: 6c80 a3bd 6493 fbbc 0bd4 613d 25a4 1d3e
00000270: 4bf4 33be 98a4 30bd 3953 223e 44df 33be
00000280: 2b03 f7bb 7a31 4b3d 1571 1ebc db12 04be
00000290: e6ac b8bc 8d0c 54bd 2e34 333d fff7 20be
000002a0: 69d7 083e 01cf 073e 6a73 a43d 6a8f f63d
000002b0: 0394 c9bd 5d73 f4bc bc83 133d e4f2 553d
000002c0: c8c6 4fbe 5765 d9bd 9d45 0fbe 93bf 15be
000002d0: 01aa 2c3e ea25 34be 759d acbd a12e 0f3d
000002e0: f458 2b3d c8b5 ff3d ffbb 733b 49cd 62bd
000002f0: bedb ca3d 8e48 a23d 673e 4dbd 35f3 debd
00000300: b697 c6bc a828 0a3e 0166 3fbe 50cc 09be
00000310: 91db 3ebe 47db 2dbe 6d8c 1fbd fe25 863d
00000320: 2f8a a5bd 9f2d 143e 37e4 6abd 7f1a 4fbe
00000330: 09b0 bd3d 9c22 25be 6c53 163e 7530 e73c
00000340: 86ac d5bd 25b5 13bd 5378 fc3d 9ef0 05be
00000350: db80 02bd d974 3d3e eea5 e73d 0705 fd3a
00000360: c0e9 083d 5ab1 b5bd 4b66 a6bd b2e8 5cbb
00000370: f024 6a3c 294b b1bc ae13 243e 0d64 5c3a
00000380: 605e 2c3d e6ea 193e 7a01 e4bd e9eb f3bd
00000390: c7ec 343d b3bb 04be ced8 cfbc 5deb 843d
000003a0: b3b0 853d 894e 1cbe c4a2 8e3d 4991 b1bd
000003b0: bf85 273e 9eb6 d5bd fd8b 45bb 2d3e cb3c
000003c0: c839 0b3e b88a 88bd 6339 b43d 0d27 c4bb
000003d0: b334 92bc b2ca e9bd 46e9 88bd 1282 3dbd
000003e0: 093e 153e da89 21bd 307e 633c 8cdb dbbc
000003f0: 342d 65bc a9cd 043e 3e6d e83d e78a ccbc

gc1.fc.bias f4 [128]
0.18427356 -0.026537113 -0.17488195 -0.15482762 0.07063403 -0.022891797 0.12350099 0.12344217
0.05639761 0.08259341 -0.054602057 0.10347793 -0.14559914 -0.10906882 -0.039175645 0.18958557
-0.005346489 -0.09955821 0.11376112 -0.13140848 0.038067937 -0.078589745 0.07371264 -0.098768786
0.13789271 -0.023270758 -0.16915867 0.16914007 0.17313355 0.10339933 -0.11176639 -0.15161543
0.18011795 -0.17001517 -0.123011865 0.05969653 0.12688886 0.16474213 -0.12323617 -0.072966985
-0.0040751914 -0.055879284 0.0721831 -0.03264371 -0.07678024 0.09914418 0.1087602 0.017913153
0.08044232 -0.014318865 0.16337493 -0.04975704 0.021348447 0.0429744 -0.14359091 -0.07609455
0.13616237 0.0989547 -0.14072831 -0.009314285 -0.16877331 -0.14780208 -0.028400661 0.096292056
-0.0045706695 -0.10856347 -0.067794584 0.18551195 -0.016998459 -0.083965 -0.0972952 0.117364496
0.14177597 -0.014361656 -0.10721631 -0.16253899 0.04748951 0.0859283 -0.07488568 -0.09692252
0.012533943 0.15278777 0.16962181 -0.07857223 0.10826958 0.10601383 -0.096927665 0.1703416
-0.05505686 -0.020281134 0.11302038 0.0626 0.07814853 0.117868625 -0.10883388 0.13330442
0.10124824 -0.021431396 -0.07568385 -0.16166516 0.0871032 -0.06543032 -0.0231923 -0.13328183
-0.11067697 -0.014780974 0.12361406 0.14405946 -0.0031073005 0.06633236 0.1407991 0.052048992
0.14384943 0.1427408 0.0098520825 -0.1713573 -0.07987908 -0.054860413 -0.12090896 -0.04309502
0.032934435 0.080267094 0.030171948 -0.0678432 0.1371538 0.06722825 0.09182087 -0.012328083
00000000: 35b2 3c3e 5c64 d9bc 4114 33be 228b 1ebe
00000010: 93a8 903d 9487 bbbc 16ee fc3d 40cf fc3d
00000020: 2e01 673d bc26 a93d 68a6 5fbd 3dec d33d
00000030: f117 15be 795f dfbd a476 20bd b822 423e
00000040: 9a31 afbb 2de5 cbbd 97fb e83d f28f 06be
00000050: 20ed 1b3d a9f3 a0bd a7f6 963d 4a47 cabd
00000060: bf33 0d3e 51a2 bebc ee37 2dbe 0e33 2d3e
00000070: ec49 313e 07c3 d33d c7e5 e4bd 1341 1bbe
00000080: d770 383e 7518 2ebe a5ed fbbd 5984 743d
00000090: 27ef 013e 29b2 283e 3f63 fcbd b76f 95bd
000000a0: 2f89 85bb ade1 64bd bcd4 933d 69b5 05bd
000000b0: f53e 9dbd 1b0c cb3d abbd de3d 9bbe 923c
000000c0: f1be a43d ac99 6abc c24b 273e 0ace 4bbd
000000d0: f0e2 ae3c ed05 303d 7f09 13be 76d7 9bbd
000000e0: 266e 0b3e c3a8 ca3d 151b 10be f19a 18bc
000000f0: e9d2 2cbe 6e59 17be 81a8 e8bc c534 c53d
00000100: 8ec5 95bb 8656 debd e3d7 8abd d8f6 3d3e
00000110: 5a40 8bbc d8f5 abbd b542 c7bd cc5c f03d
00000120: b82d 113e 274d 6bbc 3a94 dbbd 9f70 26be
00000130: 5c84 423d 2dfb af3d aa5d 99bd 507f c6bd
00000140: 2b5b 4d3c 6674 1c3e 57b1 2d3e 7aea a0bd
00000150: 71bc dd3d c71d d93d 0382 c6bd 076e 2e3e
00000160: 4d83 61bd 9f24 a6bc 3b77 e73d 6e34 803d
00000170: 560c a03d 1b65 f13d 4ce4 debd f480 083e
00000180: 3d5b cf3d e590 afbc 2200 9bbd 8d8b 25be
00000190: 2a63 b23d 5500 86bd c7fd bdbc 087b 08be
000001a0: 9baa e2bd e62b 72bc 5e29 fd3d 5384 133e
000001b0: daa3 4bbb 43d9 873d a42d 103e 5331 553d
000001c0: 444d 133e a52a 123e a16a 213c 4a78 2fbe
000001d0: a597 a3bd 50b5 60bd 1e9f f7bd 6784 30bd
000001e0: 42e6 063d 1363 a43d 292b f73c 60f1 8abd
000001f0: 0c72 0c3e f7ae 893d 950c bc3d bafb 49bc

gc2.fc.weight f4 [128, 128]
0.017859867 -0.08378879 0.03446882 -0.08054153 0.044709053 0.061069526 -0.05138992 -0.104445696
0.00038295612 0.023973644 0.015323266 0.09491518 -0.09597234 -0.05088075 -0.0059771747 -0.060744066
-0.05845703 0.055411883 0.07666062 0.044037044 0.024450485 0.0069978395 -0.00083558745 -0.051061407
0.07608969 -0.007955999 -0.06409762 -0.044562723 -0.090946496 -0.08148964 0.09097779 0.022235684
0.06457249 0.042910952 -0.035800204 -0.059019163 0.02996976 0.071167454 0.042244975 0.029711856
-0.08346788 0.08361371 -0.016184956 0.022313198 -0.075652085 -0.110645644 -0.004328992 -0.0068425247
0.029742485 -0.0064228782 -0.012083086 -0.039110273 -0.07486834 0.024747599 0.020243 0.04270556
-0.03687992 -0.014321176 -0.05383908 0.03304665 0.055137206 0.008196232 -0.04676952 0.007631586
0.08155399 0.040801704 -0.011821061 0.05404826 0.017737709 -0.05057315 0.056945816 -0.029077787
0.054691985 -0.013362038 -0.06039104 -0.0008731955 -0.071227744 0.054878257 0.049081422 -0.019602505
0.04436425 0.0600357 -0.02873708 0.09352214 0.012643224 -0.085664436 0.016420143 0.05582176
-0.019771818 0.0917549 0.014281736 0.050983574 -0.07479354 -0.028716376 0.04413317 -0.07422717
-0.035751104 0.037030168 -0.0032908192 -0.024352571 0.01941188 -0.06638638 0.050770458 -0.01199003
0.057381384 -0.06973984 -0.06743271 -0.018764833 -0.029727265 0.041835405 0.037680443 0.04835173
-0.028794043 0.07217805 -0.016220197 -0.031175796 -0.0067856843 -0.08200039 -0.0636995 0.03248151
0.061657846 -0.07667297 0.05126023 0.037747804 0.0661446 0.049973052 -0.014862144 0.052220907
-0.028400302 -0.034408156 -0.033599485 -0.017379014 -0.045101356 0.07708252 0.038653538 -0.07677316
-0.08318884 0.025107175 0.00697795 0.032016635 0.05918878 0.08480607 0.035163563 -0.030056812
0.034303702 -0.0041918494 0.06963912 0.072506934 0.018787455 -0.039839875 0.06447632 -0.084162645
0.010664297 0.0017715247 0.08736009 0.05004183 0.044455875 -0.082218416 0.03320226 -0.05030897
0.062190816 -0.037901863 -0.014933313 -0.058252703 0.061195794 -0.0068180203 -0.028752036 0.048017077
0.089263655 -0.015714383 0.11166355 0.024768671 0.13636221 -0.051187 -0.08245667 0.077874936
-0.04448329 0.038085453 0.08598136 -0.062208388 0.05837463 0.0005331735 0.08248892 0.031872183
-0.017429106 -0.059091512 0.112265885 -0.08260187 -0.013644902 -0.054695603 -0.050035734 -0.001051151
0.034437723 -0.049429014 -0.03457303 0.00364785 0.0505463 0.022702876 -0.03696791 -0.08912096
0.054203216 -0.05346186 -0.017457118 -0.056702245 0.11389757 0.1340476 0.0053459187 -0.06815531
-0.045202762 0.040434845 0.07239873 -0.024146024 -0.014083054 0.00076611934 -0.0069467803 -0.027452365
0.0057247523 -0.029228037 -0.06626578 0.0710559 0.123479575 -0.03521099 -0.04111263 0.039842643
-0.051555738 0.041950084 0.08957539 -0.09148829 -0.012221204 0.10898518 0.05039346 0.043968882
-0.040942214 0.061438866 -0.05158992 -0.06975531 -0.040961258 0.08786401 0.04125494 -0.0467828
-0.060158573 0.07365822 -0.06305867 0.004840424 0.0011557128 0.043608326 -0.008923288 -0.05037441
-0.02971848 -0.0015805038 -0.03739989 -0.047676925 0.03862165 0.08211398 -0.008950016 0.011473061
00000000: db4e 923c 7599 abbd 2d2f 0d3d f5f2 a4bd
00000010: d720 373d 0a24 7a3d 3d7e 52bd a0e7 d5bd
00000020: 80c7 c839 6064 c43c 700e 7b3c e462 c23d
00000030: 258d c4bd 5568 50bd 2ddc c3bb c5ce 78bd
00000040: a470 6fbd 92f7 623d 3e00 9d3d 3060 343d
00000050: 624c c83c 224e e53b 530b 5bba c425 51bd
00000060: e9d4 9b3d e159 02bc 9d45 83bd 6787 36bd
00000070: 2842 babd 0ae4 a6bd 9052 ba3d 9c27 b63c
00000080: 953e 843d 65c3 2f3d 3ca3 12bd 14be 71bd
00000090: 2483 f53c 3ec0 913d 1109 2d3d 4766 f33c
000000a0: 35f1 aabd aa3d ab3d 5096 84bc 2bca b63c
000000b0: 7bef 9abd 2f9a e2bd 38da 8dbb 4237 e0bb
000000c0: 83a6 f33c 0277 d2bb 23f8 45bc 1832 20bd
000000d0: 9254 99bd 7abb ca3c a6d4 a53c 06ec 2e3d
000000e0: 660f 17bd 5ea3 6abc 5e86 5cbd ed5b 073d
000000f0: 8dd7 613d 7d49 063c 6591 3fbd 6212 fa3b
00000100: c705 a73d b01f 273d 20ad 41bc b561 5d3d
00000110: ac4e 913c cb25 4fbd 0440 693d 8a34 eebc
00000120: b404 603d 73ec 5abc 985c 77bd 28e7 64ba
00000130: dadf 91bd 06c8 603d 9a09 493d 6f95 a0bc
00000140: 4ab7 353d ffe7 753d 066a ebbc 8988 bf3d
00000150: 8625 4f3c d670 afbd 8983 863c 5ca5 643d
00000160: 82f8 a1bc fee9 bb3d f1fd 693c 27d4 503d
00000170: 5b2d 99bd 9b3e ebbc fcc4 343d 6a04 98bd
00000180: c06f 12bd f2ac 173d c9aa 57bb 0b7f c7bc
00000190: aa05 9f3c 95f5 87bd aff4 4f3d d571 44bc
000001a0: be08 6b3d c3d3 8ebd 291a 8abd b5b8 99bc
000001b0: 9886 f3bc 9a5b 2b3d cf56 1a3d 770c 463d
000001c0: 7ce1 ebbc 16d2 933d 38e0 84bc 6264 ffbc
000001d0: 725a debb d2ef a7bd e274 82bd 550b 053d
000001e0: f08c 7c3d b806 9dbd 3ff6 513d 719d 1a3d
000001f0: d276 873d 8bb0 4c3d 5a80 73bc 97e5 553d
00000200: c0a7 e8bc 91ef 0cbd 9d9f 09bd 6f5e 8ebc
00000210: 33bc 38bd 71dd 9d3d 2c53 1e3d 3f3b 9dbd
00000220: e95e aabd 90ad cd3c 4aa7 e43b e023 033d
00000230: ef6f 723d ceae ad3d ab07 103d b439 f6bc
00000240: 0a82 0c3d c85b 89bb f49e 8e3d 847e 943d
00000250: 26e8 993c 232f 23bd 290c 843d 775d acbd
00000260: 4eb9 2e3c 8132 e83a d9e9 b23d a9f8 4c3d
00000270: 5d17 363d 2162 a8bd 18ff 073d c710 4ebd
00000280: ccbb 7e3d fc3e 1bbd dbaa 74bc 639a 6ebd
00000290: 71a8 7a3d b369 dfbb 6489 ebbc 8ead 443d
000002a0: ddcf b63d 73bb 80bc dcaf e43d abe7 ca3c
000002b0: 89a2 0b3e 76a9 51bd 0bdf a8bd e57c 9f3d
000002c0: 1c34 36bd 7eff 1b3d ff16 b03d 39ce 7ebd
000002d0: 3c1a 6f3d abc4 0b3a f3ef a83d 688c 023d
000002e0: 7cc7 8ebc f109 72bd a8eb e53d 2b2b a9bd
000002f0: de8e 5fbc 7f08 60bd 45f2 4cbd c6c6 89ba
00000300: 920e 0d3d 1476 4abd 739c 0dbd c410 6f3b
00000310: a309 4f3d 62fb b93c aa6b 17bd 0d85 b6bd
00000320: 3104 5e3d d3fa 5abd 3b02 8fbc 9d40 68bd
00000330: 2143 e93d c643 093e d12c af3b 0395 8bbd
00000340: 8826 39bd 029f 253d c945 943d e2cd c5bc
00000350: 9cbc 66bc 66d5 483a d1a1 e3bb c8e3 e0bc
00000360: b496 bb3b a36f efbc 5ab6 87bd c185 913d
00000370: dce2 fc3d 6639 10bd b865 28bd 0a32 233d
00000380: 1c2c 53bd dad3 2b3d 4d73 b73d 365e bbbd
00000390: 723b 48bc 9f33 df3d 5f69 4e3d b718 343d
000003a0: 06b3 27bd 52a7 7b3d f44f 53bd dfdb 8ebd
000003b0: fec6 27bd 0cf2 b33d f1fa 283d 529f 3fbd
000003c0: d668 76bd 1fda 963d e724 81bd 6b9c 9e3b
000003d0: 497b 973a a59e 323d fc32 12bc 6655 4ebd
000003e0: 2b74 f3bc e828 cfba a130 19bd e148 43bd
000003f0: bc31 1e3d 602b a83d 17a3 12bc 81f9 3b3c

gc2.fc.bias f4 [128]
0.06022545 -0.05624919 0.05151189 0.042132985 -0.04431857 0.045883056 -0.043763857 0.0043119737
0.027852107 -0.009869856 0.07544048 -0.045585193 -0.0073380116 0.05864832 0.0515804 0.06692907
0.009697586 0.07164128 -0.0428558 -0.017859526 0.0836177 -0.022068076 0.08286548 0.004075005
0.08576674 0.037518743 -0.000523086 0.089651614 0.045775276 0.076414175 -0.046287663 0.071376204
0.03475134 0.0062029627 -0.027635427 0.036702953 0.09053361 -0.036214147 0.018510202 -0.02675343
-0.07085346 -0.05475893 0.03967766 0.03348215 0.09135826 -0.03520984 -0.06482454 0.09825976
-0.012832606 -0.036690187 -0.014993595 0.07109097 -0.024607876 0.043981288 0.033860512 0.02605064
0.039506026 0.0928246 -0.026020354 0.07154082 -0.07452979 0.083776526 0.016921375 0.010705824
-0.057682235 0.052595116 0.05164988 0.030219598 0.085215285 -0.03202882 -0.031045632 -0.05890313
0.083418116 0.024757445 -0.06847668 0.048843715 -0.0030145347 -0.0086837225 0.06532257 -0.078635715
-0.050696712 0.052340988 -0.025193242 -0.029783467 -0.05054409 0.03240306 -0.03624695 0.05423158
0.08792152 -0.071953274 -0.0048608794 -0.080306605 -0.041711293 0.0029244015 -0.06427035 0.06284118
0.009063305 0.07583469 0.06572674 0.027976424 0.023491958 -0.03227486 -0.020307655 -0.02472552
0.099194415 0.063592665 0.0805303 -0.07067283 0.010429353 0.09055376 0.054170504 -0.05523528
-0.008989169 0.06878424 0.050128214 -0.019232135 0.019098286 -0.05737204 0.08737581 0.029493153
-0.056635052 0.024397187 0.014246578 -0.06023613 -0.036105692 0.014922966 0.0091136005 0.080085695
00000000: f6ae 763d 8d65 66bd 22fe 523d a393 2c3d
00000010: 6487 35bd dfef 3b3d bb41 33bd 754b 8d3b
00000020: 1a2a e43c 2db5 21bc 8a80 9a3d 8ab7 3abd
00000030: b473 f0bb 3939 703d f845 533d 1c12 893d
00000040: a0e2 1e3c aab8 923d 9089 2fbd 244e 92bc
00000050: c23f ab3d 1cc8 b4bc 60b5 a93d 9f87 853b
00000060: 79a6 af3d 41ad 193d b51f 09ba 449b b73d
00000070: db7e 3b3d 097f 9c3d 2298 3dbd b02d 923d
00000080: 6c57 0e3d 3942 cb3b b163 e2bc d655 163d
00000090: af69 b93d 4955 14bd b5a2 973c 022a dbbc
000000a0: 9e1b 91bd e64a 60bd 0b85 223d 9424 093d
000000b0: 0a1a bb3d 3138 10bd bac2 84bd 6a3c c93d
000000c0: da3f 52bc 7348 16bd b2a7 75bc 2498 913d
000000d0: 7596 c9bc b925 343d 52b1 0a3d 2768 d53c
000000e0: 12d1 213d d31a be3d a328 d5bc fe83 923d
000000f0: 13a3 98bd 0793 ab3d b29e 8a3c 7b67 2f3c
00000100: 3544 6cbd fa6d 573d d38e 533d 178f f73c
00000110: 5a85 ae3d a730 03bd 6953 febc 6944 71bd
00000120: 1ed7 aa3d 20d0 ca3c 803d 8cbd 5910 483d
00000130: 808f 45bb 2c46 0ebc d7c7 853d c30b a1bd
00000140: 5ba7 4fbd 8163 563d 0f62 cebc 75fc f3bc
00000150: 5207 4fbd 12b9 043d af77 14bd ef21 5e3d
00000160: 3310 b43d 3d5c 93bd 0348 9fbb ca77 a4bd
00000170: 76d9 2abd 51a7 3f3b 2ca0 83bd e0b2 803d
00000180: 427e 143c 384f 9b3d be9b 863d d02e e53c
00000190: 3572 c03c a532 04bd 3d5c a6bc 2c8d cabc
000001a0: 7126 cb3d df3c 823d 12ed a43d ebbc 90bd
000001b0: e1df 2a3c 4074 b93d e4e1 5d3d 643e 62bd
000001c0: 4f47 13bc c0de 8c3d 3e53 4d3d b68c 9dbc
000001d0: 0274 9c3c f2fe 6abd 17f2 b23d a09b f13c
000001e0: 28fa 67bd 9cdc c73c 7b6a 693c 29ba 76bd
000001f0: 90e3 13bd 757f 743c 3651 153c f803 a43d

temporal_conv.weight f4 [128, 128, 3]
0.06267859 -0.016469968 0.0409036 -0.024765877 -0.020985018 -0.045982122 0.002313519 -0.022883292
0.05018246 0.023729365 0.009014141 -0.009818961 -0.0013964805 0.0098524615 -0.046536192 0.0122718215
0.029400358 0.018160233 -0.005127313 -0.04225057 -0.0022729128 -0.0058229812 -0.053688604 -0.026047893
0.040464126 -0.001664094 0.016037988 0.000630422 -0.011296391 -0.034969825 -0.0120994095 0.05048517
0.011824807 -0.03341036 0.0019676455 -0.04171835 -0.051914953 -0.0042348816 0.043681294 0.025926182
-0.015566525 0.026707148 0.021994764 0.045077823 -0.038373612 -0.04016313 -0.009886934 -0.009788337
-0.062239245 -0.019837873 -0.010202864 -0.023119805 -0.032703087 0.04072057 0.022938179 -0.0045747724
0.0138819795 -0.036989067 -0.00251742 -0.025216449 0.01572736 0.0006157382 0.026407622 -0.028929718
0.009585312 0.037240297 0.03726064 -9.9444165e-05 -0.0015615533 0.051523738 0.062406067 -0.042751834
0.020488892 0.03290118 -0.034423623 -0.02216076 -0.025575772 0.03800825 0.026586512 0.039586067
0.00010723163 -0.036216144 -0.038039718 0.026716668 0.03460429 -0.01873234 0.0031093522 -0.032133043
0.005229354 0.020986654 0.02513309 -0.024023028 -0.050201856 0.035212245 0.023231018 0.039666377
-0.008604449 0.00841656 0.008307541 0.047648363 0.017044522 -0.004342081 0.055434182 0.032517385
-0.01144602 0.024423946 -0.052942514 -0.019149888 0.05556772 -0.016579889 0.0439303 -0.06480164
-0.0712441 -0.0123850005 0.042206466 -0.02648968 -0.018455641 -0.012362134 -0.06185286 -0.048476156
0.05440211 -0.034626193 -0.034575555 -0.015087064 -0.044921536 0.038963515 0.014341285 0.012734433
-0.0030801278 0.028711177 -0.018670114 -0.044621177 0.014383923 -0.031791102 0.0045502908 0.05605169
0.022184847 0.025196914 0.016986823 -0.071452 0.016112935 0.007946123 0.057474032 -0.036451608
0.027960101 0.06257695 0.032748707 -0.024618588 -0.0052000424 -0.0009045977 0.047104426 0.023571504
-0.01513019 -0.020397635 0.00058573653 0.02755562 -0.024317913 0.0612058 0.013563947 -0.037641287
0.00538913 0.025275085 0.042623784 0.0009915475 -0.016936697 0.05602939 0.011849137 0.044126615
0.014353117 -0.038031485 -0.008444952 0.012289011 0.06299464 -0.048933588 0.053869914 0.048697308
0.021524552 0.0016523339 -0.036723495 0.030845553 0.047543764 0.039573256 -0.03077476 0.031586744
-0.004414512 0.0009074812 0.022972735 0.039277963 -0.006507306 0.03347209 -0.02118277 0.021213466
-0.0035783628 -0.033547606 0.00062299223 -0.0196313 0.0066904747 -0.010783851 -0.014144371 0.0069509656
0.007634987 -0.031227048 0.0016511334 -0.03356274 -0.00047448993 0.0551981 -0.0068162014 0.025000025
-0.023961695 0.008140655 0.007225062 0.05285253 0.010080236 -0.008413539 -0.012979024 0.04662564
-0.00044968099 -0.03660353 0.033958755 -0.009164921 0.020730471 -0.038410015 -0.00043861283 0.04049883
0.045158762 0.010571277 0.01833452 -0.010585624 -0.043121323 -0.06955788 -0.009507048 -0.07169438
-0.028140714 -0.016375208 -0.005479411 0.013297702 -0.04672079 -0.03415544 0.039529864 -0.034650683
0.03161637 0.057555433 -0.017741058 -0.021354029 0.025083266 0.011666232 -0.059823263 0.010595652
0.019083677 0.008628855 -0.012085883 0.039714668 -0.034697816 0.007921982 -0.020498913 -0.005240781
00000000: a25d 803d 07ec 86bc 898a 273d cfe1 cabc
00000010: c6e8 abbc c057 3cbd 689e 173b be75 bbbc
00000020: 208c 4d3d 1664 c23c 0cb0 133c b5df 20bc
00000030: 1c0a b7ba 386c 213c bc9c 3ebd c00f 493c
00000040: 05d9 f03c c5c4 943c 0503 a8bb ef0e 2dbd
00000050: 26f5 14bb b5ce bebb 95e8 5bbd 6462 d5bc
00000060: b6bd 253d bb1d daba 1962 833c e742 253a
00000070: 7f14 39bc 853c 0fbd 9a3c 46bc 8ac9 4e3d
00000080: d6bc 413c 4dd9 08bd 9df3 003b dce0 2abd
00000090: c6a4 54bd c3c4 8abb 28eb 323d 2563 d43c
000000a0: bd0a 7fbc f3c8 da3c 5d2e b43c 86a3 383d
000000b0: a62d 1dbd 1882 24bd cffc 21bc 435f 20bc
000000c0: 94ee 7ebd 0983 a2bc ea29 27bc bf65 bdbc
000000d0: acf3 05bd 9dca 263d d9e8 bb3c f9e7 95bb
000000e0: 3e71 633c d981 17bd 4dfb 24bb ba92 cebc
000000f0: aad6 803c 7e69 213a cc54 d83c 04fe ecbc
00000100: b60b 1d3c 4889 183d 9d9e 183d ae8c d0b8
00000110: 09ad ccba 8e0a 533d 819d 7f3d 8c1c 2fbd
00000120: 52d8 a73c 63c3 063d c9ff 0cbd 7b8a b5bc
00000130: 4884 d1bc 8aae 1b3d f5cb d93c 0025 223d
00000140: 8be1 e038 6157 14bd 89cf 1bbd eadc da3c
00000150: 3abd 0d3d 9074 99bc 46c6 4b3b f09d 03bd
00000160: 005b ab3b 34ec ab3c e9e3 cd3c f1cb c4bc
00000170: 76a0 4dbd b73a 103d fa4e be3c 3679 223d
00000180: adf9 0cbc 9ce5 093c 5a1c 083c ee2a 433d
00000190: f4a0 8b3c 0448 8ebb f40e 633d f330 053d
000001a0: 1688 3bbc ba14 c83c 40da 58bd 3ae0 9cbc
000001b0: fa9a 633d 8cd2 87bc 42f0 333d b9b6 84bd
000001c0: 6de8 91bd 75ea 4abc b0e0 2c3d e300 d9bc
000001d0: 4930 97bc 8c8a 4abc 6d59 7dbd ef8e 46bd
000001e0: bfd4 5e3d 32d4 0dbd 199f 0dbd bc2f 77bc
000001f0: a5ff 37bd 3598 1f3d b6f7 6a3c 15a4 503c
00000200: f8db 49bb b433 eb3c 11f2 98bc b2c4 36bd
00000210: 8caa 6b3c 6337 02bd 9b1a 953b 7596 653d
00000220: ffbc b53c c269 ce3c f327 8b3c 6d55 92bd
00000230: 46ff 833c 7530 023c e469 6b3d 484e 15bd
00000240: 950c e53c 5828 803d 8223 063d ecac c9bc
00000250: 1e65 aabb 8622 6dba 92f0 403d 0719 c13c
00000260: 9ee4 77bc f118 a7bc 1d8c 193a 53bc e13c
00000270: 5c36 c7bc efb2 7a3d 513b 5e3c c02d 1abd
00000280: 4d97 b03b b20d cf3c 4796 2e3d d0f6 813a
00000290: d4be 8abc 137f 653d e222 423c 1cbe 343d
000002a0: 5629 6b3c e7c6 1bbd b25c 0abc d957 493c
000002b0: 5503 813d 966e 48bd b3a6 5c3d d476 473d
000002c0: 4254 b03c 2093 d83a 606b 16bd d0af fc3c
000002d0: 40bd 423d 9117 223d 591b fcbc 1a61 013d
000002e0: 9ca7 90bb 08e4 6d3a 5131 bc3c eee1 203d
000002f0: 3d3b d5bb 081a 093d 7d87 adbc ddc7 ad3c
00000300: f782 6abb 3769 09bd 4d50 233a d2d1 a0bc
00000310: c53b db3b c0ae 30bc cbbd 67bc edc4 e33b
00000320: ea2e fa3b decf ffbc d86a d83a 1579 09bd
00000330: f6c4 f8b9 6717 623d 715a dfbb dacc cc3c
00000340: 514b c4bc 6260 053c 37c0 ec3b e57b 583d
00000350: 9327 253c f1d8 09bc f9a5 54bc 87fa 3e3d
00000360: 29c3 ebb9 95ed 15bd 5618 0b3d 7728 16bc
00000370: f3d2 a93c d253 1dbd 9ef5 e5b9 1ae2 253d
00000380: 65f8 383d 2633 2d3c 4632 963c 536f 2dbc
00000390: fc9f 30bd 5d74 8ebd 73c3 1bbc 81d4 92bd
000003a0: 5b87 e6bc 4d25 86bc a28c b3bb 9bde 593c
000003b0: 4d5e 3fbd 93e6 0bbd 11ea 213d e0ed 0dbd
000003c0: 2b80 013d 3fbf 6b3d b255 91bc a5ee aebc
000003d0: 6c7b cd3c b923 3f3c 3d09 75bd 6399 2d3c
000003e0: 5f55 9c3c 0b60 0d3c de03 46bc d9ab 223d
000003f0: 4c1f 0ebd 33cb 013c 56ed a7bc dcba abbb

temporal_conv.bias f4 [128]
-0.0077491105 0.023836045 -0.009102979 0.034035116 -0.0049549392 0.0645336 -0.060527243 0.054896936
-0.018114215 -0.05228442 0.041202106 -0.01296052 -0.017090622 -0.026373861 0.04736172 -0.029961966
-0.014158435 -0.028170738 -0.024912706 0.055161394 -0.036651056 0.05762688 -0.038692236 -0.015259932
-0.024464138 0.06177399 0.014139724 0.05864909 -0.034920268 -0.017301166 0.056585006 -0.0056170784
-0.015372483 -0.032034602 0.04948837 -0.036133964 -0.01587928 -0.017447282 -0.012690632 -0.00078254414
0.027739652 0.04220283 0.041268747 0.001683102 0.028971884 0.04993491 -0.033468876 0.030097805
0.0024862532 -0.03065938 -0.017927308 0.051367953 0.021917585 0.009748255 -0.04869305 0.011297508
0.034238603 0.038667407 -0.049466256 -0.025842927 0.029251432 0.043407224 0.041992113 0.041484278
-0.023120917 0.03459392 -0.0010850105 -0.000609496 -0.02414185 0.03111645 -0.016934965 0.04942895
0.044510018 0.06701567 -0.011487829 0.052719794 0.033004925 -0.011089621 -0.019124452 0.0547415
0.0031171846 0.0069416636 0.031135213 -0.06169669 -0.025663832 0.054435857 0.034160778 -0.034595236
-0.03359925 -0.011049727 -0.015814781 0.04873337 0.029018924 -0.006006086 -0.02444455 -0.02802217
-0.027520467 0.061783496 0.022418818 -0.013430037 -0.0018945457 -0.0017892618 0.052081555 0.040255602
0.060709342 0.023655267 -0.0014990309 0.029702175 -0.001016301 -0.020126915 0.042031087 0.06599941
0.034634717 0.03049836 -0.047812257 -0.016617816 -0.0027311458 0.018352551 -0.0004428603 0.008866588
0.03742882 0.0010870674 0.0014311039 0.061698005 0.024289273 0.04930274 -0.009515364 -0.00046486832
00000000: 40ec fdbb cf43 c33c a924 15bc 6868 0b3d
00000010: 0b5d a2bb 312a 843d 6aeb 77bd 9cdb 603d
00000020: 4364 94bc 3028 56bd 8ac3 283d 5c58 54bc
00000030: a201 8cbc ff0d d8bc 5dfe 413d cc72 f5bc
00000040: c8f8 67bc 52c6 e6bc bb15 ccbc eaf0 613d
00000050: 6b1f 16bd 2a0a 6c3d c07b 1ebd cb04 7abc
00000060: 0469 c8bc b906 7d3d 4daa 673c 073a 703d
00000070: 8e08 0fbd 2dbb 8dbc aec5 673d 780f b8bb
00000080: dedc 7bbc b736 03bd 51b4 4a3d 3501 14bd
00000090: 4415 82bc 9aed 8ebc 5eec 4fbc a623 4dba
000000a0: 443e e33c e0dc 2c3d 6b09 293d 889b dc3a
000000b0: 7256 ed3c 8c88 4c3d a916 09bd ac8f f63c
000000c0: 68f0 223b 6129 fbbc 4adc 92bc 3467 523d
000000d0: 828c b33c 25b7 1f3c 5d72 47bd 2f19 393c
000000e0: c73d 0c3d b761 1e3d 219d 4abd 8cb4 d3bc
000000f0: b3a0 ef3c c6cb 313d ecff 2b3d 6beb 293d
00000100: 1468 bdbc 5bb2 0d3d e936 8eba 96c6 1fba
00000110: 21c5 c5bc ede7 fe3c 32bb 8abc 0376 4a3d
00000120: 2350 363d 833f 893d 7237 3cbc b6f0 573d
00000130: 2c30 073d 3eb1 35bc e2aa 9cbc a038 603d
00000140: ae49 4c3b e576 e33b 460f ff3c abb5 7cbd
00000150: f53c d2bc 22f8 5e3d 2cec 0b3d bcb3 0dbd
00000160: 5e9f 09bd ea09 35bc 008e 81bc a49c 473d
00000170: 18b9 ed3c b3ce c4bb f03f c8bc c08e e5bc
00000180: 9a72 e1bc b110 7d3d aba7 b73c a809 5cbc
00000190: 6852 f8ba aa85 eaba 7853 553d 0fe3 243d
000001a0: 5caa 783d b1c8 c13c 217b c4ba fa51 f33c
000001b0: 6735 85ba 33e1 a4bc ca28 2c3d b32a 873d
000001c0: 22dd 0d3d b2d7 f93c c9d6 43bd 1622 88bc
000001d0: 06fd 32bb 1758 963c b42f e8b9 2a45 113c
000001e0: f64e 193d ee7b 8e3a e193 bb3a 0cb7 7c3d
000001f0: 4cfa c63c abf1 493d 54e6 1bbc 92b9 f3b9

fc.weight f4 [30, 128]
-0.047012936 -0.017885773 0.10175848 0.012636884 0.029260155 0.014744172 0.053511802 -0.055997178
-0.015792975 0.060515378 0.01957165 0.0082399715 0.006898459 -0.06620702 0.10593052 0.017273773
-0.012085759 -0.025230255 -0.0022607131 0.012405436 -0.050475977 0.032256853 -0.08899256 -0.06502932
-0.034195233 -0.08310924 -0.061667055 -0.05534321 0.07174309 0.051988672 0.083084755 -0.030037628
0.08693045 -0.03182393 -0.0059178257 0.061466597 -0.048331264 0.028504966 -0.052930214 -0.05163704
-0.028911972 -0.08777278 0.07375316 -0.031042537 -0.06770814 0.08464628 0.04486968 0.011232162
0.02607035 0.096559644 0.030378576 0.025236947 -0.091003284 -0.015200239 -0.00427842 0.053878408
-0.03557858 0.038050305 0.004833652 -0.069243856 -0.075565845 -0.08118611 0.044953354 -0.034471642
-0.070081465 -0.11693527 -0.014740312 -0.021736179 -0.027493037 0.0145964045 -0.088722356 0.08559311
-0.044465896 -0.007961619 -0.022421235 0.118253574 0.08318412 0.08754476 -0.031789858 0.017866192
-0.021148756 -0.032979526 0.03707602 0.06228633 -0.047429122 0.0024305757 0.050724123 0.013405082
-0.087470606 -0.06218043 -0.07709611 0.042477366 0.11018065 0.06984137 0.0012674076 0.059936605
-0.03399456 0.012604249 -0.080426775 0.0025984966 -0.02764519 0.09339462 0.021798052 0.118115254
0.039417695 0.000593709 -0.05479288 0.016522685 0.078300074 0.06642639 0.08566751 0.09537581
-0.041790262 0.041976314 -0.033714194 0.079180434 -0.10404324 -0.08644624 -0.086941525 -0.043155435
-0.036337122 -0.006063147 0.005158657 -0.0846046 -0.047521845 -0.055511873 0.0522416 -0.039070424
-0.04476227 0.004893647 -0.08062631 0.0043318495 0.03700253 -0.048522767 0.032904655 -0.039348822
0.07778502 0.024726748 -0.045137852 0.07019445 -0.06290126 -0.019735284 0.079163164 0.0034012587
-0.05083264 0.063835844 -0.0052679866 -0.045151863 0.09883248 -0.04211843 -0.08428562 0.08921965
0.0034153056 -0.03986287 -0.08202971 0.0109711215 0.09229186 -0.011375515 -0.05523253 0.09795197
0.029294312 -0.04739207 -0.00531901 0.015320995 -0.084244214 -0.06347616 -0.06289359 0.050095234
0.002478554 0.07805805 0.010148744 0.02309685 -0.014382538 -0.020685485 0.045662075 0.06672863
-0.111883506 -0.027863462 -0.02068774 0.025787998 0.057040688 -0.077173345 0.056109052 -0.029668594
0.071628034 -0.051498793 -0.024701908 0.012758821 -0.005465504 0.011411735 -0.029858569 0.08222584
-0.047232136 0.10983807 0.025044799 0.06147567 -0.023545712 -0.048868615 0.0847123 0.046947934
-0.008185822 -0.0077334945 0.016175726 -0.026313614 0.0678065 0.036513038 -0.045176677 -0.045140013
0.0062846 0.039740775 -0.03304713 -0.034568474 0.061633553 -0.009543582 -0.08254432 0.02537793
0.020475412 -0.02059573 -0.03881991 0.10632115 -0.078517824 -0.06435249 0.005355453 0.02614789
-0.002832219 -0.021306006 0.010297485 -0.07932911 -0.047205374 -0.021899257 0.033088326 -0.064108945
-0.047008257 0.07532774 0.07745986 0.03526388 0.030990394 0.016364504 0.06138419 0.044040006
0.051287763 -0.035802532 0.028560814 0.049781464 -0.05603253 0.10012109 -0.07823231 -0.051201697
-0.03522345 0.071848795 -0.029264055 0.059314102 0.018404128 -0.07000701 -0.035802104 -0.0007909745
00000000: a390 40bd 2f85 92bc c066 d03d ef0a 4f3c
00000010: feb2 ef3c 8a91 713c 312f 5b3d 4c5d 65bd
00000020: 4560 81bc f9de 773d ba54 a03c f200 073c
00000030: 780c e23b 8c97 87bd 1af2 d83d ba81 8d3c
00000040: 5903 46bc aeaf cebc 7928 14bb 2b40 4b3c
00000050: e6bf 4ebd c31f 043d bb41 b6bd 182e 85bd
00000060: 4d10 0cbd 2d35 aabd 9896 7cbd 90af 62bd
00000070: 0bee 923d 13f2 543d 5728 aa3d 7911 f6bc
00000080: 9708 b23d cf59 02bd 52ea c1bb 66c4 7b3d
00000090: 01f7 45bd 3f83 e93c 5acd 58bd 5c81 53bd
000000a0: cdd8 ecbc 37c2 b3bd e60b 973d eb4c febc
000000b0: 91aa 8abd 075b ad3d 45c9 373d 1a07 383c
000000c0: 7d91 d53c 10c1 c53d 7edc f83c b7bd ce3c
000000d0: ee5f babd 6c0a 79bc fd31 8cbb 9baf 5c3d
000000e0: d8ba 11bd a3da 1b3d 9d63 9e3b b9cf 8dbd
000000f0: 44c2 9abd e744 a6bd 0221 383d 2332 0dbd
00000100: df86 8fbd c27b efbd 5981 71bc 1210 b2bc
00000110: 1439 e1bc c225 6f3c 11b4 b5bd 714b af3d
00000120: df21 36bd 7371 02bc bdac b7bc ee2e f23d
00000130: 705c aa3d ab4a b33d 1536 02bd 1f5c 923c
00000140: 2840 adbc 8a15 07bd 06dd 173d f31f 7f3d
00000150: 0a45 42bd 4b4a 1f3b 19c4 4f3d fda0 5b3c
00000160: ca23 b3bd e8b0 7ebd 91e4 9dbd bffc 2d3d
00000170: 65a6 e13d fe08 8f3d 241f a63a 1680 753d
00000180: e13d 0bbd 0d82 4e3c cbb6 a4bd 8a4b 2a3b
00000190: 2a78 e2bc ae45 bf3d d491 b23c 69e6 f13d
000001a0: 7374 213d 23a3 1b3a 806e 60bd 955a 873c
000001b0: ca5b a03d 8f0a 883d 7372 af3d 6554 c33d
000001c0: 442c 2bbd 5bef 2b3d e517 0abd 5a29 a23d
000001d0: 9f14 d5bd ba0a b1bd 660e b2bd c1c3 30bd
000001e0: 3cd6 14bd 5dad c6bb f409 a93b 2d45 adbd
000001f0: 44a6 42bd 6b60 63bd 4afb 553d 4f08 20bd
00000200: a458 37bd e35a a03b 681f a5bd 30f2 8d3b
00000210: f78f 173d cfbf 46bd 08c7 063d 3b2c 21bd
00000220: c14d 9f3d c08f ca3c 78e2 38bd 1cc2 8f3d
00000230: 60d2 80bd e4ab a1bc 4c20 a23d a7e7 5e3b
00000240: e335 50bd 5ebc 823d 139f acbb 29f1 38bd
00000250: af68 ca3d 6084 2cbd f09d acbd cbb8 b63d
00000260: 52d3 5f3b 4047 23bd 31ff a7bd 38c0 333c
00000270: 8403 bd3d 5e60 3abc 813b 62bd 0b9b c83d
00000280: a0fa ef3c 301e 42bd 174b aebb e904 7b3c
00000290: 3b88 acbd caff 81bd 5bce 80bd a930 4d3d
000002a0: 3c6f 223b e6dc 9f3d eb46 263c 9b35 bd3c
000002b0: bda4 6bbc 9b74 a9bc 2808 3b3d 05a9 883d
000002c0: 2e23 e5bd ea41 e4bc 5679 a9bc 5a41 d33c
000002d0: 7fa3 693d 0f0d 9ebd 9bd2 653d 8d0b f3bc
000002e0: b8b1 923d 66f0 52bd a85b cabc 600a 513c
000002f0: f817 b3bb 49f8 3a3c f599 f4bc 0566 a83d
00000300: 7c76 41bd c8f2 e03d c02a cd3c eacd 7b3d
00000310: f0e2 c0bc 752a 48bd a47d ad3d 7a4c 403d
00000320: d31d 06bc 4169 fdbb f582 843c a68f d7bc
00000330: 22de 8a3d b28e 153d 2e0b 39bd bce4 38bd
00000340: 0cef cd3b 39c7 223d 6d5c 07bd ac97 0dbd
00000350: 7773 7c3d af5c 1cbc ff0c a9bd 60e5 cf3c
00000360: 0dbc a73c 60b8 a8bc a001 1fbd e7be d93d
00000370: f4cd a0bd 3dcb 83bd cc7c af3b 1a34 d63c
00000380: c09c 39bb ef89 aebc c8b6 283c 4d77 a2bd
00000390: 6c5a 41bd 1266 b3bc a087 073d 8d4b 83bd
000003a0: bb8b 40bd 6e45 9a3d 46a3 9e3d dc70 103d
000003b0: 91df fd3c da0e 863c fd6d 7b3d 4b63 343d
000003c0: 1e13 523d ada5 12bd 5ef8 e93c a6e7 4b3d
000003d0: 5e82 65bd 490c cd3d 4338 a0bd dfb8 51bd
000003e0: 7746 10bd 7625 933d 2cbb efbc 58f3 723d
000003f0: 41c4 963c d65f 8fbd 3aa5 12bd 6659 4fba

fc.bias f4 [30]
0.022346325 0.055306952 0.062272057 -0.010041756 -0.08139258 -0.028970845 0.0559753 0.042490274
0.043451592 0.047114886 0.015143093 -0.03391006 0.0052804537 0.04447062 -0.029889131 -0.005590053
0.003019231 0.03894221 -0.057267103 0.04833518 0.050090395 -0.08866216 -0.030125996 0.04950513
-0.012218664 -0.04103441 0.025565177 -0.004585044 0.09126104 0.030874856
00000000: a40f b73c 8b89 623d fc10 7f3d 2d86 24bc
00000010: 27b1 a6bd 4454 edbc 5b46 653d 480a 2e3d
00000020: 4cfa 313d 8afb 403d bc1a 783c 46e5 0abd
00000030: a807 ad3b d326 363d 0dda f4bc c32c b7bb
00000040: 4ade 453b de81 1f3d e990 6abd 1cfb 453d
00000050: 962b 4d3d 8294 b5bd cbca f6bc e4c5 4a3d
00000060: cb30 48bc b313 28bd 106e d13c 233e 96bb
00000070: 11e7 ba3d 44ed fc3c
