GWN/best_models/best_model_w120_h1.pth (torch, 354571 bytes, 9 tensors)

adapt_adj f4 [120, 120]
0.9966175 -0.0033710203 -0.0033160294 -0.003307501 -0.0032740834 -0.0032700757 -0.0032560364 -0.0032142573
-0.0032266916 -0.0032644437 -0.0032070836 -0.0031925756 -0.00313198 -0.0031049643 -0.0030776556 -0.003005887
-0.0029898034 -0.002913484 -0.0029206872 -0.002954165 -0.0029091921 -0.0029237396 -0.00293352 -0.0029848367
-0.0029987071 -0.0029650633 -0.0029647262 -0.0029449263 -0.0029741458 -0.0029733838 -0.002964477 -0.00295018
-0.0029440047 -0.0028770585 -0.0028485628 -0.0027563886 -0.0026546794 -0.002630909 -0.0025563275 -0.002529696
-0.0024490273 -0.0024198843 -0.0023678208 -0.0023478814 -0.0023570212 -0.002352718 -0.0023441038 -0.0023240019
-0.0022928899 -0.0022651427 -0.0022195007 -0.0021639457 -0.0021288428 -0.002048757 -0.002003387 -0.0019117201
-0.0018377416 -0.0017555421 -0.0016695046 -0.0016046566 -0.0015303046 -0.0014233605 -0.0013757355 -0.0012860714
-0.0012180706 -0.0011203827 -0.0010471758 -0.0010142247 -0.0009904528 -0.0009477009 -0.0009362454 -0.0009036716
-0.00077264203 -0.0006530993 -0.0005311075 -0.0004195219 -0.00034769 -0.00023515498 -0.00011714644 -9.895478e-06
8.7224886e-05 0.00019940152 0.00031768682 0.0004123192 0.0005108885 0.00059288624 0.0006539647 0.00073696923
0.0008415431 0.0009311986 0.0009956429 0.0010801891 0.0012362498 0.001345817 0.0015249146 0.0016599547
0.0017997539 0.0020252762 0.0021981467 0.002368218 0.0025228986 0.002627089 0.0027710835 0.0028890695
0.0030409442 0.0032078845 0.0033287804 0.0035475981 0.0037677644 0.0040077604 0.0042290185 0.004446713
0.0046596434 0.0049395165 0.0051819803 0.005332055 0.005600083 0.005823095 0.0060257707 0.0065935706
-0.003349069 0.99665415 -0.0032913242 -0.0032795228 -0.0032435611 -0.0032405294 -0.0032289336 -0.003184323
-0.0032003243 -0.0032438284 -0.003185519 -0.0031734463 -0.003115903 -0.00309052 -0.0030648469 -0.0029871718
-0.0029685507 -0.0028904928 -0.002900417 -0.0029404687 -0.0028958695 -0.0029076764 -0.0029179968 -0.0029645192
-0.0029806395 -0.0029478355 -0.0029505242 -0.0029327006 -0.0029609532 -0.0029555683 -0.0029502737 -0.0029359024
-0.0029334961 -0.0028669504 -0.0028355776 -0.0027362502 -0.0026362317 -0.0026095181 -0.002533008 -0.0025017674
-0.0024180473 -0.0023886424 -0.0023433103 -0.0023244359 -0.002334289 -0.0023241844 -0.0023158935 -0.0023013214
-0.0022762078 -0.0022462881 -0.0022068126 -0.0021508185 -0.0021136284 -0.0020370565 -0.001993267 -0.001906567
-0.001835835 -0.0017577872 -0.0016694875 -0.0016086422 -0.0015332397 -0.0014219327 -0.0013734674 -0.0012865791
-0.0012224677 -0.0011243853 -0.001056281 -0.0010269665 -0.0010040553 -0.00096322014 -0.00095407735 -0.00091966905
-0.0007871996 -0.0006652633 -0.00054355786 -0.00043277384 -0.00036185278 -0.00025200078 -0.00013403042 -2.3677138e-05
7.365403e-05 0.00018311094 0.00029659487 0.0003908729 0.0005008833 0.0005792701 0.0006386733 0.0007162447
0.000820769 0.0009110299 0.0009739411 0.0010559671 0.0012142523 0.0013222295 0.0015010935 0.001634733
0.0017810103 0.0020014867 0.0021784953 0.0023545246 0.002507163 0.0026191669 0.0027643798 0.0028829703
0.003036994 0.003210771 0.0033251694 0.0035447294 0.0037641567 0.0040045097 0.0042288606 0.0044463426
0.004654441 0.0049281777 0.0051650107 0.0053181723 0.005586631 0.0058100303 0.0060120905 0.006581824
-0.0033482814 -0.003351699 0.9966956 -0.003299205 -0.003268149 -0.0032678053 -0.0032550127 -0.0032099618
-0.0032247608 -0.0032666386 -0.0032099814 -0.0031951114 -0.0031374632 -0.0031118088 -0.0030887856 -0.0030096043
00000000: 5322 7f3f 56ec 5cbb be51 59bb a9c2 58bb
00000010: 0192 56bb c44e 56bb 3a63 55bb 4aa6 52bb
00000020: e776 53bb 47f0 55bb ef2d 52bb 883a 51bb
00000030: e841 4dbb a87c 4bbb 7eb2 49bb 6afe 44bb
00000040: 94f0 43bb 26f0 3ebb 0069 3fbb aa9a 41bb
00000050: 25a8 3ebb 369c 3fbb 4c40 40bb 409d 43bb
00000060: f585 44bb 8251 42bb da4b 42bb aaff 40bb
00000070: e3e9 42bb 1add 42bb ac47 42bb cf57 41bb
00000080: 34f0 40bb 088d 3cbb f4ae 3abb 87a4 34bb
00000090: 21fa 2dbb 546b 2cbb 0f88 27bb 42c9 25bb
000000a0: dc7f 20bb ec96 1ebb 712d 1bbb eade 19bb
000000b0: 4178 1abb 0f30 1abb 899f 19bb 484e 18bb
000000c0: 4f44 16bb ca72 14bb 0b75 11bb fcd0 0dbb
000000d0: 0e84 0bbb 7044 06bb 424b 03bb af92 faba
000000e0: 60e0 f0ba 381a e6ba 47d3 daba 5753 d2ba
000000f0: 8094 c8ba 0e90 baba 0652 b4ba 6591 a8ba
00000100: aba7 9fba ced9 92ba 6441 89ba bcef 84ba
00000110: 15d2 81ba 216f 78ba 5d6e 75ba 60e4 6cba
00000120: 218b 4aba c134 2bba 053a 0bba 47f3 dbb9
00000130: 294a b6b9 ef93 76b9 84ac f5b8 c104 26b7
00000140: 81ec b638 7016 5139 348f a639 8c2c d839
00000150: 26ed 053a ec6b 1b3a d46e 2b3a 2b31 413a
00000160: 009b 5c3a ae1b 743a 3b80 823a 2295 8d3a
00000170: a909 a23a 2066 b03a a5df c73a d692 d93a
00000180: b8e5 eb3a 7fba 043b c80e 103b 1b34 1b3b
00000190: 3757 253b 3d2b 2c3b 119b 353b 8b56 3d3b
000001a0: 944a 473b 5f3b 523b ab27 5a3b d27e 683b
000001b0: 99ec 763b 8853 833b 9493 8a3b bbb5 913b
000001c0: ecaf 983b abdb a13b 9acd a93b 85b8 ae3b
000001d0: e780 b73b a9cf be3b d473 c53b e10e d83b
000001e0: 0e7c 5bbb ba24 7f3f 42b3 57bb 43ed 56bb
000001f0: ed91 54bb 105f 54bb 849c 53bb 13b0 50bb
00000200: 88bc 51bb 6996 54bb 24c4 50bb 98f9 4fbb
00000210: 2d34 4cbb 528a 4abb 99db 48bb 6dc4 43bb
00000220: 048c 42bb 6c6e 3dbb ec14 3ebb e1b4 40bb
00000230: a1c8 3dbb b78e 3ebb dd3b 3fbb 6148 42bb
00000240: d556 43bb 7930 41bb 955d 41bb 8d32 40bb
00000250: 8d0c 42bb 35b2 41bb 6159 41bb 4568 40bb
00000260: e63f 40bb 72e3 3bbb 19d5 39bb a952 33bb
00000270: a1c4 2cbb 7304 2bbb d300 26bb b1f4 23bb
00000280: 1a78 1ebb c58a 1cbb 3992 19bb 9055 18bb
00000290: dffa 18bb 5851 18bb 3fc6 17bb c4d1 16bb
000002a0: 6e2c 15bb 7636 13bb 2ca0 10bb bff4 0cbb
000002b0: cd84 0abb 2380 05bb 79a1 02bb c6e5 f9ba
000002c0: 67a0 f0ba 8d65 e6ba b4d2 daba 13d9 d2ba
000002d0: fdf6 c8ba 2560 baba eb05 b4ba 6ea2 a8ba
000002e0: 363b a0ba 1c60 93ba e972 8aba 479b 86ba
000002f0: 819a 83ba 9c80 7cba 0c1b 7aba f215 71ba
00000300: 125c 4eba 1065 2eba 8d7d 0eba ece5 e2b9
00000310: 0fb7 bdb9 f91e 84b9 848a 0cb9 449e c6b7
00000320: b576 9a38 7801 4039 4a80 9b39 13ee cc39
00000330: b64d 033a 29da 173a a46c 273a 5ec2 3b3a
00000340: e028 573a 2fd2 6e3a 1550 7f3a 6068 8a3a
00000350: 8c27 9f3a a94e ad3a 57c0 c43a 8a44 d63a
00000360: ca70 e93a 602b 033b 16c5 0e3b 5e4e 1a3b
00000370: 374f 243b 54a6 2b3b 992a 353b 37f0 3c3b
00000380: 4e08 473b cc6b 523b 16eb 593b b14e 683b
00000390: 12b0 763b 4338 833b 4192 8a3b a0b2 913b
000003a0: 4884 983b 8d7c a13b 403f a93b 1044 ae3b
000003b0: 0f10 b73b 1162 be3b 1201 c53b 57ac d73b
000003c0: d76e 5bbb 2ea8 5bbb 7127 7f3f 7a37 58bb
000003d0: 712e 56bb ad28 56bb 0d52 55bb 395e 52bb
000003e0: 8256 53bb 1a15 56bb 8d5e 52bb 1365 51bb
000003f0: e69d 4dbb 7def 4bbb 396d 4abb c83c 45bb

gc1.fc.weight f4 [128, 30]
-0.08411882 0.20791584 -0.10320282 -0.20082074 0.010677293 0.024268216 -0.05121441 -0.10096526
0.07607618 0.094297044 0.09974266 0.1402374 -0.15598199 -0.102809064 -0.16744438 -0.121816434
0.16213284 -0.012971152 0.026559006 -0.04834512 0.053972352 -0.08986881 -0.09298378 -0.005281235
-0.07542299 0.08561653 -0.20319028 -0.08370845 -0.075244255 -0.07960229 -0.03551001 -0.038116768
0.03042338 0.06202926 -0.011317662 -0.018827077 -0.17576396 0.117147215 -0.15334262 0.007907525
0.04486401 0.16208588 -0.1820323 0.04871364 0.055125184 0.049937557 -0.13332784 -0.06837573
-0.16919108 -0.1553285 0.008128332 -0.09169661 0.16742115 0.17387557 -0.181561 -0.17263655
0.045886878 0.093705155 -0.14670011 0.16974406 0.033444475 -0.17714809 -0.11748216 -0.10950472
-0.007276385 0.0006574675 -0.014579227 -0.16170874 -0.11398007 -0.13509746 -0.081554115 -0.14156084
-0.020241382 0.16725585 0.008267532 0.109484635 0.0785695 -0.06623092 0.18435246 -0.025864286
-0.058853734 -0.016415592 -0.19319735 -0.089833796 -0.040627863 -0.056687612 -0.01723843 -0.10468583
-0.059409548 0.018272156 0.13523446 0.0013583922 -0.045614712 0.026518326 -0.15371786 0.13187483
-0.13626756 -0.08292558 0.081370845 -0.097247556 0.11048339 0.17448148 0.16845803 0.043041624
0.08387565 0.0945056 0.16578902 0.07177506 0.17176618 0.06417367 0.011062936 -0.11897242
0.06888208 -0.16234864 -0.16343231 -0.09253779 0.14476348 -0.1585974 0.025585206 0.16580956
-0.0063896347 -0.036813226 -0.07814543 -0.06543781 -0.009583098 -0.10900083 0.07250511 0.11927145
0.07989466 -0.05242516 -0.022424623 0.11046301 0.1195652 0.12252289 -0.14790119 -0.012303128
0.047096245 -0.14424634 0.011729791 0.028377987 0.10853232 0.15654927 -0.038061514 -0.081091434
0.1905903 -0.031088969 -0.0402142 0.05476761 -0.096002355 -0.012250245 0.14105508 0.14320192
-0.044890415 -0.06651943 -0.08180312 0.06726128 -0.110618494 0.15072328 0.010198742 0.11174221
0.021938464 0.10221639 -0.16874687 0.08623733 -0.07025892 0.092119366 -0.1056654 -0.08114048
0.036366414 -0.13464543 0.1590587 0.14176041 0.03670469 0.018633319 0.16106759 -0.07255073
0.090904765 0.17952192 -0.12730739 -0.09352259 -0.066215605 -0.07331782 -0.1324497 0.041721165
-0.1622444 0.0057481783 0.056024477 -0.15530534 0.027179835 0.07817221 -0.16431487 0.1728841
-0.111205675 0.06777379 0.03217303 -0.084369674 0.0014522757 0.016602235 0.15945134 -0.016119238
-0.023573441 0.13021159 -0.016822211 0.004900096 0.16272144 0.09927589 0.040417854 0.107784316
0.14807315 0.17542632 0.001843789 0.00955081 0.10048009 0.13773492 -0.07812282 -0.06964314
0.09224862 -0.03623732 0.022443254 -0.12280352 0.055521064 -0.09307799 0.06615017 -0.17066085
0.11564033 -0.097117044 -0.09741513 0.1838885 -0.093192525 0.069985114 -0.13421808 0.02560715
-0.095300764 0.12411705 0.090671994 0.02678343 -0.08591019 -0.03124391 -0.04057986 -0.13817634
0.049577527 -0.140448 0.17579776 0.05497923 0.028375208 -0.0857536 0.08479811 0.14196247
0.13522741 0.1051567 -0.1280152 -0.15351802 0.18350556 0.1273857 0.024187345 0.050636586
00000000: 7d46 acbd e4e7 543e 005c d3bd f4a3 4dbe
00000010: d0ef 2e3c 23ce c63c 34c6 51bd e0c6 cebd
00000020: d4cd 9b3d cf1e c13d e145 cc3d 659a 0f3e
00000030: beb9 1fbe 8f8d d2bd 8a76 2bbe e57a f9bd
00000040: 2706 263e f484 54bc 4692 d93c 8805 46bd
00000050: 1d12 5d3d 230d b8bd 486e bebd 360e adbb
00000060: 5e77 9abd b857 af3d 1d11 50be 566f abbd
00000070: a919 9abd 8706 a3bd f272 11bd 5420 1cbd
00000080: 743a f93c 6512 7e3d b76d 39bc 3e3b 9abc
00000090: 78fb 33be e1ea ef3d d905 1dbe 908e 013c
000000a0: 53c3 373d d7f9 253e ad66 3abe f487 473d
000000b0: f2ca 613d 538b 4c3d 1887 08be 9308 8cbd
000000c0: 6d40 2dbe 6f0e 1fbe b22c 053c 6fcb bbbd
000000d0: 7370 2b3e 700c 323e 20eb 39be a3c7 30be
000000e0: e1f3 3b3d 7de8 bf3d 8e38 16be 63d1 2d3e
000000f0: 13fd 083d 4f66 35be 7d9a f0bd 0344 e0bd
00000100: be6e eebb e659 2c3a b6dd 6ebc fa96 25be
00000110: 626e e9bd fd56 0abe d805 a7bd 53f5 10be
00000120: 41d1 a5bc 1e45 2b3e 8b74 073c 7b39 e03d
00000130: 0ce9 a03d 14a4 87bd e4c6 3c3e 57e1 d3bc
00000140: 9d10 71bd fe79 86bc 87d5 45be c8fa b7bd
00000150: 6769 26bd 4531 68bd 9c37 8dbc 8665 d6bd
00000160: 6d57 73bd 7daf 953c e77a 0a3e 140c b23a
00000170: 7ed6 3abd f63c d93c 3768 1dbe 320a 073e
00000180: b989 0bbe e3d4 a9bd c2a5 a63d ba29 c7bd
00000190: 1e45 e23d 46ab 323e 4380 2c3e 6a4c 303d
000001a0: ffc6 ab3d 278c c13d 99c4 293e cdfe 923d
000001b0: 79e3 2f3e 7c6d 833d 5141 353c d0a7 f3bd
000001c0: 0c12 8d3d b93e 26be cd5a 27be 7484 bdbd
000001d0: e13c 143e 5b67 22be 1198 d13c fbc9 293e
000001e0: 2460 d1bb 77c9 16bd b60a a0bd 4204 86bd
000001f0: 6d02 1dbc d43b dfbd 8f7d 943d 9744 f43d
00000200: d09f a33d c4bb 56bd d8b3 b7bc 6e3a e23d
00000210: 99de f43d 48ed fa3d 6973 17be 0f93 49bc
00000220: fee7 403d 50b5 13be 4f2e 403c f478 e83c
00000230: 3146 de3d 744e 203e 64e6 1bbd 4413 a6bd
00000240: 1b2a 433e 4bae febc a5b7 24bd 0054 603d
00000250: e29c c4bd 40b5 48bc be70 103e 86a3 123e
00000260: 03df 37bd 573b 88bd 6588 a7bd 48c0 893d
00000270: f38b e2bd 3457 1a3e a018 273c 1ad9 e43d
00000280: 4bb8 b33c d456 d13d fbcb 2cbe 339d b03d
00000290: e9e3 8fbd 14a9 bc3d 1a67 d8bd fb2c a6bd
000002a0: f3f4 143d 7ee0 09be 49e0 223e a429 113e
000002b0: a857 163d e7a4 983c e7ee 243e 7a95 94bd
000002c0: 472c ba3d 98d4 373e de5c 02be c688 bfbd
000002d0: 0c9c 87bd a727 96bd e5a0 07be d0e3 2a3d
000002e0: 6523 26be 375b bc3b ec79 653d 5d08 1fbe
000002f0: 3fa8 de3c c018 a03d 2842 28be 8808 313e
00000300: cdbf e3bd fccc 8a3d dec7 033d 02ca acbd
00000310: 495a be3a 6901 883c 3647 233e 7e0c 84bc
00000320: 171d c1bc 3056 053e bcce 89bc fc90 a03b
00000330: 73a0 263e 2851 cb3d 318d 253d 06be dc3d
00000340: 7da0 173e f5a2 333e 4bab f13a 007b 1c3c
00000350: 81c8 cd3d 620a 0d3e dbfe 9fbd 10a1 8ebd
00000360: d8ec bc3d 966d 14bd eada b73c 6980 fbbd
00000370: 0e6a 633d ac9f bebd be79 873d b8c1 2ebe
00000380: d6d4 ec3d 4de5 c6bd 9581 c7bd 444d 3c3e
00000390: b9db bebd 5b54 8f3d 7770 09be 16c6 d13c
000003a0: 0c2d c3bd 1431 fe3d 3db2 b93d ec68 db3c
000003b0: aff1 afbd 3af3 ffbc 1137 26bd 197e 0dbe
000003c0: ce11 4b3d 9ad1 0fbe 5404 343e e731 613d
000003d0: 2073 e83c 959f afbd a2aa ad3d 9c5e 113e
000003e0: 0e79 0a3e 655c d73d 6b16 03be d433 1dbe
000003f0: e2e8 3b3e 6671 023e 8a24 c63c 4f68 4f3d

gc1.fc.bias f4 [128]
0.0127378 -0.0067999344 -0.015514756 0.07038368 -0.0772011 -0.11976684 -0.032334495 -0.001183897
-0.09822941 -0.060917646 -0.044239085 0.050013855 -0.057886846 0.1445428 -0.12828584 0.13706106
0.129703 -0.17560652 -0.014910815 0.17619535 -0.08357775 -0.055097446 0.034068566 -0.13270988
-0.029412286 0.062089052 0.14498228 0.112754166 -0.1161069 -0.07346768 -0.016515752 0.0019855434
0.15531984 0.011607263 0.18192042 -0.08322547 -0.105724744 0.012376735 0.11512077 0.04418753
-0.084765725 0.021002011 -0.14979412 0.15428533 0.042635858 -0.17598538 -0.11673853 0.06825028
0.15856533 -0.06953736 -0.12652917 0.014296825 -0.15363075 0.18751267 0.011464068 -0.033094365
0.0146023845 0.12983009 -0.023349812 0.13405024 -0.13055415 -0.037234582 -0.020400176 -0.12279962
-0.037959713 0.027165944 -0.07178675 -0.093359075 0.014804657 0.0452403 -0.13396893 -0.032008044
0.15259954 0.10943398 0.079257995 -0.11323932 0.017252324 0.15370747 0.12361545 -0.03017522
0.09739382 0.19417353 0.16522302 0.08910691 0.026576232 -0.043371174 0.11885298 0.11009831
0.067774184 -0.13453333 0.048297405 -0.123561375 -0.1538122 0.029798962 0.10888406 -0.01626705
0.036954083 0.102845944 0.064244516 0.031878937 0.10967899 -0.031482648 -0.07060696 0.20145659
0.048233073 0.14406 0.03539811 0.11576256 -0.024865922 -0.045731425 0.12440174 -0.042231593
0.03200933 0.06565753 -0.08263651 0.13203602 -0.09200529 -0.13362762 -0.052280445 -0.060176335
-0.045451712 0.122538365 0.09283961 0.028769549 -0.17250621 -0.1041654 -0.092526115 0.05573834
00000000: 35b2 503c fcd1 debb 9a31 7ebc 5225 903d
00000010: 9c1b 9ebd 5148 f5bd 2d71 04bd fe2c 9bba
00000020: 802c c9bd c884 79bd 0b34 35bd 54db 4c3d
00000030: c21a 6dbd 0703 143e 5d5d 03be bc59 0c3e
00000040: ddd0 043e 32d2 33be 7e4c 74bc 8e6c 343e
00000050: d02a abbd dcad 61bd 7b8b 0b3d 19e5 07be
00000060: 09f2 f0bc 1751 7e3d 3c76 143e a8eb e63d
00000070: 74c9 edbd 3976 96bd 0b4c 87bc e41f 023b
00000080: 2a0c 1f3e 642c 3e3c 5949 3a3e 1d72 aabd
00000090: 3786 d8bd cac7 4a3c 70c4 eb3d fcfd 343d
000000a0: a799 adbd 690c ac3c a163 19be f9fc 1d3e
000000b0: f0a2 2e3d 8335 34be 9c14 efbd cec6 8b3d
000000c0: f35e 223e 9a69 8ebd dd90 01be 3b3d 6a3c
000000d0: 6151 1dbe 5203 403e c9d3 3b3c f58d 07bd
000000e0: d73e 6f3c 2ef2 043e 1b48 bfbc 7744 093e
000000f0: fdaf 05be 4a83 18bd 451e a7bc 5e7e fbbd
00000100: a57b 1bbd 1d8b de3c ee04 93bd 0b33 bfbd
00000110: 3b8f 723c e54d 393d 272f 09be de1a 03bd
00000120: 0e43 1c3e ec1e e03d 0452 a23d 04ea e7bd
00000130: bf54 8d3c 7e65 1d3e 192a fd3d 0632 f7bc
00000140: 6976 c73d 6dd5 463e 3930 293e af7d b63d
00000150: 66b6 d93c f9a5 31bd 3169 f33d 397b e13d
00000160: 31cd 8a3d 1bc3 09be 80d3 453d bf0d fdbd
00000170: f280 1dbe f41c f43c 9bfe de3d 7a42 85bc
00000180: 2a5d 173d e5a0 d23d a192 833d 7d93 023d
00000190: 619f e03d f3f3 00bd 629a 90bd a34a 4e3e
000001a0: 0b90 453d 7784 133e 9cfd 103d ec14 ed3d
000001b0: 9eb3 cbbc e050 3bbd 57c6 fe3d 09fb 2cbd
000001c0: 371c 033d 7577 863d 553d a9bd 7334 073e
000001d0: 456d bcbd aed5 08be 0524 56bd 767b 76bd
000001e0: 932b 3abd 65f5 fa3d b222 be3d 1eae eb3c
000001f0: 78a5 30be ab54 d5bd 557e bdbd e34d 643d

gc2.fc.weight f4 [128, 128]
0.058759633 -0.04781637 -0.079350166 -0.004314503 0.037707508 0.0052256477 0.045419447 0.031067932
-0.061260182 0.06715862 -0.0025787908 0.056457125 -0.007516865 -0.07621189 0.004029087 0.0557622
-0.044851687 -0.102512226 -0.03979826 -0.066433184 -0.011971202 -0.08423126 0.038641423 -0.017792515
0.07369016 0.09217255 -0.099059746 -0.011838423 0.08267087 0.09794562 0.07631919 0.06210982
-0.013292662 -0.091009684 0.041213363 0.08162577 0.08066043 -0.0359176 0.06486255 -0.043887854
-0.024839822 -0.06451385 0.0064462153 -0.017339353 -0.05259165 -0.062197946 0.08002995 -0.05008202
0.023091987 -0.0010240291 0.06323934 0.017961241 0.0793891 0.08083389 0.015941447 -0.10546403
0.06697047 0.07598702 0.016951414 -0.08149004 -0.009404218 0.009009512 -0.06355809 0.03973577
0.060510095 0.042101335 -0.008598325 -0.012143368 -0.029487716 -0.0019478023 -0.05860951 -0.046389043
0.05140131 0.04623795 0.052014496 -0.059221957 0.043806154 -0.00784355 -0.037476607 -0.070977814
0.08417342 0.057413943 -0.033423252 -0.050540715 0.04131573 0.040475346 0.07703514 -0.0365373
-0.020135233 0.06743487 -0.03658417 0.06704789 -0.098048 -0.037326965 0.035710674 0.003548125
0.069113165 0.050744854 0.019762844 -0.037027463 -0.009721474 0.051878523 0.047459487 -0.048192974
-0.06718753 -0.0055150334 -0.006616564 0.0026804702 0.05637459 0.05109992 -0.06107572 -0.015936544
0.028034555 -0.07300226 0.054388586 -0.009108392 0.07876491 -0.016090285 -0.06532665 0.07655353
0.013691577 -0.026021639 -0.046445973 -0.036785606 0.018006666 0.06581383 0.0014863375 -0.0038596336
-0.11894456 0.08869724 -0.003609345 -0.056905713 -0.07740365 -0.031092387 -0.039110616 0.07570695
-0.0058712554 -0.05214142 -0.006980413 -0.059371024 0.030800432 0.050306935 0.022858499 -0.051874787
-0.07723225 0.073176615 -0.049016066 0.028701082 -0.007498649 0.09902622 0.06628972 -0.060121235
0.038506534 -0.06390887 0.08585606 -0.048829705 -0.03954334 -0.02610644 0.040005617 -0.018885033
0.079175584 0.07758218 -0.04821338 -0.021991115 -0.062157847 -0.034912042 0.009614548 -0.0671829
0.04847125 0.086250335 -0.033363227 -0.051614504 0.098266765 0.0648102 -0.048665043 0.09110952
0.058834706 -0.008385147 -0.072660565 -0.045786154 0.014358 -0.06751182 -0.06948328 0.04923335
0.018863026 0.009548141 -0.009923331 -0.07322653 -0.113140136 0.016155364 0.012601498 0.056364924
0.022343801 0.033021245 -0.048077926 0.08943602 -0.070479415 -0.08781166 0.07882569 0.0031966586
0.006803054 -0.05824303 -0.066749915 -0.070404634 0.079279974 -0.06256165 -0.08018258 0.0015900632
-0.010180365 -0.028602088 0.05064542 -0.082817845 0.010486639 -0.043425247 -0.08374591 0.04236904
0.00026648917 0.037649088 -0.07439465 0.0195491 -0.062446486 0.07714856 -0.01063499 -0.052596264
0.032355078 -0.0036720727 0.0779611 -0.0057025636 -0.0313152 -0.02535269 -0.030551491 0.09680725
0.10489988 0.089790024 0.06673179 0.0045567844 -0.0534761 0.003871534 -0.03571831 -0.047085505
-0.03710083 -0.031770285 -0.0788362 0.0048962436 -0.068166345 0.09522971 0.024904259 0.041044112
-0.029175049 -0.0051816343 0.030515159 -0.07410656 0.048645657 -0.031136986 0.041359995 -0.029651804
00000000: f1ad 703d 19db 43bd 5782 a2bd ad60 8dbb
00000010: 3073 1a3d e93b ab3b be09 3a3d 2d82 fe3c
00000020: f5eb 7abd 758a 893d ee00 29bb 963f 673d
00000030: 0950 f6bb fb14 9cbd 6e06 843b e866 643d
00000040: 67b6 37bd eef1 d1bd 8003 23bd 1f0e 88bd
00000050: dc22 44bc 7081 acbd 7846 1e3d 9cc1 91bc
00000060: deea 963d f6c4 bc3d d6df cabd f2f5 41bc
00000070: 584f a93d b797 c83d 3c4d 9c3d de66 7e3d
00000080: 77c9 59bc 4963 babd 58cf 283d 692b a73d
00000090: 4c31 a53d 551e 13bd a8d6 843d c0c3 33bd
000000a0: e27c cbbc d61f 84bd c63a d33b 420b 8ebc
000000b0: 586a 57bd 46c3 7ebd bee6 a33d ce22 4dbd
000000c0: 682b bd3c b738 86ba a183 813d 7423 933c
000000d0: c196 a23d 3d8c a53d a397 823c 86fd d7bd
000000e0: d027 893d 159f 9b3d b1dd 8a3c 40e4 a6bd
000000f0: 2614 1abc a29c 133c be2a 82bd fac1 223d
00000100: 6fd9 773d 7372 2c3d fddf 0cbc faf4 46bc
00000110: 3990 f1bc 664d ffba 8710 70bd 7002 3ebd
00000120: 2e8a 523d 0164 3d3d 270d 553d b992 72bd
00000130: 156e 333d 3c82 00bc 1281 19bd d15c 91bd
00000140: 1d63 ac3d e22a 6b3d d2e6 08bd c803 4fbd
00000150: af3a 293d 7ac9 253d 99c4 9d3d 23a8 15bd
00000160: a5f2 a4bc 4b1b 8a3d 48d9 15bd 6750 893d
00000170: 64cd c8bd 29e4 18bd 5b45 123d a987 683b
00000180: 348b 8d3d d6d9 4f3d b0e5 a13c 1caa 17bd
00000190: d146 1fbc 937e 543d e164 423d ff65 45bd
000001a0: 9e99 89bd 74b7 b4bb c3cf d8bb d4aa 2f3b
000001b0: 0be9 663d 264e 513d 892a 7abd 5b8d 82bc
000001c0: b9a8 e53c 3582 95bd 91c6 5e3d 5d3b 15bc
000001d0: 7f4f a13d c6cf 83bc fbc9 85bd 19c8 9c3d
000001e0: a352 603c 552b d5bc 223e 3ebd 81ac 16bd
000001f0: b782 933c 67c9 863d 36d1 c23a e8f1 7cbb
00000200: 3599 f3bd e6a6 b53d c38a 6cbb f715 69bd
00000210: ce85 9ebd 76b5 febc 7432 20bd 3f0c 9b3d
00000220: a963 c0bb 3e92 55bd f3bb e4bb 082f 73bd
00000230: 3051 fc3c a50e 4e3d bf41 bb3c a87a 54bd
00000240: f12b 9ebd 9fdd 953d 12c5 48bd 881e eb3c
00000250: 3ab7 f5bb 42ce ca3d e8c2 873d af41 76bd
00000260: 07b9 1d3d a7e2 82bd 4dd5 af3d a801 48bd
00000270: 33f8 21bd 2cdd d5bc eedc 233d c9b4 9abc
00000280: cf26 a23d 68e3 9e3d 657b 45bd b626 b4bc
00000290: 3a99 7ebd eeff 0ebd 5686 1d3c 3097 89bd
000002a0: ca89 463d 04a4 b03d e1a7 08bd bb69 53bd
000002b0: 1640 c93d 36bb 843d ff54 47bd a197 ba3d
000002c0: a9fc 703d db61 09bc 10cf 94bd 438a 3bbd
000002d0: d13d 6b3c a343 8abd 404d 8ebd e9a8 493d
000002e0: a286 9a3c ce6f 1c3c 7895 22bc caf7 95bd
000002f0: 04b6 e7bd 4158 843c 8376 4e3c e8de 663d
00000300: 590a b73c 4941 073d 5ced 44bd 3b2a b73d
00000310: 8357 90bd 99d6 b3bd 5d6f a13d 087f 513b
00000320: 27ec de3b 3e90 6ebd 2eb4 88bd 4e30 90bd
00000330: 8a5d a23d 5320 80bd c436 a4bd ab69 d03a
00000340: 8ccb 26bc ed4e eabc 9271 4f3d 679c a9bd
00000350: 27d0 2b3c acde 31bd fa82 abbd 298b 2d3d
00000360: 92b7 8b39 ee35 1a3d 395c 98bd 6f25 a03c
00000370: e3c7 7fbd 1000 9e3d 623e 2ebc 2e6f 57bd
00000380: c286 043d 28a7 70bb 12aa 9f3d 92dc babb
00000390: 5e44 00bd 72b0 cfbc 1f47 fabc e142 c63d
000003a0: c0d5 d63d d5e3 b73d adaa 883d 1451 953b
000003b0: c109 5bbd 90b9 7d3b 5d4d 12bd bbdc 40bd
000003c0: 0af7 17bd 8f21 02bd e074 a1bd ab70 a03b
000003d0: cc9a 8bbd cb07 c33d 0404 cc3c df1d 283d
000003e0: 8300 efbc b3ca a9bb edfa f93c 2ec5 97bd
000003f0: ab40 473d fe12 ffbc 1969 293d 57e8 f2bc

gc2.fc.bias f4 [128]
-0.033590082 0.04763451 -0.028773291 -0.03095349 -0.051194105 0.10202911 0.06991731 -0.05929934
-0.010786654 0.08520168 0.033242725 0.04816047 -0.050037164 -0.042523306 -0.025846658 0.08928519
0.053271703 0.03485868 0.042448733 0.013869405 0.09024475 -0.04930932 -0.012458885 -0.0795454
-0.06463613 -0.045926765 0.053714175 -0.0023584878 -0.02261541 -0.054500088 -0.014689159 0.060314823
0.09154977 -0.065793365 0.08348027 0.057588335 0.02478767 0.033239443 -0.02420998 0.07039939
0.043688003 0.059625864 0.0948979 0.069297686 -0.0046213903 0.0012556056 -0.075340405 0.08314187
0.023664163 -0.006813696 0.0101094125 -0.056166664 0.09709543 0.107045546 0.07874845 -0.06692724
0.043514922 0.010484175 -0.019578852 -0.026993796 0.03175244 -0.049137104 0.058054984 -0.061029345
-0.010586377 0.018948315 -0.018149883 -0.027806401 0.058424234 -0.035672054 0.023296803 0.033534855
0.014753399 -0.037116524 0.10307712 0.06978484 -0.046283666 -0.051051687 0.028225852 -0.030849671
-0.00423323 0.009486125 0.030862955 0.012742008 -0.009631415 -0.0069304532 0.017200986 0.07408627
0.08810751 0.06982189 0.094838895 0.06391689 0.023264633 -0.052174833 0.058982216 -0.058596082
-0.01961888 0.08450009 -0.033701245 -0.04265307 -0.038757116 0.037193052 0.06325501 0.07073605
-0.041335836 -0.044953953 0.054227613 0.05470998 0.05172924 -0.0031680658 -0.031210372 -0.06533269
0.015729016 -0.033023167 0.046199623 0.03596744 0.046969097 -0.043077003 -0.03043962 -0.010357349
-0.025213892 -0.043049872 0.004829693 -0.0006369734 0.015146675 -0.0071327453 0.03143967 0.08830842
00000000: c195 09bd 671c 433d f7b5 ebbc 2c92 fdbc
00000010: e9b0 51bd a3f4 d03d ce30 8f3d dde3 72bd
00000020: 82ba 30bc 387e ae3d 8629 083d ea43 453d
00000030: c5f3 4cbd eb2c 2ebd 5fbc d3bc 27db b63d
00000040: 6e33 5a3d fac7 0e3d b9de 2d3d 803c 633c
00000050: 3dd2 b83d 92f8 49bd 5a20 4cbc b3e8 a2bd
00000060: f35f 84bd b41d 3cbd 6503 5c3d dc90 1abb
00000070: f443 b9bc 7c3b 5fbd ccaa 70bc ad0c 773d
00000080: 727e bb3d acbe 86bd b4f7 aa3d bfe1 6b3d
00000090: 830f cb3c 1526 083d 0254 c6bc 8e2d 903d
000000a0: 31f2 323d 403a 743d d559 c23d f2eb 8d3d
000000b0: 086f 97bb 2293 a43a 124c 9abd 4946 aa3d
000000c0: 59db c13c 6d45 dfbb f3a1 253c 040f 66bd
000000d0: f8d9 c63d b23a db3d de46 a13d 2611 89bd
000000e0: b43c 323d d1c5 2b3c d463 a0bc 1822 ddbc
000000f0: d90e 023d fd43 49bd 10cb 6d3d e8f9 79bd
00000100: 7c72 2dbc 7f39 9b3c 10af 94bc 40ca e3bc
00000110: 404e 6f3d dc1c 12bd f0d8 be3c d85b 093d
00000120: 3eb8 713c 7f07 18bd 191a d33d 5beb 8e3d
00000130: f193 3dbd 931b 51bd e739 e73c 73b8 fcbc
00000140: e8b6 8abb b16b 1b3c 4fd4 fc3c dbc3 503c
00000150: 15cd 1dbc db18 e3bb 15e9 8c3c 8bba 973d
00000160: b671 b43d c7fe 8e3d e53a c23d dce6 823d
00000170: 7995 be3c 47b5 55bd 5697 713d 7202 70bd
00000180: c6b7 a0bc 620e ad3d 510a 0abd fcb4 2ebd
00000190: c8bf 1ebd be57 183d d88b 813d 10de 903d
000001a0: c44f 29bd a321 38bd c61d 5e3d 9217 603d
000001b0: 0ae2 533d 539f 4fbb e5ac ffbc 25cd 85bd
000001c0: 23da 803c 4d43 07bd d13b 3d3d 9852 133d
000001d0: ab62 403d 8371 30bd 835c f9bc dfb1 29bc
000001e0: 5d8d cebc 1055 30bd 6742 9e3b 90fa 26ba
000001f0: c229 783c ceb9 e9bb e2c6 003d 0bdb b43d

temporal_conv.weight f4 [128, 128, 3]
0.035491947 0.032755762 0.035576645 -0.014569985 -0.028997427 -0.0015210198 0.030758353 0.031487133
0.0024546292 -0.04349826 0.002927084 0.02894925 -0.017909782 0.04024468 -0.046348568 -0.06296639
0.0012661039 -0.013463631 -0.0017517265 0.027217858 -0.010680063 0.011585894 -0.021815294 -0.049785
0.06823554 -0.008425171 0.049772907 -0.0050516343 0.026517764 0.0029634426 0.018036634 -0.030940274
-0.012302249 -0.012248714 0.020277055 0.03689949 -0.078750774 0.0011332573 0.032443285 0.020317273
-0.06642212 -8.881726e-05 0.0561495 0.0439678 0.030254772 -0.05409168 -0.015816696 0.0446214
-0.030106504 0.006846507 0.035371456 0.040699698 -0.02292762 -0.024054354 0.07428057 0.04773404
0.03348051 -0.058444057 -0.06504367 -0.044911858 0.05715731 0.005019635 -0.04763176 0.01715566
-0.04091996 0.028798904 -0.07307105 -0.03576829 0.0077283 -0.01136086 -0.08055348 0.008955475
0.056426898 -0.0039673545 0.018325787 0.021896778 0.05215885 -0.043820508 -0.0005873388 0.03644229
0.024781955 -0.007902426 -0.007298251 0.04589442 -0.040217057 -0.054459825 0.022641266 -0.025513489
0.015661083 -0.043535307 0.047858518 -0.0013685768 0.04103981 -0.0033427896 -0.054580826 -0.026688235
0.007561065 -0.05253719 0.007334912 0.037872214 -0.0052611125 -0.04630666 0.048707247 0.05672014
0.03670709 -0.023340425 0.025606276 -0.011340893 0.0022768334 0.01790246 -0.014717269 0.020520737
0.018462053 0.029714871 0.054519836 -0.00029501878 0.0077487095 0.041029453 0.04695692 0.040827736
0.04857608 0.023030536 0.028820287 -0.027638381 0.024436466 0.013815147 -0.0010114862 0.03261945
0.03744569 -0.022818306 0.034330357 -0.04911533 -0.045424588 -0.0047543445 -0.0043526236 -0.035393603
-0.049076147 -0.050391432 0.03226498 0.03390222 -0.033446554 -0.029655898 -0.0115628075 -0.028085792
-0.04374798 0.013082395 0.036409047 0.057499204 0.024368778 0.02191505 -0.03045263 -0.079023406
-0.048242427 0.03440106 0.033551093 -0.0034304024 -0.0033111402 0.035357185 -0.04142031 -0.010265518
-0.036636326 -0.018712537 0.0212831 0.059198413 0.048965715 -0.034167856 0.04250586 0.027058646
0.0047358233 -0.00793092 0.018632857 -0.042819794 -0.0006191613 -0.018767487 -0.01698022 0.06280139
0.036613904 0.02658832 -0.043128956 -0.00749058 0.02226784 -0.03476993 0.015102018 0.024970345
0.054724965 0.0068424083 0.056995485 0.008398709 -0.048172925 -0.01580275 0.03563846 0.018864706
-0.08009109 -0.0858776 -0.043948136 -0.058510296 -0.0342565 0.02990917 -0.0022011986 -0.034782115
0.03350869 0.025694957 0.037019905 0.040928397 -0.017471785 -0.023117136 0.03853258 0.05406957
0.048830356 -0.0018123831 -0.015757656 0.0065597324 0.034775943 -0.056962363 -0.030956887 0.039123356
0.017141053 0.021992179 -0.04627324 0.013210256 0.0032694992 -0.006986183 -0.05074269 -0.028255653
-0.04225222 -0.013926971 0.028610852 0.0064050686 -0.03395309 0.022372589 -0.041496973 0.036069363
0.008943471 -0.0036337452 -0.0008843899 0.067562036 0.037021495 -0.005333381 0.004077146 0.02632538
-0.02127338 -0.034707155 0.02528418 0.08816713 0.07138496 -0.03070485 -0.0043546185 -0.08847942
0.034544397 0.02340727 0.04199158 -0.032949056 0.013272115 -0.03628614 -0.01544405 -0.0038540077
00000000: 0160 113d e82a 063d d1b8 113d f2b6 6ebc
00000010: 038c edbc f55c c7ba f1f8 fb3c a7f8 003d
00000020: d8dd 203b 3b2b 32bd 52d4 3f3b fa26 ed3c
00000030: 89b7 92bc 9bd7 243d ffd7 3dbd 86f4 80bd
00000040: 66f3 a53a 9096 5cbc 309a e5ba fcf7 de3c
00000050: 6efb 2ebc c3d2 3d3c fdb5 b2bc 5beb 4bbd
00000060: 13bf 8b3d ba09 0abc adde 4b3d 2e88 a5bb
00000070: c83b d93c 5136 423b 90c1 933c 7576 fdbc
00000080: 5f8f 49bc d5ae 48bc 111c a63c eb23 173d
00000090: 1648 a1bd ce89 943a 40e3 043d 6970 a63c
000000a0: 5208 88bd 6743 bab8 05fd 653d 9417 343d
000000b0: dbd8 f73c 3d8f 5dbd 0492 81bc eec4 363d
000000c0: eaa1 f6bc aa58 e03b a9e1 103d bab4 263d
000000d0: b4d2 bbbc a30d c5bc 6920 983d c584 433d
000000e0: dc22 093d 0963 6fbd 9e35 85bd 7ff5 37bd
000000f0: c91d 6a3d c07b a43b 8519 43bd 078a 8c3c
00000100: b09b 27bd aeeb eb3c 46a6 95bd c581 12bd
00000110: ae3d fd3b e722 3abc 39f9 a4bd fcb9 123c
00000120: e41f 673d 9500 82bb f61f 963c df60 b33c
00000130: 85a4 553d 227d 33bd a4f7 19ba 8344 153d
00000140: 8703 cb3c 2d79 01bc 2b26 efbb cafb 3b3d
00000150: a4ba 24bd 4411 5fbd 2d7a b93c aa01 d1bc
00000160: ac4b 803c 1452 32bd 4b07 443d d161 b3ba
00000170: 5c19 283d b412 5bbb 2590 5fbd 49a1 dabc
00000180: cfc2 f73b 3d31 57bd b459 f03b e51f 1b3d
00000190: 6965 acbb 0dac 3dbd 4081 473d 6153 683d
000001a0: 2c5a 163d 6b34 bfbc 41c4 d13c 27cf 39bc
000001b0: ed36 153b 2ea8 923c b320 71bc 1b1b a83c
000001c0: bb3d 973c 9a6c f33c 3150 5f3d c0ac 9ab9
000001d0: e3e8 fd3b 800e 283d e655 403d fc3a 273d
000001e0: b6f7 463d 89aa bc3c 8618 ec3c e369 e2bc
000001f0: fc2e c83c ed58 623c d893 84ba f99b 053d
00000200: a760 193d 75ed babc fd9d 0c3d 282d 49bd
00000210: 220f 3abd 55ca 9bbb 74a0 8ebb e2f8 10bd
00000220: 1204 49bd 3f67 4ebd 4928 043d 0edd 0a3d
00000230: 41ff 08bd edf0 f2bc ee71 3dbc 2d14 e6bc
00000240: 1531 33bd 8b57 563c a721 153d 4984 6b3d
00000250: 08a1 c73c 3187 b33c cb77 f9bc 06d7 a1bd
00000260: da99 45bd 20e8 0c3d df6c 093d 9ad0 60bb
00000270: b7ff 58bb b2d2 103d 58a8 29bd b430 28bc
00000280: f90f 16bd 094b 99bc e559 ae3c 097a 723d
00000290: 4690 483d 98f3 0bbd a01a 2e3d 18aa dd3c
000002a0: f72e 9b3b b1f0 01bc efa3 983c cf63 2fbd
000002b0: 364f 22ba 46be 99bc 1a1a 8bbc 049e 803d
000002c0: 76f8 153d c0cf d93c fda7 30bd 8a73 f5bb
000002d0: 0c6b b63c ea6a 0ebd 746e 773c 9c8e cc3c
000002e0: 4927 603d 4836 e03b 1974 693d bd9a 093c
000002f0: f950 45bd c574 81bc a2f9 113d 288a 9a3c
00000300: cc06 a4bd 98e0 afbd f602 34bd 7ea8 6fbd
00000310: 8b50 0cbd 1304 f53c fc41 10bb b177 0ebd
00000320: 6840 093d 3b7e d23c 2fa2 173d 89a4 273d
00000330: fd20 8fbc 2660 bdbc 57d4 1d3d 0e78 5d3d
00000340: 5702 483d 7c8d edba 3316 81bc 06f3 d63b
00000350: 3871 0e3d 5e51 69bd 4c99 fdbc d03f 203d
00000360: 656b 8c3c f128 b43c 0289 3dbd d46f 583c
00000370: 1845 563b 5aec e4bb 91d7 4fbd 6678 e7bc
00000380: aa10 2dbd f32d 64bc 4e61 ea3c 9ce1 d13b
00000390: 6512 0bbd b846 b73c bbf8 29bd 78bd 133d
000003a0: a387 123c 2124 6ebb 67d6 67ba f75d 8a3d
000003b0: daa3 173d a4c3 aebb 9499 853b 53a8 d73c
000003c0: 8345 aebc 1729 0ebd c520 cf3c f890 b43d
000003d0: 4732 923d bd88 fbbc 30b1 8ebb b334 b5bd
000003e0: 6d7e 0d3d 9ac0 bf3c 5dff 2b3d 97f5 06bd
000003f0: 4973 593c c7a0 14bd 0a09 7dbc 8593 7cbb

temporal_conv.bias f4 [128]
0.030740807 -0.037013248 0.034230024 0.040942185 -0.037305593 0.029233847 0.017149393 0.0025501517
-0.023741106 -0.010025207 0.016458586 0.011244256 -0.002949312 -0.040785454 -0.0321854 0.040573444
0.007452685 0.051867057 -0.019802207 -0.03078821 -0.012980047 -0.012136674 -0.025443519 0.016658021
0.02303689 0.042472668 -0.0036613152 0.01626198 -0.002322946 0.046539813 0.0011101547 0.04790976
0.021225901 -0.023090603 -0.00017291581 -0.010354974 -0.024545692 -0.048479266 -0.011424793 0.04679636
0.02550859 0.0153716225 0.05300079 0.01573542 0.04703382 0.026217038 0.06320889 0.0037574845
0.008899337 -0.0066197566 -0.00094221614 0.031548247 -0.041265376 0.050594494 0.03965932 -0.013496496
0.0057401904 -0.009824432 -0.021586899 0.014149802 -0.023171647 0.01983101 0.034033764 0.016457409
0.014288966 0.03257837 -0.0069856583 0.02409736 -0.029307786 -0.0038652997 -0.045878127 0.012104961
-0.009326607 -0.008589863 0.03336244 -0.012118332 -0.026471106 0.003681915 0.015076311 0.050266966
-0.03941826 0.049536105 -0.0055683665 -0.044792548 -0.05399696 -0.038188007 0.01948869 0.04846937
0.055482876 0.028416531 0.0020892292 0.027077934 0.0487843 0.012633362 0.04431686 -0.046834372
-0.005000863 0.021178462 0.0014111425 0.03270042 0.03432702 -0.039559923 0.038392656 0.010658659
-0.036063362 -0.009183611 0.012183245 -0.0065468424 -0.01113905 -0.016021324 0.009878892 0.040674265
-0.025626244 0.014840909 0.06067909 0.025157226 -0.03230407 -0.012870375 0.01662066 0.017810363
0.021008605 0.023742672 -0.020011669 -0.031233914 -0.03149178 -0.038889028 0.0014514326 -0.0073509403
00000000: 25d4 fb3c 349b 17bd c834 0c3d feb2 273d
00000010: c0cd 18bd d27b ef3c e27c 8c3c 7220 273b
00000020: b57c c2bc c440 24bc 28d4 863c d439 383c
00000030: 3f49 41bb a60e 27bd d7d4 03bd 5730 263d
00000040: a735 f43b 8d72 543d 3d38 a2bc 8e37 fcbc
00000050: 43aa 54bc e6d8 46bc ed6e d0bc 6776 883c
00000060: dcb7 bc3c d2f7 2d3d adf2 6fbb d837 853c
00000070: 913c 18bb 88a0 3e3d 9c82 913a 063d 443d
00000080: f1e1 ad3c 8128 bdbc bc50 35b9 e9a7 29bc
00000090: 0c14 c9bc 3292 46bd 0e2f 3bbc 8aad 3f3d
000000a0: 64f7 d03c 42d9 7b3c 5b17 593d 91e7 803c
000000b0: 89a6 403d 1dc5 d63c aa73 813d 2140 763b
000000c0: 86ce 113c 8bea d8bb 0eff 76ba bc38 013d
000000d0: e205 29bd 2c3c 4f3d d071 223d 6820 5dbc
000000e0: 3518 bc3b a8f6 20bc 02d7 b0bc 92d4 673c
000000f0: 77d2 bdbc a474 a23c fd66 0b3d b0d1 863c
00000100: 441c 6a3c e670 053d f3e7 e4bb d467 c53c
00000110: e216 f0bc f850 7dbb b4ea 3bbd e353 463c
00000120: a0ce 18bc 7fbc 0cbc 0ea7 083d f88b 46bc
00000130: efd9 d8bc 494c 713b a202 773c bce4 4d3d
00000140: 0b75 21bd 5fe6 4a3d d876 b6bb 6478 37bd
00000150: eb2b 5dbd 076b 1cbd bfa6 9f3c d187 463d
00000160: 0342 633d c9c9 e83c 73eb 083b 8bd2 dd3c
00000170: 0cd2 473d 29fc 4e3c 9985 353d 66d5 3fbd
00000180: 48de a3bb 747e ad3c 16f6 b83a e0f0 053d
00000190: 7d9a 0c3d 9609 22bd 9e41 1d3d a8a1 2e3c
000001a0: 2db7 13bd db76 16bc 3c9c 473c e586 d6bb
000001b0: 9080 36bc 273f 83bc 14db 213c 0f9a 263d
000001c0: 21ee d1bc 4927 733c a38a 783d 8716 ce3c
000001d0: 4651 04bd 44de 52bc 0d28 883c 0ae7 913c
000001e0: 3d1a ac3c fe7f c23c 83ef a3bc 44de ffbc
000001f0: 86fd 00bd 1a4a 1fbd ff3d be3a 28e0 f0bb

fc.weight f4 [30, 128]
0.019481508 0.064529546 0.035329856 0.043004867 0.027567985 -0.009578204 -0.052221484 0.03467538
0.05108834 -0.119418286 0.04757715 -0.012253542 0.001038515 0.07767916 0.014893862 -0.031064015
-0.057211764 0.036404934 0.005662376 -0.028920624 -0.018080479 -0.037995636 -0.070778295 -0.046142742
0.044371422 0.03466021 -0.03926472 0.04006848 0.03163647 -0.086108156 0.049790453 -0.053368147
0.04012157 0.026519356 -0.0088083 0.025216652 -0.08642519 0.040689513 0.056432776 0.025586957
0.09730574 -0.08942642 0.025838425 0.07084221 0.04185928 0.037328303 0.0017301046 0.059642512
-0.018860642 -0.02691394 -0.017142316 -0.035488967 -0.044797372 0.040707193 0.016471654 -0.0897494
-0.02338291 -0.033305272 0.0023734015 0.028741233 -0.10742905 0.095502466 0.07636464 -0.053529173
0.0051857485 0.011178627 -0.030561322 -0.08054752 -0.06456572 -0.051996514 0.028464256 0.073220484
0.06929663 -0.031772997 -0.104519896 -0.06382268 -0.062216066 0.036648855 0.06300154 0.0813603
0.010716223 0.04682202 0.02517616 -0.03163381 0.06966876 0.023305304 -0.028515596 -0.046904832
-0.049288146 0.06447409 -0.017930884 0.056506395 0.05626673 -0.005516339 -0.03839568 0.011317798
-0.021865226 0.031536218 -0.09238091 -0.043837797 0.03437304 -0.08275443 0.05474577 -0.02467056
0.08974263 -0.084417626 -0.013695399 0.085598744 -0.007838011 -0.008900353 0.08902739 -0.03293708
-0.087324224 0.012234837 0.09211218 -0.045431275 -0.0021267312 0.08943616 -0.0343582 0.037772365
-0.081696615 -0.08386207 0.03453808 0.103376016 0.046284948 0.03610369 -0.07570459 0.036702145
-0.007683926 0.038531184 0.018472182 -0.010899613 0.046985347 0.115495056 0.091907956 0.107249975
-0.093328774 0.08286921 -0.033219624 -0.010471479 -0.0041406862 0.056917466 -0.052186683 0.05850543
0.03125956 -0.0025826164 0.020076081 0.07794935 0.103663996 -0.026153918 -0.060820997 0.09312366
-0.017592533 -0.00855145 -0.0019543357 -0.024445377 0.003734295 -0.09008798 -0.05307719 -0.012769691
0.097341 -0.008289412 0.020390552 -0.06591438 0.050610237 0.092104696 0.048814047 0.06105967
-0.020207344 0.0012299934 -0.054005336 -0.00998165 -0.048242263 -0.0012905204 -0.06593226 0.040985316
-0.09542283 0.0042882827 0.026768485 0.09025219 0.0043085227 -0.02889069 -0.057306856 0.029105647
-0.07722361 0.032250497 0.016745389 0.018423889 -0.05116605 -0.03610905 -0.008281266 0.049034987
0.009665382 0.095794484 -0.031046737 0.05696317 0.06428163 -0.06661676 -0.009337014 -0.00065529725
0.006399108 0.046925563 0.014650411 0.027276864 0.01865604 0.014370059 -0.022538258 -0.041623134
-0.019997666 -0.023634199 -0.004458874 -0.05103813 -0.06698404 0.0641437 -0.025294164 -0.019929564
0.012621372 0.019797472 0.03995343 0.0065890043 0.06498364 -0.013219389 0.048184723 0.034389738
0.00017201426 -0.062972635 0.06045805 0.11501316 -0.060922675 0.097158015 -0.043822147 0.041610032
0.0033024107 0.027029596 -0.022463446 -0.007652626 0.03788743 -0.035081286 -0.029562827 0.102820545
-0.026921092 -0.020939633 -0.040293206 -0.04174916 -0.024601977 0.031411197 -0.107367575 0.028492851
0.04039858 -0.10277508 0.02671055 -0.027351502 0.057502847 -0.0103879245 -0.057913546 -0.031840235
00000000: af97 9f3c 1128 843d 0ab6 103d df25 303d
00000010: 41d6 e13c e6ed 1cbc 32e6 55bd c507 0e3d
00000020: 0242 513d 9391 f4bd 42e0 423d 15c3 48bc
00000030: c81e 883a 4016 9f3d 6305 743c f679 febc
00000040: e256 6abd 571d 153d 748b b93b f2ea ecbc
00000050: 831d 94bc 50a1 1bbd 36f4 90bd 2c00 3dbd
00000060: cfbe 353d ddf7 0d3d 0bd4 20bd d91e 243d
00000070: 3e95 013d 7959 b0bd 13f1 4b3d 8f98 5abd
00000080: 8456 243d 1f3f d93c b050 10bc 2793 ce3c
00000090: b1ff b0bd 0caa 263d 0e26 673d bd9b d13c
000000a0: 3b48 c73d 3325 b7bd 1bab d33c b815 913d
000000b0: a374 2b3d 90e5 183d adc4 e23a b54b 743d
000000c0: a281 9abc a07a dcbc 0b6e 8cbc e15c 11bd
000000d0: 737d 37bd 96bc 263d 90ef 863c 89ce b7bd
000000e0: 848d bfbc 1c6b 08bd 128b 1b3b bc72 eb3c
000000f0: c303 dcbd cc96 c33d 1065 9c3d 6841 5bbd
00000100: 36ed a93b 8f26 373c bd5b fabc 19f6 a4bd
00000110: 083b 84bd 4cfa 54bd df2d e93c 9ff4 953d
00000120: 64eb 8d3d 6724 02bd 870e d6bd 77b5 82bd
00000130: 46d6 7ebd 1c1d 163d f406 813d 3ba0 a63d
00000140: 1993 2f3c 72c8 3f3d 3c3e ce3c 7492 01bd
00000150: 7fae 8e3d c4ea be3c 8a99 e9bc 481f 40bd
00000160: 5ee2 49bd fe0a 843d cae3 92bc 4073 673d
00000170: f177 663d 68c2 b4bb ca44 1dbd 496e 393c
00000180: b41e b3bc 1f2c 013d 3432 bdbd 438f 33bd
00000190: bfca 0c3d 287b a9bd 1a3d 603d ea19 cabc
000001a0: fcca b73d 26e3 acbd ab62 60bc 654e af3d
000001b0: 006b 00bc c9d2 11bc fe53 b63d 08e9 06bd
000001c0: 0bd7 b2bd a074 483c 50a5 bc3d 2516 3abd
000001d0: a160 0bbb 4e2a b73d 2fbb 0cbd 32b7 1a3d
000001e0: 8e50 a7bd e1bf abbd cd77 0d3d ceb6 d33d
000001f0: 4995 3d3d 76e1 133d 020b 9bbd fd54 163d
00000200: 71c9 fbbb e0d2 1d3d f952 973c 4a94 32bc
00000210: b573 403d ac88 ec3d 3d3a bc3d e0a5 db3d
00000220: 2823 bfbd 55b7 a93d 4d11 08bd 9190 2bbc
00000230: 98ae 87bb 4a22 693d b4c1 55bd 64a3 6f3d
00000240: 060a 003d 1d41 29bb 9876 a43c e9a3 9f3d
00000250: ca4d d43d be40 d6bc 701f 79bd 9eb7 be3d
00000260: 371e 90bc 621b 0cbc 5014 00bb ac41 c8bc
00000270: 13bb 743b 0c80 b8bd 7867 59bd f737 51bc
00000280: b85a c73d 50d0 07bc 160a a73c 1efe 86bd
00000290: ae4c 4f3d 63a1 bc3d 3df1 473d b419 7a3d
000002a0: df89 a5bc bb37 a13a b334 5dbd 138a 23bc
000002b0: ae99 45bd ae26 a9ba 7e07 87bd 38e0 273d
000002c0: 0b6d c3bd b984 8c3b 9549 db3c 24d6 b83d
000002d0: 822e 8d3b 2bac ecbc 98ba 6abd f76e ee3c
000002e0: 6927 9ebd 1919 043d a02d 893c b2ed 963c
000002f0: 7e93 51bd 15e7 13bd 26ae 07bc e9d8 483d
00000300: 8d5b 1e3c e62f c43d ba55 febc 3752 693d
00000310: 16a6 833d 5e6e 88bd 46fa 18bc 41c8 2bba
00000320: 9caf d13b 0535 403d 4708 703c bb73 df3c
00000330: 8dd4 983c 6570 6b3c 27a2 b8bc 057d 2abd
00000340: 25d2 a3bc 829c c1bc bf1b 92bb 5c0d 51bd
00000350: ee2e 89bd c65d 833d b535 cfbc 5343 a3bc
00000360: dfc9 4e3c 4f2e a23c 35a6 233d 93e8 d73b
00000370: 2516 853d 2396 58bc 585d 453d 41dc 0c3d
00000380: ba5e 3439 ccf7 80bd dca2 773d 058c eb3d
00000390: 0e8a 79bd c8fa c63d da7e 33bd 486f 2a3d
000003a0: 426d 583b 2c6d dd3c 4305 b8bc e1c2 fabb
000003b0: da2f 1b3d 65b1 0fbd be2d f2bc 9493 d23d
000003c0: 9f89 dcbc 9889 abbc 7d0a 25bd 2b01 2bbd
000003d0: 168a c9bc 07a9 003d 88e3 dbbd d769 e93c
000003e0: fb78 253d be7b d2bd 15d0 da3c 4210 e0bc
000003f0: 1b88 6b3d 1d32 2abc c136 6dbd e86a 02bd

fc.bias f4 [30]
0.029277172 0.01137539 -0.0041590733 0.03564631 -0.04656771 -0.003584702 0.05184639 0.09689317
-0.0059639043 0.043500602 -0.07742813 0.047007043 0.008821122 -0.015807664 0.028276198 0.020216301
-0.038249947 0.013697892 -0.022102512 0.05345309 -0.003423393 -0.080489144 -0.04964579 -0.01516837
-0.021506429 -0.03505254 0.07035605 -0.009924112 0.05830189 -0.010091795
00000000: aed6 ef3c d85f 3a3c d648 88bb dd01 123d
00000010: c8bd 3ebd 52ed 6abb e15c 543d ed6f c63d
00000020: db6c c3bb b02d 323d a492 9ebd 758a 403d
00000030: 7886 103c 137f 81bc 7ca3 e73c a89c a53c
00000040: faab 1cbd 206d 603c 5410 b5bc a1f1 5a3d
00000050: 015b 60bb 7ed7 a4bd 6259 4bbd c184 78bc
00000060: 402e b0bc 4193 0fbd d516 903d be98 22bc
00000070: f6cd 6e3d 0e58 25bc
