GWN/best_models/best_model_w120_h5.pth (torch, 354571 bytes, 9 tensors)

adapt_adj f4 [120, 120]
0.9969966 -0.0030011379 -0.0030072199 -0.002970797 -0.0029356158 -0.0028768282 -0.0028581955 -0.0028349634
-0.0028136566 -0.0027819567 -0.0027336234 -0.002700594 -0.0026453522 -0.0025812162 -0.0025562306 -0.0025328146
-0.0024568904 -0.0024394188 -0.0023595574 -0.002308445 -0.0022794337 -0.0022518586 -0.0022511615 -0.0022821457
-0.0022548332 -0.0022582465 -0.0022327658 -0.002281204 -0.002273039 -0.0022818423 -0.002305346 -0.0022585755
-0.002273939 -0.0022969611 -0.0023040108 -0.0022584468 -0.0022858887 -0.0022523322 -0.002214116 -0.0021419597
-0.0020874639 -0.002055955 -0.0020397422 -0.0020438319 -0.0020172955 -0.0019770437 -0.0019185239 -0.0018761635
-0.0018736486 -0.0018820221 -0.0018418554 -0.0018014107 -0.0017604431 -0.0017106956 -0.0017137543 -0.0017131121
-0.0016398161 -0.0015870355 -0.0015396043 -0.0014355278 -0.001351172 -0.0012827404 -0.0011881101 -0.001146957
-0.0010333828 -0.0009873117 -0.00089994 -0.00079844194 -0.00074497727 -0.00066286186 -0.0006418644 -0.0005862096
-0.00055443717 -0.000502012 -0.00043389783 -0.00037772616 -0.000325645 -0.00022148466 -0.00012680168 -2.5001253e-05
6.608211e-05 0.00015053037 0.00032661177 0.00048657425 0.0005986463 0.0007132796 0.0008204718 0.00096357684
0.0010181412 0.0011072262 0.0011279677 0.0011907312 0.0012929533 0.0013437523 0.0014076275 0.0015104115
0.0017042623 0.001825764 0.001974619 0.0021498029 0.0023033386 0.0025058552 0.0026617134 0.002884591
0.003057741 0.0032041585 0.0033624792 0.0035377713 0.0037066634 0.0038482444 0.0040182644 0.004231552
0.0044107856 0.004621043 0.0048580505 0.0050894655 0.0053698746 0.005701649 0.00587154 0.006322801
-0.0030094222 0.9969884 -0.0030171108 -0.002980892 -0.0029595825 -0.0028905745 -0.0028807695 -0.0028578439
-0.0028269119 -0.0027894396 -0.0027459296 -0.002710451 -0.0026525992 -0.0025932314 -0.002563143 -0.0025399744
-0.0024634541 -0.002444808 -0.0023700814 -0.0023173892 -0.002287404 -0.0022585865 -0.0022574086 -0.0022854814
-0.002253446 -0.0022633625 -0.0022404701 -0.0022861452 -0.0022756741 -0.0022922547 -0.0023128856 -0.0022696631
-0.0022839678 -0.002305007 -0.0023131596 -0.0022673106 -0.0022918046 -0.0022562724 -0.0022195475 -0.0021496252
-0.0020968139 -0.0020658886 -0.0020451245 -0.0020497427 -0.002021683 -0.0019775429 -0.0019226582 -0.0018782789
-0.0018733628 -0.0018837828 -0.0018414449 -0.0018009134 -0.001756656 -0.0017106457 -0.0017134057 -0.0017107866
-0.001638607 -0.0015820634 -0.0015329889 -0.0014279519 -0.0013406435 -0.0012724849 -0.0011791002 -0.001131421
-0.0010258753 -0.0009778297 -0.0008890947 -0.00078214874 -0.0007267859 -0.00064281916 -0.0006224674 -0.0005616481
-0.000526997 -0.0004723545 -0.0004053407 -0.00035222553 -0.00030427385 -0.00019750294 -0.00010160703 1.0839349e-06
9.020988e-05 0.00017625878 0.00035065244 0.0005121831 0.0006240592 0.00074065395 0.00085490115 0.0010014058
0.0010497017 0.0011418222 0.0011585574 0.001218095 0.0013226024 0.0013715264 0.0014406412 0.0015414659
0.0017370149 0.0018575856 0.0020039196 0.0021832143 0.0023376849 0.002538776 0.0026935106 0.002921434
0.0030897069 0.0032366444 0.0033957653 0.0035707096 0.0037428923 0.003884753 0.0040558856 0.0042631812
0.00444034 0.004653702 0.0048921285 0.00511736 0.005395079 0.005729324 0.005898082 0.006349155
-0.0029791512 -0.0029797256 0.99700385 -0.002957709 -0.00293328 -0.0028695075 -0.0028547023 -0.0028269575
-0.00280341 -0.002764707 -0.0027247353 -0.002696225 -0.0026353283 -0.0025699758 -0.0025429924 -0.002526507
00000000: 2b3b 7f3f bdae 44bb c714 45bb b4b1 42bb
00000010: 7663 40bb 2b89 3cbb 9050 3bbb cbca 39bb
00000020: 5365 38bb 7d51 36bb 9726 33bb 73fc 30bb
00000030: a55d 2dbb 9f29 29bb 6f86 27bb 94fd 25bb
00000040: c803 21bb a8de 1fbb cea2 1abb 4849 17bb
00000050: 8d62 15bb eb93 13bb 3988 13bb 0d90 15bb
00000060: d3c5 13bb 17ff 13bb 9853 12bb 4180 15bb
00000070: 44f7 14bb f68a 15bb 4a15 17bb 9c04 14bb
00000080: 5e06 15bb 9d88 16bb e3fe 16bb 7302 14bb
00000090: d9ce 15bb dd9b 13bb b41a 11bb 1f60 0cbb
000000a0: d5cd 08bb 33bd 06bb 32ad 05bb cff1 05bb
000000b0: 9a34 04bb 4a91 01bb fb76 fbba 9ae9 f5ba
000000c0: 3795 f5ba 2fae f6ba 696a f1ba 501d ecba
000000d0: abbe e6ba 6b39 e0ba 0da0 e0ba 818a e0ba
000000e0: 19ef d6ba 1304 d0ba 8ccc c9ba 5228 bcba
000000f0: cf19 b1ba a021 a8ba 5cba 9bba 7e55 96ba
00000100: 9372 87ba af68 81ba f3e9 6bba 884e 51ba
00000110: 944a 43ba e8c3 2dba ca42 28ba dcab 19ba
00000120: a657 11ba 7499 03ba c87c e3b9 8c09 c6b9
00000130: 55bb aab9 563e 68b9 11f6 04b9 c8b9 d1b7
00000140: 9095 8a38 b0d7 1d39 173d ab39 e41a ff39
00000150: 79ee 1c3a 62fb 3a3a ee14 573a 8c98 7c3a
00000160: 2673 853a 5920 913a 51d8 933a 4f12 9c3a
00000170: 5078 a93a d820 b03a 2480 b83a 00f9 c53a
00000180: 8e61 df3a 794e ef3a 9c68 013b b5e3 0c3b
00000190: 9cf3 163b 4639 243b 2470 2e3b 680b 3d3b
000001a0: 6264 483b dcfc 513b 0a5d 5c3b f4d9 673b
000001b0: 7eeb 723b d432 7c3b a5ab 833b d5a8 8a3b
000001c0: 5a88 903b 1e6c 973b 4830 9f3b 88c5 a63b
000001d0: c6f5 af3b e6d4 ba3b 0c66 c03b 802f cf3b
000001e0: ba39 45bb a23a 7f3f b8ba 45bb 125b 43bb
000001f0: 8ef5 41bb cb6f 3dbb 4bcb 3cbb aa4a 3bbb
00000200: b643 39bb 08cf 36bb 0ef5 33bb d2a1 31bb
00000210: 3bd7 2dbb 34f3 29bb 67fa 27bb b375 26bb
00000220: e771 21bb 1239 20bb 5e53 1bbb 57df 17bb
00000230: 45e8 15bb cb04 14bb 08f1 13bb 04c8 15bb
00000240: 8dae 13bb ec54 14bb dad4 12bb 27d3 15bb
00000250: 7a23 15bb a739 16bb c893 17bb a1be 14bb
00000260: 9fae 15bb 9a0f 17bb 6198 17bb 2997 14bb
00000270: 1a32 16bb f8dd 13bb d475 11bb bae0 0cbb
00000280: b36a 09bb dc63 07bb 7f07 06bb fa54 06bb
00000290: 367e 04bb aa99 01bb b401 fcba 9530 f6ba
000002a0: a08b f5ba 43e9 f6ba a35c f1ba a00c ecba
000002b0: 983f e6ba bf37 e0ba 5b94 e0ba 793c e0ba
000002c0: 87c6 d6ba 3d5d cfba 92ee c8ba 1d2a bbba
000002d0: 88b8 afba 82c9 a6ba 0a8c 9aba 304c 94ba
000002e0: aa76 86ba 852a 80ba 2312 69ba 1d09 4dba
000002f0: c785 3eba dd82 28ba 152d 23ba 913b 13ba
00000300: 2c26 0aba 59a6 f7b9 e883 d4b9 e9aa b8b9
00000310: f286 9fb9 cb18 4fb9 dc15 d5b8 b87b 9135
00000320: 102f bd38 1bd2 3839 c6d7 b739 0744 063a
00000330: e797 233a 7228 423a 721b 603a 9a41 833a
00000340: 2596 893a 32a9 953a bcda 973a 7ca8 9f3a
00000350: 2c5b ad3a cac4 b33a e6d3 bc3a 030b ca3a
00000360: 8cac e33a 3b7a f33a 3154 033b 4214 0f3b
00000370: d833 193b 9861 263b 9c85 303b 8775 3f3b
00000380: ae7c 4a3b e21d 543b 7d8b 5e3b 9102 6a3b
00000390: 504b 753b 5797 7e3b 3ce7 843b 28b2 8b3b
000003a0: 4680 913b 157e 983b 264e a03b 87af a73b
000003b0: 34c9 b03b 0ebd bb3b b344 c13b 930c d03b
000003c0: dd3d 43bb 8047 43bb a53b 7f3f 1fd6 41bb
000003d0: 463c 40bb 590e 3cbb f515 3bbb 7a44 39bb
000003e0: 6ab9 37bb 1630 35bb 7991 32bb 26b3 30bb
000003f0: 79b5 2cbb 0a6d 28bb 55a8 26bb c193 25bb

gc1.fc.weight f4 [128, 30]
0.11115363 -0.16479325 0.14879341 -0.16634099 0.15922248 0.16646121 -0.0776724 0.1627114
-0.017026167 -0.046711523 -0.09222015 -0.032273233 -0.104050145 -0.058961887 -0.17812374 0.18804155
0.11332814 -0.18004346 0.006479092 -0.0040615266 0.17072959 -0.018781373 0.2025791 0.17079414
0.05191363 -0.055229697 0.09609878 -0.13794187 -0.074401185 0.18436858 -0.14354329 -0.042124312
-0.124126956 0.0033549864 0.112886705 -0.19085895 0.13411239 -0.14590652 0.008353288 0.007819665
0.015749086 0.12235472 -0.11952499 -0.143316 -0.071345754 -0.040975578 -0.18124846 0.10814026
-0.005290651 0.08991261 0.088894464 0.039223585 0.11423985 0.035127856 0.086922415 -0.14456324
0.019285917 0.08156189 0.070137076 0.060859546 0.025127277 -0.17900896 -0.11002209 0.090440236
0.09841247 -0.106178544 -0.15030229 -0.17690994 -0.022714116 0.050032746 0.17059025 0.03777773
-0.09700626 -0.02278232 -0.09824004 -0.20857571 0.07929207 -0.2026395 0.14573944 0.044121936
-0.13353603 0.011326453 -0.06467031 0.012194296 -0.18174298 0.03841394 -0.12357324 0.065989375
0.084283486 -0.16371828 -0.18025757 -0.06801006 0.080665015 -0.028549096 -0.055126876 0.14530444
-0.13238205 -0.06861375 -0.17838858 0.046839915 -0.03610241 0.008551446 0.11819715 -0.018212289
-0.14128627 0.108421095 -0.082699955 0.08176672 0.009591294 -0.13620344 -0.12608024 0.056447774
-0.04917774 -0.08706006 -0.028201267 0.10816858 -0.065169245 0.13804851 0.055679325 0.17523421
0.11746438 -0.06531185 -0.1467176 0.16682585 0.03706749 0.012477431 0.028056001 -0.0699256
0.11571039 -0.010457636 -0.12934361 0.07415934 0.08491555 0.16737404 -0.020140713 0.009462436
0.13063334 -0.05063494 0.02427033 -0.16275634 0.17852578 -0.100851804 0.172856 0.059020177
0.0104471855 0.11020781 -0.15158558 0.1600062 -0.0055583064 -0.15441254 -0.015892358 -0.14922476
-0.04198357 0.108604506 -0.13262992 0.036538962 -0.05099689 0.18125847 -0.09590278 0.18536268
0.18340845 -9.639315e-05 -0.053008046 0.031889394 0.098126866 -0.06277767 -0.004177425 0.13563736
-0.08411592 0.113768324 0.114792995 -0.0061005834 0.18378177 0.07213467 0.1454297 0.14368309
0.14633968 0.06745538 0.15121357 0.08623485 0.13763285 0.16955265 -0.17282632 0.09508617
-0.018258957 -0.17812443 -0.08823889 0.1298412 0.15437767 -0.04320865 -0.15500262 -0.10368936
0.024946688 0.070916064 -0.1664266 -0.10701425 -0.041833002 0.018052045 -0.100744195 -0.10733219
0.068696246 0.011441723 0.14752717 -0.15892516 0.068809524 -0.14932197 -0.007067645 -0.04216008
0.0875308 0.113394566 0.06571984 -0.13327548 0.07292794 0.031023044 0.062193584 0.16333134
-0.04734492 -0.14154263 0.16089733 -0.04186241 -0.10375248 0.20269974 0.16868939 0.13739409
0.13127308 -0.08969155 0.14889628 0.033627786 0.019978711 -0.16890219 -0.099976614 -0.047778703
-0.062370706 -0.122367084 0.19578256 0.1153793 -0.03208862 0.08584547 -0.00949842 -0.11640205
-0.16891792 -0.17298904 0.17959051 -0.09113882 0.008134011 -0.007816383 0.005740817 -0.036228903
-0.12504333 0.048152123 -0.084230244 -0.16359238 -0.14289266 0.16154309 -0.0087738475 -0.17512372
00000000: 84a4 e33d 90bf 28be 4d5d 183e 4b55 2abe
00000010: 380b 233e cf74 2a3e b512 9fbd d19d 263e
00000020: 767a 8bbc 9554 3fbd ebdd bcbd f030 04bd
00000030: 3e18 d5bd 0582 71bd 1266 36be f78d 403e
00000040: 9518 e83d 505d 38be 904e d43b 8e16 85bb
00000050: bdd3 2e3e 65db 99bc e570 4f3e a9e4 2e3e
00000060: 63a3 543d 8938 62bd 70cf c43d a240 0dbe
00000070: a65f 98bd 1ecb 3c3e 03fd 12be 8b8a 2cbd
00000080: 4636 febd 55df 5b3b 2531 e73d 8770 43be
00000090: c254 093e 8568 15be 3bdc 083c 0d1e 003c
000000a0: 3a04 813c 1d95 fa3d 85c9 f4bd 6ec1 12be
000000b0: b91d 92bd 02d6 27bd 3299 39be a478 dd3d
000000c0: 335d adbb 1a24 b83d 4d0e b63d e9a8 203d
000000d0: 95f6 e93d 3ae2 0f3d 6104 b23d 6308 14be
000000e0: 80fd 9d3c ec09 a73d 07a4 8f3d dc47 793d
000000f0: b8d7 cd3c 204e 37be 4353 e1bd bb38 b93d
00000100: 7a8c c93d 2374 d9bd d8e8 19be e127 35be
00000110: f412 babc 23ef 4c3d 36af 2e3e d2bc 1a3d
00000120: 38ab c6bd fda1 babc 1332 c9bd df94 55be
00000130: e163 a23d bb80 4fbe b83c 153e 34b9 343d
00000140: abbd 08be 9692 393c de71 84bd 96ca 473c
00000150: d51a 3abe f057 1d3d f813 fdbd 7025 873d
00000160: d29c ac3d c4a5 27be 7195 38be dc48 8bbd
00000170: b333 a53d cbdf e9bc b8cc 61bd b0ca 143e
00000180: 298f 07be 5e85 8cbd 7fab 36be 36db 3f3d
00000190: 1fe0 13bd 5d1b 0c3c 5911 f23d f031 95bc
000001a0: 59ad 10be e10b de3d 985e a9bd 4f75 a73d
000001b0: ce24 1d3c ea78 0bbe 2e1b 01be c835 673d
000001c0: 996e 49bd 8b4c b2bd 5806 e7bc 7d87 dd3d
000001d0: 7477 85bd 975c 0d3e 0110 643d 9970 333e
000001e0: 2a91 f03d 38c2 85bd 233d 16be 65d4 2a3e
000001f0: 15d4 173d 246e 4c3c b3d5 e53c 2735 8fbd
00000200: 92f9 ec3d 8156 2bbc a772 04be dae0 973d
00000210: 34e8 ad3d 1a64 2b3e 23fe a4bc 5508 1b3c
00000220: bfc4 053e 9566 4fbd 92d2 c63c 99a9 26be
00000230: 76cf 363e 648b cebd 2a01 313e 24bf 713d
00000240: ac2a 2b3c a2b4 e13d 4039 1bbe aad8 233e
00000250: 7422 b6bb 521e 1ebe b130 82bc 60ce 18be
00000260: f7f6 2bbd 0a6c de3d 23d0 07be e1a9 153d
00000270: 1de2 50bd d29b 393e ad68 c4bd b7cf 3d3e
00000280: 6dcf 3b3e ae26 cab8 f71e 59bd 749e 023d
00000290: bdf6 c83d 9491 80bd c8e2 88bb 85e4 0a3e
000002a0: f844 acbd 5eff e83d 9718 eb3d 67e7 c7bb
000002b0: 4a31 3c3e 58bb 933d 86eb 143e a921 133e
000002c0: 12da 153e 0c26 8a3d bbd7 1a3e e69b b03d
000002d0: a0ef 0c3e 369f 2d3e 62f9 30be 8abc c23d
000002e0: cf93 95bc 4066 36be 97b6 b4bd 17f5 043e
000002f0: 2e15 1e3e 8efb 30bd 02b9 1ebe 165b d4bd
00000300: ff5c cc3c 713c 913d bc6b 2abe 492a dbbd
00000310: 1559 2bbd e2e1 933c f952 cebd fbd0 dbbd
00000320: 9eb0 8c3d 1176 3b3c 5d11 173e 47bd 22be
00000330: 02ec 8c3d dce7 18be b497 e7bb 0cb0 2cbd
00000340: 5943 b33d 693b e83d 2098 863d 5e79 08be
00000350: 3e5b 953d 0a24 fe3c b3be 7e3d 5540 273e
00000360: bfec 41bd 8df0 10be 45c2 243e eb77 2bbd
00000370: 2e7c d4bd 8590 4f3e e9bc 2c3e 09b1 0c3e
00000380: 736c 063e 34b0 b7bd 4478 183e 4abd 093d
00000390: 65aa a33c b2f4 2cbe 8ac0 ccbd 9ab3 43bd
000003a0: 6d78 7fbd 989b fabd 397b 483e fc4b ec3d
000003b0: 5b6f 03bd c0cf af3d 439f 1bbc 3364 eebd
000003c0: d2f8 2cbe 0a24 31be 93e6 373e fda6 babd
000003d0: 8444 053c 4910 00bc 771d bc3b c264 14bd
000003e0: 5c0b 00be 293b 453d e880 acbd c384 27be
000003f0: 7452 12be 8d6b 253e 2fc0 0fbc a253 33be

gc1.fc.bias f4 [128]
-0.0670194 -0.019358383 -0.10002539 0.16719235 -0.09810676 0.05833839 0.10035983 -0.14241615
0.019796707 -0.14929166 0.09691003 0.1559385 0.04373392 0.14328708 0.11592167 0.13028333
0.1780155 -0.06619292 0.028004661 0.055544667 -0.11608205 0.103005566 0.12183561 -0.14661087
-0.10284335 -0.09863526 0.006768764 0.08839759 -0.13109969 0.11161567 -0.13601924 0.0044046002
-0.08962653 0.078329906 0.17859949 -1.5249298e-05 -0.12466858 -0.14564054 -0.099242695 0.1442407
-0.09787772 0.016929757 0.10863989 -0.03984219 -0.15769207 0.062111907 0.16799578 0.0009067891
0.040046643 -0.079526804 -0.11750937 -0.10062293 0.09859252 -0.00640422 -0.07022624 0.02672993
0.15811725 0.041408673 -0.11222175 -0.047102463 0.088358834 -0.020011716 0.10014085 -0.15176027
0.12949088 -0.12798926 0.15578106 -0.10572457 0.14105906 -0.13135614 0.006250405 0.03713923
0.10105692 -0.17072679 -0.05545515 0.06437916 -0.17949414 -0.1091039 0.052834574 0.032195512
-0.017660683 -0.16320807 0.074939355 0.14550373 0.09216709 0.032600716 0.13145873 -0.013529284
0.08100747 0.0019804472 -0.035880744 -0.12583591 -0.11280439 0.12986708 -0.0834202 0.011353647
-0.05144148 0.14464767 0.023050882 -0.119492576 -0.0039444054 -0.15701598 -0.11072216 -0.026827998
0.017457278 -0.12606621 0.18172881 0.08220465 -0.09487676 -0.15434831 0.010172175 0.15942472
-0.18220331 -0.16351332 -0.15859005 0.11255384 -0.11133626 -0.056287766 -0.096531376 -0.12825592
0.030258235 -0.024632161 0.11534414 0.07868083 -0.15933006 -0.10831793 -0.042703386 -0.107288584
00000000: 7841 89bd 7995 9ebc 1dda ccbd 7934 2b3e
00000010: 32ec c8bd 3cf4 6e3d 7489 cd3d 8ad5 11be
00000020: b42c a23c eadf 18be c478 c63d 58ae 1f3e
00000030: 5722 333d d9b9 123e 5768 ed3d fe68 053e
00000040: b249 363e 2790 87bd 086a e53c ce82 633d
00000050: 6dbc edbd 95f4 d23d f384 f93d 2921 16be
00000060: 899f d2bd 4801 cabd 82cc dd3b cc09 b53d
00000070: ff3e 06be c296 e43d a148 0bbe 7754 903b
00000080: 1d8e b7bd 6e6b a03d c9e2 363e 3cd7 7fb7
00000090: 3e52 ffbd cb22 15be c13f cbbd d6b3 133e
000000a0: 1d74 c8bd 46b0 8a3c 977e de3d 9031 23bd
000000b0: 087a 21be 0e69 7e3d 1607 2c3e 96b5 6d3a
000000c0: f307 243d f3de a2bd c1a8 f0bd 6513 cebd
000000d0: e0ea c93d 7eda d1bb c6d2 8fbd baf8 da3c
000000e0: 7de9 213e 249c 293d 84d4 e5bd 83ee 40bd
000000f0: 7af5 b43d 9cef a3bc a516 cd3d 0b67 1bbe
00000100: 4299 043e 9e0f 03be 1285 1f3e 2086 d8bd
00000110: c971 103e 3982 06be 33d0 cc3b 4e1f 183d
00000120: eef6 ce3d 01d3 2ebe f024 63bd 39d9 833d
00000130: 50cd 37be de71 dfbd 1169 583d 71df 033d
00000140: 23ad 90bc 0420 27be ce79 993d eefe 143e
00000150: 19c2 bc3d 5488 053d 1e9d 063e eea9 5dbc
00000160: 3fe7 a53d 64ca 013b b0f7 12bd 21db 00be
00000170: fd05 e7bd e0fb 043e 36d8 aabd a604 3a3c
00000180: 4db4 52bd 851e 143e 34d5 bc3c 86b8 f4bd
00000190: 1240 81bb ccc8 20be 4dc2 e2bd 64c6 dbbc
000001a0: 9102 8f3c 8017 01be 1e17 3a3e e95a a83d
000001b0: bf4e c2bd 7c0d 1ebe 32a9 263c 3c40 233e
000001c0: 8193 3abe 0970 27be 6e65 22be a182 e63d
000001d0: 4404 e4bd 008e 66bd 3eb2 c5bd 8555 03be
000001e0: 1ee0 f73c 63c9 c9bc 8c39 ec3d 6a23 a13d
000001f0: 6b27 23be cad5 ddbd bfe9 2ebd 1eba dbbd

gc2.fc.weight f4 [128, 128]
0.07825168 -0.0624989 -0.049537823 0.0027693126 0.020547235 -0.0108862175 -0.060900826 -0.074567266
0.02115853 0.09316615 -0.021903526 -0.008733118 0.013767934 -0.045383926 0.023767158 0.04165463
-0.020907331 0.023043867 0.08991996 0.07632478 0.04034241 0.09078254 -0.104438856 -0.055194106
0.062212616 -0.02483661 0.054782394 -0.045912903 -0.03230965 0.042260442 0.07164603 0.08931825
-0.07012114 -0.011008168 -0.123300955 0.055043798 0.07964041 -0.0067075724 0.007273941 0.04007786
-0.052530915 -0.059117623 0.045281153 -0.04503322 -0.0190219 0.06642465 0.01888372 0.03131587
0.037469294 0.08917323 -0.025561431 0.014300046 0.034025304 0.04230297 0.07172268 0.016980423
0.056638576 -0.0020689766 0.043151163 0.044379037 0.0424452 -0.10290461 -0.010316792 -0.04889549
0.08423527 0.06219166 0.07254924 -0.08658463 -0.07028097 -0.004275371 -0.089916565 -0.0046281707
-0.011368026 -0.09045524 -0.07263519 -0.003923586 -0.07563529 -0.077380635 0.013883336 0.05188918
-0.032028835 0.089433186 -0.022163227 -0.042372316 -0.0016114158 0.09110418 0.057672586 0.026855653
-0.034168508 -0.007150896 -0.08008469 -0.113334045 -0.039455663 -0.0198959 0.07539438 -0.049771234
-0.064238444 0.042140186 0.029656252 -0.014413421 -0.017186495 0.0045463755 0.082357295 0.07870275
-0.040694892 -0.03822992 -0.023594145 -0.078410305 0.08051566 0.08008047 -0.0323972 -0.0204961
0.026082292 -0.028086567 -0.053372 -0.058040105 0.084570244 -0.041308552 -0.010768237 -0.05005914
-0.06186755 -0.02523499 0.018445056 0.06674107 -0.081234895 -0.07973166 0.078069724 -0.029610116
0.105027944 -0.09998101 -0.049966235 0.028072318 -0.081617065 -0.023432108 0.0983907 -0.038676478
-0.10856495 -0.053190373 -0.07439367 0.056693632 -0.11121039 -0.04395667 -0.027380146 -0.04598152
0.04510267 0.053094443 -0.031115554 0.024053195 0.03585073 -0.09252805 -0.032080755 0.095449366
-0.074059054 -0.020769637 -0.056856234 -0.028268622 -0.07145864 0.042438217 -0.0642075 -0.006359047
-0.039078332 -0.025735285 0.06368818 -0.04876279 -0.05654016 0.028073318 -0.09853156 0.027686482
0.051238287 -0.04791713 -0.042197723 -0.10547684 -0.014264645 0.0630662 -0.044179283 0.075734034
-0.040430907 -0.0066149784 -0.04931251 0.04928855 -0.026190806 -0.07452972 0.08150734 0.107854456
-0.013226593 0.026090005 0.06508148 0.011197145 -0.035062063 0.023265237 0.06979755 0.06526078
0.05786489 0.010160032 -0.098418 -0.059384003 0.04656553 -0.066888556 -0.03531889 -0.0034507788
-0.030658126 0.028016934 0.025045257 -0.05483969 0.050761744 -0.034882095 -0.09285399 -0.09697776
0.037570596 0.01634639 0.023612706 0.013134346 0.092456155 -0.056216583 -0.026167685 -0.032305155
-0.018438186 0.0007929702 0.025293736 0.077405356 -0.08618248 -0.008245956 -0.060159575 0.13262911
-0.05621931 0.101384476 -0.10620862 0.06039397 0.06489256 0.069875576 -0.00012872624 -0.06015568
0.033956915 -0.063917354 -0.039065193 0.0008294848 0.016560396 -0.08298164 0.10308055 -0.027564667
0.07262025 0.014328332 0.06726664 -0.005411197 -0.104054935 -0.021383338 -0.053359903 0.0377996
0.043124016 -0.08335753 0.04353168 0.043954205 -0.023913376 -0.06823806 -0.030097673 -0.0029075234
00000000: 6b42 a03d d9fe 7fbd 2ce8 4abd 5b7d 353b
00000010: ad52 a83c 1b5c 32bc 2573 79bd b9b6 98bd
00000020: a754 ad3c e5cd be3d 066f b3bc 5a15 0fbc
00000030: e792 613c 7fe4 39bd 58b3 c23c 0c9e 2a3d
00000040: da45 abbc 7ec6 bc3c f527 b83d 2b50 9c3d
00000050: 153e 253d 32ec b93d 0ae4 d5bd 3713 62bd
00000060: a8d2 7e3d 2576 cbbc 8163 603d 2b0f 3cbd
00000070: 2057 04bd 4919 2d3d 27bb 923d 7dec b63d
00000080: ac9b 8fbd 9a5b 34bc 3685 fcbd 9b75 613d
00000090: 831a a33d 32cb dbbb 3d5a ee3b af28 243d
000000a0: a82a 57bd 5225 72bd bb78 393d c174 38bd
000000b0: d1d3 9bbc a609 883d 08b2 9a3c 1245 003d
000000c0: 6779 193d 74a0 b63d 3566 d1bc bd4a 6a3c
000000d0: 1e5e 0b3d e145 2d3d 57e3 923d 871a 8b3c
000000e0: dafd 673d ab97 07bb 46bf 303d cbc6 353d
000000f0: 05db 2d3d a7bf d2bd c307 29bc a346 48bd
00000100: 8b83 ac3d afbc 7e3d b294 943d 4853 b1bd
00000110: 78ef 8fbd 6918 8cbb 2d26 b8bd e9a7 97bb
00000120: f540 3abc 9940 b9bd c2c1 94bd 6d91 80bb
00000130: ade6 9abd bd79 9ebd ef76 633c c089 543d
00000140: ab30 03bd bf28 b73d a88f b5bc 988e 2dbd
00000150: 2436 d3ba d494 ba3d 173a 6c3d 6300 dc3c
00000160: 47f4 0bbd 1052 eabb 7103 a4bd ae1b e8bd
00000170: 439c 21bd bafc a2bc 5e68 9a3d ecdc 4bbd
00000180: 728f 83bd 309b 2c3d abf1 f23c 4526 6cbc
00000190: b1ca 8cbc c3f9 943b f1aa a83d e82e a13d
000001a0: b0af 26bd fa96 1cbd 8248 c1bc 9595 a0bd
000001b0: 65e5 a43d 3b01 a43d edb2 04bd 70e7 a7bc
000001c0: 88aa d53c cd15 e6bc 999c 5abd 76bb 6dbd
000001d0: 2a33 ad3d 2833 29bd 426d 30bc d00a 4dbd
000001e0: d468 7dbd 9cb9 cebc 161a 973c 8baf 883d
000001f0: 7b5e a6bd 5a4a a3bd 05e3 9f3d ea90 f2bc
00000200: e418 d73d d8c2 ccbd 65a9 4cbd ebf7 e53c
00000210: d926 a7bd b1f4 bfbc 1081 c93d 3a6b 1ebd
00000220: 4d57 debd 26de 59bd b55b 98bd 9537 683d
00000230: 46c2 e3bd e90b 34bd 544c e0bc 1e57 3cbd
00000240: 94bd 383d 8f79 593d 0ce6 febc 350b c53c
00000250: 37d8 123d 597f bdbd 1c67 03bd f57a c33d
00000260: 46ac 97bd 1625 aabc 15e2 68bd 9993 e7bc
00000270: e858 92bd b2d3 2d3d 397f 83bd 8d5f d0bb
00000280: 9a10 20bd ced2 d2bc f36e 823d 7ebb 47bd
00000290: a896 67bd 04fa e53c eaca c9bd c3ce e23c
000002a0: 3ddf 513d c144 44bd 85d7 2cbd 3e04 d8bd
000002b0: 42b6 69bc da28 813d 56f5 34bd 721a 9b3d
000002c0: e19a 25bd 76c2 d8bb eafb 49bd cae2 493d
000002d0: 1a8e d6bc 0aa3 98bd 52ed a63d cce2 dc3d
000002e0: 5ab4 58bc b5ba d53c 7049 853d 3b74 373c
000002f0: 3d9d 0fbd bd96 be3c 05f2 8e3d 72a7 853d
00000300: bc03 6d3d 4376 263c 608f c9bd a43c 73bd
00000310: 7fbb 3e3d defc 88bd 8aaa 10bd 7626 62bb
00000320: c026 fbbc c583 e53c b62b cd3c 959f 60bd
00000330: 8ceb 4f3d 87e0 0ebd 3c2a bebd 479c c6bd
00000340: a0e3 193d dde8 853c 6f6f c13c 7131 573c
00000350: a759 bd3d 5c43 66bd 9d5d d6bc 6952 04bd
00000360: ae0b 97bc 54df 4f3a cf34 cf3c b386 9e3d
00000370: 7180 b0bd 0c1a 07bc e369 76bd edcf 073e
00000380: 3846 66bd aaa2 cf3d e883 d9bd ab5f 773d
00000390: 64e6 843d ed1a 8f3d b0fa 06b9 cd65 76bd
000003a0: 6816 0b3d 1ae7 82bd d302 20bd c871 593a
000003b0: aba9 873c 47f2 a9bd e51b d33d 4ccf e1bc
000003c0: edb9 943d 61c1 6a3c 18c3 893d 6950 b1bb
000003d0: c11a d5bd 1c2c afbc ea8f 5abd c1d3 1a3d
000003e0: cfa2 303d 5ab7 aabd 464e 323d 5309 343d
000003f0: fce5 c3bc 65c0 8bbd 658f f6bc 268c 3ebb

gc2.fc.bias f4 [128]
0.021624202 0.05200963 -0.050046615 -0.0800004 0.08104968 -0.08782812 0.040257532 0.07798814
0.0128167495 -0.04760536 0.03508955 -0.020770159 0.008838447 0.057030816 0.09833738 -0.044562213
-0.046512373 0.07374987 0.08837171 0.0392213 -0.058393046 -0.033975273 0.08173869 -0.02058016
-0.031286698 0.06264114 0.052662004 -0.019141233 -0.070909575 -0.041687023 -0.04264053 0.061020415
-0.03694311 -0.048525594 0.044988032 0.08075247 -0.0064937067 -0.048644148 0.01447046 -0.020659557
-0.06086789 -0.07028666 0.018891312 -0.021650227 0.03238794 0.052745827 0.0847165 0.010798002
0.056794927 0.07669846 -0.030307598 0.015187271 0.019662706 0.058807034 0.012516622 0.084545925
-0.037703734 0.04260208 0.064849876 -0.0027861535 0.03038606 -0.034747917 0.077941746 0.08447508
0.040402923 0.017899971 0.049064297 -0.07278798 -0.030673252 0.058580432 0.0028121038 0.07310285
0.019119447 -0.0516955 -0.03544448 0.07681209 0.030409941 0.025734937 0.031172311 -0.00029630674
-0.021833789 -0.004376565 -0.025610255 0.029912924 -0.01709649 -0.07237809 0.07263582 0.045019712
-0.0673589 -0.056200285 -0.033486158 -0.023806244 -0.03178191 0.07878684 0.013458957 -0.03466907
0.017472247 -0.07198701 -0.070782274 0.10096011 -0.035379827 -0.027200494 0.065607905 0.07942018
-0.014300094 0.00941886 -0.03888163 0.09238924 -0.0002852949 0.012974546 0.04827567 0.088399716
0.0323262 -0.05149395 0.059223205 -0.045245428 -0.016901543 0.03452095 0.08613872 -0.07598123
0.07900496 0.015397409 -0.007305442 -0.0011696519 0.07437087 -0.067398466 0.034188885 0.050865218
00000000: 3d25 b13c 0d08 553d aefd 4cbd 40d7 a3bd
00000010: 60fd a53d 3bdf b3bd 15e5 243d 3fb8 9f3d
00000020: 58fd 513c d7fd 42bd 0fba 0f3d 2e26 aabc
00000030: 22cf 103c 2599 693d 1c65 c93d de86 36bd
00000040: c283 3ebd 2c0a 973d 3afc b43d 84a6 203d
00000050: 8c2d 6fbd a829 0bbd 9d66 a73d b997 a8bc
00000060: 7b26 00bd ff49 803d 1db4 573d 13ce 9cbc
00000070: 0a39 91bd 03c0 2abd d6a7 2ebd 8bf0 793d
00000080: a951 17bd c6c2 46bd 5f45 383d 8d61 a53d
00000090: 29c9 d4bb 163f 47bd 8215 6d3c 3b3e a9bc
000000a0: 9c50 79bd 74f2 8fbd f4c1 9a3c d15b b1bc
000000b0: 37a9 043d 020c 583d d87f ad3d 1aea 303c
000000c0: cca1 683d 1514 9d3d a447 f8bc 08d4 783c
000000d0: af13 a13c a5df 703d 8512 4d3c 6a26 ad3d
000000e0: 3b6f 1abd 857f 2e3d 03d0 843d e697 36bb
000000f0: 30ec f83c d553 0ebd ec9f 9f3d 4501 ad3d
00000100: 897d 253d f6a2 923c a5f7 483d dd11 95bd
00000110: 7946 fbbc 09f2 6f3d 464b 383b f2b6 953d
00000120: 63a0 9c3c a9be 53bd 3b2e 11bd a84f 9d3d
00000130: 451e f93c 13d2 d23c 135d ff3c 9e59 9bb9
00000140: c6dc b2bc 4a69 8fbb 99cc d1bc f30b f53c
00000150: f00d 8cbc f73a 94bd 17c2 943d 9766 383d
00000160: 77f3 89bd 4532 66bd c828 09bd 5005 c3bc
00000170: c02d 02bd ff5a a13d f582 5c3c 2801 0ebd
00000180: f521 8f3c ed6d 93bd 4cf6 90bd 2dc4 ce3d
00000190: 70ea 10bd 92d3 debc 705d 863d 0ca7 a23d
000001a0: f14a 6abc 9051 1a3c 5842 1fbd 9236 bd3d
000001b0: a293 95b9 3193 543c b5bc 453d e90a b53d
000001c0: 7a68 043d 52eb 52bd 0894 723d 4553 39bd
000001d0: 1b75 8abc d765 0d3d 7f69 b03d 0c9c 9bbd
000001e0: 5acd a13d 6a45 7c3c 7d62 efbb 014f 99ba
000001f0: c14f 983d 3508 8abd a509 0c3d 0c58 503d

temporal_conv.weight f4 [128, 128, 3]
0.035102587 -0.008249947 -0.03276583 0.040715702 0.050458122 0.009079374 -0.019131308 0.008498299
-0.031906147 0.010492469 0.036032196 -0.036344867 -0.02737844 -0.026738593 -0.04121573 -0.03517129
-0.0011183309 -0.02603142 -0.01027674 -0.013689825 -0.0031117673 -0.05177753 -0.009206032 -0.048410393
-0.021529332 -0.014288103 0.043096054 0.015476399 -0.034327317 0.0056360024 0.05631626 -0.0021913648
-0.045769595 -0.0074680573 0.0049358546 -0.030958751 -0.025897494 0.028345836 -0.0047802967 0.025166824
0.027265526 0.011211244 0.016001688 -0.018494103 -0.029296469 -0.03415492 -0.009224767 -0.0200234
0.04144354 0.0076722247 0.040805038 -0.024959441 0.015884811 0.023867143 -0.029070005 -0.021468591
0.030781787 -0.022686772 0.03005743 0.00020583095 -0.050021335 0.0008109202 0.015774224 -0.040050443
-0.025210893 0.003259794 -0.008151213 -0.009373917 0.046247397 0.016971596 -0.0069577666 0.040378083
0.01528607 -0.044480536 0.032763682 0.042888265 -0.0103678685 0.026167864 0.016757382 -0.023074232
0.030715818 0.021985173 0.026557853 0.02178416 0.010753692 0.0023568238 0.049425416 0.009069079
0.049076173 -0.05068949 -0.0049648723 0.013297769 0.0031006043 0.007760947 -0.005799785 0.03487005
0.037207697 0.047117878 0.03158848 -0.027559785 -0.032790713 -0.0043378896 -0.023734013 -0.00823483
0.024385769 0.011118025 0.041287802 -0.030635549 0.046912495 -0.025697967 0.040630654 -0.040969346
-0.002350593 -0.03176924 0.024757206 0.049537867 -0.021878568 0.03462258 -0.028810883 0.0057535637
0.036341455 0.04715567 0.006961691 0.014988457 -0.026018629 -0.02332119 0.065539755 -0.005803765
-0.01922924 -0.059771694 0.0016654119 -0.02159535 -0.052459173 0.02820035 0.02923816 0.046913516
0.040991455 0.02068448 -0.010171466 -0.011240245 0.04372083 0.006648514 0.056953613 0.010465319
-0.015174661 -0.0011617986 0.04132109 -0.056485537 -0.04738084 -0.037243012 -0.018730814 0.0057346746
-0.038535696 0.027718555 0.054212406 0.022621743 -0.066797026 -0.08612732 0.0048489175 0.031442255
-0.03900714 -0.047357686 0.011729749 -0.031495877 0.0005698357 0.005849444 0.0255305 0.0062349834
0.009510104 0.014130875 -0.04420607 -0.025512917 -0.032309804 -0.02582986 0.022945695 0.020892724
0.04426511 0.00075982563 0.009695117 0.0068995985 0.04679123 0.044023924 -0.039350156 0.045824684
0.0051201237 -0.046914387 0.01587171 -0.011057637 -0.043360908 -0.04955054 -0.0810552 -0.0064038397
0.010160352 -0.0071569853 0.002251189 0.04192907 0.046042792 -0.045902316 -0.019037964 0.0055349725
0.015461697 -0.005993388 0.0041695484 0.050257854 -0.015739186 0.016474174 0.02712959 0.049883272
0.047126908 -0.019538246 0.04640231 0.046709854 -0.032019272 0.021781504 0.05142361 -0.024979763
0.037095986 0.0069159246 -0.033258 0.010030264 0.0017474991 0.048182115 -0.011130497 0.00926978
0.012368362 -0.010733742 -0.040035404 0.03053673 -0.002936746 -0.0012950216 -0.017062258 0.017162101
0.011722657 -0.030962354 0.017263863 -0.04308591 0.007635583 0.07851896 0.07155997 0.034669276
0.03415166 -0.030542755 -0.002267821 0.01933246 0.041496947 0.022391962 0.054852735 -0.009743988
-0.032564737 0.0042221094 -0.009278148 -0.030409131 0.040051047 0.056886204 -0.03723607 -0.0032050062
00000000: bbc7 0f3d c92a 07bc 7735 06bd 82c5 263d
00000010: 2dad 4e3d a8c1 143c 43b9 9cbc 733c 0b3c
00000020: 05b0 02bd 9be8 2b3c 7f96 133d 5bde 14bd
00000030: c048 e0bc e50a dbbc d3d1 28bd c50f 10bd
00000040: f594 92ba d83f d5bc c65f 28bc 4a4b 60bc
00000050: cbee 4bbb ad14 54bd e6d4 16bc fa49 46bd
00000060: 485e b0bc a618 6abc 7d85 303d b990 7d3c
00000070: cd9a 0cbd 37ae b83b e1ab 663d 009d 0fbb
00000080: e678 3bbd 9bb6 f4bb f3bc a13b 359d fdbc
00000090: fb26 d4bc 8735 e83c 09a4 9cbb a82a ce3c
000000a0: f45b df3c 5eaf 373c f915 833c f280 97bc
000000b0: 26ff efbc 08e6 0bbd 7a23 17bc 1d08 a4bc
000000c0: b4c0 293d 4967 fb3b 2f23 273d be77 ccbc
000000d0: dd20 823c 0785 c33c 3824 eebc e6de afbc
000000e0: 162a fc3c 9cd9 b9bc 003b f63c 53d4 5739
000000f0: 2ce3 4cbd ef93 543a f238 813c ef0b 24bd
00000100: 1387 cebc 45a2 553b aa8c 05bc 0f95 19bc
00000110: e96d 3d3d 0408 8b3c fafd e3bb 7d63 253d
00000120: 6d72 7a3c 3931 36bd 3633 063d 9bab 2f3d
00000130: fedd 29bc fd5d d63c c746 893c 2c06 bdbc
00000140: bd9f fb3c 401a b43c db8f d93c b274 b23c
00000150: 4130 303c f174 1a3b 4e72 4a3d 7996 143c
00000160: 1904 493d c89f 4fbd 5eb0 a2bb e3de 593c
00000170: 8233 4b3b 8b4f fe3b 1f0c bebb e6d3 0e3d
00000180: 1967 183d adfe 403d ec62 013d 0fc5 e1bc
00000190: 8e4f 06bd db24 8ebb d56d c2bc 61eb 06bc
000001a0: aac4 c73c 6028 363c 661d 293d 67f7 fabc
000001b0: 5127 403d 8b84 d2bc 546c 263d 79cf 27bd
000001c0: 680c 1abb 7620 02bd a0cf ca3c 38e8 4a3d
000001d0: af3a b3bc 68d0 0d3d cd04 ecbc 6488 bc3b
000001e0: c7da 143d 4e26 413d e61e e43b 2592 753c
000001f0: 0525 d5bc 150c bfbc b539 863d 822d bebb
00000200: a486 9dbc 2ad3 74bd f349 da3a bbe8 b0bc
00000210: 6edf 56bd 6c04 e73c de84 ef3c 6328 403d
00000220: a8e6 273d 8072 a93c 38a6 26bc 0129 38bc
00000230: 9d14 333d c7db d93b 3148 693d bb76 2b3c
00000240: 249f 78bc 7e47 98ba 4e40 293d 615d 67bd
00000250: 6912 42bd 218c 18bd 5d71 99bc f0e9 bb3b
00000260: 9bd7 1dbd 0612 e33c d40d 5e3d 3c51 b93c
00000270: e1cc 88bd 8563 b0bd abe3 9e3b 98c9 003d
00000280: f3c5 1fbd 22fa 41bd 222e 403c d201 01bd
00000290: 0761 153a b1ac bf3b 5725 d13c d54e cc3b
000002a0: 44d0 1b3c 2f85 673c 6d11 35bd 7700 d1bc
000002b0: 4957 04bd 2499 d3bc 9cf8 bb3c 3827 ab3c
000002c0: 554f 353d 092f 473a 45d8 1e3c 0716 e23b
000002d0: 29a8 3f3d 6e52 343d a12d 21bd aab2 3b3d
000002e0: b6c6 a73b 4d29 40bd 6305 823c 172b 35bc
000002f0: 359b 31bd 82f5 4abd 4500 a6bd 4dd7 d1bb
00000300: 9b77 263c 2585 eabb af88 133b d1bd 2b3d
00000310: 5e97 3c3d 1104 3cbd 81f5 9bbc b75e b53b
00000320: 0f53 7d3c 2f64 c4bb b5a0 883b 2edb 4d3d
00000330: 77ef 80bc d9f4 863c e03e de3c 6752 4c3d
00000340: 2508 413d ac0e a0bc 5910 3e3d d552 3f3d
00000350: a426 03bd 206f b23c 90a1 523d 5ca2 ccbc
00000360: f6f1 173d fb9e e23b 8a39 08bd fa55 243c
00000370: 570c e53a 9c5a 453d b05c 36bc 46e0 173c
00000380: aca4 4a3c 94dc 2fbc 2afc 23bd 2a28 fa3c
00000390: 6c76 40bb b7bd a9ba 26c6 8bbc 8997 8c3c
000003a0: 6310 403c c3a4 fdbc f26c 8d3c da7a 30bd
000003b0: ea33 fa3b 8cce a03d 098e 923d 5f01 0e3d
000003c0: 9ce2 0b3d cd34 fabc b99f 14bb 1b5f 9e3c
000003d0: b4f8 293d 596f b73c 43ad 603d 3fa5 1fbc
000003e0: 9a62 05bd 9f59 8a3b 6003 18bc 921c f9bc
000003f0: 910c 243d 8201 693d d984 18bd 150b 52bb

temporal_conv.bias f4 [128]
0.0060476186 -0.033683874 -0.0017930841 -0.0069419104 0.015815178 -0.018623695 -0.03514441 -0.044395596
0.0038181066 -0.0054379986 0.0043470007 0.047026213 -0.02856742 -0.022579797 -0.038627077 0.006968494
0.0020782682 0.023086729 -0.040688936 0.013343634 -0.007416992 0.04901629 0.043275256 0.006678206
-0.022787416 -0.023572633 0.056437958 0.005148412 -0.033828005 0.06878944 -0.013089862 0.0053815315
0.0142162405 -0.002173986 0.0110215815 0.013727756 -0.013300333 0.05687349 0.014511102 0.06681415
0.022767032 0.026413495 0.029207325 -0.025484746 0.05274828 0.06343353 0.0027891903 0.042900547
0.032489568 -0.003363581 0.0079717245 0.017963469 -0.0019681763 -0.010075756 0.038945764 0.01500537
0.032513794 0.06857044 -8.8561894e-05 -0.01884267 -0.0021814497 0.03246994 -0.0047594965 -0.022895304
-0.04263169 0.057628386 -0.0014428495 0.032077853 0.03649637 -0.018527802 -0.0014496931 0.03875377
0.021888843 0.044373598 0.03441631 0.030933203 -0.019391125 0.043820072 0.028410949 0.0611786
0.022335414 0.009525571 -0.009777636 0.038386583 0.011741271 0.048845805 -0.033929277 0.05867888
0.06058345 0.03713087 0.020032233 -0.030384623 0.059341438 0.010536341 0.043497305 -0.005775752
-0.009039215 -0.017384222 0.039639484 0.0027432926 0.03807019 -0.0046734535 0.003065506 0.038770165
-0.026367009 0.008154662 0.057702105 0.0481085 -0.0014965881 0.009597918 0.04220082 0.025626224
0.008000329 0.02425121 0.029190008 -0.013948977 -0.008324353 -0.018538857 0.0024102381 0.016046498
0.030035352 0.02167577 0.013344001 0.007061591 -0.051605813 -0.007449861 -0.027549068 0.040154018
00000000: 1a2b c63b 1af8 09bd eb05 ebba f778 e3bb
00000010: d58e 813c b890 98bc 96f3 0fbd 28d8 35bd
00000020: 3339 7a3b 3d31 b2bb 4971 8e3b 8f9e 403d
00000030: 3906 eabc 44f9 b8bc 6d37 1ebd f757 e43b
00000040: 8e33 083b 6120 bd3c 71a9 26bd 429f 5a3c
00000050: 3d0a f3bb 4ec5 483d 6541 313d dad4 da3b
00000060: adac babc 651b c1bc 7d2b 673d 03b4 a83b
00000070: 3c8f 0abd 7ae1 8c3d dc76 56bc 8f57 b03b
00000080: 3ceb 683c 6f79 0ebb dd93 343c 62ea 603c
00000090: a4e9 59bc 2df4 683d f9bf 6d3c dbd5 883d
000000a0: ed81 ba3c 1d61 d83c 3344 ef3c 63c5 d0bc
000000b0: 950e 583d 70e9 813d d9ca 363b 7cb8 2f3d
000000c0: c813 053d 866f 5cbb d69b 023c 2028 933c
000000d0: 85fc 00bb c914 25bc 9885 1f3d 15d9 753c
000000e0: 2f2d 053d a96e 8c3d 4eba b9b8 f15b 9abc
000000f0: a7f6 0ebb 33ff 043d 8df5 9bbb ef8e bbbc
00000100: 919e 2ebd be0b 6c3d ff1d bdba 1164 033d
00000110: 387d 153d 9ec7 97bc a103 beba 46bc 1e3d
00000120: 3b50 b33c 17c1 353d 1ef8 0c3d a167 fd3c
00000130: 23da 9ebc ad7c 333d 14be e83c 6996 7a3d
00000140: c2f8 b63c 2411 1c3c 6132 20bc 403b 1d3d
00000150: 765e 403c 8a12 483d 6df9 0abd 4459 703d
00000160: 5a26 783d 8a16 183d a31a a43c 2ce9 f8bc
00000170: 0210 733d 9ea0 2c3c 3b2a 323d 8542 bdbb
00000180: 3719 14bc 5b69 8ebc 035d 223d d0c8 333b
00000190: 7def 1b3d c523 99bb a8e6 483b 77cd 1e3d
000001a0: a0ff d7bc 229b 053c 0b59 6c3d 6b0d 453d
000001b0: 2a29 c4ba 9640 1d3c c4da 2c3d 16ee d13c
000001c0: d013 033c 79aa c63c e21f ef3c 408a 64bc
000001d0: de62 08bc cdde 97bc 16f5 1d3b f273 833c
000001e0: b30c f63c 6291 b13c cca0 5a3c eb64 e73b
000001f0: 9e60 53bd f71d f4bb 95ae e1bc 8a78 243d

fc.weight f4 [30, 128]
-0.037851498 0.0036630589 0.08975338 -0.08614728 0.021589058 -0.08008686 0.034462318 -0.03473766
0.042543586 -0.06200323 0.10570515 -0.058936264 -0.101172134 0.10864815 -0.07031772 0.0080115395
-0.0017337842 -0.035436656 0.027279133 0.093237944 0.044129997 0.091092326 -0.0825984 0.028097136
-0.05898118 0.036030967 0.07159342 0.0707451 0.07672025 0.04459055 -0.087802 0.018166328
-0.063640796 0.10751319 -0.03410079 0.030969756 0.015331178 -0.10300433 0.008978059 0.10162378
-0.04814947 -0.04059492 -0.078804925 -0.00013277453 0.024711398 0.13249098 -0.018981043 0.038584337
-0.027439976 0.109465085 -0.05031775 0.0036738412 0.041410644 -0.02964175 0.067206554 -0.038616847
0.026798634 0.018541588 0.02386199 0.021253454 0.03597488 -0.06577182 -0.045053873 -0.023003398
-0.015149706 -0.015405909 -0.036991686 -0.009069262 -0.027066678 -0.012379315 0.031968232 0.068567656
0.01690943 0.058262814 0.025108298 -0.107667625 -0.10931448 0.037741866 0.031628277 0.0985983
-0.043158695 -0.050201423 -0.040026043 -0.06399125 0.013426839 0.058734342 -0.06572202 -0.03314664
0.08657045 0.019179597 0.058489844 -0.08215281 0.008151264 0.08302436 -0.017490026 -0.05284378
0.0633503 0.026609566 -0.09523967 0.1036513 -0.021179978 0.047825396 -0.00017754552 -0.04067515
-0.0576554 -0.0639886 -0.08592274 0.00850758 0.06983216 0.085829094 0.0011300194 0.00059990975
0.02788662 0.045270335 0.01960362 -0.0044993614 -0.07181052 -0.037067257 0.07728753 -0.09410234
0.013313901 0.051022273 -0.058267165 -0.086936586 0.06878904 -0.08292818 0.055311408 -0.016742896
-0.024243437 0.043330703 -0.050521933 0.06929265 -0.08191461 -0.028282007 -0.08884126 0.035260115
0.0059998166 -0.038556963 -0.0028434936 0.026779076 0.091409996 -0.059634667 -0.031531185 0.07725435
-0.05897911 0.020848563 0.058005292 -0.07248318 0.008452067 0.010096546 0.023181701 0.010956504
-0.044693932 -0.060474906 -0.017729156 0.051524997 0.06710137 -0.038466472 0.08136912 -0.027715351
0.09044046 -0.060590677 -0.03361286 0.05474033 0.027934076 0.018526845 0.082938686 0.026129382
0.008790981 -0.04307169 -0.08410869 -0.0011586505 -0.09547658 -0.019202208 -0.0078334045 -0.047516342
0.08569936 -0.051888406 0.10007259 0.022223843 -0.0683667 0.0948073 -0.06524623 0.024746856
-0.047806077 -0.0658799 -0.08115165 -0.01628443 -0.07497555 0.01675437 0.046863005 -0.034735784
0.03140229 0.03902798 -0.031645883 0.026209308 -0.0094070565 0.09432821 0.03516581 -0.0114341
-0.055987712 -0.012359059 0.057057798 0.12236176 0.030920185 -0.034697298 0.07359797 -0.006392933
-0.0034932455 -0.05331209 -0.048135713 0.061617035 0.0068085897 0.008925758 -0.075198755 -0.0166823
-0.06337489 -0.018188639 0.0643219 -0.07867516 0.03577691 0.019144876 0.020617751 -0.017287629
-0.0086590145 0.085228 -0.05430418 0.045143373 0.08216238 0.08321246 0.09056809 0.008427023
0.03923947 -0.06013565 -0.0075438544 -0.04494227 -0.0909616 0.026826864 -0.035944685 0.09574364
0.032137625 0.03003606 0.034985002 -0.005334256 0.0071626487 0.098568946 0.007658106 -0.04279368
0.0438704 0.03966437 -0.02047174 -0.05921278 0.091509186 -0.04605392 0.012999933 0.01905429
00000000: 2c0a 1bbd ee0f 703b 9fd0 b73d fc6d b0bd
00000010: 89db b03c 9404 a4bd 5c28 0d3d 1449 0ebd
00000020: 2f42 2e3d 19f7 7dbd f17b d83d 2767 71bd
00000030: 5633 cfbd ec82 de3d bd02 90bd d542 033c
00000040: 2540 e3ba 0726 11bd 7d78 df3c 89f3 be3d
00000050: a8c1 343d 9d8e ba3d 5a29 a9bd f72b e63c
00000060: 4096 71bd 3595 133d 929f 923d cfe2 903d
00000070: 821f 9d3d 95a4 363d 89d1 b3bd 8dd1 943c
00000080: 1b56 82bd e02f dc3d 45ad 0bbd 49b4 fd3c
00000090: 9f2f 7b3c eff3 d2bd b518 133c 2120 d03d
000000a0: 6138 45bd dc46 26bd 7a64 a1bd 6439 0bb9
000000b0: 8f6f ca3c b7ab 073e 227e 9bbc 9c0a 1e3d
000000c0: cdc9 e0bc 3b2f e03d fc19 4ebd d4c4 703b
000000d0: 359e 293d 41d3 f2bc 97a3 893d b32c 1ebd
000000e0: cf88 db3c 87e4 973c 387a c33c b91b ae3c
000000f0: 655a 133d 60b3 86bd 698a 38bd 9f71 bcbc
00000100: 7936 78bc 1169 7cbc 9884 17bd 3e97 14bc
00000110: f0ba ddbc 9cd2 4abc 1ff1 023d 336d 8c3d
00000120: a585 8a3c fda4 6e3d ebaf cd3c d880 dcbd
00000130: 45e0 dfbd 3797 1a3d a78c 013d e8ed c93d
00000140: 2cc7 30bd 02a0 4dbd 59f2 23bd d80d 83bd
00000150: 3ffc 5b3c 6c93 703d 4499 86bd c5c4 07bd
00000160: d94b b13d 881e 9d3c 0c93 6f3d bc3f a8bd
00000170: e18c 053c ad08 aa3d 3e47 8fbc b872 58bd
00000180: cdbd 813d 4efc d93c 040d c3bd 2247 d43d
00000190: a281 adbc 90e4 433d 832b 3ab9 fc9a 26bd
000001a0: 1228 6cbd 750c 83bd 43f8 afbd 6063 0b3c
000001b0: 2a04 8f3d 2ac7 af3d 291d 943a 4343 1d3a
000001c0: 7b72 e43c 636d 393d c597 a03c 616f 93bb
000001d0: 6511 93bd d6d3 17bd ed48 9e3d bab8 c0bd
000001e0: 8c22 5a3c bbfc 503d 8da9 6ebd cf0b b2bd
000001f0: 45e1 8c3d 40d6 a9bd 378e 623d 6628 89bc
00000200: 2c9a c6bc 897b 313d 16f0 4ebd 4ee9 8d3d
00000210: d9c2 a7bd abaf e7bc 68f2 b5bd e96c 103d
00000220: 1c9a c43b e8ed 1dbd e859 3abb cb5f db3c
00000230: 2a35 bb3d 7b43 74bd d826 01bd 8737 9e3d
00000240: 1494 71bd 9bca aa3c f596 6d3d 1072 94bd
00000250: 8a7a 0a3c fc6b 253c 8de7 bd3c e982 333c
00000260: fc10 37bd 89b4 77bd bc3c 91bc e00b 533d
00000270: 716c 893d 058f 1dbd daa4 a63d 4e0b e3bc
00000280: d938 b93d ee2d 78bd a3ad 09bd 6537 603d
00000290: 01d6 e43c 9cc5 973c c2db a93d 490d d63c
000002a0: 0c08 103c f16b 30bd 2d41 acbd dcdd 97ba
000002b0: 3a89 c3bd f34d 9dbc ae57 00bc 7fa0 42bd
000002c0: 2583 af3d f088 54bd dcf2 cc3d c70e b63c
000002d0: d703 8cbd 542a c23d d19f 85bd ebb9 ca3c
000002e0: 4ed0 43bd 0aec 86bd d632 a6bd ed66 85bc
000002f0: c88c 99bd 7640 893c 6cf3 3f3d 1c47 0ebd
00000300: b09f 003d cedb 1f3d 1d9f 01bd e7b4 d63c
00000310: 0e20 1abc 262f c13d 060a 103d 1756 3bbc
00000320: 5f53 65bd a77d 4abc 70b5 693d cd98 fa3d
00000330: 544c fd3c c11e 0ebd 88ba 963d cf7b d1bb
00000340: efee 64bb c75d 5abd f429 45bd 2562 7c3d
00000350: 971a df3b 583d 123c ce01 9abd 52a9 88bc
00000360: b2ca 81bd 5700 95bc 33bb 833d 7120 a1bd
00000370: cf8a 123d b7d5 9c3c 8fe6 a83c c99e 8dbc
00000380: 8ade 0dbc 058c ae3d 0f6e 5ebd 42e8 383d
00000390: c044 a83d 4b6b aa3d c37b b93d 7f11 0a3c
000003a0: 91b9 203d cd50 76bd 7032 f7bb 6315 38bd
000003b0: 134a babd 03c4 db3c bc3a 13bd 3e15 c43d
000003c0: bea2 033d 2f0e f63c 6f4c 0f3d fcca aebb
000003d0: a7b4 ea3b 84de c93d d9f0 fa3b 6d48 2fbd
000003e0: 73b1 333d 1b77 223d 5ab4 a7bc 1a89 72bd
000003f0: 2b69 bb3d 09a3 3cbd acfd 543c be17 9c3c

fc.bias f4 [30]
-0.03151595 0.04071313 0.04218218 0.082957335 0.034574796 -0.018406298 0.038417894 0.038310554
-0.07552779 0.012298035 0.040463343 -0.040266544 0.044560555 0.06283644 -0.022110168 -0.08178358
-0.04458698 -0.019299418 -0.018931616 -0.04811071 0.052416727 0.0018569161 -0.023069542 -0.06947193
0.065581016 0.017720446 0.06004425 -0.038783316 -0.017083274 -0.024768634
00000000: de16 01bd d0c2 263d 39c7 2c3d 89e5 a93d
00000010: 4d9e 0d3d cec8 96bc 155c 1d3d 87eb 1c3d
00000020: 50ae 9abd b37d 493c e4bc 253d 88ee 24bd
00000030: 2185 363d 64b0 803d 6220 b5bc 267e a7bd
00000040: d6a0 36bd d019 9ebc 7a16 9bbc bc0f 45bd
00000050: ecb2 563d c463 f33a 56fc bcbc 4d47 8ebd
00000060: 574f 863d 782a 913c f6f0 753d 41db 1ebd
00000070: 39f2 8bbc 97e7 cabc
