GWN/best_models/best_model_w60_h2.pth (torch, 311371 bytes, 9 tensors)

adapt_adj f4 [60, 60]
1.0025015 0.0025025134 0.0025589322 0.0025948582 0.0026068813 0.002632657 0.002686014 0.0026456246
0.0025598407 0.002552026 0.0025052463 0.0024969678 0.0025955527 0.0026697319 0.002737232 0.0028728885
0.0029229608 0.0030194158 0.0031410654 0.0032875375 0.003407934 0.0036262213 0.0037651467 0.0039112275
0.004046046 0.00412832 0.0042458395 0.0043861475 0.004528565 0.0045919684 0.004661573 0.004802297
0.0048682736 0.005013607 0.005119797 0.0053074053 0.0054283123 0.005699809 0.0059681614 0.00618767
0.006446233 0.0066926596 0.0069258087 0.0070450576 0.007248739 0.0074347486 0.0077027185 0.007929134
0.008186111 0.008412393 0.008720166 0.008990432 0.009345688 0.009780729 0.010188026 0.010561535
0.011061635 0.01147599 0.011866648 0.01270367 0.0024849605 1.0024711 0.0025248672 0.0025573282
0.0025791826 0.0026052827 0.0026636622 0.0026283483 0.0025380543 0.0025268996 0.0024825989 0.0024767092
0.0025773451 0.0026451205 0.002716628 0.0028491872 0.0029027087 0.0030060362 0.0031198638 0.0032642214
0.003387155 0.0036062456 0.0037314321 0.0038834612 0.004014916 0.004104653 0.0042208186 0.0043557542
0.004500682 0.004560019 0.0046372525 0.00477954 0.0048436313 0.0049892035 0.005097753 0.0052769734
0.005402225 0.005672778 0.0059361905 0.0061565237 0.0064239604 0.0066776834 0.0069077346 0.007023597
0.0072213523 0.0074028405 0.007669911 0.007889845 0.008145406 0.0083650015 0.008671056 0.008943373
0.009295075 0.009729475 0.010137133 0.010508531 0.011004321 0.011418515 0.011809922 0.012642193
0.0024656472 0.0024513751 1.0024961 0.0025308596 0.0025455395 0.002579057 0.002640879 0.002607498
0.0025207587 0.0025038538 0.0024589861 0.0024498957 0.002551349 0.0026212174 0.0026914603 0.002822881
0.002879428 0.0029788124 0.003093831 0.0032416377 0.0033561443 0.0035801872 0.0037149235 0.0038621381
0.003996722 0.0040844176 0.004209719 0.0043511926 0.0044961167 0.0045504044 0.004628175 0.004767667
0.0048414827 0.004981398 0.005087579 0.005273607 0.0054042838 0.0056793005 0.005952899 0.0061741075
0.0064467937 0.006699303 0.0069382563 0.007049963 0.007241729 0.0074184444 0.0076876115 0.007908173
0.00816038 0.008381329 0.008691966 0.008962767 0.009313393 0.009748778 0.010153653 0.010523178
0.011019117 0.0114360675 0.011825738 0.012660772 0.0024356048 0.0024208813 0.0024650865 1.0024937
0.0025142846 0.0025465868 0.0026094385 0.0025791996 0.0024936947 0.0024766014 0.002430391 0.0024227707
0.0025122867 0.0025790276 0.002645816 0.002774731 0.002831866 0.0029362668 0.003049562 0.0031955864
0.0033161368 0.003536021 0.003664379 0.0038078825 0.003939507 0.0040287306 0.004150353 0.0042878212
0.0044307164 0.0044875923 0.0045636846 0.004706613 0.0047719968 0.0049161217 0.0050161774 0.0052018357
0.0053205793 0.0055979984 0.005861939 0.0060798433 0.0063420855 0.006591821 0.006825213 0.00694429
0.007139939 0.0073153344 0.0075780195 0.0077979793 0.008040628 0.008259632 0.008567076 0.008824601
0.009173602 0.009601018 0.009999346 0.0103644915 0.010850672 0.011259995 0.01165014 0.012475886
0.002440528 0.0024255554 0.002466237 0.0024945876 1.0024967 0.0025267578 0.0025967087 0.0025678133
0.0024824222 0.0024674146 0.0024170517 0.0024043084 0.0024999883 0.0025655231 0.0026375477 0.0027671945
00000000: f851 803f 3501 243b c2b3 273b 7f0e 2a3b
00000010: 36d8 2a3b a888 2c3b d607 303b 3762 2d3b
00000020: 00c3 273b e43f 273b 0f2f 243b 2ba4 233b
00000030: 261a 2a3b abf6 2e3b 2263 333b 1247 3c3b
00000040: 258f 3f3b 64e1 453b 55da 4d3b ba73 573b
00000050: a557 5f3b e6a5 6d3b aec0 763b c129 803b
00000060: b294 843b dc46 873b af20 8b3b acb9 8f3b
00000070: 5b64 943b 3978 963b 1cc0 983b 965c 9d3b
00000080: 0a86 9f3b 2f49 a43b f8c3 a73b bee9 ad3b
00000090: fcdf b13b 77c5 ba3b 9190 c33b f0c1 ca3b
000000a0: ec3a d33b 194e db3b e5f1 e23b 3ada e63b
000000b0: d486 ed3b 319f f33b 1667 fc3b 33e9 013c
000000c0: 0a1f 063c 22d4 093c 07df 0e3c 9b4c 133c
000000d0: a81e 193c 5a3f 203c aeeb 263c 4a0a 2d3c
000000e0: dc3b 353c ca05 3c3c 546c 423c 0e23 503c
000000f0: b8da 223b f950 803f 3e78 253b d998 273b
00000100: 8107 293b 64bd 2a3b d690 2e3b 5e40 2c3b
00000110: 7c55 263b 579a 253b 19b3 223b 4950 223b
00000120: ade8 283b c259 2d3b 7409 323b 6eb9 3a3b
00000130: 5f3b 3e3b eb00 453b a176 4c3b 8cec 553b
00000140: 08fb 5d3b c356 6c3b 0b8b 743b ab81 7e3b
00000150: 8e8f 833b 5380 863b cb4e 8a3b b7ba 8e3b
00000160: 757a 933b 366c 953b 18f4 973b b09d 9c3b
00000170: 53b7 9e3b 797c a33b 0d0b a73b 76ea ac3b
00000180: 2605 b13b b6e2 b93b 6084 c23b aabc c93b
00000190: 1680 d23b 78d0 da3b 475a e23b 3426 e63b
000001a0: 18a1 ec3b 8793 f23b e053 fb3b 6944 013c
000001b0: 4f74 053c 5c0d 093c 0b11 0e3c 3a87 123c
000001c0: 5f4a 183c 6068 1f3c 3816 263c f92b 2c3c
000001d0: 784b 343c b914 3b3c 677e 413c 3321 4f3c
000001e0: b296 213b 40a7 203b cb51 803f c7dc 253b
000001f0: 11d3 263b 6505 293b 9912 2d3b 8fe2 2a3b
00000200: 5033 253b b217 243b f126 213b 6e8e 203b
00000210: 8934 273b bbc8 2b3b 3663 303b 1600 393b
00000220: c9b4 3c3b 2e38 433b dfc1 4a3b a871 543b
00000230: c2f2 5b3b 93a1 6a3b 1376 733b ed1b 7d3b
00000240: eff6 823b 94d6 853b aff1 893b 7394 8e3b
00000250: 2954 933b 8f1b 953b f2a7 973b 173a 9c3b
00000260: 4da5 9e3b ff3a a33b b5b5 a63b 39ce ac3b
00000270: 6b16 b13b 6d19 ba3b 8910 c33b 2b50 ca3b
00000280: a03f d33b d485 db3b 505a e33b 6003 e73b
00000290: 074c ed3b 6c16 f33b 5ce8 fb3b 4891 013c
000002a0: 1db3 053c d751 093c bf68 0e3c 92d8 123c
000002b0: 3497 183c 57b9 1f3c 825b 263c 6869 2c3c
000002c0: 8789 343c 585e 3b3c bdc0 413c 206f 4f3c
000002d0: ab9e 1f3b a6a7 1e3b 4a8d 213b b751 803f
000002e0: b2c6 243b a3e4 263b 1d03 2b3b ca07 293b
000002f0: 416d 233b 7a4e 223b 3247 1f3b 59c7 1e3b
00000300: 2da5 243b e704 293b 6d65 2d3b 43d8 353b
00000310: d496 393b 626e 403b 29db 473b 0b6d 513b
00000320: 8b53 593b 97bc 673b 1426 703b ab8d 793b
00000330: fb16 813b 7103 843b afff 873b da80 8c3b
00000340: 8b2f 913b a70c 933b f68a 953b ee39 9a3b
00000350: 695e 9c3b 6b17 a13b bf5e a43b 2974 aa3b
00000360: 4158 ae3b 6a6f b73b 8215 c03b 6c39 c73b
00000370: 45d1 cf3b 3400 d83b 09a6 df3b ed8c e33b
00000380: 26f6 e93b 79b5 ef3b 0951 f83b 3186 ff3b
00000390: d7bc 033c 6853 073c ec5c 0c3c 0f95 103c
000003a0: e04c 163c 974d 1d3c 4cd4 233c d4cf 293c
000003b0: 04c7 313c d87b 383c 3be0 3e3c a967 4c3c
000003c0: 44f1 1f3b 11f6 1e3b 97a0 213b 3c7c 233b
000003d0: d051 803f f697 253b 8b2d 2a3b c248 283b
000003e0: 22b0 223b 59b4 213b 6667 1e3b 9a91 1d3b
000003f0: d8d6 233b 5622 283b b5da 2c3b d259 353b

gc1.fc.weight f4 [128, 30]
0.11863152 0.0133471275 -0.059191015 0.07259543 0.06024291 -0.15993673 -0.18408583 -0.008897695
-0.11485195 -0.07406753 -0.013716177 0.17696674 0.14813364 0.058510445 -0.14834486 -0.1288427
-0.092923746 -0.15497825 0.11800334 -0.112602964 0.014267219 -0.015447515 0.051057786 0.0058291634
0.11926592 -0.036098935 -0.010534452 0.088655785 0.15357149 0.13926712 0.041076478 0.1268271
0.0047653723 -0.17920075 -0.16334087 -0.06973749 -0.14982703 0.118222505 0.14066255 -0.044323385
-0.022736255 -0.0986792 0.07046486 0.049418386 0.13986787 0.060417935 0.0983372 -0.12005381
-0.036728002 0.15372485 0.1631955 0.13845332 -0.17730097 -0.010817468 0.05027301 0.14206605
-0.07851088 -0.06514577 0.1041323 -0.073994026 0.037020106 0.0008429114 0.033590417 -0.124424264
-0.103305906 -0.119119674 -0.05544734 -0.1329041 -0.0030044974 -0.18101802 -0.10583339 -0.15438196
0.088088416 -0.109065235 -0.055242196 -0.17126937 -0.1658616 -0.16247873 0.0049854945 -0.05933976
-0.15236537 0.002837096 0.16383396 0.03115717 0.059525326 -0.13179156 -0.03331769 0.16344011
-0.16224962 -0.052723527 0.118556604 -0.10586946 -0.10159964 0.02736447 -0.16253585 -0.13227062
-0.11927906 0.11578634 0.16242798 0.17477867 0.05157228 -0.1593732 -0.045721974 0.0070737717
0.028092314 -0.0154879615 0.09967728 0.0024634877 0.12515457 0.0007730999 -0.07085403 -0.14058389
-0.045996122 -0.094900325 -0.072888054 -0.06813189 -0.041646466 0.07153689 0.17894138 -0.012781846
-0.13152075 0.14400107 0.07168038 0.1082905 -0.10215802 -0.062832735 0.021803968 -0.01897284
-0.030657576 -0.03949003 -0.106280014 -0.10134564 0.09509219 0.107120655 0.013383738 0.18165879
-0.14805673 0.099287786 -0.032023925 -0.023953488 0.16809002 -0.09148664 -0.0176198 0.09267631
-0.15503153 0.14537472 0.10998135 0.020048656 -0.15386556 -0.011957406 0.13737032 -0.15889952
-0.0833559 -0.061811563 0.034212805 -0.12691246 -0.12402382 0.0647241 0.10012713 -0.10150821
-0.10853786 -0.15848163 0.048146624 -0.01969137 0.029691894 0.019715726 0.02071832 -0.1312348
-0.076907046 -0.16645922 -0.07244447 -0.079309024 0.08056554 -0.0985186 0.1357472 0.051026274
0.011072985 -0.12715486 0.08551929 0.102298915 0.15438262 0.011939857 -0.030017095 0.111599445
0.039657712 0.062749624 -0.16105141 -0.0063010887 -0.069677696 0.12004918 -0.12975627 -0.01648772
-0.15088242 0.15177147 0.06516243 0.18707408 -0.14920518 0.10617728 -0.0922019 0.18457347
0.10255783 -0.029829677 0.06581203 0.16335835 -0.15044111 0.13421713 0.116196 0.022359468
0.14810887 -0.040179525 0.06993389 -0.023539223 -0.005709012 -0.10432241 -0.11214306 -0.09424629
0.010977489 -0.08770645 0.10710087 0.1172094 0.01710768 0.13242929 -0.00028259808 0.08635403
0.081991196 -0.05372877 0.15506995 0.12654366 -0.011060572 0.102854036 -0.024838474 -0.13527131
0.03520456 -0.17464264 0.12815577 0.024715627 -0.071983874 0.109571934 0.04848617 0.12049136
-0.027836172 0.050021827 0.06265746 -0.0025786518 0.024786968 0.12750891 -0.003106982 -0.17497572
0.11989766 -0.13304746 -0.07632801 0.16264214 -0.04589521 -0.05170304 -0.17264712 0.08627618
00000000: 15f5 f23d e9ad 5a3c 4772 72bd eaac 943d
00000010: 45c1 763d 74c6 23be ff80 3cbe a3c7 11bc
00000020: 8037 ebbd b8b0 97bd d1b9 60bc c536 353e
00000030: 58b0 173e a6a8 6f3d b7e7 17be 57ef 03be
00000040: ce4e bebd 9eb2 1ebe bcab f13d 629c e6bd
00000050: 0ec1 693c 9317 7dbc f821 513d 9102 bf3b
00000060: b141 f43d 7adc 13bd b298 2cbc 2a91 b53d
00000070: d841 1d3e 0a9c 0e3e cf3f 283d f7de 013e
00000080: d726 9c3b 6780 37be d442 27be 87d2 8ebd
00000090: 426c 19be a41e f23d d809 103e 708c 35bd
000000a0: 6241 babc 5218 cabd e14f 903d ef6a 4a3d
000000b0: 8639 0f3e cc78 773d 0465 c93d c6de f5bd
000000c0: 1a70 16bd 0c6a 1d3e b91c 273e b5c6 0d3e
000000d0: 638e 35be c03b 31bc 12eb 4d3d c379 113e
000000e0: 50ca a0bd 256b 85bd 5143 d53d 2e8a 97bd
000000f0: 65a2 173d d4f6 5c3a 1b96 093d 26d2 febd
00000100: 0c92 d3bd 04f5 f3bd c01c 63bd 0318 08be
00000110: 1ae7 44bb ca5c 39be 2dbf d8bd 4e16 1ebe
00000120: b367 b43d 985d dfbd a445 62bd 3d61 2fbe
00000130: a0d7 29be d360 26be 5c5d a33b 400e 73bd
00000140: ab05 1cbe 93ee 393b 17c4 273e 523d ff3c
00000150: d4d0 733d 5ef4 06be 2178 08bd d85c 273e
00000160: c424 26be a0f4 57bd cecd f23d 16d2 d8bd
00000170: 7913 d0bd 742b e03c cc6f 26be f371 07be
00000180: 9448 f4bd 6321 ed3d 8553 263e 2ef9 323e
00000190: 743d 533d ba32 23be f746 3bbd 19cb e73b
000001a0: da21 e63c 38c1 7dbc 9a23 cc3d 7772 213b
000001b0: 8528 003e dba9 4a3a eb1b 91bd 39f5 0fbe
000001c0: 6e66 3cbd 1a5b c2bd 5546 95bd bb88 8bbd
000001d0: 7c95 2abd ef81 923d 693c 373e f36a 51bc
000001e0: 60ad 06be 0475 133e 2acd 923d 69c7 dd3d
000001f0: 3938 d1bd 73ae 80bd 3c9e b23c ee6c 9bbc
00000200: 9925 fbbc 4cc0 21bd 56a9 d9bd 4e8e cfbd
00000210: b2bf c23d 1362 db3d 7747 5b3c c304 3a3e
00000220: 2f9c 17be 6557 cb3d 852b 03bd 1b3a c4bc
00000230: ca1f 2c3e 595d bbbd 6657 90bc 14cd bd3d
00000240: 96c0 1ebe 1cdd 143e e73d e13d 143d a43c
00000250: ef8e 1dbe ffe8 43bc ceaa 0c3e 8eb6 22be
00000260: 80b6 aabd 1f2e 7dbd ba22 0c3d 57f5 01be
00000270: 3300 febd 128e 843d 740f cd3d 89e3 cfbd
00000280: 1949 debd 0249 22be 6535 453d cc4f a1bc
00000290: 6a3c f33c e082 a13c 77b9 a93c 6a62 06be
000002a0: 7181 9dbd 4974 2abe c45d 94bd c56c a2bd
000002b0: 8cff a43d 1fc4 c9bd 5001 0b3e ed00 513d
000002c0: 776b 353c e234 02be bd24 af3d 1882 d13d
000002d0: 7a16 1e3e 649f 433c 69e6 f5bc 408e e43d
000002e0: 2070 223d e082 803d a9ea 24be 5d79 cebb
000002f0: 2eb3 8ebd 58dc f53d d4de 04be 4111 87bc
00000300: ec80 1abe fb69 1b3e e173 853d 5990 3f3e
00000310: 3ec9 18be 7973 d93d 5ad4 bcbd d400 3d3e
00000320: d709 d23d 5e5d f4bc 75c8 863d 6947 273e
00000330: 3c0d 1abe 3770 093e 2bf8 ed3d 342b b73c
00000340: daa9 173e 4993 24bd 8039 8f3d 54d5 c0bc
00000350: aa12 bbbb fda6 d5bd 43ab e5bd 3304 c1bd
00000360: edda 333c 709f b3bd b357 db3d 7b0b f03d
00000370: 6825 8c3c 8b9b 073e ac29 94b9 62da b03d
00000380: 00eb a73d b312 5cbd a8ca 1e3e a994 013e
00000390: 6737 35bc 23a5 d23d 0e7a cbbc 9084 0abe
000003a0: a832 103d 85d5 32be 443b 033e 6d78 ca3c
000003b0: 486c 93bd 4067 e03d 6f99 463d 2dc4 f63d
000003c0: af08 e4bc b0e3 4c3d 8e52 803d 99fe 28bb
000003d0: 0a0e cb3c b291 023e 829e 4bbb d62c 33be
000003e0: e88c f53d 983d 08be dc51 9cbd a98b 263e
000003f0: 9efc 3bbd 91c6 53bd 68ca 30be 91b1 b03d

gc1.fc.bias f4 [128]
0.14410858 -0.1439692 0.18089467 -0.04019547 0.1103035 -0.06339254 -0.1722147 0.012878487
0.13182828 0.011974123 0.09106653 0.08248443 -0.09854697 0.055194292 -0.113220915 -0.05682567
-0.10814002 0.00068126287 0.14413244 0.005115105 -0.0068290085 0.01598115 0.118586645 -0.09360143
-0.1563576 0.044670485 0.101373285 0.076134495 0.14506575 -0.07160127 -0.025318101 0.08899255
-0.16994135 0.18338811 0.011736065 0.08243237 0.16080827 0.13567083 -0.09552874 -0.12263846
0.035352454 0.066838175 -0.06335949 -0.031945646 -0.09164101 -0.13192926 0.056039914 0.111289866
-0.03195097 0.09059223 -0.053417172 -0.18042852 0.0031803232 0.12774949 0.001958259 -0.06995301
0.17383885 0.043363944 0.045882676 0.015587759 0.14656496 -0.053702805 -0.09204394 0.14672546
-0.021510085 -0.1301126 0.11257369 0.15378991 -0.105598696 0.06456175 0.15240426 -0.0012752347
-0.05675194 -0.04482958 0.12527367 0.025485704 -0.059897773 -0.16669036 0.0508708 0.14432931
0.032201648 0.022080217 0.15231602 0.094193906 0.1544969 -0.14139783 0.01423512 -0.1414608
-0.1445057 0.035477303 0.08290326 -0.055281058 0.08093625 0.073494434 0.041515946 -0.0641552
-0.054848745 -0.16011094 -0.10262824 0.15422904 -0.08589312 -0.011679974 -0.15113564 0.09280371
0.028276438 0.09603412 0.011718912 -0.1098124 -0.00017188722 0.021819718 -0.11994022 -0.041926816
-0.13396691 -0.042948417 -0.1585843 0.07531191 -0.06703721 0.0698587 -0.037176836 0.17184374
-0.1601555 -0.16657837 -0.102041185 -0.037220925 0.039597068 -0.17261517 0.1153129 -0.16532396
00000000: 3391 133e a96c 13be 743c 393e 01a4 24bd
00000010: cde6 e13d f3d3 81bd 0d59 30be 4a00 533c
00000020: fefd 063e 1d2f 443c 1781 ba3d 99ed a83d
00000030: fed2 c9bd 6913 623d 5ee0 e7bd 09c2 68bd
00000040: 8478 ddbd c796 323a 7497 133e 9c9c a73b
00000050: e0c5 dfbb e7ea 823c 8edd f23d 1bb2 bfbd
00000060: 351c 20be 66f8 363d cc9c cf3d 67ec 9b3d
00000070: 1e8c 143e b0a3 92bd e867 cfbc ba41 b63d
00000080: 1b05 2ebe 18ca 3b3e a048 403c 4dd2 a83d
00000090: ecaa 243e 4bed 0a3e 92a4 c3bd df29 fbbd
000000a0: bccd 103d 74e2 883d 9fc2 81bd 70d9 02bd
000000b0: 48ae bbbd 7718 07be 1c8a 653d f1eb e33d
000000c0: 05df 02bd 6b88 b93d f7cb 5abd 41c2 38be
000000d0: f86c 503b c3d0 023e 2256 003b 8643 8fbd
000000e0: d002 323e 649e 313d 79ef 3b3d cd63 7f3c
000000f0: 2015 163e 79f7 5bbd 8981 bcbd 333f 163e
00000100: eb35 b0bc 3d3c 05be 098d e63d 1a7b 1d3e
00000110: 2144 d8bd f338 843d dd0f 1c3e c725 a7ba
00000120: b974 68bd 399f 37bd be47 003e 65c7 d03c
00000130: 5e57 75bd e1b0 2abe e65d 503d 10cb 133e
00000140: e0e5 033d 92e1 b43c bbf8 1b3e bce8 c03d
00000150: 6f34 1e3e 98ca 10be 6c3a 693c 1adb 10be
00000160: 4df9 13be a650 113d 2fc9 a93d 646e 62bd
00000170: e8c1 a53d 4084 963d a00c 2a3d cd63 83bd
00000180: 14a9 60bd 1ff4 23be c12e d2bd 38ee 1d3e
00000190: bbe8 afbd 5d5d 3fbc 4dc3 1abe df0f be3d
000001a0: fda3 e73c 89ad c43d ae00 403c 53e5 e0bd
000001b0: a03c 34b9 44bf b23c 38a3 f5bd 74bb 2bbd
000001c0: 9f2e 09be aeea 2fbd ec63 22be 213d 9a3d
000001d0: ce4a 89bd 1412 8f3d bd46 18bd cef7 2f3e
000001e0: ceff 23be 8593 2abe f8fa d0bd f874 18bd
000001f0: 8930 223d 08c2 30be 2b29 ec3d af4a 29be

gc2.fc.weight f4 [128, 128]
0.008023979 -0.015330099 -0.028187463 -0.026918702 -0.089104116 0.031423323 -0.030948084 0.046376485
-0.06709679 0.06332826 -0.06734131 -0.043593522 -0.04506495 -0.06748709 0.02567794 -0.018411737
-0.06845484 0.086622186 -0.07187656 0.03760831 0.021673324 -0.057831686 0.09643586 0.0057536117
-0.06954126 -0.043061864 -0.01747666 0.053452443 -0.09943891 0.04073996 0.027748607 -0.025744012
0.07523849 -0.07553362 -0.012927549 0.0856142 0.02054799 0.089391164 0.08094804 -0.058365427
0.04993973 0.006340933 -0.061492283 0.056888297 -0.051657673 -0.044054296 -0.07807276 -0.047447287
0.041070633 0.00029725523 -0.041925017 -0.046298057 0.03829239 -0.023544885 -0.0021861847 0.019809695
-0.03861902 0.08422627 0.03586838 -0.031370055 0.000657437 0.021211566 0.034671366 0.006548385
0.046862453 -0.0143002225 -0.04065987 0.077872045 -0.0006325124 0.052400555 -0.0031110784 -0.06764078
0.017356537 -0.077283755 0.04847292 0.045759667 -0.039498463 0.071282014 0.055307005 -0.0069499924
0.023308462 0.06653844 -0.004377062 0.052212577 -0.021293879 -0.011718505 0.027224945 -0.05588024
0.019966811 -0.0579992 -0.040743165 -0.06001796 -0.092296764 0.041520864 0.09891398 -0.042387646
0.07424375 0.07308897 0.03465403 -0.040349614 0.08379281 0.026683541 -0.03671178 0.046535067
0.07710832 0.080567524 0.0014751212 -0.074327834 0.060062952 0.03132317 0.0048261364 -0.07332614
0.030382343 -0.0602791 -0.08143994 -0.014754573 -0.08336038 0.07724792 -0.08915271 0.04863883
0.044456434 0.09949861 0.005859219 -0.06727137 0.041616946 0.0077571706 -0.069633 -0.07481482
-0.082713574 0.021709368 -0.05168317 -0.04389005 0.05974108 0.041678485 -0.04620959 -0.06258845
-0.048501965 0.044559564 -0.053174242 -0.011120545 -0.072175786 0.027905678 -0.050424263 -0.111301415
0.014830556 0.016444048 0.09700925 -0.035297662 0.05233316 0.063564315 0.1004785 0.0070037493
0.019758506 0.012125439 0.09029476 0.0196606 0.06045402 -0.04178715 -0.011798433 0.045018855
0.046293482 -0.05216207 0.09544677 -0.090529606 -0.028056704 -0.0598479 0.08033773 0.0095390305
0.08007748 0.09413664 -0.11450364 0.00998429 -0.0045679626 -0.024562187 -0.05128405 0.05459631
-0.065533906 0.042543743 0.009244102 -0.026026255 0.025757486 0.013976172 -0.030856514 0.08080207
-0.066392876 -0.05383164 -0.0923961 0.07091146 -0.07038417 0.050125845 -0.03144762 -0.04927202
0.042320702 -0.05332287 -0.00051451236 -0.046794042 -0.0030867811 0.05622747 -0.056133788 0.04744471
0.085052684 0.04113946 -0.095070764 0.022712242 0.04684412 -0.02056276 0.011768914 -0.06600597
0.012981301 0.04073492 0.109571144 -0.054302447 0.06350761 -0.049170684 0.07884405 0.0148600945
0.085024655 -0.028060853 -0.035667453 0.06433559 0.07828964 0.023548422 0.042698357 0.022891004
-0.017784057 0.05955565 -0.0017521248 -0.008240035 0.10144014 -0.044852424 -0.040737066 -0.019519942
-0.07910091 -0.0096336985 0.029091183 0.1078017 -0.002254822 0.026467469 0.06710828 0.04781672
0.041735508 0.0889726 -0.112592995 -0.01360445 -0.06504823 -0.08029391 0.032211483 -0.12209022
-0.066075005 0.083781935 -0.03736085 -0.009399439 -0.020895248 0.09348593 -0.07684556 0.045614634
00000000: 0277 033c 182b 7bbc 65e9 e6bc 9c84 dcbc
00000010: 387c b6bd beb5 003d d686 fdbc 45f5 3d3d
00000020: 0b6a 89bd 3fb2 813d 3eea 89bd 1f8f 32bd
00000030: 0696 38bd ac36 8abd 8b5a d23c 36d4 96bc
00000040: 0d32 8cbd f966 b13d 0534 93bd 2c0b 1a3d
00000050: 418c b13c ebe0 6cbd 2a80 c53d cb88 bc3b
00000060: a66b 8ebd a361 30bd 362b 8fbc f3f0 5a3d
00000070: a1a6 cbbd f2de 263d 0c51 e33c 1be5 d2bc
00000080: a316 9a3d 5fb1 9abd 12ce 53bc 7f56 af3d
00000090: 4254 a83c b712 b73d 16c8 a53d 9610 6fbd
000000a0: 9a8d 4c3d 9ac7 cf3b 55df 7bbd b403 693d
000000b0: ff96 53bd 4772 34bd 9ce4 9fbd 1658 42bd
000000c0: ae39 283d ecd8 9b39 91b9 2bbd 08a3 3dbd
000000d0: 7bd8 1c3d 34e1 c0bc 1846 0fbb f147 a23c
000000e0: fa2e 1ebd d37e ac3d b9ea 123d e37d 00bd
000000f0: da57 2c3a e1c3 ad3c 9003 0e3d d693 d63b
00000100: d8f2 3f3d 7b4b 6abc f78a 26bd 617b 9f3d
00000110: 30cf 25ba f7a1 563d 3ce3 4bbb 4087 8abd
00000120: 4c2f 8e3c f246 9ebd 8a8b 463d 7d6e 3b3d
00000130: 24c9 21bd 4efc 913d 9989 623d c3bc e3bb
00000140: 63f1 be3c 4e45 883d 756d 8fbb dbdc 553d
00000150: 8070 aebc f9fe 3fbc d906 df3c aee2 64bd
00000160: 7091 a33c 9290 6dbd 4ee2 26bd 64d5 75bd
00000170: 1606 bdbd c811 2a3d 6a93 ca3d ab9e 2dbd
00000180: 1b0d 983d abaf 953d 62f1 0d3d a345 25bd
00000190: 919b ab3d 7197 da3c 175f 16bd 8e9b 3e3d
000001a0: f8ea 9d3d 9600 a53d db58 c13a 3139 98bd
000001b0: 9204 763d b94c 003d 9124 9e3b 042c 96bd
000001c0: 64e4 f83c 38e7 76bd fcc9 a6bd 2abd 71bc
000001d0: d9b8 aabd 2834 9e3d b295 b6bd 8339 473d
000001e0: f317 363d edc5 cb3d b1fe bf3b 92c5 89bd
000001f0: 8876 2a3d dd2f fe3b bf9b 8ebd 8338 99bd
00000200: bc65 a9bd d8d7 b13c bbb1 53bd 0ec6 33bd
00000210: 10b3 743d 0fb7 2a3d 4446 3dbd 602e 80bd
00000220: ffa9 46bd 1784 363d 3ccd 59bd f232 36bc
00000230: e6d0 93bd 739a e43c ac89 4ebd fff1 e3bd
00000240: dcfb 723c abb5 863c c9ac c63d 4894 10bd
00000250: 4c5b 563d 022e 823d acc7 cd3d b57f e53b
00000260: 97dc a13c c7a9 463c 76ec b83d 440f a13c
00000270: a29e 773d 0129 2bbd 374e 41bc b165 383d
00000280: 3c9e 3d3d e5a7 55bd 9979 c33d 9667 b9bd
00000290: 2cd7 e5bc 1223 75bd 1c88 a43d 9849 1c3c
000002a0: a9ff a33d b6ca c03d e280 eabd 2695 233c
000002b0: d9ae 95bb a436 c9bc 390f 52bd 61a0 5f3d
000002c0: a436 86bd 5942 2e3d 9374 173c 0335 d5bc
000002d0: 5d01 d33c 50fc 643c cdc6 fcbc 8e7b a53d
000002e0: fdf8 87bd 917e 5cbd 2b3a bdbd 073a 913d
000002f0: 9325 90bd c250 4d3d 38cf 00bd 75d1 49bd
00000300: 7958 2d3d 1569 5abd 57e0 06ba 1cab 3fbd
00000310: 984b 4abb c74e 663d 8bec 65bd 6255 423d
00000320: 1a30 ae3d da81 283d 76b4 c2bd 060f ba3c
00000330: 9fdf 3f3d 3c73 a8bc 67d2 403c 232e 87bd
00000340: 86af 543c a9d9 263d d666 e03d 3e6c 5ebd
00000350: 4710 823d 3367 49bd fd78 a13d c177 733c
00000360: 6821 ae3d e0df e5bc 0918 12bd 61c2 833d
00000370: 5256 a03d 9fe8 c03c 79e4 2e3d ea85 bb3c
00000380: dfaf 91bc a0f0 733d 8da7 e5ba 3601 07bc
00000390: d9bf cf3d 2db7 37bd e9db 26bd 49e8 9fbc
000003a0: a8ff a1bd a9d6 1dbc a250 ee3c 23c7 dc3d
000003b0: a3c5 13bb 4ed2 d83c 1170 893d 77db 433d
000003c0: daf2 2a3d 4437 b63d 2897 e6bd 33e5 5ebc
000003d0: 0238 85bd 2271 a4bd 30f0 033d 700a fabd
000003e0: 5552 87bd dd95 ab3d b107 19bd 1b00 1abc
000003f0: 832c abbc 8d75 bf3d 3461 9dbd 69d6 3a3d

gc2.fc.bias f4 [128]
0.007705241 0.020202033 0.052229073 0.053642973 0.0077265888 -0.03369757 0.07174271 -0.01621345
0.05471739 0.014338323 -0.022106797 0.0076936088 -0.015477451 0.057654165 0.03877075 -0.028697412
0.047987655 0.060504187 -0.010042589 -0.04110335 -0.076408096 0.0030341663 -0.07623575 -0.046001866
0.08034777 0.035276797 -0.019161956 0.06881209 -0.017383104 -0.0400025 0.03666269 -0.072117686
0.04233542 -0.07818903 -0.018689802 0.056381367 0.09009232 -0.0714805 0.060519192 0.016282257
-0.07718387 -0.07921543 0.049740348 -0.05375042 0.09204794 -0.017219804 -0.047887556 0.00529238
0.046888266 0.08032318 0.062461846 -0.07655086 0.020766132 0.06779392 0.014629637 0.03523866
0.09432263 0.07769964 -0.029184977 0.07011998 -0.06294505 -0.05452357 0.071614474 0.089605
0.0099893 -0.010938885 0.06414985 0.09387903 -0.053025294 0.07946342 0.05083994 -0.037939023
0.012652332 0.031150674 0.046514817 0.014212699 0.019354485 -0.021082422 0.07139152 0.082318604
-0.04812487 0.039464574 -0.033831764 -0.08592645 0.08221364 0.080749996 -0.06654152 0.015744586
0.0020678102 0.09318175 0.07418897 -0.07125302 -0.024025535 0.021251522 0.06897403 0.09325024
-0.06204054 -0.044809755 0.0052038077 0.085549586 -0.050599843 0.08559014 -0.07121528 0.0066092317
-0.0067571336 -0.05251952 -0.0418455 -0.0478352 0.07320161 0.082998015 0.08368854 0.0959997
0.029255135 0.05534508 -0.032958806 -0.04105664 0.09329764 0.08945999 -0.05727173 0.00948515
-0.02767546 0.07965891 -0.02808964 -0.025228234 -0.005480583 -0.087770455 0.06674917 0.089718804
00000000: 3f7c fc3b bc7e a53c 27ee 553d bcb8 5b3d
00000010: 532f fd3b 7706 0abd d8ed 923d 12d2 84bc
00000020: 581f 603d 49eb 6a3c 5019 b5bc ab1a fc3b
00000030: 2295 7dbc c626 6c3d 14ce 1e3d d616 ebbc
00000040: b48e 443d 3dd3 773d ac89 24bc fd5b 28bd
00000050: d97b 9cbd ddd8 463b 7d21 9cbd 746c 3cbd
00000060: 5f8d a43d 677e 103d 89f9 9cbc 5aed 8c3d
00000070: 0367 8ebc a9d9 23bd 9e2b 163d 70b2 93bd
00000080: e867 2d3d 9221 a0bd 5b1b 99bc 26f0 663d
00000090: 5382 b83d 5e64 92bd f9e2 773d 5e62 853c
000000a0: 9412 9ebd b33b a2bd 89bc 4b3d 6729 5cbd
000000b0: a183 bc3d 8c10 8dbc be25 44bd b46b ad3b
000000c0: e90d 403d 7b80 a43d fed7 7f3d b3c6 9cbd
000000d0: bc1d aa3c 8ad7 8a3d 25b1 6f3c 6a56 103d
000000e0: 392c c13d fd20 9f3d 5515 efbc 109b 8f3d
000000f0: 56e9 80bd 1b54 5fbd 9caa 923d d482 b73d
00000100: 29aa 233c 0239 33bc ff60 833d a643 c03d
00000110: 0d31 59bd b8bd a23d 8a3d 503d f365 1bbd
00000120: ba4b 4f3c b32f ff3c 5286 3e3d 61dc 683c
00000130: 4c8d 9e3c 0bb5 acbc b835 923d a896 a83d
00000140: 951e 45bd 9ba5 213d 2d93 0abd 35fa afbd
00000150: a05f a83d 4160 a53d ec46 88bd cafa 803c
00000160: 1984 073b 13d6 be3d 63f0 973d 1aed 91bd
00000170: 33d1 c4bc ac17 ae3c 4242 8d3d fbf9 be3d
00000180: 391e 7ebd 6f8a 37bd b484 aa3b 9f34 af3d
00000190: c841 4fbd e249 af3d 51d9 91bd 4192 d83b
000001a0: f26a ddbb b51e 57bd 3066 2bbd d8ee 43bd
000001b0: baea 953d ddfa a93d e664 ab3d 7e9b c43d
000001c0: 77a8 ef3c 86b1 623d d0ff 06bd 022b 28bd
000001d0: d512 bf3d cd36 b73d c395 6abd 9a67 1b3c
000001e0: a5b7 e2bc 3624 a33d 3f1c e6bc 71ab cebc
000001f0: 7696 b3bb ffc0 b3bd cab3 883d 7ebe b73d

temporal_conv.weight f4 [128, 128, 3]
0.005931777 0.0326524 0.010070174 0.035869967 0.027015144 -0.022799743 -0.0017529746 -0.06271146
-0.025317226 -0.007998817 -0.040619332 0.048693635 0.013334085 -0.028110359 -0.020023491 -0.041657075
-0.058778413 0.014500525 -0.021528857 -0.032554682 -0.004582064 0.08546045 0.053674523 0.00024919934
-0.046589516 -0.05644655 0.045981918 0.07775698 0.023873735 -0.026432363 -0.036374673 0.017191164
0.0043346896 0.037227117 0.062141262 -0.019439604 -0.043449506 0.02498042 -0.001383201 0.0081073055
-0.04358079 -0.036432944 -0.0103717875 -0.039675187 0.042265017 0.055136077 0.01833961 -0.011094334
0.005354343 0.021074794 -0.040152784 -0.019195328 -0.054149527 0.015936177 -0.026080154 -0.017627517
0.05059098 0.0008683677 -0.049975567 0.046718832 0.042330656 -0.014656922 0.013706827 0.029956022
-0.032513022 -0.030697715 -0.06312727 -0.036017288 -0.02368682 0.042435765 0.018738998 0.022328148
0.036192942 -0.028929684 0.018082026 -0.013827751 0.011209419 -0.0373947 -0.013012871 -0.050583385
-0.010050548 0.023977628 -0.0054805996 -0.049326062 -0.0403573 0.03505676 0.032945223 0.0445977
0.09956627 0.04120103 0.0040770634 0.0567284 0.0055302246 0.0042514545 0.008605565 -0.0078059053
-0.017435564 -0.040643148 0.00025623778 -0.034030683 -0.026026072 -0.049140047 0.04115439 -0.002982635
-0.008306244 0.05868664 -0.013492235 -0.021197492 0.017843708 0.030980654 -0.025619015 -0.013792467
0.0103507945 -0.012261284 -0.0631336 -0.018565966 -0.04878894 0.012848677 -0.008251109 0.033882968
-0.054372486 -0.026163273 -0.024033744 0.026628943 -0.020915506 -0.024726547 0.0343735 0.024732133
0.0026497655 -0.07238842 -0.07617887 -0.020147774 0.007640509 -0.0077233915 0.043739107 0.003619097
0.021995986 0.025043607 0.013306292 0.017466571 -0.02254656 0.037854623 -0.017674811 0.04692737
-0.019954666 -0.016883962 -0.02492753 0.032471407 0.032455225 -0.029943407 0.015186357 -0.0066202134
-0.025287136 0.023860274 0.001808051 -0.008742082 -0.044835065 -0.036243115 0.039943323 -0.010846023
-0.069508396 0.02297043 0.026579164 0.0145724965 0.029273694 0.06389378 0.030575974 0.039130412
0.032259617 0.015480048 -0.016608845 0.021181563 0.0067410846 0.0026204316 -0.03395759 -0.07275573
0.04224636 0.030318677 0.034221165 -0.040819176 0.05053663 -0.00876295 -0.03328945 -0.00048564936
0.018596968 -0.036461867 -0.07404875 -0.10625563 0.03959839 0.04340296 0.07067415 0.032461885
-0.0029260793 0.036760706 0.04735524 0.009425294 -0.03673913 0.03559154 -0.033936083 -0.0098133255
-0.032817326 0.009010002 -0.012662374 0.037801363 0.057507996 0.007016429 -0.004476919 -0.015545597
0.039537538 0.03157212 0.061408475 0.0050481786 0.024946656 0.002542299 -0.026887288 0.040083386
-0.0077799736 -0.077965796 -0.019186012 -0.02243817 -0.032280445 -0.0005553512 -0.027924826 0.016842075
0.041382138 0.024251735 -0.024998555 0.024973376 0.011808923 -0.028886126 0.04301486 -0.001423484
0.0019011043 -0.015296637 -0.010634764 -0.050774194 -0.008801893 0.009794978 0.018334236 -0.017658599
0.019143553 -0.035497114 -0.017039036 -0.019157361 -0.015366128 0.0025232132 -0.070282705 0.004004638
0.023169728 0.01798699 0.016562404 0.0019314104 0.015169992 0.017540686 -0.021397818 -0.0051816786
00000000: 5a5f c23b 86be 053d 5ffd 243c 63ec 123d
00000010: dd4e dd3c 87c6 babc 11c4 e5ba de6e 80bd
00000020: 1266 cfbc 780d 03bc 7560 26bd fa72 473d
00000030: 3577 5a3c b247 e6bc 4e08 a4bc 9ca0 2abd
00000040: a2c1 70bd 9c93 6d3c 495d b0bc 0f58 05bd
00000050: 2425 96bb e305 af3d d1d9 5b3d f8a6 8239
00000060: a6d4 3ebd 7f34 67bd 8957 3c3d 0d3f 9f3d
00000070: da92 c33c af88 d8bc 9cfd 14bd 7cd4 8c3c
00000080: 030a 8e3b 767b 183d d687 7e3d ce3f 9fbc
00000090: 1cf8 31bd bda3 cc3c 864c b5ba 81d4 043c
000000a0: c581 32bd b63a 15bd 6eee 29bc 7382 22bd
000000b0: 151e 2d3d 5ed6 613d f33c 963c 02c5 35bc
000000c0: 7c73 af3b 0ca5 ac3c 3f77 24bd 853f 9dbc
000000d0: e5cb 5dbd 968c 823c 0ca6 d5bc 9567 90bc
000000e0: 7d38 4f3d 2ba3 633a 2eb3 4cbd 3f5c 3f3d
000000f0: e962 2d3d 9623 70bc 9992 603c 5566 f53c
00000100: 602c 05bd c679 fbbc df48 81bd dd86 13bd
00000110: dd0a c2bc 20d1 2d3d 8782 993c 85e9 b63c
00000120: 0d3f 143d f2fd ecbc c220 943c cb8d 62bc
00000130: b6a7 373c 2f2b 19bd f033 55bc 8630 4fbd
00000140: 0eab 24bc bb6c c43c 9a96 b3bb 200a 4abd
00000150: b24d 25bd ad97 0f3d 92f1 063d 14ac 363d
00000160: 67e9 cb3d 69c2 283d e398 853b 0a5c 683d
00000170: e336 b53b c94f 8b3b 5bfe 0c3c aec8 ffbb
00000180: 07d5 8ebc 6e79 26bd a757 8639 c263 0bbd
00000190: a134 d5bc 1347 49bd 8191 283d 5078 43bb
000001a0: ea16 08bc 6761 703d 890e 5dbc 5da6 adbc
000001b0: f82c 923c 24cb fd3c f8de d1bc cdf9 61bc
000001c0: 6196 293c 8de3 48bc 304c 81bd a717 98bc
000001d0: e9d6 47bd 4283 523c a92f 07bc dec8 0a3d
000001e0: afb5 5ebd 5c54 d6bc 6ae2 c4bc f124 da3c
000001f0: ff56 abbc 548f cabc 3acb 0c3d 0b9b ca3c
00000200: b0a7 2d3b 6140 94bd ab03 9cbd f20c a5bc
00000210: 3c5d fa3b 8114 fdbb c727 333d 5f2e 6d3b
00000220: ed30 b43c 4028 cd3c a202 5a3c 0e16 8f3c
00000230: 90b3 b8bc 730d 1b3d c4ca 90bc ea36 403d
00000240: f877 a3bc 3c50 8abc d234 ccbc bd00 053d
00000250: c5ef 043d e04b f5bc 33d0 783c 60ee d8bb
00000260: f826 cfbc 9f76 c33c 20fc ec3a f33a 0fbc
00000270: f9a4 37bd a973 14bd 9c9b 233d 85b3 31bc
00000280: 6b5a 8ebd 7c2c bc3c 8cbc d93c 7bc1 6e3c
00000290: 63cf ef3c beda 823d 777a fa3c 3647 203d
000002a0: a922 043d 07a0 7d3c 460f 88bc f584 ad3c
000002b0: 51e4 dc3b 8cbb 2b3b 1d17 0bbd f500 95bd
000002c0: 850a 2d3d e05e f83c 7e2b 0c3d 0232 27bd
000002d0: 7fff 4e3d 7a92 0fbc 855a 08bd c19e feb9
000002e0: ab58 983c 0a59 15bd dfa6 97bd 8d9c d9bd
000002f0: ec31 223d 4dc7 313d 9cbd 903d c1f6 043d
00000300: 77c3 3fbb 6592 163d 91f7 413d 8c6c 1a3c
00000310: c57b 16bd 6fc8 113d 9000 0bbd 12c8 20bc
00000320: 766b 06bd b09e 133c d975 4fbc 9ad5 1a3d
00000330: 818d 6b3d 13ea e53b 1eb3 92bb f6b2 7ebc
00000340: 1df2 213d c451 013d 7487 7b3d 316b a53b
00000350: ee5c cc3c b39c 263b bb42 dcbc 7a2e 243d
00000360: 26ef febb 88ac 9fbd fc2b 9dbc 41d0 b7bc
00000370: 8038 04bd fd94 11ba 9bc2 e4bc 64f8 893c
00000380: 5180 293d 93ab c63c c5c9 ccbc f794 cc3c
00000390: 377a 413c 99a2 ecbc 5a30 303d 3294 baba
000003a0: 7a2e f93a bf9e 7abc 6f3d 2ebc 9af8 4fbd
000003b0: d135 10bc 1e7b 203c ae31 963c c4a8 90bc
000003c0: f1d2 9c3c 6c65 11bd 7395 8bbc e6ef 9cbc
000003d0: 36c2 7bbc 7e5c 253b 61f0 8fbd 5739 833b
000003e0: 71ce bd3c 7459 933c e1ad 873c 6127 fd3a
000003f0: 8f8b 783c 7cb1 8f3c 7a4a afbc 12cb a9bb

temporal_conv.bias f4 [128]
0.0035733508 0.019974895 0.016823068 -0.017767983 0.049433023 0.049378283 0.057011914 0.032604467
-0.018936777 0.03466419 0.04533382 0.020398313 0.054911856 0.036278423 0.037181932 -0.01138609
-0.030812092 0.012268804 -0.011007779 -0.0014727985 -0.008503915 -0.008262049 -0.03285935 -0.025084069
0.008854876 -0.008999649 -0.01565405 -0.02490269 -0.0273288 0.03779677 -0.021472314 0.002896581
0.029079027 0.008463201 0.032869786 0.05875583 0.013987769 0.022825148 0.038326252 0.023702988
0.017299088 -0.021103133 -0.019245513 -0.013689148 0.002941919 0.03388326 0.0033517533 0.03206374
0.0015283779 -0.0027564655 -0.037672445 -0.02993169 0.04508852 0.041409343 0.03328362 0.027834624
0.026807297 -0.022443378 -0.015618441 0.007460127 -0.002570065 0.05382116 0.052211374 -0.024418287
0.051080376 -0.017694006 -0.023372788 0.029408839 -0.004303587 0.026802331 0.0030072816 0.016098298
0.05390705 0.0047548674 -0.011671087 0.06318204 0.043927904 0.019185789 -0.028505791 0.005181945
-0.004885389 -0.024616584 0.0018148373 0.009363075 0.019390613 0.011999287 0.03807824 0.0032234448
0.011629263 0.034555007 0.042822205 -0.0044516507 0.013660877 -0.038693823 0.003162063 -0.025126526
0.021802943 0.011970308 -0.015395093 0.05245647 0.056078475 -0.0057387026 -0.014544849 0.0044257008
-0.011924484 0.029029956 0.051767677 0.025962062 0.01696752 -0.011865839 0.02779588 0.0065520694
-0.030384056 -0.0035625563 0.021454472 0.05797707 0.0011888953 0.0068084397 0.0074858344 -0.018817272
-0.05197123 0.009329451 6.237236e-05 0.025728628 0.05470624 -0.008812087 0.022704767 -0.022689037
00000000: e12e 6a3b 64a2 a33c 88d0 893c 298e 91bc
00000010: 487a 4a3d e240 4a3d 5385 693d 438c 053d
00000020: 4d21 9bbc 0afc 0d3d f5af 393d 5d1a a73c
00000030: 41eb 603d af98 143d 154c 183d b98c 3abc
00000040: a469 fcbc 1803 493c f959 34bc eb0a c1ba
00000050: 0154 0bbc 8c5d 07bc 8797 06bd 1b7d cdbc
00000060: 0b14 113c 4473 13bc ec3c 80bc ba00 ccbc
00000070: a6e0 dfbc c9d0 1a3d b5e6 afbc 91d4 3d3b
00000080: 2437 ee3c 3da9 0a3c 78a2 063d f4a9 703d
00000090: f52c 653c cefb ba3c fdfb 1c3d c52c c23c
000000a0: d1b6 8d3c 7ae0 acbc c4a8 9dbc 7348 60bc
000000b0: 36cd 403b 2cc9 0a3d 17a9 5b3b 4555 033d
000000c0: da53 c83a d1a5 34bb 6c4e 1abd 4e33 f5bc
000000d0: bdae 383d d89c 293d 6854 083d 7005 e43c
000000e0: fa9a db3c 2ddb b7bc 7de4 7fbc 1574 f43b
000000f0: 896e 28bb 9473 5c3d 98db 553d dc08 c8bc
00000100: a839 513d 05f3 90bc 4a78 bfbc ceea f03c
00000110: 1b05 8dbb 9090 db3c d015 453b 94e0 833c
00000120: a4cd 5c3d b8ce 9b3b 1638 3fbc 9665 813d
00000130: bfed 333d 842b 9d3c fa84 e9bc 4ecd a93b
00000140: 9d15 a0bb b8a8 c9bc d6df ed3a 9567 193c
00000150: 10d9 9e3c a898 443c eef7 1b3d 6e40 533b
00000160: aa88 3e3c 8d89 0d3d 5666 2f3d 27df 91bb
00000170: dfd1 5f3c 6a7d 1ebd 9d3a 4f3b 25d6 cdbc
00000180: 169c b23c 1c1f 443c b33b 7cbc 98dc 563d
00000190: 8bb2 653d ba0b bcbb 854d 6ebc 7805 913b
000001a0: e95e 43bc 3bd0 ed3c 580a 543d 64ae d43c
000001b0: 78ff 8a3c f068 42bc 2fb4 e33c beb2 d63b
000001c0: fce7 f8bc c779 69bb 4ac1 af3c 5d79 6d3d
000001d0: b5d4 9b3a 5519 df3b bb4b f53b ae26 9abc
000001e0: c9df 54bd 8eda 183c e8cd 8238 d8c4 d23c
000001f0: a613 603d 9260 10bc 59ff b93c 5cde b9bc

fc.weight f4 [30, 128]
-0.022563424 -0.0022806197 0.011682601 -0.032065663 -0.00818233 0.05986203 0.0067552538 -0.041537132
0.11037692 0.03611353 -0.0783756 0.056671564 0.004670114 -0.025154626 -0.031444125 -0.012485626
-0.05765328 0.08925514 0.039203897 -0.03478158 -0.019223869 -0.026709285 -0.07117527 0.06632457
-0.06512653 0.115835376 0.0054721893 -0.061936997 0.0010163166 0.04600613 -0.038309358 0.05346072
0.0013518876 -0.072965935 0.030133944 -0.10946724 0.059718385 -0.0039564096 -0.011253935 0.05787023
-0.015529423 -0.08339323 0.08909155 0.042903263 0.02237399 0.036059115 0.05276859 0.09633864
0.0107367 0.043739818 -0.029263876 0.025331391 -0.022105567 0.034400716 -0.039674357 0.07640029
-0.065267555 -0.0017570738 -0.055781856 0.04985559 -0.02370826 -0.015629118 0.016003598 -0.12801057
-0.081874855 -0.08380488 0.02395159 0.051930714 0.056575917 -0.024679048 -0.011537378 0.07797098
-0.057703067 0.03260472 0.0056796926 -0.09382866 -0.04046491 -0.0057942765 0.016483046 -0.021103818
-0.012142494 0.01313892 0.09012129 -0.028121484 -0.04455633 -0.008075062 0.07228469 -0.0047334796
-0.06856994 -0.02387409 -0.05146461 -0.04818479 0.005377077 -0.0095433835 -0.07554087 -0.0028520306
-0.0033558065 -0.06950341 0.014231557 -0.07582964 -0.0947 -0.08535123 0.053830296 -0.018279
-0.011118981 0.0376662 -0.018146532 -0.0894479 -0.04302649 -0.05942439 0.03714249 0.025549965
0.103580095 -0.1130544 0.054089632 0.11073056 0.031117825 0.066347666 0.08061003 -0.08185655
-0.059576113 -0.019128177 -0.0044037416 0.0049644182 -0.0947015 0.10506815 0.01807879 0.087756574
-0.027673397 0.031114025 0.02758838 0.044728905 0.015419767 0.0653712 -0.008155753 -0.097462066
-0.07676725 0.028229954 -0.02577485 0.022860715 -0.0974103 0.1095671 -0.009869139 0.02251737
0.0068153534 -0.022889467 0.08739479 -0.0027720074 -0.04695746 0.009750727 0.0119063435 -0.009900645
0.043314178 -0.010911981 -0.017445792 -0.04006103 -0.04321233 -0.043494042 0.06873609 -0.085572176
-0.009596024 -0.054587886 -0.03372954 0.05456766 -0.060464703 0.023531131 0.06300981 0.009485853
-0.02517647 0.045223486 -0.02843314 -0.031653658 -0.039643623 0.019815374 0.046011496 -0.0537102
0.05324909 -0.03116367 -0.073962696 -0.07597376 -0.022151962 -0.087824926 0.022380278 -0.04575499
-0.02298067 0.024340658 0.078200325 0.028061206 0.033962116 -0.09400652 -0.02530761 0.093337335
-0.110119626 -0.0897405 0.03280969 0.07824724 0.015775857 0.020072814 -0.04968489 -0.072855644
-0.026099466 0.083713874 -0.07296167 0.079215944 0.1024575 -0.06354345 -0.012949586 0.020296535
0.015630823 0.016356569 -0.050824996 -0.03471559 0.06080998 -0.07745752 0.064992346 0.10453725
0.049020834 0.021160115 0.046984006 -0.08723391 -0.01718335 0.064785406 0.09415207 -0.09559419
-0.088428825 0.083798684 0.026624577 -0.082889885 0.100525044 -0.04733999 0.042002156 0.012888002
-0.009713512 0.012538444 0.04255217 -0.07323278 0.004767146 -0.02425453 0.09769804 -0.040627144
0.08272167 0.14388894 0.035285674 0.060845207 0.08912392 -0.02279265 0.017309416 0.067351714
-0.028011868 0.05003828 -0.067559935 -0.008560293 -0.05374293 0.022415735 -0.0154224 -0.07525046
00000000: eed6 b8bc 7376 15bb 6168 3f3c 4957 03bd
00000010: 2e0f 06bc e331 753d 2d5b dd3b d722 2abd
00000020: 4b0d e23d c8eb 133d 6383 a0bd 7120 683d
00000030: c107 993b 1311 cebc 8ecb 00bd 8390 4cbc
00000040: d925 6cbd 66cb b63d 4494 203d 2177 0ebd
00000050: 607b 9dbc 6ecd dabc 57c4 91bd 2dd5 873d
00000060: 0f61 85bd 193b ed3d 0d50 b33b a6b1 7dbd
00000070: ed35 853a ec70 3c3d 46ea 1cbd a1f9 5a3d
00000080: d231 b13a 2a6f 95bd 76db f63c 5c30 e0bd
00000090: 449b 743d c5a4 81bb 6d62 38bc 5609 6d3d
000000a0: 1f6f 7ebc 12ca aabd a175 b63d 55bb 2f3d
000000b0: a849 b73c b9b2 133d e123 583d 314d c53d
000000c0: fce8 2f3c 8628 333d ccba efbc c783 cf3c
000000d0: bc16 b5bc c4e7 0c3d 9481 22bd c177 9c3d
000000e0: ffaa 85bd 9d4d e6ba 847b 64bd 6035 4c3d
000000f0: d337 c2bc a308 80bc fa19 833c 3415 03be
00000100: 01ae a7bd e5a1 abbd 2036 c43c 4db5 543d
00000110: 26bc 673d b72b cabc 4507 3dbc 40af 9f3d
00000120: 0d5a 6cbd 878c 053d b71c ba3b 3e29 c0bd
00000130: 89be 25bd eadd bdbb 7407 873c eae1 acbc
00000140: 50f1 46bc a044 573c 8391 b83d 075f e6bc
00000150: b380 36bd 444d 04bc ff09 943d 4e1b 9bbb
00000160: 666e 8cbd 9893 c3bc 8ecc 52bd 6a5d 45bd
00000170: 3132 b03b da5b 1cbc 2cb5 9abd 22e9 3abb
00000180: 17ed 5bbb ce57 8ebd 7a2b 693c 924c 9bbd
00000190: 13f2 c1bd a0cc aebd 287d 5c3d d7bd 95bc
000001a0: 632c 36bc e047 1a3d 09a8 94bc 7630 b7bd
000001b0: 8b3c 30bd fd66 73bd b922 183d 294e d13c
000001c0: cd21 d43d 1189 e7bd 178d 5d3d b4c6 e23d
000001d0: cfea fe3c 49e1 873d df16 a53d 68a4 a7bd
000001e0: 1506 74bd b2b2 9cbc 434d 90bb 8fac a23b
000001f0: dcf2 c1bd f82d d73d f819 943c b8b9 b33d
00000200: 52b3 e2bc d7e2 fe3c 0701 e23c a835 373d
00000210: 31a3 7c3c 56e1 853d b59f 05bc 319a c7bd
00000220: 2638 9dbd 8142 e73c c725 d3bc 6546 bb3c
00000230: 0d7f c7bd b764 e03d 2bb2 21bc 5976 b83c
00000240: 5453 df3b b182 bbbc 0afc b23d 91aa 35bb
00000250: 7756 40bd 83c1 1f3c d312 433c 5136 22bc
00000260: 356a 313d 2ac8 32bc 7aea 8ebc 0917 24bd
00000270: 6aff 30bd cf26 32bd 82c5 8c3d 7740 afbd
00000280: a438 1dbc 8c97 5fbd fc27 0abd 5782 5f3d
00000290: d6a9 77bd 5cc4 c03c 4a0b 813d 8d6a 1b3c
000002a0: e23e cebc 433c 393d 9eec e8bc 44a7 01bd
000002b0: 5a61 22bd da53 a23c 8d76 3c3d 3aff 5bbd
000002c0: b81b 5a3d f44a ffbc c179 97bd 2198 9bbd
000002d0: 0878 b5bc 8edd b3bd d856 b73c 9669 3bbd
000002e0: f541 bcbc 0f66 c73c 7e27 a03d 9de0 e53c
000002f0: dc1b 0b3d 7e86 c0bd e851 cfbc a527 bf3d
00000300: 6686 e1bd dec9 b7bd 7463 063d 1740 a03d
00000310: 5f3c 813c be6f a43c 6282 4bbd 5735 95bd
00000320: 8cce d5bc 2e72 ab3d ee6c 95bd f83b a23d
00000330: 3dd5 d13d 1123 82bd 802a 54bc eb44 a63c
00000340: 360c 803c 36fe 853c df2d 50bd ef31 0ebd
00000350: e313 793d 0ca2 9ebd b51a 853d a017 d63d
00000360: 12ca 483d fa57 ad3c 4d72 403d b1a7 b2bd
00000370: 19c4 8cbc 36ae 843d cdd2 c03d e3c6 c3bd
00000380: 2c1a b5bd a59e ab3d c91b da3c 2cc2 a9bd
00000390: 13e0 cd3d 94e7 41bd 740a 2c3d 3328 533c
000003a0: 6c25 1fbc 0c6e 4d3c 2f4b 2e3d 11fb 95bd
000003b0: b835 9c3b 70b1 c6bc e915 c83d a668 26bd
000003c0: fb69 a93d 9f57 133e b687 103d d338 793d
000003d0: 9a86 b63d a7b7 babc 7acc 8d3c b2ef 893d
000003e0: 2579 e5bc f1f4 4c3d dd5c 8abd 7940 0cbc
000003f0: 8c21 5cbd 34a1 b73c 3cae 7cbc ea1c 9abd

fc.bias f4 [30]
0.03168582 0.06764157 -0.02724095 0.07105109 -0.060513776 -0.0009971116 0.014123285 0.0653339
0.10032856 -0.005841245 0.051893838 0.09741489 0.00071526115 0.04184243 -0.03658851 0.033928078
-0.0063938056 0.032237727 -0.0074012284 -0.014321851 0.009144315 -0.0030523967 -0.01924172 0.023347877
0.037232332 0.0769935 -0.050855543 -0.02524289 0.08784659 -0.04926123
00000000: fec8 013d aa87 8a3d 6a28 dfbc 3c83 913d
00000010: 4bdd 77bd 83b1 82ba 5a65 673c c8cd 853d
00000020: 0f79 cd3d ea67 bfbb a28e 543d 7581 c73d
00000030: 5d80 3b3a f862 2b3d d5dd 15bd 2bf8 0a3d
00000040: 2183 d1bb b50b 043d 0186 f2bb 32a6 6abc
00000050: 09d2 153c b80a 48bb d0a0 9dbc 0c44 bf3c
00000060: ee80 183d c5ae 9d3d e74d 50bd 2dca cebc
00000070: eae8 b33d 25c6 49bd
