GWN/best_models/best_model_w120_h2.pth (torch, 354571 bytes, 9 tensors)

adapt_adj f4 [120, 120]
1.0012156 0.0012055212 0.0012623613 0.0012954252 0.0012681487 0.0013257429 0.0012967589 0.0013086508
0.0013050034 0.0013318061 0.0013622732 0.001333162 0.0013247404 0.001382882 0.0013835374 0.0014356999
0.0014879864 0.0015324147 0.0015374308 0.0015085163 0.0014714111 0.0014548387 0.0014503823 0.0014225858
0.0013724852 0.001376674 0.0013583985 0.0013350461 0.0013318934 0.001245353 0.0012406912 0.0012456769
0.0012696356 0.0013113117 0.0014099041 0.001459166 0.0015773204 0.0016378057 0.0016727002 0.0016613157
0.0016516655 0.0017090932 0.0017354403 0.0017500233 0.0017776659 0.0017978353 0.001819422 0.0018557818
0.0018786816 0.0019195548 0.0019565772 0.0020218792 0.0020698113 0.0021291343 0.002188887 0.0022641385
0.0023344692 0.0024074195 0.0024707175 0.0025778057 0.002629748 0.0027347358 0.0027602538 0.002853317
0.002927348 0.0029812725 0.0030975258 0.0031225001 0.0031584748 0.0032061227 0.0032836092 0.003337056
0.0033979043 0.0035325284 0.0036755556 0.003837687 0.003942051 0.004012928 0.0041534924 0.0043179463
0.0044754855 0.004612848 0.0047515705 0.004919998 0.005071475 0.0052226097 0.0053459043 0.005379356
0.005495478 0.0055873706 0.005678156 0.005728947 0.005820765 0.0060060183 0.006180373 0.0063671786
0.0065252124 0.0067103556 0.006951198 0.007163244 0.007338245 0.007598944 0.00776399 0.007907053
0.008106533 0.008283139 0.008470434 0.008650829 0.008863896 0.009073955 0.009352563 0.009635038
0.009922576 0.0102541875 0.01066614 0.0108646145 0.011219335 0.011599728 0.011928328 0.012513059
0.0011912046 1.0011742 0.0012314275 0.0012633089 0.0012407696 0.001297643 0.0012693056 0.0012811777
0.0012772449 0.0013066878 0.0013385676 0.0013108198 0.0013022255 0.0013592091 0.0013581753 0.0014069447
0.0014583807 0.0015056069 0.0015114266 0.0014838455 0.0014529142 0.001437035 0.0014383128 0.0014123289
0.0013578675 0.0013621495 0.0013420183 0.0013150086 0.0013145227 0.0012276329 0.0012172973 0.001224285
0.0012559352 0.0012966754 0.0013939037 0.0014422614 0.001556838 0.0016224682 0.0016552176 0.001646027
0.0016276377 0.0016901696 0.0017221652 0.0017392148 0.0017670724 0.0017806228 0.0018057326 0.0018383426
0.0018619322 0.0019022956 0.0019404595 0.002000555 0.0020498135 0.0021061935 0.0021667867 0.0022430818
0.0023102942 0.0023857655 0.0024546976 0.0025568216 0.0026089728 0.0027066679 0.0027297288 0.0028227747
0.0029016868 0.0029537291 0.003066058 0.0030927006 0.0031348944 0.0031819628 0.00326219 0.0033182774
0.0033759268 0.0035000308 0.0036448638 0.0038130763 0.003914793 0.0039842944 0.004123184 0.0042839735
0.004441979 0.0045808665 0.0047249473 0.0048935153 0.00504834 0.0052003977 0.005325157 0.0053573037
0.0054737404 0.0055674533 0.0056528617 0.0057069166 0.0058014393 0.0059795277 0.00614779 0.0063311416
0.006485202 0.0066731176 0.006916899 0.007124392 0.0072992183 0.0075640916 0.0077251415 0.007870759
0.008071518 0.008250127 0.008435918 0.008610667 0.008825471 0.009040886 0.009317891 0.009592454
0.009879602 0.010206847 0.010616262 0.010817066 0.011169387 0.011547039 0.011877865 0.012459553
0.0011987719 0.0011815691 1.0012339 0.0012671369 0.0012462722 0.0013063005 0.0012778784 0.0012873479
0.0012859884 0.0013156106 0.0013478409 0.0013198232 0.0013075357 0.0013633316 0.0013631623 0.00141296
00000000: d527 803f 9402 9e3a d175 a53a 42cb a93a
00000010: 0238 a63a 8dc4 ad3a 02f8 a93a 0987 ab3a
00000020: a60c ab3a ff8f ae3a 4e8e b23a 7ebd ae3a
00000030: e9a2 ad3a d241 b53a d057 b53a 182e bc3a
00000040: 8a08 c33a 4edb c83a 9e83 c93a 68b9 c53a
00000050: 5ddc c03a 49b0 be3a c11a be3a 0f76 ba3a
00000060: f6e4 b33a 8471 b43a 4a0c b23a b7fc ae3a
00000070: ed92 ae3a 1d3b a33a b09e a23a fb45 a33a
00000080: e769 a63a 52e0 ab3a 88cc b83a 7c41 bf3a
00000090: 17be ce3a a4ab d63a 813e db3a 81c0 d93a
000000a0: b37c d83a a703 e03a b777 e33a 0a61 e53a
000000b0: 9200 e93a 58a5 eb3a ac79 ee3a b43d f33a
000000c0: 183e f63a 9299 fb3a eb39 003b 8181 043b
000000d0: aca5 073b f288 0b3b 6e73 0f3b f161 143b
000000e0: e5fd 183b ccc5 1d3b c3eb 213b 67f0 283b
000000f0: da57 2c3b 4139 333b 60e5 343b b7fe 3a3b
00000100: c0d8 3f3b 7461 433b dcff 4a3b dca2 4c3b
00000110: 6afe 4e3b d01d 523b d231 573b 82b2 5a3b
00000120: 60af 5e3b fe81 673b 97e1 703b b481 7b3b
00000130: 522c 813b e17e 833b 051a 883b 8f7d 8d3b
00000140: 18a7 923b 6027 973b 10b3 9b3b ef37 a13b
00000150: 9e2e a63b 6d22 ab3b b22c af3b 4f45 b03b
00000160: 6913 b43b 4316 b73b d30f ba3b e4b9 bb3b
00000170: 1ebc be3b 22ce c43b ba84 ca3b c4a3 d03b
00000180: 73d1 d53b 8be2 db3b e0c6 e33b a5b9 ea3b
00000190: a975 f03b 9000 f93b 1269 fe3b 968c 013c
000001a0: 44d1 043c 01b6 073c 93c7 0a3c 35bc 0d3c
000001b0: e039 113c edaa 143c 7e3b 193c 47dc 1d3c
000001c0: 4d92 223c 2e01 283c 09c1 2e3c 7f01 323c
000001d0: 4dd1 373c c90c 3e3c 096f 433c 9303 4d3c
000001e0: 3222 9c3a 7a26 803f da67 a13a 9d95 a53a
000001f0: 52a1 a23a ac15 aa3a d45e a63a 31ed a73a
00000200: 3a69 a73a 2b45 ab3a e072 af3a d0cf ab3a
00000210: 70af aa3a 7d27 b23a cd04 b23a 3b69 b83a
00000220: 2327 bf3a c957 c53a 101b c63a 987d c23a
00000230: b66f be3a e55a bc3a c585 bc3a e51d b93a
00000240: 79fa b13a 278a b23a a9e6 af3a 5e5c ac3a
00000250: 104c ac3a 86e8 a03a b88d 9f3a 3078 a03a
00000260: 319e a43a 35f5 a93a a6b3 b63a 430a bd3a
00000270: d10e cc3a 00a9 d43a e3f3 d83a 80bf d73a
00000280: 7556 d53a ae88 dd3a 46ba e13a 5df6 e33a
00000290: 1c9d e73a c963 e93a 55ae ec3a 8bf4 f03a
000002a0: 140c f43a 7356 f93a 0457 fe3a be1b 033b
000002b0: 2a56 063b 1008 0a3b a600 0e3b ab00 133b
000002c0: 4e68 173b 815a 1c3b fede 203b 5990 273b
000002d0: 4dfb 2a3b 5a62 313b 40e5 323b 4dfe 383b
000002e0: 3a2a 3e3b 5a93 413b ebef 483b e8ae 4a3b
000002f0: cd72 4d3b 7a88 503b 77ca 553b 7577 593b
00000300: a73e 5d3b c660 653b abde 6e3b cee4 793b
00000310: aa47 803b af8e 823b c61b 873b 9360 8c3b
00000320: 058e 913b 181b 963b bbd3 9a3b c859 a03b
00000330: 8c6c a53b 1968 aa3b a87e ae3b 528c af3b
00000340: 105d b33b 2f6f b63b a43b b93b 1601 bb3b
00000350: 001a be3b eaef c33b 6673 c93b 7775 cf3b
00000360: d181 d43b 2baa da3b 27a7 e23b bb73 e93b
00000370: 482e ef3b 33dc f73b 2f23 fd3b 5bf4 003c
00000380: 663e 043c 8a2b 073c ce36 0a3c c113 0d3c
00000390: b598 103c 3920 143c 11aa 183c ab29 1d3c
000003a0: 0ede 213c 9f3a 273c d5ef 2d3c 103a 313c
000003b0: ceff 363c cb2f 3d3c 609b 423c 2723 4c3c
000003c0: 1c20 9d3a e1de 9a3a 6f28 803f 0f16 a63a
000003d0: f559 a33a 2c38 ab3a 7c7e a73a 3abc a83a
000003e0: 9c8e a83a 9170 ac3a 09aa b03a ebfd ac3a
000003f0: 9e61 ab3a d1b1 b23a 23ac b23a 1233 b93a

gc1.fc.weight f4 [128, 30]
0.04254852 0.12722181 0.043258686 0.14530627 0.018752862 -0.13432689 -0.13969006 0.048378725
-0.118543535 0.09447406 -0.10600033 -0.0026127961 0.13109982 -0.16571262 0.027043588 0.046714604
0.17948067 0.013649727 -0.016342754 -0.16402769 -0.18501905 0.16490477 0.07305168 0.09976333
-0.020230679 -0.12562574 0.112708345 0.18155187 0.07970945 -0.06035358 0.015899282 0.02771795
-0.058621906 -0.08153532 0.10290145 0.018495794 -0.0064774835 -0.14422119 0.120177664 0.16087157
0.16219781 -0.004227214 -0.15511857 0.16700536 -0.18719995 -0.0276631 -0.15379322 -0.12500978
0.008780345 0.108784676 -0.14000121 -0.13668442 -0.13111499 -0.12549655 0.09355207 -0.13822047
-0.044850662 0.057356913 0.1799744 -0.06475918 -0.18810882 0.007803979 -0.09796192 0.19057871
0.10200545 -0.052701216 -0.058827482 -0.07491281 -0.04966051 -0.027853545 0.09229763 0.009904792
0.05308221 0.1595469 0.1343715 -0.06628263 0.14264357 0.117178924 -0.15152486 -0.09508431
0.027686935 -0.13589852 -0.14821532 -0.057285544 -0.0693355 0.042940125 -0.20693243 -0.16648914
0.08695224 -0.17128967 -0.15508878 0.15377362 0.12967315 0.07711671 0.18732126 -0.07252855
-0.065838516 -0.01809101 -0.015565714 0.025446389 0.059580103 0.12530987 -0.13576812 -0.078776896
-0.16595471 -0.08438331 0.051733427 -0.07964357 0.14112642 -0.08030904 0.0042669117 -0.10490531
0.04986698 0.16845615 -0.057802767 -0.055535696 -0.038915135 -0.003778831 -0.16124536 0.08394166
0.13106313 0.04217571 0.041637026 -0.031050704 0.101722494 0.15425654 0.11116131 0.19898438
-0.012594599 -0.03901474 0.10052906 -0.11928899 0.05905706 0.038373575 -0.026071846 0.11209029
0.054717388 0.059572786 -0.042495143 -0.107225806 -0.017087568 -0.09518287 0.16343787 0.11698043
0.041808445 0.122841395 -0.10481274 -0.12412536 -0.077401705 0.18272454 -0.08417375 0.14772236
0.13140325 0.030057352 0.12461873 -0.16454785 -0.13522294 -0.058089767 -0.07821851 -0.009575321
-0.05559185 -0.09022342 0.14124241 0.030829899 0.08816905 -0.16432565 -0.13327779 -0.035023544
0.08873739 0.056010753 -0.16247733 0.0143784825 -0.10304241 -0.10978393 0.1630709 -0.0662889
0.02443023 -0.11331361 -0.13111244 -0.09287811 0.12275367 0.11897506 0.004388244 0.12407998
-0.12998524 -0.0663292 0.14187838 0.15685238 0.14212345 -0.049363073 0.14009298 0.1404931
-0.12619929 -0.09624507 0.10922148 -0.029871881 0.11060458 0.07799205 -0.15116848 -0.06200967
-0.07698902 0.035801876 0.11122543 0.018790197 0.17339636 -0.070639424 -0.032435916 0.11847168
0.06291303 -0.15072827 0.058110874 -0.18845525 0.18037674 -0.00070206844 -0.17103985 -0.009973377
-0.09116683 -0.099712506 0.1768439 -0.08045566 -0.20176816 0.003067312 0.15899901 0.06666926
-0.10809653 0.10202633 0.09493404 0.07717063 0.14495915 -0.19089487 0.05002251 0.124244064
0.0072807153 0.0033165063 0.0077179023 0.11108202 -0.047797482 0.094687596 0.13460092 0.0111385975
0.04270287 -0.16086923 -0.15336183 -0.18086751 0.10284153 -0.055492155 0.019306518 -0.0006047126
-0.1779108 0.1828909 -0.068498425 -0.11733508 0.1563347 0.13673216 0.056271404 0.094841205
00000000: 5b47 2e3d 6f46 023e 0530 313d 2bcb 143e
00000010: 9a9f 993c fd8c 09be e90a 0fbe c528 463d
00000020: f4c6 f2bd 9e7b c13d b316 d9bd 723b 2bbb
00000030: 083f 063e 92b0 29be 848a dd3c d057 3f3d
00000040: c8c9 373e 1ba3 5f3c 3de1 85bc e0f6 27be
00000050: a275 3dbe ccdc 283e 1f9c 953d b750 cc3d
00000060: cfba a5bc 09a4 00be a2d3 e63d bce8 393e
00000070: b53e a33d 5135 77bd 363f 823c c110 e33c
00000080: 861d 70bd fdfb a6bd ffbd d23d 7e84 973c
00000090: 1241 d4bb b8ae 13be b51f f63d 84bb 243e
000000a0: 2f17 263e 7184 8abb 67d7 1ebe 7403 2b3e
000000b0: 58b1 3fbe ba9d e2bc f87b 1dbe 9002 00be
000000c0: 70db 0f3c 80ca de3d 7a5c 0fbe 00f7 0bbe
000000d0: 0243 06be 2b82 00be 3a98 bf3d ab89 0dbe
000000e0: 54b5 37bd 15ef 6a3d 364b 383e 76a0 84bd
000000f0: 999f 40be 85b8 ff3b 42a0 c8bd 1127 433e
00000100: 3ce8 d03d 3bdd 57bd 16f5 70bd e36b 99bd
00000110: d268 4bbd 1e2d e4bc 8a06 bd3d b547 223c
00000120: bb6c 593d 4360 233e af98 093e 30bf 87bd
00000130: 2811 123e 81fb ef3d 5529 1bbe 90bb c2bd
00000140: b6cf e23c fb28 0bbe c2c5 17be 3fa4 6abd
00000150: c5ff 8dbd fce1 2f3d 18e6 53be 217c 2abe
00000160: 0414 b23d 8f66 2fbe 98cf 1ebe d576 1d3e
00000170: 0ac9 043e 5eef 9d3d 25d1 3f3e d989 94bd
00000180: 58d6 86bd 9933 94bc 5607 7fbc f274 d03c
00000190: 440a 743d 3b51 003e cc06 0bbe c855 a1bd
000001a0: 08f0 29be 28d1 acbd 6ee6 533d 2b1c a3bd
000001b0: 7283 103e 1179 a4bd 73d1 8b3b 98d8 d6bd
000001c0: 5241 4c3d c57f 2c3e 98c2 6cbd 6679 63bd
000001d0: 7a65 1fbd 44a6 77bb 811d 25be 9be9 ab3d
000001e0: 6a35 063e 70c0 2c3d 968b 2a3d 0c5e febc
000001f0: e253 d03d 6df5 1d3e 8aa8 e33d 90c2 4b3e
00000200: 9459 4ebc eccd 1fbd 2ee2 cd3d c94d f4bd
00000210: d1e5 713d 9c2d 1d3d a094 d5bc 988f e53d
00000220: 571f 603d 9802 743d 630f 2ebd 3499 dbbd
00000230: 3afb 8bbc 3def c2bd 425c 273e 7093 ef3d
00000240: 553f 2b3d 4594 fb3d 10a8 d6bd 7035 febd
00000250: c984 9ebd 241c 3b3e 4963 acbd 8844 173e
00000260: 938e 063e d63a f63c 1b38 ff3d 3b7f 28be
00000270: e277 0abe 89ef 6dbd 0731 a0bd cfe1 1cbc
00000280: 48b4 63bd 0ec7 b8bd daa1 103e fc8e fc3c
00000290: fa91 b43d fc44 28be f979 08be d974 0fbd
000002a0: f3bb b53d 886b 653d 7560 26be ba93 6b3c
000002b0: e607 d3bd 66d6 e0bd 0ffc 263e 7ac2 87bd
000002c0: e821 c83c f710 e8bd 5742 06be e136 bebd
000002d0: 4766 fb3d 32a9 f33d 42cb 8f3b a51d fe3d
000002e0: da1a 05be 9bd7 87bd 9148 113e e99d 203e
000002f0: cf88 113e ef30 4abd 8974 0f3e 6cdd 0f3e
00000300: 633a 01be 231c c5bd 83af df3d e0b5 f4bc
00000310: a784 e23d 4cba 9f3d e9cb 1abe dafd 7dbd
00000320: 6bac 9dbd fda4 123d 29ca e33d e6ed 993c
00000330: d18e 313e 67ab 90bd 86db 04bd 48a1 f23d
00000340: 8cd8 803d 8358 1abe ab05 6e3d 6afa 40be
00000350: aeb4 383e 040b 38ba 1225 2fbe 6067 23bc
00000360: adb5 babd 1236 ccbd 9116 353e f0c5 a4bd
00000370: 509c 4ebe f504 493b a3d0 223e e589 883d
00000380: b761 ddbd 2ef3 d03d c76c c23d a30b 9e3d
00000390: 2c70 143e f279 43be 67e4 4c3d ac73 fe3d
000003a0: 1193 ee3b be59 593b 75e6 fc3b f87e e33d
000003b0: 4bc7 43bd 92eb c13d d3d4 093e aa7e 363c
000003c0: 34e9 2e3d e7ba 24be e20a 1dbe 5535 39be
000003d0: 959e d23d be4b 63bd b428 9e3c 9385 1eba
000003e0: 402e 36be c147 3b3e e748 8cbd 604d f0bd
000003f0: 3416 203e 8403 0c3e d87c 663d 1b3c c23d

gc1.fc.bias f4 [128]
0.11274267 -0.1597164 -0.11530271 0.0024917093 -0.12434742 -0.11624664 0.0071600545 0.16070205
0.08324818 0.13185164 -0.122579955 0.13125318 0.1484387 -0.1230343 -0.026477816 -0.08148599
-0.017510828 -0.100681886 -0.16057341 -0.077287756 0.12409274 0.105506495 -0.10645032 0.09854826
0.006406034 -0.060670797 0.018254757 0.13035737 -0.13251215 -0.1330524 0.09849191 0.1086766
0.022898147 0.167223 -0.006636698 0.11634574 -0.07391775 0.17822936 -0.08392199 0.11161953
0.0135855 -0.14471543 0.07894157 0.05780088 0.16925044 0.0369323 -0.029232329 -0.018299688
-0.15968393 0.05962415 0.023027226 0.110650145 -0.14842537 0.05162853 0.09732982 0.1792286
0.15012683 -0.08618352 -0.1466384 -0.05063272 0.048179664 -0.03169535 -0.17557506 0.031633843
-0.0057579805 0.16538264 -0.05423013 0.120708495 -0.14571427 -0.058688782 0.09614929 -0.16003475
-0.13581793 0.1477464 0.047169335 0.083852 -0.0016590827 -0.16065732 -0.15403882 0.19088358
0.09844726 -0.1292055 0.053954795 -0.00010331462 -0.08954891 -0.0022316843 0.15707594 0.09870113
-0.02601463 -0.037198756 -0.053579982 -0.029456753 0.09092881 0.067539655 -0.1827394 -0.15746656
0.046042092 -0.17481926 -0.15579905 0.08648226 0.10825849 -0.12389427 0.16922814 0.0016817688
0.021806255 -0.05057158 0.039485887 -0.120683655 0.17621532 -0.09439523 0.14428452 -0.13683504
-0.11476499 0.12819305 -0.10488905 0.037594628 0.063676864 0.118363425 -0.10206572 -0.1697557
-0.08469853 0.14588007 0.13910781 -0.13715757 0.052477773 0.025846077 0.054549523 -0.0042320085
00000000: a1e5 e63d b28c 23be d423 ecbd f24b 233b
00000010: dca9 febd b812 eebd e49e ea3b 148f 243e
00000020: 067e aa3d 1e04 073e 330b fbbd 3c67 063e
00000030: 5100 183e 68f9 fbbd 01e8 d8bc 20e2 a6bd
00000040: de72 8fbc 4e32 cebd 5b6d 24be 0b49 9ebd
00000050: 5624 fe3d ca13 d83d a002 dabd acd3 c93d
00000060: b5e9 d13b f181 78bd 008b 953c 677c 053e
00000070: 44b1 07be e33e 08be 20b6 c93d d691 de3d
00000080: e594 bb3c 823c 2b3e a878 d9bb ad46 ee3d
00000090: 3062 97bd c281 363e 4bdf abbd c898 e43d
000000a0: b895 5e3c 4830 14be 1eac a13d 9ec0 6c3d
000000b0: fd4f 2d3e 5346 173d a378 efbc 3ae9 95bc
000000c0: 2f84 23be 7438 743d 98a3 bc3c 8b9c e23d
000000d0: d2fc 17be 7078 533d db54 c73d b487 373e
000000e0: d9ba 193e fc80 b0bd 6028 16be 4164 4fbd
000000f0: 0a58 453d fcd2 01bd f3c9 33be 7d92 013d
00000100: 71ad bcbb 115a 293e 6a20 5ebd 0436 f73d
00000110: 1f36 15be a663 70bd ebe9 c43d 26e0 23be
00000120: db13 0bbe d54a 173e a234 413d 99ba ab3d
00000130: 9475 d9ba 5a83 24be 5abc 1dbe fc76 433e
00000140: b89e c93d 724e 04be b4ff 5c3d 9daa d8b8
00000150: 6b65 b7bd 7341 12bb 84d8 203e d123 ca3d
00000160: a21c d5bc b95d 18bd af76 5bbd 4a4f f1bc
00000170: e238 ba3d 3b52 8a3d 0a20 3bbe ea3e 21be
00000180: a296 3c3d d203 33be c989 1fbe 9c1d b13d
00000190: a1b6 dd3d 47bc fdbd 244a 2d3e cc6e dc3a
000001a0: 08a3 b23c 2524 4fbd f4bb 213d fe28 f7bd
000001b0: ca71 343e 4952 c1bd 52bf 133e 7c1e 0cbe
000001c0: e809 ebbd 0a45 033e 12d0 d6bd d3fc 193d
000001d0: 0469 823d 8668 f23d d507 d1bd 70d4 2dbe
000001e0: 6c76 adbd 9661 153e 4772 0e3e 0973 0cbe
000001f0: eff2 563d 27bb d33c 526f 5f3d a9ac 8abb

gc2.fc.weight f4 [128, 128]
0.05076451 -0.079974525 -0.019338809 -0.012898037 0.108700216 -0.07315905 0.05430215 0.00089387735
-0.08654078 -0.02571378 0.087914094 0.08413229 -0.094248414 -0.023055134 0.07463512 -0.0149447955
-0.06558915 -0.06402463 -0.029496219 -0.06448665 0.018015184 0.07632401 -0.013937603 0.045580186
0.07348648 0.074308105 0.009556061 -0.06818147 -0.002094214 0.049968127 0.08698194 0.017826207
-0.04368896 0.06789882 -0.038800858 0.06045765 -0.095626816 0.052671213 -0.108544424 0.06895548
0.06526848 -0.06131501 -0.024147453 0.045636743 -0.045319747 0.0407426 0.039255276 -0.112946
-0.10709475 0.03916364 0.043132454 0.07465807 0.026936434 -0.0433113 0.036513146 0.028062979
0.105003566 -0.08271204 -0.061353594 0.093688555 0.102950744 -0.09318129 0.050058395 -0.04678918
-0.041404713 -0.05127402 -0.048606467 0.0033074273 -0.035631634 0.104296565 0.03372063 -0.07205269
-0.07135262 0.058926128 0.10537597 -0.03874387 0.061704863 -0.037442975 -0.05902956 0.106641375
-0.0042401236 -0.09004172 -0.0961339 0.07988387 -0.055613287 0.00519337 -0.031136315 -0.039592143
-0.06763501 -0.034123488 0.070701785 -0.0653163 -0.08105945 0.014732154 -0.09443828 0.102517106
0.0830253 -0.03382138 0.07316741 -0.010326665 0.07742288 0.095311366 -0.05177376 0.043466352
-0.004351125 0.030835137 0.04584565 0.09461956 0.07023315 -0.06939243 0.035281043 0.045400504
-0.027358787 -0.07613374 -0.02926429 -0.07331158 -0.011078542 -0.005418199 -0.06537892 0.08125106
0.0711335 0.06753221 -0.036433555 -0.101450205 -0.12716343 0.031466715 -0.11379394 0.09056079
-0.048943866 0.01914421 0.082431026 0.0067979824 -0.09225869 0.028752038 -0.042231627 0.0013851309
0.071475014 0.055946194 -0.07472186 -0.07720737 0.08057158 -0.037067942 0.02357953 0.056889996
-0.0765927 0.06901835 0.08808893 0.07695312 -0.060484193 0.036160048 0.039050963 -0.013230029
-0.078855775 -0.08692679 0.032533202 0.009398862 0.022939997 0.0586814 -0.0689426 -0.04814808
0.08448381 0.033857506 -0.0029587906 -0.010452538 -0.015756594 0.05190858 -0.011664142 -0.018304214
0.088954054 0.0069208075 -0.06365567 0.044744827 -0.051662534 0.03696445 0.016292756 -0.06646967
0.032305244 -0.06363743 -0.056770906 -0.025521172 -0.0102683455 0.043237865 -0.09139395 0.09251678
-0.100902535 0.037130155 -0.064543754 -0.037765987 -0.04850824 0.08824019 -0.056134414 0.010781381
0.006418987 0.075929575 0.09565752 0.04109226 0.058919296 -0.095662184 -0.0719951 -0.046455674
-0.009554141 -0.06079598 0.0240519 0.044691894 0.047284923 0.04609448 -0.031077377 0.012632159
-0.045701873 -0.049270183 0.048411623 -0.07583273 0.03207658 -0.055470694 0.03836904 -0.026376085
-0.014799181 0.06121404 0.06258627 -0.04116825 0.06708503 0.049065884 0.075432815 -0.12067661
0.06350613 -0.0015718201 0.04189406 0.0129576875 -0.05803081 0.0064215474 0.07604421 -0.01722141
-0.011308569 0.074002765 -0.0047999425 0.0040000044 -0.031805307 0.056470003 0.0022853063 -0.054722883
-0.031878836 0.01376932 -0.014344456 -0.069711044 0.038599536 -0.08581256 -0.06461855 -0.014333421
0.007120104 0.06896991 0.010085505 0.0068856427 0.06871359 -0.051235795 0.059683014 -0.016137674
00000000: 72ee 4f3d afc9 a3bd 6c6c 9ebc 4a52 53bc
00000010: 389e de3d 69d4 95bd ee6b 5e3d 1853 6a3a
00000020: 4b3c b1bd b5a5 d2bc 4e0c b43d 8d4d ac3d
00000030: 5005 c1bd 1fde bcbc 4cda 983d 04db 74bc
00000040: 9b53 86bd 581f 83bd 0ea2 f1bc 9411 84bd
00000050: 9494 933c c34f 9c3d 8b5a 64bc 4ab2 3a3d
00000060: 1480 963d d92e 983d 0691 1c3c baa2 8bbd
00000070: 153f 09bb 61ab 4c3d 9623 b23d 4408 923c
00000080: 32f3 32bd 890e 8b3d a6ed 1ebd 71a2 773d
00000090: fed7 c3bd c5bd 573d 8a4c debd 8838 8d3d
000000a0: 7bab 853d 7325 7bbd e1d0 c5bc 98ed 3a3d
000000b0: 33a1 39bd b6e1 263d 24ca 203d 3c50 e7bd
000000c0: 7e54 dbbd 0e6a 203d a8ab 303d 55e6 983d
000000d0: cca9 dc3c 3167 31bd cf8e 153d 55e4 e53c
000000e0: 1c0c d73d ee64 a9bd e84d 7bbd c9df bf3d
000000f0: d7d7 d23d d5d5 bebd 080a 4d3d 03a6 3fbd
00000100: fd97 29bd b504 52bd 9317 47bd 6cc1 583b
00000110: 7af2 11bd 7099 d53d a51e 0a3d 5c90 93bd
00000120: 5321 92bd 865c 713d 5bcf d73d e4b1 1ebd
00000130: 3dbe 7c3d ce5d 19bd fbc8 71bd cb66 da3d
00000140: bcf0 8abb cb67 b8bd dae1 c4bd 289a a33d
00000150: c2ca 63bd 252d aa3b 9611 ffbc 5f2b 22bd
00000160: 3984 8abd 12c5 0bbd 19cc 903d 8dc4 85bd
00000170: 7f02 a6bd 225f 713c db68 c1bd 7df4 d13d
00000180: 2b09 aa3d 4a88 0abd ccd8 953d 2c31 29bc
00000190: e38f 9e3d 9b32 c33d b910 54bd c609 323d
000001a0: e293 8ebb f899 fc3c a6c8 3b3d e6c7 c13d
000001b0: 66d6 8f3d 9e1d 8ebd db82 103d e1f5 393d
000001c0: 891f e0bc 02ec 9bbd aabb efbc 6224 96bd
000001d0: c682 35bc 268b b1bb 62e5 85bd f566 a63d
000001e0: 71ae 913d 544e 8a3d 5a3b 15bd 20c5 cfbd
000001f0: 2137 02be 3ee3 003d cc0c e9bd ef77 b93d
00000200: 5d79 48bd 51d4 9c3c 99d1 a83d 9cc1 de3b
00000210: 20f2 bcbd 6589 eb3c 12fb 2cbd 488d b53a
00000220: 7e61 923d d627 653d c607 99bd e61e 9ebd
00000230: b602 a53d 8ed4 17bd dc29 c13c 7c05 693d
00000240: a2dc 9cbd 7e59 8d3d f867 b43d 9999 9d3d
00000250: 46be 77bd 8f1c 143d e7f3 1f3d c3c2 58bc
00000260: 237f a1bd ac06 b2bd 8941 053d affd 193c
00000270: a9ec bb3c e85b 703d c731 8dbd ec36 45bd
00000280: d905 ad3d 2bae 0a3d 45e8 41bb 1f41 2bbc
00000290: f913 81bc 179e 543d f51a 3fbc b8f2 95bc
000002a0: 8b2d b63d f1c7 e23b e75d 82bd 5a46 373d
000002b0: 189c 53bd 0968 173d 6378 853c 4021 88bd
000002c0: 8152 043d 5754 82bd 9c88 68bd c711 d1bc
000002d0: 903c 28bc 301a 313d c02c bbbd 7079 bd3d
000002e0: fda5 cebd ca15 183d 842f 84bd 82b0 1abd
000002f0: 94b0 46bd 46b7 b43d 33ed 65bd 64a4 303c
00000300: 5e56 d23b f780 9b3d 17e8 c33d 5c50 283d
00000310: 5c55 713d 89ea c3bd 2b72 93bd 4e48 3ebd
00000320: f988 1cbc 3505 79bd 7d08 c53c d90e 373d
00000330: d6ad 413d 91cd 3c3d fc95 febc 1df7 4e3c
00000340: e331 3bbd 88cf 49bd 444b 463d 314e 9bbd
00000350: bb62 033d 3d35 63bd db28 1d3d a912 d8bc
00000360: 4478 72bc 93bb 7a3d 3b2d 803d 0aa0 28bd
00000370: e063 893d 4ff9 483d 857c 9a3d 4c25 f7bd
00000380: 800f 823d 8805 ceba 1b99 2b3d 7b4c 543c
00000390: b7b1 6dbd d86b d23b 11bd 9b3d ea13 8dbc
000003a0: 9447 39bc c38e 973d d648 9dbb 7812 833b
000003b0: 4846 02bd 174d 673d 14c5 153b 1a25 60bd
000003c0: 6293 02bd b798 613c 0205 6bbc aac4 8ebd
000003d0: 8c1a 1e3d 7fbe afbd bb56 84bd bad6 6abc
000003e0: c34f e93b 1940 8d3d ad3d 253c f5a0 e13b
000003f0: b6b9 8c3d a0dc 51bd 2d76 743d 2833 84bc

gc2.fc.bias f4 [128]
0.07504906 0.00091281143 0.07068217 0.022511948 -0.030860724 0.021356052 -0.026979672 -0.057383932
-0.027960151 0.09154851 -0.011223307 -0.07766645 0.08895974 0.0033773757 -0.04184017 -0.03965702
-0.021687336 0.046569917 0.083335295 0.060043484 -0.022029402 0.049192622 0.074462265 -0.08559878
0.050666574 -0.029422391 -0.04659117 -0.027721455 0.08712381 -0.019804286 0.0069293883 0.015622539
0.0127968835 0.049736705 -0.009187569 -0.06872676 -0.054587852 -0.042888 -0.05727302 0.04119082
0.06092475 -0.080278836 -0.017265959 0.07853264 -0.048377246 0.056844436 0.055989843 0.00828266
-0.021462271 -0.03565673 -0.024288189 -0.01528896 0.027999317 -0.079731815 0.04833148 -0.03404583
0.0034581497 0.09812663 -0.058161847 0.03422528 -0.059271675 -0.0422388 0.019566268 0.057963833
0.03550829 0.023545204 0.08122017 0.043467585 -0.043300506 -0.042853016 -0.056298926 0.06951279
0.032394234 0.046095576 0.08706959 0.03634015 -0.023099948 0.059797723 -0.06238496 0.060261015
0.08420879 0.097327754 -0.065707974 0.0523437 0.0766522 -0.009270056 0.08416277 0.09256995
-0.024046116 0.07080013 0.08068748 -0.03384006 0.008948911 0.03534813 -0.007006347 -0.040626694
0.03936214 -0.07766238 -0.0725898 0.09056121 -0.045938898 0.07294406 -0.018117743 -0.0013990746
0.030374022 0.086838424 -0.011922692 0.043954115 0.05740661 0.07255481 -0.023789696 -0.044366475
-0.060058404 0.016044805 0.057851873 -0.07365037 0.054334346 -0.070305586 0.06612103 0.06733025
-0.08077032 0.0465179 0.09621891 0.022369301 0.04169595 -0.028639555 0.055441625 0.014670553
00000000: 52b3 993d bd49 6f3a d0c1 903d fa6a b83c
00000010: a1cf fcbc e3f2 ae3c 7904 ddbc 6a0b 6bbd
00000020: b00c e5bc c97d bb3d f6e1 37bc 960f 9fbd
00000030: 8630 b63d f656 5d3b 9960 2bbd 666f 22bd
00000040: a4a9 b1bc 19c0 3e3d b2ab aa3d 28f0 753d
00000050: 0177 b4bc 347e 493d ac7f 983d 6a4e afbd
00000060: c187 4f3d 3a07 f1bc 62d6 3ebd 1b18 e3bc
00000070: f86d b23d 993c a2bc ec0f e33b aef5 7f3c
00000080: 05aa 513c b7b8 4b3d 7587 16bc 9ec0 8cbd
00000090: 8397 5fbd 54ab 2fbd 1d97 6abd b5b7 283d
000000a0: 3b8c 793d 3b69 a4bd 5771 8dbc b9d5 a03d
000000b0: 3827 46bd b6d5 683d 9b55 653d feb3 073c
000000c0: a5d1 afbc cb0c 12bd 06f8 c6bc 8c7e 7abc
000000d0: d35e e53c 6f4a a3bd 3bf7 453d a473 0bbd
000000e0: 20a2 623b 9df6 c83d 1e3b 6ebd cf2f 0c3d
000000f0: dbc6 72bd 9802 2dbd 7049 a03c 7c6b 6d3d
00000100: 2471 113d dfe1 c03c c356 a63d 110b 323d
00000110: df5b 31bd a586 2fbd b499 66bd b95c 8e3d
00000120: d1af 043d b7ce 3c3d 8b51 b23d 69d9 143d
00000130: 1a3c bdbc 75ee 743d 5f87 7fbd 41d4 763d
00000140: a875 ac3d c653 c73d e791 86bd 5966 563d
00000150: d4fb 9c3d 6fe1 17bc 885d ac3d 5095 bd3d
00000160: 5cfc c4bc a9ff 903d 7a3f a53d e09b 0abd
00000170: 749e 123c 33c9 103d 8095 e5bb 2d68 26bd
00000180: 323a 213d 740d 9fbd f6a9 94bd 2878 b93d
00000190: 6d2a 3cbd b263 953d a96b 94bc 2761 b7ba
000001a0: f1d2 f83c 58d8 b13d 6557 43bc 3b09 343d
000001b0: 3223 6b3d 9e97 943d 9ce2 c2bc 9fb9 35bd
000001c0: cdff 75bd 6570 833c 16f6 6c3d 01d6 96bd
000001d0: b18d 5e3d 60fc 8fbd 766a 873d 71e4 893d
000001e0: e96a a5bd 8e89 3e3d 6b0e c53d d33f b73c
000001f0: 5fc9 2a3d 809d eabc c216 633d c25c 703c

temporal_conv.weight f4 [128, 128, 3]
0.035774793 0.04087475 0.0011471661 -0.0370057 -0.043219846 0.02219744 -0.010129589 0.04497142
0.026443234 -0.05046023 0.008296134 0.031386692 -0.041696534 -0.06327598 0.008502226 -0.030411018
0.020794377 -0.0036395183 -0.0006483041 0.014987252 0.015793862 -0.01840382 -0.0040503154 -0.03228789
-0.021625785 -0.05182988 0.024116933 -0.0013733164 -0.048123196 0.0075086416 0.038256746 0.048034992
0.04820644 0.011146944 0.02435136 0.022891328 -0.0321887 -0.036982644 -0.032901123 0.06371083
0.05495236 -0.03809165 0.0003791409 -0.0040040053 -0.0003838244 -0.008026699 0.004774942 0.007245925
-0.0041698315 0.0044717533 0.033126198 -0.01872158 0.018570567 -0.031841297 0.017649006 -0.04187404
-0.029869754 0.0046646534 -0.04424502 0.00725171 0.04694755 0.027070692 -0.022793502 -0.048653588
0.011924904 -0.008666983 0.021202298 0.050488684 0.044423886 -0.03669238 -0.036119733 -0.016347108
0.0030964052 -0.031643905 0.006033265 -0.0041233227 0.03568357 0.047461454 -0.023019968 0.041396752
0.0074966145 -0.0018471343 0.04318431 0.030447572 -0.04572904 -0.054959632 -0.037944313 0.031312402
-0.004106836 -0.047569253 -0.014806599 -0.02124083 -0.012383011 -0.02790624 -0.015633758 -0.030538067
-0.049183324 0.01542133 -0.045130547 0.009933495 -0.021745212 0.005325665 0.0055581112 0.018641196
-0.035222787 0.021765605 0.00479402 -0.040659975 -0.012124792 -0.042922806 -0.0068191458 0.025966046
-0.06161463 0.041747585 -0.011974841 0.0012229262 0.046324544 -0.0008269125 0.022174494 -0.010710923
-0.019285064 0.03514366 0.020164328 -0.011071126 0.035798118 -0.020696526 -0.043919887 0.03088373
0.03474789 -0.07046587 -0.01473949 -0.039211877 -0.010337607 -0.061354753 -0.015481468 0.047289263
0.039551675 0.033000045 0.012424063 0.005155106 0.0035527146 0.048348077 0.017983088 0.021780856
0.0013608952 -0.018710228 -0.009157138 0.040173635 0.045207523 -0.01859963 -0.019548772 -0.011166521
0.00045052858 0.010076499 -0.04465946 -0.02074569 0.030809108 0.017339623 0.02903306 -0.05243334
-0.0335442 0.020451773 -0.005015416 -0.023146482 0.02862568 0.017528886 -0.0181382 -0.03082384
-0.04343174 -0.026232196 0.023102067 0.0303822 0.009941272 0.044116348 -0.04623675 0.007307531
-0.032665137 0.0024024383 0.04857139 -0.01583979 -0.05140569 -0.00026268236 -0.03994531 0.03861473
0.03835825 0.008012905 0.0019369985 -0.013348403 -0.010138387 0.027527548 0.022063876 -0.035205718
-0.0044575226 0.05672111 0.03934333 -0.0061912453 0.02636644 0.019251062 0.026818845 -0.028345037
-0.039422076 0.031834852 -0.02377083 -0.03665353 0.04015338 0.056480717 0.02660064 0.0007288662
-0.02061498 -0.0018628204 0.029763013 -0.047095016 -0.014937877 0.0072842906 -0.002523946 -0.0067908945
0.03170099 -0.03172928 -0.036609456 0.029515687 -0.023764204 0.0329798 0.05035804 -0.013331191
0.036123507 0.004345826 -0.025064923 0.046982992 0.016569529 -0.04315546 0.012991562 0.03481207
0.023756552 -0.03852585 -0.038170066 -0.03335956 -0.020461623 0.040393922 0.0279074 -0.018339852
0.0025419798 -0.044136908 -0.007161457 0.0036218087 0.006376686 -0.021286 0.013065486 -0.068863206
0.05028631 -0.04547411 -0.01115627 0.0025678955 -0.025803072 0.010143775 0.023369664 -0.011360764
00000000: 9788 123d 486c 273d 825c 963a 4a93 17bd
00000010: 4b07 31bd 68d7 b53c 93f6 25bc f433 383d
00000020: 7b9f d83c 63af 4ebd 82ec 073c 558f 003d
00000030: fcc9 2abd d696 81bd ec4c 0b3c 8720 f9bc
00000040: f858 aa3c fc84 6ebb f4f2 29ba 178d 753c
00000050: 2162 813c 9cc3 96bc 82b8 84bb 4e40 04bd
00000060: 8f28 b1bc 914b 54bd e090 c53c da00 b4ba
00000070: d41c 45bd 0d0b f63b 1bb3 1c3d 57c0 443d
00000080: 1e74 453d aca1 363c 817c c73c 9886 bb3c
00000090: 4cd8 03bd 1d7b 17bd 54c3 06bd d37a 823d
000000a0: ba15 613d fd05 1cbd 6ec7 c639 0834 83bb
000000b0: 0a3c c9b9 6a82 03bc 1e77 9c3b 396f ed3b
000000c0: 15a3 88bb c987 923b 56af 073d 005e 99bc
000000d0: 4d21 983c 056c 02bd a694 903c 1d84 2bbd
000000e0: 6ab1 f4bc f3d9 983b 443a 35bd c19f ed3b
000000f0: 134c 403d 5bc3 dd3c 70b9 babc fc48 47bd
00000100: ac60 433c f6ff 0dbc 71b0 ad3c 39cd 4e3d
00000110: d2f5 353d c04a 16bd 49f2 13bd 5fea 85bc
00000120: 0fed 4a3b 0a9d 01bd b2b2 c53b f01c 87bb
00000130: ef28 123d f166 423d 5f94 bcbc a48f 293d
00000140: 29a6 f53b 8b1b f2ba 08e2 303d 306d f93c
00000150: 604e 3bbd 5a1d 61bd 7f6b 1bbd 6f41 003d
00000160: a392 86bb fad7 42bd 6197 72bc 4001 aebc
00000170: 1de2 4abc a19b e4bc 5e12 80bc f82a fabc
00000180: 7474 49bd bfa9 7c3c cfda 38bd 19c0 223c
00000190: 0423 b2bc eb82 ae3b d120 b63b 6cb5 983c
000001a0: c545 10bd c84d b23c 2817 9d3b 138b 26bd
000001b0: 10a7 46bc d3cf 2fbd 2473 dfbb bfb6 d43c
000001c0: 9f5f 7cbd 84ff 2a3d 2032 44bc 984a a03a
000001d0: cebe 3d3d 29c5 58ba 49a7 b53c de7c 2fbc
000001e0: b6fb 9dbc ccf2 0f3d a92f a53c ab63 35bc
000001f0: 0ca1 123d c38b a9bc 57e5 33bd e0ff fc3c
00000200: ce53 0e3d 6950 90bd e77d 71bc a29c 20bd
00000210: 115f 29bc 1f4f 7bbd fca5 7dbc 63b2 413d
00000220: f000 223d 0e2b 073d 4c8e 4b3c 2aec a83b
00000230: a9d4 683b a208 463d 4551 933c c46d b23c
00000240: 1160 b23a 3146 99bc d207 16bc 1c8d 243d
00000250: 862b 393d 405e 98bc bf24 a0bc c9f3 36bc
00000260: ec34 ec39 e617 253c d7ec 36bd def2 a9bc
00000270: 6263 fc3c d30b 8e3c bdd6 ed3c 58c4 56bd
00000280: a565 09bd 7a8a a73c 5c58 a4bb b19d bdbc
00000290: 6780 ea3c bd98 8f3c 9096 94bc 4782 fcbc
000002a0: 7be5 31bd e7e4 d6bc 8c40 bd3c 17e4 f83c
000002b0: b8e0 223c 58b3 343d bf62 3dbd 0374 ef3b
000002c0: e1cb 05bd 3a72 1d3b cbf2 463d 73c2 81bc
000002d0: c68e 52bd a1b8 89b9 b29d 23bd 7b2a 1e3d
000002e0: 8a1d 1d3d 8f48 033c e2e2 fd3a 43b3 5abc
000002f0: 7a1b 26bc 7481 e13c 4dbf b43c df33 10bd
00000300: 6910 92bb 6554 683d 7926 213d eedf cabb
00000310: 6ffe d73c 67b4 9d3c 32b3 db3c da33 e8bc
00000320: 0b79 21bd 4365 023d 0bbb c2bc 0322 16bd
00000330: df77 243d 5358 673d 96e9 d93c 6211 3f3a
00000340: bfe0 a8bc e129 f4ba 90d1 f33c b4e6 40bd
00000350: ffbd 74bc 0fb1 ee3b ca68 25bb 2786 debb
00000360: e6d8 013d 90f6 01bd ccf3 15bd e2ca f13c
00000370: 26ad c2bc d415 073d 3b44 4e3d 116b 5abc
00000380: 3ef6 133d 6e67 8e3b f454 cdbc 3d71 403d
00000390: d2bc 873c c8c3 30bd 8fda 543c 1a97 0e3d
000003a0: 1a9d c23c 48cd 1dbd 3758 1cbd 09a4 08bd
000003b0: 229f a7bc 1974 253d 0f9e e43c 753d 96bc
000003c0: 5897 263b e7c8 34bd a8aa eabb de5b 6d3b
000003d0: 85f3 d03b fa5f aebc 9f10 563c 2708 8dbd
000003e0: 05f9 4d3d 0f43 3abd cac8 36bc 234a 283b
000003f0: f760 d3bc 1332 263c bd71 bf3c 7f22 3abc

temporal_conv.bias f4 [128]
0.013530616 0.061418917 0.028418513 -0.015871879 0.046976496 0.015091139 -0.0242798 0.034465417
-0.019208537 0.0005355724 0.026126321 -0.013819792 -0.011544399 -0.03308944 0.025607174 0.04859278
-0.04545684 -0.02032357 0.06501395 -0.011570559 -0.009942782 -0.03607532 0.053949837 0.040506985
0.037415627 0.00018755674 -0.056352798 0.008603959 0.007060609 0.039477438 0.02501274 0.04819694
0.0047272095 0.00082259206 -0.041195404 -0.008097649 0.001282407 0.006501928 -0.009200807 0.02543538
-0.020642897 -0.016100256 -0.016364275 -0.0061817616 0.05431897 -0.050566766 0.0035738791 0.050502706
-0.011975746 0.05247084 0.034473613 -0.03229529 0.029465334 0.03767863 0.053613562 0.03984439
-0.0012552368 -0.016677741 0.027495736 0.060778636 0.029815735 0.009074511 -0.0015785414 0.020179342
0.042065926 0.036451872 -0.008408752 0.012744577 0.032675475 -0.006832055 -0.04113009 0.016018704
0.020085411 0.051736835 -0.00963245 -0.033427 0.056550134 -0.040170334 0.022781497 -0.027869448
-0.0011966185 -0.019139128 0.0075540203 0.005510336 -0.016964424 0.05826434 0.013088837 -0.01658119
-0.0032497684 -0.014154188 0.0016729935 -0.02122985 -0.05913364 0.020480208 0.0103284605 -0.057955388
-0.020263609 -0.02952304 -0.016295014 0.03665464 0.03294429 0.02032971 0.04972897 0.019983668
-0.015114765 0.0141874375 0.03416248 0.04720918 0.012493417 -0.023289092 -0.018061865 -0.013862101
0.027910573 0.06576194 0.031019261 0.040738843 -0.04382438 0.05489822 0.034335863 0.022791347
0.030523295 0.0033052969 -0.038328268 -0.020189026 0.031599913 -0.02800743 -0.029499823 -0.03419171
00000000: 84af 5d3c 6792 7b3d f1cd e83c be05 82bc
00000010: 6d6a 403d d340 773c 6ee6 c6bc 9c2b 0d3d
00000020: 395b 9dbc a865 0c3a de06 d63c 696c 62bc
00000030: b824 3dbc cb88 07bd 23c6 d13c 3909 473d
00000040: f430 3abd 9e7d a6bc 0926 853d 7192 3dbc
00000050: 0de7 22bc b7c3 13bd 81fa 5c3d a7ea 253d
00000060: 2141 193d e1aa 4439 31d2 66bd 9ff7 0c3c
00000070: ae5c e73b 18b3 213d 85e7 cc3c 286a 453d
00000080: b5e6 9a3b 38a3 573a 83bc 28bd 00ac 04bc
00000090: 7016 a83a 200e d53b fbbe 16bc dc5d d03c
000000a0: 4b1b a9bc afe4 83bc 5f0e 86bc 6090 cabb
000000b0: 917d 5e3d 191f 4fbd be37 6a3b eddb 4e3d
000000c0: eb35 44bc aaeb 563d 3434 0d3d 1148 04bd
000000d0: 4961 f13c e854 1a3d e599 5b3d df33 233d
000000e0: c286 a4ba c29f 88bc bd3e e13c 05f3 783d
000000f0: 2140 f43c 42ad 143c 0fe7 ceba 264f a53c
00000100: 524d 2c3d 8f4e 153d ddc4 09bc a1ce 503c
00000110: b8d6 053d 6edf dfbb 0678 28bd a839 833c
00000120: 298a a43c 01ea 533d 6cd1 1dbc c0ea 08bd
00000130: 1da1 673d a689 24bd 43a0 ba3c 784e e4bc
00000140: dbd7 9cba a9c9 9cbc b787 f73b 0c90 b43b
00000150: faf8 8abc 97a6 6e3d 9072 563c 47d5 87bc
00000160: 11fa 54bb f8e6 67bc 5948 db3a 39ea adbc
00000170: 1e36 72bd 1cc6 a73c b438 293c a162 6dbd
00000180: deff a5bc 4dda f1bc 1f7d 85bc 2d23 163d
00000190: 98f0 063d 7e8a a63c 9bb0 4b3d cab4 a33c
000001a0: eba3 77bc 6d72 683c f5ed 0b3d 6a5e 413d
000001b0: 30b1 4c3c c4c8 bebc 7af6 93bc de1d 63bc
000001c0: b7a4 e43c 32ae 863d 1b1c fe3c c6dd 263d
000001d0: 3181 33bd f5dc 603d c3a3 0c3d ebb4 ba3c
000001e0: fd0b fa3c ae9d 583b 1afe 1cbd 7563 a5bc
000001f0: e96e 013d d66f e5bc 9da9 f1bc 9b0c 0cbd

fc.weight f4 [30, 128]
0.072672024 0.05584494 0.0287068 0.10094967 -0.06295604 0.07350853 -0.10223704 0.049426373
-0.07830975 0.060473047 -0.050267138 -0.041955285 -0.037854243 0.0035956397 0.114962965 0.07321236
0.04340783 -0.018526025 -0.0043663965 0.05107273 -0.026958307 0.027023816 -0.044655904 0.017698336
0.0081622675 0.010303217 -0.07297167 -0.04978355 -0.018220376 -0.06348389 -0.0160666 -0.030333929
0.07162899 -0.04083644 -0.06773292 0.045302287 0.055400897 0.09895461 0.042640977 -0.108180515
0.0034966439 -0.054237682 0.050288975 -0.057471197 0.064039335 -0.0012173876 -0.066429675 -0.088675074
-0.05073981 0.018804487 0.073416695 0.050423343 0.057599887 -0.07785025 -0.024696585 0.013285415
-0.08286134 -0.042056073 -0.032409176 0.055010285 -0.024965838 -0.0553275 -0.08281905 0.040852115
-0.0010285177 -0.012440344 0.1011361 -0.100853726 0.055923447 -0.028155033 0.046414748 -0.09478749
-0.092083044 0.058858674 0.009227231 0.03117764 -0.0055996324 -0.028773725 0.052613694 0.032378357
-0.100749925 -0.04960241 0.0070704278 0.010163204 -0.0059647607 -0.03317823 -0.03446589 -0.08298407
0.0505339 -0.08546147 0.009139132 0.015451943 -0.08613162 -0.0059549944 -0.01427974 -0.05878908
-0.023832912 -0.11114091 -0.09046556 0.029549401 0.062921144 0.016837306 0.004979087 -0.03612819
-0.022530783 -0.06349693 -0.0654399 0.024837168 0.026348537 -0.060291864 0.022566402 -0.031150008
0.01635569 0.013863917 -0.045690686 0.008591963 -0.0058952007 -0.028488923 0.092711404 -0.0054094936
0.034498215 0.08017305 0.05604618 0.050240412 0.07178276 -0.0243236 -0.00364307 -0.009591706
-0.1135204 0.065293394 -0.025887897 -0.0010398696 0.039570335 -0.0037079365 -0.03784307 -0.044291656
-0.07151899 0.086694874 -0.023844015 0.05244978 -0.049566388 -0.052382488 0.012088669 0.043560088
-0.054665107 0.06896172 -0.0105867945 0.06915346 0.07813396 0.0791327 -0.043839674 0.04477986
0.05731697 -0.04692913 -0.06383547 0.0077443896 0.012591322 0.066186115 -0.048141204 0.0035106933
0.071096845 0.0018090839 0.040430922 -0.031605467 -0.05587116 -0.010764249 0.05812336 0.034675565
-0.002392244 0.05140203 -0.019902177 -0.030981826 0.032483142 0.019849371 0.077436246 -0.013168536
-0.04097011 0.014406297 -0.06629909 -0.046429873 -0.044525612 -0.032331184 0.027024701 -0.059917483
-0.08209925 0.057277504 -0.07262244 0.017726356 0.03387142 0.066222675 0.01021924 0.047843926
0.082069956 -0.08458206 0.056506947 0.025092145 0.021801542 -0.042971436 0.08023589 -0.037383128
-0.046895783 0.060356777 0.06732734 -0.02598664 0.019490527 0.048719596 -0.05368245 -0.012830785
0.027771663 0.032296803 -0.05599484 -0.046127055 0.093705475 0.0579192 -0.045623943 0.123560145
0.051246077 0.03905344 -0.07375184 -0.0040151672 0.005468909 0.06570012 -0.06252255 -0.030684723
0.08031445 0.07193114 -0.036105093 -0.056382466 0.03205367 0.029700674 -0.087963045 0.06891994
-0.03298604 0.05260341 -0.062490318 -0.07446304 0.008929682 0.008588875 0.025375858 0.010145975
0.005680493 0.04613963 -0.017047482 0.047522623 0.005788467 -0.08682751 -0.021498218 0.02414176
0.0007397125 -0.0780436 0.0019241337 0.0134267155 0.021204462 -0.057294305 -0.015389903 -0.0768776
00000000: 12d5 943d aabd 643d 862a eb3c b3be ce3d
00000010: 19ef 80bd a48b 963d a761 d1bd 4f73 4a3d
00000020: dd60 a0bd 96b2 773d eae4 4dbd 4ed9 2bbd
00000030: 0d0d 1bbd d3a4 6b3b b471 eb3d 5df0 953d
00000040: 69cc 313d e4c3 97bc fd13 8fbb a431 513d
00000050: abd7 dcbc 0d61 dd3c 1ce9 36bd 1afc 903c
00000060: 08bb 053c d3ce 283c 2c72 95bd d6e9 4bbd
00000070: e642 95bc d703 82bd 1a9e 83bc dc7e f8bc
00000080: 38b2 923d 1c44 27bd 8fb7 8abd e48e 393d
00000090: 0dec 623d b7a8 ca3d 4ea8 2e3d bf8d ddbd
000000a0: f327 653b 5528 5ebd d0fb 4d3d eb66 6bbd
000000b0: 0e27 833d c090 9fba 480c 88bd 479b b5bd
000000c0: 8cd4 4fbd de0b 9a3c 7e5b 963d b588 4e3d
000000d0: dced 6b3d f46f 9fbd 7e50 cabc 12ab 593c
000000e0: 35b3 a9bd fd42 2cbd 7cbf 04bd 7752 613d
000000f0: 2885 ccbc 179f 62bd 099d a9bd 8c54 273d
00000100: 54cf 86ba 96d2 4bbc 7220 cf3d 668c cebd
00000110: fc0f 653d 62a5 e6bc 641d 3e3d f21f c2bd
00000120: 0996 bcbd cb15 713d d02d 173c 4068 ff3c
00000130: 1f7d b7bb e0b6 ebbc 7581 573d 2b9f 043d
00000140: fa55 cebd e62b 4bbd 0caf e73b 9183 263c
00000150: 0a74 c3bb e5e5 07bd 1b2c 0dbd 8df3 a9bd
00000160: a2fc 4e3d 6c06 afbd 4cbc 153c 252a 7d3c
00000170: c665 b0bd 1d22 c3bb 92f5 69bc d1cc 70bd
00000180: 3d3d c3bc d89d e3bd 0246 b9bd 9611 f23c
00000190: cddc 803d 64ee 893c 9c27 a33b 27fb 13bd
000001a0: 7a92 b8bc ae0a 82bd 5b05 86bd 5177 cb3c
000001b0: e3d8 d73c 9af4 76bd 2ddd b83c 4d2e ffbc
000001c0: 5efc 853c 7c25 633c 2826 3bbd 4ec5 0c3c
000001d0: 872c c1bb 9a61 e9bc 7adf bd3d 1f42 b1bb
000001e0: 004e 0d3d c531 a43d ae90 653d e4c8 4d3d
000001f0: d702 933d 4942 c7bc 93c0 6ebb 8826 1dbc
00000200: 627d e8bd 8bb8 853d db12 d4bc 3c4c 88ba
00000210: 8114 223d da00 73bb 5601 1bbd 2b6b 35bd
00000220: 8c78 92bd 158d b13d 8654 c3bc 95d5 563d
00000230: 2006 4bbd 058f 56bd 8e0f 463c 106c 323d
00000240: 85e8 5fbd cd3b 8d3d 3c74 2dbc 54a0 8d3d
00000250: b304 a03d 5310 a23d 3b91 33bd 166b 373d
00000260: 33c5 6a3d c238 40bd 2cbc 82bd a6c4 fd3b
00000270: d54b 4e3c 968c 873d b62f 45bd a913 663b
00000280: 399b 913d c81e ed3a e59a 253d bc74 01bd
00000290: 28d9 64bd 885c 30bc c312 6e3d f707 0e3d
000002a0: 32c7 1cbb ef8a 523d e409 a3bc 99cd fdbc
000002b0: 0b0d 053d 269b a23c e596 9e3d d8c0 57bc
000002c0: 46d0 27bd 6408 6c3c d1c7 87bd 402d 3ebd
000002d0: 7d60 36bd b46d 04bd e862 dd3c 096c 75bd
000002e0: a723 a8bd d19b 6a3d 13bb 94bd dd36 913c
000002f0: c2bc 0a3d c19f 873d 996e 273c fef7 433d
00000300: 4b14 a83d 5c39 adbd d473 673d 0b8e cd3c
00000310: 2699 b23c d102 30bd b752 a43d 0d1f 19bd
00000320: cb15 40bd ab38 773d ebe2 893d efe1 d4bc
00000330: 99aa 9f3c 338e 473d 21e2 5bbd 3638 52bc
00000340: 6681 e33c a749 043d d85a 65bd b9ef 3cbd
00000350: a8e8 bf3d af3c 6d3d 2ce0 3abd 1a0d fd3d
00000360: 68e7 513d 80f6 1f3d 340b 97bd aa91 83bb
00000370: 8934 b33b c98d 863d d30b 80bd 875e fbbc
00000380: e77b a43d a250 933d efe2 13bd 4df1 66bd
00000390: b64a 033d d44e f33c f825 b4bd e625 8d3d
000003a0: 5f1c 07bd ac76 573d d9f5 7fbd 1480 98bd
000003b0: cd4d 123c 5ab8 0c3c 08e1 cf3c 4e3b 263c
000003c0: 6e23 ba3b e9fc 3c3d 29a7 8bbc 15a7 423d
000003d0: 2ead bd3b 9fd2 b1bd 081d b0bc f1c4 c53c
000003e0: 44e9 413a 53d5 9fbd 3733 fc3a bafb 5b3c
000003f0: fbb4 ad3c 6fad 6abd ef25 7cbc 0172 9dbd

fc.bias f4 [30]
0.066643246 0.015841627 -0.08271392 0.0007878162 -0.06556205 -0.05324285 -0.058002662 0.02510806
0.038426597 -0.035951793 0.01722736 0.05747468 0.10560646 0.03252206 -0.054242644 -0.06576247
0.024447316 -0.036278423 -0.04368742 0.021509454 0.06686876 -0.026984198 -0.08522263 -0.034662247
-0.005488611 0.06246128 0.089659885 0.026796672 -0.07442466 -0.04580353
00000000: 417c 883d 4dc6 813c ea65 a9bd 7385 4e3a
00000010: 6545 86bd 2d15 5abd 3394 6dbd 6baf cd3c
00000020: 3565 1d3d 3042 13bd 6420 8d3c 926a 6b3d
00000030: 3348 d83d da35 053d 892d 5ebd 79ae 86bd
00000040: bd45 c83c af98 14bd 95f1 32bd 9834 b03c
00000050: 7df2 883d f70d ddbc 3489 aebd 00fa 0dbd
00000060: ced9 b3bb 66d7 7f3d 9a9f b73d b284 db3c
00000070: f56b 98bd 7b9c 3bbd
