GWN/best_models/best_model_w30_h10.pth (torch, 300619 bytes, 9 tensors)

adapt_adj f4 [30, 30]
1.0086164 0.008695384 0.0086343475 0.008627738 0.008513396 0.008499714 0.008447284 0.008446305
0.008266204 0.008310468 0.008478793 0.00871604 0.008883286 0.009057925 0.009089065 0.009166193
0.009472069 0.009629969 0.009780084 0.009947352 0.010104352 0.0102294795 0.010428818 0.010452661
0.010613185 0.010820911 0.011075672 0.011327143 0.011478086 0.012128732 0.008521691 1.0085566
0.008500718 0.008494253 0.008379392 0.008354421 0.008300496 0.008309172 0.00812517 0.008179088
0.008342696 0.008576991 0.00874782 0.0089262435 0.008963538 0.009044264 0.00934143 0.009503392
0.00964862 0.009814836 0.00997016 0.010096076 0.01028862 0.010312011 0.010480063 0.010686727
0.010944694 0.011188883 0.011343942 0.011995005 0.008490932 0.008539007 1.0084538 0.0084489565
0.00833513 0.008311847 0.008261774 0.008273245 0.008092922 0.008134342 0.008305197 0.008548191
0.00872415 0.008896935 0.00893314 0.009011462 0.009307604 0.009458265 0.009615251 0.009780703
0.0099396985 0.010064923 0.010271622 0.01029235 0.010452759 0.010660316 0.010921283 0.011167518
0.011321273 0.011982208 0.008524899 0.00857549 0.008497033 1.0084686 0.008356826 0.008331424
0.008276876 0.008286118 0.008110074 0.008161367 0.008332805 0.008571377 0.008746616 0.008921683
0.008962132 0.009041189 0.009341877 0.0095001375 0.009650858 0.009817267 0.009973608 0.010096695
0.010295699 0.0103152385 0.010474432 0.010674417 0.010935699 0.011176346 0.011330579 0.011989658
0.008449363 0.008493229 0.008413967 0.00838392 1.0082487 0.008232636 0.008182449 0.008191036
0.008015788 0.008071972 0.00824033 0.008475344 0.008643511 0.008813855 0.008864002 0.008953981
0.009253355 0.009411361 0.009561963 0.009721318 0.009884065 0.010006515 0.010207452 0.010235112
0.010391894 0.010598426 0.010852279 0.01109421 0.011244917 0.011902739 0.00838079 0.008426727
0.0083425045 0.008316137 0.008175108 1.0081426 0.008091158 0.008097698 0.007926444 0.0079751145
0.008147986 0.008383688 0.00855691 0.008719787 0.00876658 0.00885188 0.009152769 0.009320173
0.009468396 0.009627335 0.009781945 0.009908537 0.010114169 0.010142156 0.010300809 0.010498518
0.010751474 0.010987251 0.011143946 0.011795147 0.008555151 0.008602978 0.008524622 0.008495782
0.008362788 0.008327176 1.0082593 0.008268534 0.008093079 0.008148264 0.008316326 0.008553336
0.008725906 0.008890619 0.008938104 0.009024686 0.009327762 0.009490955 0.009644162 0.009813088
0.009967357 0.010083422 0.010289457 0.010311368 0.010468176 0.010676284 0.0109390505 0.011183413
0.011336102 0.01198874 0.0084673045 0.008504189 0.008423995 0.008398567 0.008266373 0.008220913
0.008151323 1.0081322 0.007960923 0.008003821 0.008175323 0.008411712 0.008587098 0.008756016
0.008803141 0.008886698 0.009190294 0.009351471 0.009511609 0.00967267 0.009819801 0.009940362
0.010138782 0.010154888 0.010305466 0.010512953 0.010764302 0.010991355 0.011152689 0.011798048
0.008500288 0.008540284 0.0084573645 0.008432233 0.008292796 0.008254312 0.008182137 0.008163293
1.0079681 0.008011428 0.008175599 0.008419132 0.008589359 0.008759194 0.008803772 0.008876402
00000000: 581a 813f 1577 0e3c 1477 0d3c 5b5b 0d3c
00000010: c57b 0b3c 6242 0b3c 7a66 0a3c 5f62 0a3c
00000020: f96e 073c a128 083c a3ea 0a3c b9cd 0e3c
00000030: 348b 113c b167 143c 4dea 143c cd2d 163c
00000040: bd30 1b3c 04c7 1d3c a53c 203c 38fa 223c
00000050: b98c 253c 8c99 273c a2dd 2a3c a341 2b3c
00000060: ede2 2d3c 314a 313c bc76 353c 7b95 393c
00000070: 950e 3c3c 97b7 463c 909e 0b3c 6218 813f
00000080: 9846 0b3c 7b2b 0b3c b849 093c fbe0 083c
00000090: cefe 073c 3123 083c 6f1f 053c 9501 063c
000000a0: ceaf 083c 8286 0c3c 0453 0f3c 613f 123c
000000b0: cedb 123c 652e 143c cc0c 193c 1db4 1b3c
000000c0: 3f15 1e3c 68ce 203c e259 233c 036a 253c
000000d0: 9a91 283c b6f3 283c 92b4 2b3c 6217 2f3c
000000e0: 6051 333c 9451 373c f1db 393c b386 443c
000000f0: 8d1d 0b3c 31e7 0b3c 0415 813f 7e6d 0a3c
00000100: 1290 083c 6a2e 083c 645c 073c 818c 073c
00000110: 2d98 043c e745 053c 8512 083c b60d 0c3c
00000120: bdef 0e3c 73c4 113c 4e5c 123c d0a4 133c
00000130: ec7e 183c d7f6 1a3c 4989 1d3c 3e3f 203c
00000140: 1eda 223c 59e7 243c 4e4a 283c 3fa1 283c
00000150: 0d42 2b3c 9ba8 2e3c 2eef 323c f7f7 363c
00000160: dc7c 393c 0651 443c 05ac 0b3c 3680 0c3c
00000170: 2437 0b3c 8015 813f 12eb 083c 8680 083c
00000180: bc9b 073c 7fc2 073c 1ee0 043c 41b7 053c
00000190: 5186 083c f66e 0c3c f74d 0f3c 402c 123c
000001a0: e8d5 123c 7f21 143c ac0e 193c 77a6 1b3c
000001b0: a21e 1e3c 9ad8 203c 5868 233c 9c6c 253c
000001c0: 4baf 283c 3f01 293c f49c 2b3c c0e3 2e3c
000001d0: a52b 333c fe1c 373c e5a3 393c 4570 443c
000001e0: 326f 0a3c 2f27 0b3c bcda 093c b65c 093c
000001f0: 4b0e 813f 2ee2 063c ae0f 063c b233 063c
00000200: a754 033c 4e40 043c 7302 073c 2bdc 0a3c
00000210: 839d 0d3c fd67 103c 523a 113c b8b3 123c
00000220: 629b 173c 1c32 1a3c c8a9 1c3c 2a46 1f3c
00000230: c6f0 213c 5ef2 233c 283d 273c 2cb1 273c
00000240: c342 2a3c 05a5 2d3c c2cd 313c 7dc4 353c
00000250: 9a3c 383c b503 433c 954f 093c 4110 0a3c
00000260: 00af 083c 6840 083c e3f0 053c d10a 813f
00000270: c790 043c 35ac 043c eadd 013c 0eaa 023c
00000280: 217f 053c bc5b 093c 4832 0c3c 70dd 0e3c
00000290: b4a1 0f3c 7a07 113c 7ff5 153c a4b3 183c
000002a0: 5521 1b3c f8bb 1d3c 7344 203c 6b57 223c
000002b0: e6b5 253c 492b 263c b9c4 283c fa01 2c3c
000002c0: f326 303c df03 343c 1995 363c 6f40 413c
000002d0: e72a 0c3c 81f3 0c3c dbaa 0b3c e431 0b3c
000002e0: 1304 093c b56e 083c a40e 813f bf78 073c
000002f0: d598 043c 4c80 053c 3341 083c 4b23 0c3c
00000300: 1af7 0e3c f5a9 113c 2071 123c 47dc 133c
00000310: 78d3 183c f37f 1b3c 8c02 1e3c 13c7 203c
00000320: 204e 233c f034 253c 1c95 283c 03f1 283c
00000330: b682 2b3c 95eb 2e3c b439 333c a23a 373c
00000340: 0fbb 393c 6c6c 443c 73ba 0a3c 2755 0b3c
00000350: cc04 0a3c 259a 093c ae6f 073c 02b1 063c
00000360: 208d 053c 7a0a 813f 886e 023c 7522 033c
00000370: caf1 053c 47d1 093c e6b0 0c3c 6575 0f3c
00000380: 0d3b 103c 8399 113c e392 163c ea36 193c
00000390: 94d6 1b3c 1e7a 1e3c 3be3 203c e6dc 223c
000003a0: 221d 263c b060 263c 42d8 283c 853e 2c3c
000003b0: c15c 303c 1615 343c c5b9 363c 9a4c 413c
000003c0: cb44 0b3c 8cec 0b3c c290 0a3c 5927 0a3c
000003d0: 82de 073c 183d 073c 5f0e 063c 55bf 053c
000003e0: 1905 813f 5d42 033c f3f2 053c 66f0 093c
000003f0: 62ba 0c3c b982 0f3c b23d 103c 546e 113c

gc1.fc.weight f4 [128, 30]
0.087738544 0.16405989 -0.17918254 -0.040114585 -0.059914753 -0.02763766 -0.010820441 0.064145625
0.06131448 0.047219638 0.039161135 0.18298024 -0.17104807 0.13579096 0.15199621 0.12812106
-0.0647171 -0.018019387 0.13837221 -0.019619605 0.15960503 0.1042603 -0.10597474 -0.13565972
-0.12753221 0.18842594 -0.043034587 -0.09404044 -0.06581743 0.18288201 -0.12523781 0.17111996
0.07792317 0.1384429 -0.099385604 -0.001507386 0.15879491 0.060939074 -0.1294137 -0.09637864
-0.13217323 -0.17624837 0.11554102 0.053993482 0.07967965 -0.13934143 -0.08693966 -0.13355222
-0.03747498 0.13625568 -0.10463542 -0.026262173 0.18043156 0.06350918 -0.0137031395 -0.17825985
-0.033890862 0.09254005 0.09501208 0.12716195 0.011357194 0.05739324 -0.1315627 -0.037380684
-0.14617975 0.13690712 0.091979325 0.052930024 -0.021326024 0.031387206 0.18993202 -0.06010434
0.07596397 -0.1403354 -0.08242748 -0.08242471 -0.026296938 -0.14066344 0.01634219 -0.051057555
0.17198111 0.13981706 0.17980766 -0.070644826 -0.07609505 -0.06956324 -0.1225546 -0.056953248
-0.09516191 -0.08558455 -0.16250396 -0.05171856 -0.07335984 0.124657266 0.081051454 0.042905543
-0.11813237 0.02847962 -0.09947226 -0.0017482433 0.068426736 -0.022187473 -0.112237856 0.043924417
-0.13479921 0.051069234 0.09833148 0.005894304 0.13656862 -0.16246673 0.019733684 0.0050528613
0.063002065 0.016413623 0.04496424 -0.13823634 -0.09081922 -0.12723562 -0.18908235 -0.09112116
-0.072469614 -0.11337727 -0.14913428 -0.006966937 0.0031415133 -0.046413515 -0.15531385 -0.1689996
0.013962029 -0.13410747 -0.07818564 0.013322834 -0.15731473 0.14747638 0.11257461 -0.0030482826
-0.16502994 -0.099928096 0.06800225 0.15765367 0.15729925 0.023940342 -0.07401696 0.049246408
-0.06891964 0.14967693 0.15483753 -0.046316355 -0.03962705 0.010803759 0.013463391 -0.13027553
0.10422911 0.11923045 0.04654315 -0.107617564 -0.107457705 -0.026917048 -0.033072617 -0.028693117
-0.13636804 0.08209747 -0.09276198 0.1568057 -0.06329524 0.15790954 0.14804545 0.06779391
0.033809118 -0.12244316 0.1665102 -0.16664019 0.17291628 -0.01947128 0.09718248 -0.1733671
-0.066571854 -0.17096974 0.009012689 0.18879113 -0.14764056 0.08919165 -0.046755295 -0.04494504
-0.086545326 0.06489733 0.105647214 0.04488213 -0.098318584 0.13032658 -0.0015274383 -0.10414524
0.027510192 -0.08225683 -0.19288972 -0.024111785 0.118709475 0.18330984 -0.007838186 0.16758594
-0.08906793 -0.09222242 0.007632231 -0.14863475 0.043873332 -0.07782369 0.088703826 0.1283211
-0.1190369 0.073665015 0.034781396 0.10504768 -0.14665243 0.13545169 -0.12312313 -0.07692834
-0.1755179 0.14862856 -0.024695762 0.08126996 0.09537204 -0.13656515 0.16838378 -0.105602145
-0.015761716 -0.19127934 -0.041955728 0.1280088 0.17499307 -0.13970056 -0.14274535 0.13329151
-0.10814334 -0.051835593 0.11242423 -0.05932265 0.06994092 0.0025877764 0.11994784 0.15208204
-0.16169073 0.10028517 -0.016595041 -0.048176974 -0.1446603 0.06761725 -0.17460953 0.008740803
-0.09653855 0.1527019 0.082630195 -0.04364573 -0.019126454 0.045029137 0.07955066 0.0448974
00000000: 44b0 b33d 51ff 273e a17b 37be 314f 24bd
00000010: 2c69 75bd 6068 e2bc 3848 31bc c85e 833d
00000020: e424 7b3d 6169 413d 6d67 203d 2c5f 3b3e
00000030: 3a27 2fbe c90c 0b3e e5a4 1b3e 2b32 033e
00000040: 668a 84bd 659d 93bc 72b1 0d3e 4bb9 a0bc
00000050: 806f 233e 6d86 d53d 4909 d9bd 62ea 0abe
00000060: ce97 02be bbf2 403e 0945 30bd 4698 c0bd
00000070: 4acb 86bd 6c45 3b3e 573e 00be 123a 2f3e
00000080: 2f96 9f3d fac3 0d3e ae8a cbbd 7b93 c5ba
00000090: 229b 223e 409b 793d 0685 04be 2a62 c5bd
000000a0: 6b58 07be 747a 34be c5a0 ec3d 4528 5d3d
000000b0: 162f a33d 85af 0ebe 6c0d b2bd eac1 08be
000000c0: 5d7f 19bd 9c86 0b3e 184b d6bd c523 d7bc
000000d0: 0dc3 383e 1a11 823d 2283 60bc c089 36be
000000e0: 25d1 0abd a385 bd3d b295 c23d be36 023e
000000f0: 8613 3a3c 2d15 6b3d 5fb8 06be 7d1c 19bd
00000100: 25b0 15be 6131 0c3e a85f bc3d 27cd 583d
00000110: eab3 aebc df8f 003d 8a7d 423e f82f 76bd
00000120: ff92 9b3d 15b4 0fbe bdcf a8bd 49ce a8bd
00000130: ad6c d7bc 140a 10be 0ee0 853c ba21 51bd
00000140: d11b 303e 342c 0f3e 801f 383e 3cae 90bd
00000150: b9d7 9bbd 2c77 8ebd e8fd fabd cf47 69bd
00000160: 3fe4 c2bd f446 afbd 7067 26be d7d6 53bd
00000170: af3d 96bd 4f4c ff3d 4efe a53d b9bd 2f3d
00000180: 62ef f1bd 184e e93c 1db8 cbbd 5025 e5ba
00000190: 5123 8c3d 81c2 b5bc f6dc e5bd 17ea 333d
000001a0: ce08 0abe f92d 513d 0462 c93d 0125 c13b
000001b0: a5d8 0b3e ae5d 26be 89a8 a13c 7992 a53b
000001c0: 3a07 813d dd75 863c 6c2c 383d d48d 0dbe
000001d0: 6dff b9bd 0e4a 02be ce9e 41be bb9d babd
000001e0: f36a 94bd 5832 e8bd a8b6 18be e74a e4bb
000001f0: d9e1 4d3b 191c 3ebd 980a 1fbe 3b0e 2dbe
00000200: fec0 643c 7853 09be cb1f a0bd 0448 5a3c
00000210: 1d17 21be 0c04 173e 848d e63d b2c5 47bb
00000220: 9cfd 28be 1aa7 ccbd c344 8b3d f76f 213e
00000230: 0e13 213e 891e c43c 3496 97bd 9ab6 493d
00000240: bd25 8dbd e944 193e bb8d 1e3e 38b6 3dbd
00000250: f94f 22bd 4002 313c 8e95 5c3c f366 05be
00000260: 1276 d53d 182f f43d 08a4 3e3d 9966 dcbd
00000270: c912 dcbd 2481 dcbc 2777 07bd d40d ebbc
00000280: 10a4 0bbe b822 a83d fef9 bdbd ac91 203e
00000290: efa0 81bd 0ab3 213e 3a99 173e 89d7 8a3d
000002a0: 6e7b 0a3d 7bc3 fabd a681 2a3e baa3 2abe
000002b0: f710 313e 3c82 9fbc 9c07 c73d 2587 31be
000002c0: d356 88bd b112 2fbe f5a9 133c 7652 413e
000002d0: 162f 17be 1daa b63d 7b82 3fbd 4a18 38bd
000002e0: ad3e b1bd e4e8 843d 915d d83d 53d6 373d
000002f0: 415b c9bd 5574 053e 5334 c8ba 194a d5bd
00000300: 0e5d e13c 4576 a8bd e284 45be 1486 c5bc
00000310: f41d f33d 93b5 3b3e bc6b 00bc a69b 2b3e
00000320: 3f69 b6bd 1cdf bcbd cb17 fa3b b533 18be
00000330: 86b4 333d 0762 9fbd 5aaa b53d 9b66 033e
00000340: 9ec9 f3bd afdd 963d f076 0e3d 3d23 d73d
00000350: 0e2c 16be d9b3 0a3e fb27 fcbd 9b8c 9dbd
00000360: f7ba 33be 1632 183e c44e cabc dd70 a63d
00000370: 6b52 c33d bcd7 0bbe cc6c 2c3e f045 d8bd
00000380: b71e 81bc bbde 43be c5d9 2bbd bd14 033e
00000390: 6231 333e aa0d 0fbe d62b 12be 927d 083e
000003a0: 417a ddbd 8f51 54bd ad3e e63d 4ffc 72bd
000003b0: 2f3d 8f3d af97 293b 37a7 f53d 65bb 1b3e
000003c0: 4192 25be 5062 cd3d 53f2 87bc 3855 45bd
000003d0: d421 14be ea7a 8a3d d7cc 32be 9635 0f3c
000003e0: 01b6 c5bd e35d 1c3e 053a a93d ddc5 32bd
000003f0: 15af 9cbc 7970 383d 75eb a23d 56e6 373d

gc1.fc.bias f4 [128]
-0.17323825 0.15944844 0.10931993 -0.057488907 -0.064102605 0.0017652238 0.016788248 0.06334422
0.013939282 -0.047732845 0.008534453 -0.057274334 0.024835251 -0.14819917 0.18172728 -0.14334351
0.026770204 -0.14109315 -0.1717405 0.07949661 0.18576974 -0.022879958 0.11082928 0.117577225
-0.0033402443 -0.121716276 0.06827076 0.119659945 0.053303037 -0.08063779 -0.0060858247 0.0056062858
-0.171588 0.18458243 -0.033935063 -0.1281113 0.15739831 -0.02538804 -0.04055946 -0.16856687
-0.055940717 -0.16956113 -0.08927419 -0.064337015 -0.05796195 -0.10663563 0.054234933 0.06321007
0.117826074 -0.0024444896 0.03516422 0.085473254 0.18374269 -0.075495385 -0.066593245 0.061366852
0.1525765 -0.09518956 0.10938299 -0.15980671 -0.08558507 -0.16285516 0.12857899 0.007079691
0.11814036 -0.034177378 0.15673454 0.006017563 0.048520114 -0.12204267 -0.08150855 -0.12544776
0.112915576 -0.08155423 -0.12782885 0.0862194 -0.14397262 0.056279745 -0.005613045 0.027380407
-0.07037436 0.07162158 0.065940276 0.14129007 0.20556773 -0.13556758 -0.059729774 -0.10904327
0.09574842 -0.06832916 -0.027560236 0.031251486 -0.0023616692 0.15561049 -0.10443954 -0.13199541
-0.09543767 0.15202364 -0.12333868 0.08711974 0.15739597 0.028406087 0.04803912 0.15001479
-0.1744967 -0.085781656 -0.039416708 0.03913329 0.043183014 -0.06437748 -0.08928615 0.14809422
0.1082083 0.13823226 0.079982206 0.1455632 0.14677472 0.112120666 0.12543906 -0.045369186
-0.07288599 -0.0033279792 0.1456267 0.067068025 -0.025022991 0.12592274 0.0018426017 -0.14286354
00000000: 5e65 31be 7446 233e 21e3 df3d 7d79 6bbd
00000010: 3a48 83bd 155f e73a 8287 893c 9dba 813d
00000020: 9661 643c 8483 43bd 17d4 0b3c 7e98 6abd
00000030: 4c73 cb3c 86c1 17be b716 3a3e a4c8 12be
00000040: 304d db3c b97a 10be bedc 2fbe 1ecf a23d
00000050: 6c3a 3e3e c06e bbbc 76fa e23d 54cc f03d
00000060: 00e8 5abb 6246 f9bd 8ad1 8b3d 4610 f53d
00000070: 4954 5a3d 6d25 a5bd 996b c7bb efb4 b73b
00000080: c4b4 2fbe 2d03 3d3e 7eff 0abd 9c2f 03be
00000090: 062d 213e 94fa cfbc ad21 26bd cb9c 2cbe
000000a0: 1822 65bd 6fa1 2dbe 63d5 b6bd 20c3 83bd
000000b0: 8269 6dbd c863 dabd 7325 5e3d 4874 813d
000000c0: cc4e f13d bb33 20bb 5b08 103d 9a0c af3d
000000d0: 0b27 3c3e 539d 9abd 0a62 88bd cf5b 7b3d
000000e0: 043d 1c3e bef2 c2bd 3004 e03d 5fa4 23be
000000f0: 3a47 afbd 81c3 26be 36aa 033e c1fc e73b
00000100: 93f3 f13d 94fd 0bbd 057f 203e fa2e c53b
00000110: 07bd 463d 82f1 f9bd f4ed a6bd 6175 00be
00000120: 4840 e73d e705 a7bd 91e5 02be cc93 b03d
00000130: 8f6d 13be 9785 663d a2ed b7bb e04c e03c
00000140: 6f20 90bd 56ae 923d b20b 873d 58ae 103e
00000150: 5980 523e 3ad2 0abe 35a7 74bd 1452 dfbd
00000160: bf17 c43d 29f0 8bbd 01c6 e1bc 8f01 003d
00000170: 3cc6 1abb 5b58 1f3e 66e4 d5bd ce29 07be
00000180: d374 c3bd 16ac 1b3e fd98 fcbd d66b b23d
00000190: 692c 213e e2b3 e83c abc4 443d 7a9d 193e
000001a0: 43af 32be 4bae afbd 6a73 21bd 3b4a 203d
000001b0: ace0 303d 57d8 83bd a8db b6bd 03a6 173e
000001c0: 509c dd3d c28c 0d3e b6cd a33d 850e 153e
000001d0: 1d4c 163e 859f e53d 1973 003e 0ad5 39bd
000001e0: 4045 95bd 3a1a 5abb 2a1f 153e f65a 893d
000001f0: 04fd ccbc e4f1 003e 7483 f13a d24a 12be

gc2.fc.weight f4 [128, 128]
0.09429816 -0.012938345 -0.038011294 -0.024556456 -0.018667642 0.055301696 0.044907175 -0.0118960645
-0.012564942 6.100326e-05 -0.091564946 -0.077130914 -0.11399068 0.04883946 -0.07365622 0.049709443
-0.06013694 0.06115404 -0.057148866 0.07816262 -0.050740443 -0.07215365 0.027605595 -0.078159116
0.037177257 0.025268463 -0.016568646 -0.072235994 0.06990111 -0.12488678 -0.027342679 0.08667532
0.026404405 0.0007818189 -0.08233763 0.039967023 -0.017052768 -0.092118725 -0.081566036 0.05948266
-0.01792703 0.016893247 0.026510142 0.06757847 -0.07774538 0.004449404 0.044823386 0.016050195
-0.081882395 -0.054034535 -0.02703053 0.02915658 0.02254875 -0.07855253 -0.07074496 0.00035541848
0.040945087 0.0039314716 -0.020413166 -0.0423548 -0.098312765 -0.05391668 0.037755337 0.03997109
0.11345703 0.07067858 -0.0945318 -0.045889255 0.028929666 -0.068593115 -0.11678728 -0.033696696
-0.040652275 0.057179753 -0.013391184 -0.09760628 0.0063852016 0.037550125 -0.056368995 -0.10863244
0.03627948 0.08181336 -0.03812644 -0.029842947 -0.09917644 0.056725014 -0.018771235 -0.00039799366
-0.016994929 -0.0025285988 -0.0004114716 -0.067486346 -0.02279832 0.072624385 -0.045092624 0.010137579
0.040889442 0.0601713 0.101534545 0.0145063 -0.003396763 -0.023109252 -0.03086615 0.03401786
-0.055588674 0.11090147 0.012846523 -0.055669162 -0.06855092 0.0107796015 -0.081071995 0.032115698
-0.09762701 -0.07819902 -0.09594481 -0.0397916 -0.0046387613 0.005552812 0.012288669 0.03992352
0.010133448 0.026636353 0.0274072 -0.05630108 0.034229137 -0.07766589 -0.13833174 -0.072010525
0.011915503 0.041398365 -0.08344719 0.06277067 -0.02529487 -0.09530328 -0.059555825 0.06316997
0.007919468 -0.07416618 -0.07085862 0.010303364 -0.05558839 0.037953276 0.08984004 -0.080740005
0.0545412 0.022683186 -0.038201097 -0.037431378 -0.050927132 -0.041693244 0.010589428 0.011779281
0.029724268 0.012277679 -0.02552747 -0.098084874 -0.12105176 -0.019378439 -0.0950751 -0.052748784
0.009484747 -0.05275779 0.01564269 0.056134906 -0.03814059 0.013763647 -0.046096914 0.08160569
-0.027243871 -0.024614977 0.022852074 0.068649255 0.024624206 0.08767062 0.045186702 0.03687166
-0.08077634 0.11870213 0.08365798 -0.113972284 -0.10028516 0.0759031 -0.020240556 0.018783677
-0.05135776 0.057419844 -0.0019814777 0.041288976 -0.0017527516 0.05912677 -0.11624925 0.008796676
-0.034012638 0.02410569 0.009676599 0.06623463 -0.004001569 -0.07738116 -0.09684952 0.029897783
0.06192351 -0.10572273 0.0016511779 -0.03177175 0.020544864 -0.09477922 0.024218256 0.09208005
-0.0002722765 0.06348508 -0.0025344205 -0.028143741 -0.035853855 -0.06945033 0.10557957 0.016718375
-0.020301811 -0.023642965 -0.027515607 0.03793913 -0.02136497 -0.100471236 -0.10526556 0.04477287
0.1010371 0.02066309 -0.07044804 0.076356485 0.051311538 0.060159482 -0.057503644 -0.06436441
0.09694285 -0.029733691 -0.08652453 -0.06768742 0.022739554 -0.10980351 -0.12320855 -0.087138176
-0.008278836 0.012374696 0.049787704 -0.10415255 0.022369996 -0.020692673 -0.00066449883 -0.011679597
0.03298292 0.026702374 0.056320876 0.0061018616 0.07262576 -0.03862956 -0.088528365 -0.055970814
00000000: 651f c13d 5afb 53bc bbb1 1bbd 9f2a c9bc
00000010: e2ec 98bc 0884 623d 96f0 373d b6e7 42bc
00000020: 30dd 4dbc c0dd 7f38 6786 bbbd d0f6 9dbd
00000030: f273 e9bd e30b 483d 13d9 96bd 219c 4b3d
00000040: 2752 76bd a97c 7a3d ee14 6abd b913 a03d
00000050: 36d5 4fbd 4bc5 93bd 2125 e23c e311 a0bd
00000060: 2e47 183d cfff ce3c f8ba 87bc 77f0 93bd
00000070: 5028 8f3d a4c4 ffbd c1fd dfbc d582 b13d
00000080: 0d4e d83c faf2 4c3a a2a0 a8bd 76b4 233d
00000090: 3fb2 8bbc bea8 bcbd 180c a7bd 17a4 733d
000000a0: b5db 92bc b563 8a3c cc2b d93c 9566 8a3d
000000b0: f838 9fbd 4ecc 913b ba98 373d b37b 833c
000000c0: f5b1 a7bd 5153 5dbd 216f ddbc c8d9 ee3c
000000d0: 28b8 b83c 26e0 a0bd bce2 90bd 7657 ba39
000000e0: 09b6 273d 93d3 803b 8339 a7bc 3a7c 2dbd
000000f0: 3458 c9bd bdd7 5cbd 57a5 1a3d bab8 233d
00000100: 295c e83d eebf 903d e399 c1bd 5ff6 3bbd
00000110: e8fd ec3c 8c7a 8cbd 2b2e efbd 8c05 0abd
00000120: 0083 26bd 5135 6a3d b266 5bbc cde5 c7bd
00000130: f43a d13b 29ce 193d 2de3 66bd af7a debd
00000140: cb99 143d c38d a73d 782a 1cbd 3279 f4bc
00000150: 041d cbbd 7d58 683d 22c6 99bc cea9 d0b9
00000160: f338 8bbc d9b6 25bb c9ba d7b9 4836 8abd
00000170: 8bc3 babc 18bc 943d 0bb3 38bd 1718 263c
00000180: b07b 273d 2e76 763d 58f1 cf3d d5ab 6d3c
00000190: 3a9c 5ebb 9d4f bdbc 02db fcbc 5056 0b3d
000001a0: f3b0 63bd 4f20 e33d 397a 523c 5905 64bd
000001b0: 6d64 8cbd ed9c 303c 1309 a6bd c08b 033d
000001c0: abf0 c7bd cf26 a0bd b67e c4bd 84fc 22bd
000001d0: c000 98bb 5df4 b53b 6a56 493c d886 233d
000001e0: c306 263c 7b34 da3c 1085 e03c f69b 66bd
000001f0: da33 0c3d 4b0f 9fbd d6a6 0dbe 417a 93bd
00000200: 3e39 433c 5591 293d 5ce6 aabd e98d 803d
00000210: 3037 cfbc 5e2e c3bd cff0 73bd 425f 813d
00000220: a8c0 013c 70e4 97bd 531e 91bd 71cf 283c
00000230: a7b0 63bd e574 1b3d 0efe b73d 045b a5bd
00000240: 9866 5f3d 17d2 b93c c178 1cbd a551 19bd
00000250: f898 50bd 89c6 2abd 487f 2d3c e3fd 403c
00000260: 4f80 f33c 5128 493c fc1e d1bc b9e0 c8bd
00000270: fce9 f7bd 88bf 9ebc bcb6 c2bd 1c0f 58bd
00000280: ea65 1b3c 8d18 58bd 1925 803c b7ed 653d
00000290: 4f39 1cbd eb80 613c 1ed0 3cbd e220 a73d
000002a0: 8a2e dfbc 59a5 c9bc 4634 bb3c fb97 8c3d
000002b0: b4b8 c93c a78c b33d b115 393d bd06 173d
000002c0: 116e a5bd 1a1a f33d e054 ab3d 4d6a e9bd
000002d0: 4e62 cdbd 1673 9b3d 86cf a5bc 3ae0 993c
000002e0: 845c 52bd 1231 6b3d aedb 01bb a11e 293d
000002f0: 96bc e5ba e92e 723d 1614 eebd ef1f 103c
00000300: d650 0bbd 4c79 c53c 998a 1e3c 06a6 873d
00000310: 981f 83bb 037a 9ebd 0b59 c6bd 32ec f43c
00000320: 82a3 7d3d 2985 d8bd 566c d83a 1823 02bd
00000330: b44d a83c 9c1b c2bd 5d65 c63c 7794 bc3d
00000340: 55c0 8eb9 7704 823d 8518 26bb b48d e6bc
00000350: 7edb 12bd fa3b 8ebd 1a3a d83d f9f4 883c
00000360: fc4f a6bc e4ae c1bc 6968 e1bc 1066 1b3d
00000370: 9705 afbc ddc3 cdbd 7895 d7bd c263 373d
00000380: 8aec ce3d a445 a93c 1047 90bd ca60 9c3d
00000390: 0c2c 523d ca69 763d f188 6bbd 7dd1 83bd
000003a0: f989 c63d 1294 f3bc c633 b1bd b49f 8abd
000003b0: 4d48 ba3c aae0 e0bd c454 fcbd 8075 b2bd
000003c0: f4a3 07bc 3dbf 4a3c 31ee 4b3d ef4d d5bd
000003d0: 4841 b73c ae83 a9bc c331 2eba c85b 3fbc
000003e0: 1919 073d f0be da3c b8b0 663d 20f2 c73b
000003f0: d1bc 943d 083a 1ebd 5c4e b5bd a741 65bd

gc2.fc.bias f4 [128]
0.06623438 0.013485306 0.060672216 -0.0051075257 -0.07551298 0.088012196 0.025365137 0.036777273
0.037403513 -0.0821199 0.02110288 -0.027365789 0.08798553 0.008769495 0.0037558244 -0.010524858
0.06541298 0.06481531 0.094537616 0.019162294 0.037389275 0.025961276 -0.04432382 0.07447978
0.083839364 0.069004506 0.043842416 0.003900655 -0.00033606583 -0.060599815 -0.042809565 0.030168962
-0.07276237 0.08145402 -0.03332094 -0.0055690934 -0.063084505 -0.044540413 0.025024125 0.0333206
0.050993316 0.07830203 0.044088375 0.047973208 -0.01176119 0.023918679 0.08049124 -0.0030189573
-0.0634214 -0.00987581 0.072276495 -0.043592997 -0.008469919 0.034349963 -0.06813267 0.045963347
-0.0634684 0.02559418 -0.016105993 -0.057827942 0.095716424 0.004936932 -0.04384623 0.09309766
0.0858206 -0.08612784 -0.0556007 0.054423198 -0.02263287 0.0114040645 0.08731116 0.00887162
0.07052135 0.03428254 -0.0010555369 -0.043514192 -0.0637761 0.0631436 0.02365642 0.040726125
-0.03407178 0.012956444 0.023717115 -0.045634426 -0.04404846 -0.01681533 -0.015194124 -0.010059755
-0.026253108 0.016846657 -0.037970193 -0.0854674 -0.0588806 -0.042810038 -0.008514992 -0.07347031
0.052499484 0.017529342 -0.036036056 0.01461883 -0.03594022 -0.011819783 -0.009258764 0.03034629
0.02267215 -0.012119745 -0.005428891 -0.06935796 0.072968446 -0.029700233 0.020017926 0.005065069
-0.036506955 -0.007416492 0.053852275 0.05227245 -0.07617051 -0.04217468 -0.026712533 0.042020433
0.07904684 -0.07489227 0.104803845 0.07403876 0.07728073 -0.020652272 -0.034652546 0.0923531
00000000: e4a5 873d 79f1 5c3c 6e83 783d 085d a7bb
00000010: 8da6 9abd bd3f b43d 8cca cf3c c4a3 163d
00000020: 6d34 193d 7a2e a8bd f2df ac3c 382e e0bc
00000030: c231 b43d eead 0f3c 4724 763b 7470 2cbc
00000040: 3ef7 853d e4bd 843d f09c c13d 3efa 9c3c
00000050: 7f25 193d beac d43c e58c 35bd db88 983d
00000060: f9b3 ab3d 3c52 8d3d 1b94 333d 22a2 7f3b
00000070: fe31 b0b9 8337 78bd 1559 2fbd e624 f73c
00000080: 7004 95bd 5ed1 a63d 8a7b 08bd f17c b6bb
00000090: 7332 81bd 0270 36bd 65ff cc3c 2e7b 083d
000000a0: 5ede 503d d15c a03d 0396 343d 8e7f 443d
000000b0: 02b2 40bc 1bf1 c33c 97d8 a43d b3d9 45bb
000000c0: 14e3 81bd 26ce 21bc b305 943d 928e 32bd
000000d0: 6ac5 0abc 8cb2 0c3d 2489 8bbd 1044 3c3d
000000e0: b8fb 81bd e3aa d13c b7f0 83bc fedc 6cbd
000000f0: f906 c43d fdc5 a13b 1b98 33bd fca9 be3d
00000100: b6c2 af3d cb63 b0bd 8fbd 63bd dcea 5e3d
00000110: 9268 b9bc 1dd8 3a3c 32d0 b23d 455a 113c
00000120: 7f6d 903d d96b 0c3d f159 8aba f03b 32bd
00000130: 0b9d 82bd 6f51 813d 1ccb c13c 70d0 263d
00000140: da8e 0bbd 4447 543c 654a c23c 2aeb 3abd
00000150: 286c 34bd 4ec0 89bc c6f0 78bc acd1 24bc
00000160: c210 d7bc 0002 8a3c a286 1bbd 8809 afbd
00000170: c92c 71bd 9459 2fbd 7782 0bbc 9a77 96bd
00000180: b309 573d b299 8f3c 8b9a 13bd d183 6f3c
00000190: 0d36 13bd c3a7 41bc 12b2 17bc c898 f83c
000001a0: f2ba b93c e591 46bc d7e4 b1bb 8c0b 8ebd
000001b0: 7b70 953d e74d f3bc a2fc a33c e1f8 a53b
000001c0: 5188 15bd 0b06 f3bb 3494 5c3d a31b 563d
000001d0: 49ff 9bbd 5bbf 2cbd 3ed4 dabc 9e1d 2c3d
000001e0: 4fe3 a13d 1e61 99bd 66a3 d63d a2a1 973d
000001f0: 5c45 9e3d f42e a9bc d4ef 0dbd 9f23 bd3d

temporal_conv.weight f4 [128, 128, 3]
0.015600461 0.025202658 0.021208972 -0.037636463 -0.0024134943 0.01976479 0.04820905 0.05570778
0.030587306 -0.04941375 -0.05712734 0.017829273 0.0139219295 -0.020210894 -0.027782932 0.03216667
0.019800808 -0.015286399 0.0032989017 -0.021482384 0.0062200245 -0.024629632 0.009099547 0.050471276
0.02502338 0.02373206 0.033265956 0.021416804 -0.05390168 -0.050104607 -0.019945689 0.0060145557
0.049893875 0.00032701576 -0.044438314 -0.008669155 0.017730601 -0.016569696 0.04541218 -0.048019208
-0.010056994 -0.038296767 -0.023047874 0.042167477 0.04068975 -0.029133098 0.017055191 0.022433992
0.018976618 -0.049874097 0.050582085 -0.018193623 0.044241082 -0.009268026 0.06640623 0.02515836
0.038249273 0.008792195 -0.0025343108 -0.044557415 -0.0045453124 0.026919264 -0.03402358 -0.002664139
-0.010756798 -0.006321982 -0.0007495833 0.016676059 0.035005234 -0.0031032027 -0.0025701541 -0.018982748
-0.016865354 -0.07001543 0.018474001 -0.052279174 -0.0012127042 0.030788654 0.0041778907 -0.022697078
0.005763017 -0.01706132 -0.027951986 -0.03136332 -0.037087593 -0.018663421 0.02517645 0.03866104
0.023916949 0.040166996 -0.051322557 -0.04368081 -0.030739537 0.006798863 0.022311812 -0.037419923
-0.05833378 -0.057153355 0.014248186 0.0043674614 -0.011589727 -0.030680474 0.04903185 0.047151394
-0.027085925 0.023593802 -0.02664165 -0.046003472 -0.08110646 -0.004300199 -0.035091344 0.016039107
-0.059484333 -0.0064504812 -0.013329849 -0.022248011 -0.047272693 0.0039157365 -0.05705286 0.04801512
-0.06136159 0.004356789 0.03839734 -0.02411344 -0.043100417 0.027554842 -0.08122912 0.014028823
0.011245785 -0.039546672 -0.025760258 -0.0017577665 0.036701918 0.03902983 -0.04324982 0.017988812
-0.021610932 0.046841502 -0.022623612 -0.029026588 -0.03820733 -0.023311663 0.015354877 -0.0014654483
0.007909377 -0.056188114 0.018335946 -0.021580176 0.048525672 0.010875904 -0.011388358 0.0065191714
-0.03801142 0.057906955 -0.0036086598 -0.021906296 -0.0032641452 0.010687344 -0.0024014423 0.07249272
0.06356786 0.04653363 0.023115775 -0.056278437 -0.04600627 -0.026578007 0.03587008 -0.029812261
0.034473468 0.012464682 -0.04880661 0.008200192 0.024333348 0.012386857 0.02595843 -0.035262708
-0.0048676296 0.06627396 -0.010903216 -0.0010199628 0.03173382 0.010828835 0.032936785 -0.091883644
-0.04590043 -0.024159748 -0.013863833 -0.023562854 0.03277528 0.033006478 0.0173107 0.003956103
0.007968583 0.04258908 0.006955097 0.031144766 0.027326891 0.011043167 0.05556367 0.023453614
0.04666505 0.0014015388 0.0024271319 0.004618899 0.039645877 0.054004565 -0.028273253 0.007475215
-0.022071699 -0.037435073 0.019044844 0.040817168 -0.01134267 -0.032076757 -0.050606664 0.022564584
-0.021299323 0.023050921 -0.012019523 -0.040541694 0.01642912 -0.03600671 0.0112423785 0.0440549
-0.032221485 0.02957618 -0.06300306 -0.037541296 -0.070781544 -0.07263952 0.04991626 0.03480614
-0.015323314 -0.012120234 0.042979084 0.029553099 -0.015746674 -0.015299916 0.029308617 0.0036260071
-0.02670301 0.020949015 0.043194734 -0.026803287 -0.035185125 -0.012271534 -0.034688998 -0.01812862
0.031292085 0.054932065 0.008425475 -0.046024866 0.057054557 0.03851215 0.025130522 -0.024352016
00000000: 1399 7f3c ce75 ce3c 70be ad3c b128 1abd
00000010: b72b 1ebb c5e9 a13c da76 453d d72d 643d
00000020: 3b92 fa3c 1366 4abd 5cfe 69bd b20e 923c
00000030: ce18 643c 5191 a5bc 0899 e3bc 33c1 033d
00000040: 4e35 a23c ce73 7abc 6332 583b d3fb afbc
00000050: 59d1 cb3b 15c4 c9bc 4416 153c f8ba 4e3d
00000060: d5fd cc3c bd69 c23c e241 083d 4b72 af3c
00000070: 02c8 5cbd 7d3a 4dbd 2465 a3bc c015 c53b
00000080: 855d 4c3d 5073 ab39 f304 36bd 1209 0ebc
00000090: c43f 913c 2cbd 87bc 1f02 3a3d caaf 44bd
000000a0: 17c6 24bc 12dd 1cbd e5ce bcbc ceb7 2c3d
000000b0: 4caa 263d 89a8 eebc 54b7 8b3c 7ec7 b73c
000000c0: da74 9b3c c848 4cbd 292f 4f3d cb0a 95bc
000000d0: 2336 353d ebd8 17bc fdff 873d e818 ce3c
000000e0: 45ab 1c3d 230d 103c ae16 26bb d681 36bd
000000f0: d8f0 94bb ca85 dc3c 4f5c 0bbd d698 2ebb
00000100: 483d 30bc a128 cfbb af7f 44ba 3b9c 883c
00000110: a661 0f3d 1a5f 4bbb 0870 28bb b581 9bbc
00000120: 3629 8abc 4064 8fbd ca56 973c b022 56bd
00000130: 9af3 9eba 7d38 fc3c b0e6 883b 39ef b9bc
00000140: b1d7 bc3b 2ec4 8bbc 90fb e4bc d376 00bd
00000150: 29e9 17bd 08e4 98bc d83e ce3c 0a5b 1e3d
00000160: 7aed c33c 2686 243d 9a37 52bd a6ea 32bd
00000170: 7bd1 fbbc ffc8 de3b 43c7 b63c a245 19bd
00000180: 67ef 6ebd a319 6abd 3971 693c ec1c 8f3b
00000190: d7e2 3dbc 9e55 fbbc 9fd5 483d d221 413d
000001a0: 4de3 ddbc ca47 c13c 973f dabc 236e 3cbd
000001b0: 251b a6bd afe8 8cbb f1bb 0fbd 7264 833c
000001c0: d8a5 73bd 8f5e d3bb 7065 5abc 7641 b6bc
000001d0: 03a1 41bd 944f 803b 42b0 69bd 81ab 443d
000001e0: 4a56 7bbd 65c3 8e3b 8746 1d3d 8d89 c5bc
000001f0: 108a 30bd b1ba e13c 745b a6bd 26d9 653c
00000200: 3e40 383c b1fb 21bd 2d07 d3bc db64 e6ba
00000210: c054 163d bedd 1f3d b926 31bd 465d 933c
00000220: 6909 b1bc e0dc 3f3d 2755 b9bc 2bc9 edbc
00000230: 4a7f 1cbd 1af8 bebc 0693 7b3c 4914 c0ba
00000240: 5596 013c 8225 66bd 4435 963c e9c8 b0bc
00000250: dbc2 463d d930 323c 3c96 3abc c69e d53b
00000260: ddb1 1bbd d82f 6d3d 447f 6cbb d574 b3bc
00000270: 45eb 55bb f819 2f3c 8461 1dbb 1077 943d
00000280: de2f 823d 0c9a 3e3d 4b5d bd3c 3884 66bd
00000290: 1271 3cbd 1fba d9bc 81ec 123d d838 f4bc
000002a0: 0d34 0d3d aa38 4c3c 71e9 47bd 195a 063c
000002b0: bb56 c73c 3ef2 4a3c c6a6 d43c a16f 10bd
000002c0: a380 9fbb a4ba 873d 67a3 32bc 46b0 85ba
000002d0: 52fb 013d 6d6b 313c b9e8 063d 7e2d bcbd
000002e0: 1702 3cbd aaea c5bc 2125 63bc e306 c1bc
000002f0: 5f3f 063d cd31 073d 2bcf 8d3c 33a2 813b
00000300: a98e 023c e371 2e3d 95e7 e33b 4f23 ff3c
00000310: a5dc df3c 66ee 343c bb96 633d cb21 c03c
00000320: da23 3f3d d7b3 b73a 8410 1f3b 225a 973b
00000330: b763 223d e433 5d3d 4f9d e7bc a6f2 f43b
00000340: b5cf b4bc 8555 19bd ef03 9c3c e72f 273d
00000350: 9bd6 39bc eb62 03bd ef48 4fbd 5dd9 b83c
00000360: eb7b aebc 49d5 bc3c 89ed 44bc 0c0f 26bd
00000370: 5d96 863c c67b 13bd f431 383c e972 343d
00000380: adfa 03bd bf49 f23c c007 81bd e7c4 19bd
00000390: eaf5 90bd 07c4 94bd fe74 4c3d e290 0e3d
000003a0: a30e 7bbc f293 46bc d60a 303d 5719 f23c
000003b0: 2bff 80bc 80ac 7abc a018 f03c 4ea2 6d3b
000003c0: 45c0 dabc 459d ab3c f6ec 303d 9192 dbbc
000003d0: 471e 10bd 8b0e 49bc 0d16 0ebd 7982 94bc
000003e0: 212c 003d 7200 613d 010b 0a3c 9284 3cbd
000003f0: 0ab2 693d ebbe 1d3d 86de cd3c e17d c7bc

temporal_conv.bias f4 [128]
0.045398556 0.03430526 -0.0107146725 0.04897201 0.0030466134 -0.002618846 0.0050450116 -0.01694615
0.019248715 0.057245314 -0.05450757 0.009356286 -0.0060240356 0.014540559 -0.05028089 -0.011735635
-0.014849899 -0.009025475 -0.014224092 0.010876976 0.03441834 -0.021658879 0.0042185658 -0.030565381
0.03501754 0.021888863 0.026323583 -0.0040600174 0.010617319 -0.0022379388 0.054734573 0.048193768
-0.010319994 0.044854693 0.024075095 -0.021435997 -0.026646638 0.01444944 0.004428459 0.0029337143
-0.0043794536 0.050684985 0.01386789 0.048161477 0.01858395 0.021407047 -0.008369732 0.0119537655
-0.01073962 -0.026978578 0.031260777 0.016952012 -0.0026056292 0.005456511 0.040428903 0.029094653
-0.026422445 0.001019267 -0.04156509 0.03238545 -0.030351086 0.07004348 0.022874268 0.032846186
-0.01854614 0.03123087 0.056084238 0.009326665 -0.010189987 0.043507695 0.019675374 -0.024283528
0.043297023 0.019092036 -0.014834258 -0.035877112 -0.02691594 0.0038450272 0.037718333 -0.03502691
-0.012336241 0.020346118 0.030063644 0.04930585 0.038659684 0.024069622 0.033455245 0.039526176
0.06543266 0.020881984 0.024619998 -0.013119761 -0.014388394 0.022683416 -0.011648096 -0.027598888
0.028491 -0.015408021 0.0724709 -0.01216184 -0.009760805 0.010659843 -0.002826592 -0.022954898
0.03255849 0.0076520345 0.030820174 0.067654476 -0.017383112 0.06550852 -0.021184286 0.024129895
0.01955983 -0.027741292 0.042222317 0.003044164 -0.003121151 0.018373612 0.042712502 0.056697395
0.034376755 -0.007739142 -0.030294549 0.04997809 0.0337281 -0.030274404 0.04554943 0.026464174
00000000: d6f3 393d ac83 0c3d 988c 2fbc e096 483d
00000010: b1a9 473b f2a0 2bbb a050 a53b a7d2 8abc
00000020: 7baf 9d3c 107a 6a3d 5443 5fbd 1c4b 193c
00000030: 4665 c5bb 863b 6e3c 56f3 4dbd d246 40bc
00000040: fe4c 73bc 96df 13bc 2a0c 69bc 5835 323c
00000050: 3ffa 0c3d f66d b1bc e53b 8a3b 4064 fabc
00000060: 8d6e 0f3d 4650 b33c 8ea4 d73c e509 85bb
00000070: 43f4 2d3c 62aa 12bb 5c31 603d d466 453d
00000080: 3115 29bc 8eb9 373d 2239 c53c 8b9a afbc
00000090: 0d4a dabc 58bd 6c3c 9b1c 913b 8f43 403b
000000a0: 8581 8fbb 0f9b 4f3d 2636 633c f844 453d
000000b0: 5e3d 983c d55d af3c 3321 09bc bad9 433c
000000c0: 3bf5 2fbc 2e02 ddbc 4d0b 003d f2de 8a3c
000000d0: 34c3 2abb 88cc b23b c798 253d e957 ee3c
000000e0: e273 d8bc ed98 853a 2840 2abd 9ba6 043d
000000f0: d7a2 f8bc f572 8f3d d162 bb3c b989 063d
00000100: 13ee 97bc e2d7 ff3c 96b8 653d dece 183c
00000110: e7f3 26bc 2035 323d 402e a13c 40ee c6bc
00000120: 3858 313d e766 9c3c 630b 73bc e1f3 12bd
00000130: d17e dcbc dafc 7b3b 8a7e 1a3d 6178 0fbd
00000140: f21d 4abc e7ac a63c 0848 f63c eef4 493d
00000150: 9e59 1e3d a82d c53c 5e08 093d 33e6 213d
00000160: 8f01 863d b210 ab3c e1af c93c 44f4 56bc
00000170: 4cbd 6bbc 92d2 b93c a8d7 3ebc 1017 e2bc
00000180: f565 e93c ed71 7cbc a06b 943d 7442 47bc
00000190: c9eb 1fbc 9fa6 2e3c 583e 39bb e90b bcbc
000001a0: 0d5c 053d ebbd fa3b 977a fc3c 6e8e 8a3d
000001b0: 0767 8ebc 5529 863d ab8a adbc 0fac c53c
000001c0: f03b a03c b541 e3bc 4ff1 2c3d 9980 473b
000001d0: 398c 4cbb 4284 963c 4ef3 2e3d 873b 683d
000001e0: a4ce 0c3d a198 fdbb 462c f8bc d3b5 4c3d
000001f0: 7a26 0a3d 0702 f8bc 0a92 3a3d 65cb d83c

fc.weight f4 [30, 128]
-0.04546494 0.04185518 0.03992927 0.04630995 0.033768762 -0.07164318 -0.032965355 -0.009635859
0.012444382 0.06126155 -0.047597487 0.032899536 -0.063524194 -0.061523516 -0.033194244 0.06706964
-0.057084396 -0.05200229 0.0049307942 0.021508269 -0.017936379 -0.08638786 0.038654067 -0.07679264
-0.023777694 -0.040874653 -0.08397183 0.064504415 0.032178976 0.03612864 0.06384263 0.10889347
-0.104733415 0.027981088 0.072943486 0.03701913 0.010302578 -0.082620054 0.087023705 0.06249719
-0.07953134 -0.08658512 0.12487698 0.007157127 0.023560213 0.026988447 -0.071989 0.07275183
-0.084301785 0.029320372 0.06839325 0.10014491 0.071709804 0.11493631 -0.10209319 -0.051381506
0.055252068 0.015915394 -0.044063244 0.00492963 0.08810673 -0.0108429575 -0.02130988 0.029429357
-0.046470378 -0.06548635 0.034173083 0.037216272 -0.04855723 -0.0026415302 -0.016846158 -0.006226593
0.10356352 0.00067130814 -0.020153811 -0.08734942 -0.082301416 -0.0063892556 -0.042585403 0.025101831
0.04697989 -0.034475897 -0.052566428 0.034442026 0.06978528 -0.10284508 -0.045168146 -0.04779035
-0.09844319 -0.04086922 0.0043774866 -0.0070518916 -0.02887215 0.04024048 0.07477427 0.07386947
-0.07439267 -0.010972432 0.10074859 -0.02046383 0.045727458 -0.07850867 0.06709342 -0.09286131
-0.0092471335 0.09817622 0.058437794 0.083786964 -0.06454167 0.016216142 -0.028495617 -0.02460109
0.001918184 -0.052761022 -0.066444635 0.019379286 -0.0088296 -0.029487798 0.0025538078 -0.067547
0.0033936016 -0.033729646 0.044921957 -0.050779223 -0.06543199 0.09203343 -0.03354259 -0.020406416
0.0944299 -0.017637506 0.0821247 -0.048058495 0.04674696 0.015751807 0.013610743 -0.06485241
0.048922163 0.050043266 -0.052511703 0.013134254 -0.049443215 -0.03268597 0.068046145 -0.047630657
0.08263774 0.09629226 -0.03238644 -0.07772857 0.019054787 0.0021710882 -0.05242691 0.0069221733
-0.04168672 0.006752793 -0.07047581 0.015274928 0.01731203 0.05433651 -0.01345178 0.00395082
0.00054568495 0.030317355 0.07207135 -0.051634077 -0.022244796 -0.048058428 -0.025815293 0.018712187
0.104142666 -0.024712486 -0.057762325 0.07132728 0.07338915 0.05669011 0.081295215 -0.075221345
-0.033765264 0.03164478 -0.046401195 -0.06830517 0.056801684 -0.06407211 0.024210498 0.033306494
0.0482537 0.0950006 0.048934795 -0.047688913 -0.015061631 -0.074305095 -0.045585357 -0.010199794
0.05192311 0.010876641 0.027788902 0.01930249 0.057483442 0.10327608 0.051567096 0.091721214
-0.04365168 0.044748724 -0.016661273 0.08040278 -0.0013352201 -0.050195925 0.07550369 -0.0013014456
0.031089189 0.10304038 -0.06310171 0.016818149 0.096777216 0.0075213485 -0.04820356 -0.053500254
-0.046610948 -0.07320409 -0.062192712 -0.09130083 0.020677505 -0.05667408 -0.026715383 0.023017185
0.02883756 -0.05416331 -0.05932008 -0.006406456 0.06670611 0.0428188 -0.030736066 0.06418779
0.08599199 -0.05144813 0.01228257 -0.019105565 0.027702916 -0.01590851 -0.001627262 -0.015292032
0.0616166 0.09722261 -0.00908197 -0.0261355 -0.07401075 -0.010008309 -0.06226603 0.021874666
-0.010563025 -0.038442336 -0.06346521 -0.03064512 -0.06743001 -0.0025693772 0.027970705 -0.007241673
00000000: 7239 3abd 5670 2b3d e08c 233d 81af 3d3d
00000010: 1d51 0a3d a9b9 92bd ae06 07bd b9df 1dbc
00000020: 85e3 4b3c 64ed 7a3d 95f5 42bd aac1 063d
00000030: f918 82bd 1500 7cbd b0f6 07bd cf5b 893d
00000040: 54d1 69bd 5a00 55bd 8092 a13b 1c32 b03c
00000050: 50ef 92bc 1eec b0bd ba53 1e3d 7645 9dbd
00000060: 70c9 c2bc 2e6c 27bd 6cf9 abbd e41a 843d
00000070: 1ace 033d a0fb 133d edbf 823d 8a03 df3d
00000080: 797e d6bd 9838 e53c 6563 953d 5fa1 173d
00000090: 25cc 283c b434 a9bd 7c39 b23d 0efd 7f3d
000000a0: 54e1 a2bd 8a53 b1bd 81bf ff3d 5586 ea3b
000000b0: 5901 c13c e016 dd3c f86e 93bd e9fe 943d
000000c0: 6aa6 acbd 4731 f03c c311 8c3d c618 cd3d
000000d0: 97dc 923d ba63 eb3d 3c16 d1bd 6a75 52bd
000000e0: fe4f 623d 0061 823c a97b 34bd bc88 a13b
000000f0: 4d71 b43d a9a6 31bc 0f92 aebc d615 f13c
00000100: b957 3ebd b51d 86bd 13f9 0b3d 1770 183d
00000110: f2e3 46bd 861d 2dbb f400 8abc 7308 ccbb
00000120: 1c19 d43d bafa 2f3a 9b19 a5bc 41e4 b2bd
00000130: a58d a8bd f65c d1bb 086e 2ebd 5ba2 cd3c
00000140: fc6d 403d 9936 0dbd e54f 57bd 1513 0d3d
00000150: 96eb 8e3d 71a0 d2bd 3c02 39bd d0bf 43bd
00000160: 959c c9bd 7c66 27bd 0571 8f3b 8e13 e7bb
00000170: 4a85 ecbc 34d3 243d 4123 993d e048 973d
00000180: 2f5b 98bd b7c5 33bc 4755 ce3d c3a3 a7bc
00000190: b74c 3b3d 27c9 a0bd 4668 893d 122e bebd
000001a0: 4a81 17bc 9d10 c93d 785c 6f3d 8098 ab3d
000001b0: 6c2e 84bd b7d7 843c a46f e9bc 3a88 c9bc
000001c0: 936b fb3a f11b 58bd 2014 88bd 4fc1 9e3c
000001d0: 07aa 10bc 6590 f1bc c95d 273b 1556 8abd
000001e0: 3067 5e3b 1928 0abd 1600 383d e0fd 4fbd
000001f0: 3501 86bd 067c bc3d f463 09bd 5b2b a7bc
00000200: 7764 c13d 887c 90bc ff30 a83d fcd8 44bd
00000210: be79 3f3d ef09 813c 98ff 5e3c 57d1 84bd
00000220: 9b62 483d 2bfa 4c3d 8316 57bd 0e31 573c
00000230: f884 4abd b9e1 05bd c75b 8b3d 5d18 43bd
00000240: fa3d a93d e034 c53d a5a7 04bd 2830 9fbd
00000250: c918 9c3c d148 0e3b 99bd 56bd 66d3 e23b
00000260: b2bf 2abd 8946 dd3b 9f55 90bd b143 7a3c
00000270: f5d1 8d3c f68f 5e3d db64 5cbc e175 813b
00000280: 4c0c 0f3a 1a5c f83c 259a 933d 417e 53bd
00000290: b83a b6bc ead8 44bd 987a d3bc 4d4a 993c
000002a0: c048 d53d d771 cabc 3098 6cbd 0914 923d
000002b0: 0d4d 963d e433 683d 1b7e a63d a60d 9abd
000002c0: 724d 0abd f59d 013d 2e0f 3ebd 95e3 8bbd
000002d0: e2a8 683d 3d38 83bd 1855 c63c 646c 083d
000002e0: aca5 453d ad8f c23d da6f 483d 7355 43bd
000002f0: 0fc5 76bc 452d 98bd b6b7 3abd 091d 27bc
00000300: 54ad 543d f033 323c 8da5 e33c 4120 9e3c
00000310: c273 6b3d 6982 d33d 0538 533d 55d8 bb3d
00000320: 1bcc 32bd 704a 373d 397d 88bc 36aa a43d
00000330: 8d02 afba 3e9a 4dbd aea1 9a3d 4595 aaba
00000340: c1ae fe3c d606 d33d 783b 81bd 37c6 893c
00000350: 2233 c63d a575 f63b 1971 45bd 1523 5bbd
00000360: 1feb 3ebd 07ec 95bd c9bd 7ebd eefb babd
00000370: df63 a93c 1523 68bd 38da dabc 898e bc3c
00000380: bf3c ec3c 59da 5dbd 9df9 72bd 40ed d1bb
00000390: 379d 883d c462 2f3d 34ca fbbc e374 833d
000003a0: 921c b03d 46bb 52bd d53c 493c 4683 9cbc
000003b0: 3af1 e23c 9052 82bc da49 d5ba 6e8b 7abc
000003c0: b061 7c3d a61c c73d 8bcc 14bc 1e1a d6bc
000003d0: f392 97bd e4f9 23bc aa0a 7fbd 8032 b33c
000003e0: 8a10 2dbc b675 1dbd 0cfa 81bd 7a0b fbbc
000003f0: bf18 8abd ff62 28bb d222 e53c 8e4b edbb

fc.bias f4 [30]
0.021747796 -0.06307649 -0.06102638 0.03531792 0.012346068 0.036219988 0.034893725 -0.041056905
0.05875411 -0.0128734885 -0.035048872 0.059238132 -0.027826056 0.014571982 -0.08892487 -0.054612797
-0.036505133 0.021335313 -0.04095188 0.028948084 0.0744197 0.062161744 -0.047226124 0.022070626
0.02670489 0.013506679 0.07225623 0.030410973 0.08680408 -0.050234206
00000000: 6f28 b23c 3f2e 81bd ccf6 79bd 86a9 103d
00000010: 2a47 4a3c 695b 143d b9ec 0e3d 492b 28bd
00000020: 26a8 703d 53eb 52bc 688f 0fbd afa3 723d
00000030: 78f3 e3bc 53bf 6e3c 3e1e b6bd abb1 5fbd
00000040: 6886 15bd 65c7 ae3c 29bd 27bd 8824 ed3c
00000050: 5b69 983d 509d 7e3d 2e70 41bd 75cd b43c
00000060: 37c4 da3c 1e4b 5d3c 13fb 933d 6f20 f93c
00000070: 56c6 b13d 62c2 4dbd
