GWN/best_models/best_model_w60_h5.pth (torch, 311371 bytes, 9 tensors)

adapt_adj f4 [60, 60]
00000000: cae0 7f3f a6de ecb9 06f8 e6b9 3834 c7b9
00000010: 2c17 b2b9 be37 a7b9 57fe 8db9 9b66 8cb9
00000020: da84 8eb9 d044 a2b9 3bef bab9 4426 ebb9
00000030: 11db fab9 609a e8b9 d8bb d4b9 9e90 bdb9
00000040: 1850 96b9 a467 66b9 7d81 06b9 ecec a0b7
00000050: 048f dc38 f80f 8139 d630 be39 0d17 0b3a
00000060: 387a 3b3a 3b97 523a c174 763a d548 883a
00000070: b68a 913a 7c05 9d3a ff76 9f3a 7f4f a53a
00000080: 3031 a13a a9d8 a73a eaf0 a93a b1f2 b53a
00000090: 7cb1 c23a 5e80 d23a 0b76 eb3a fda1 013b
000000a0: fc8a 0d3b b618 1b3b f92c 2a3b 2b50 353b
000000b0: 6640 473b 303f 523b de56 613b f7d6 693b
000000c0: 000a 713b 7bca 7a3b ed0e 853b 0726 893b
000000d0: 195a 8e3b a131 953b 4488 9d3b a820 a53b
000000e0: 7d24 b13b 2f2a bc3b 4262 c53b 26db d93b
000000f0: 3774 0bba 09de 7f3f 3675 06ba c7bb f0b9
00000100: dd7a d9b9 8dd7 d0b9 6476 b6b9 8edf b6b9
00000110: 5663 b9b9 1d1b cab9 4ae2 e5b9 5fe4 08ba
00000120: a1bf 11ba 40c3 08ba a0ed 00ba 5935 ebb9
00000130: 08c2 c3b9 d6de a1b9 24b1 62b9 7ebd dfb8
00000140: bb53 9037 0ac1 2039 1820 8d39 5ea8 e239
00000150: 4a62 223a b2bf 383a a2b3 5d3a 2bd2 773a
00000160: d3b1 843a 278c 903a cda9 923a 0788 983a
00000170: 7faa 943a 24f2 9b3a b1c5 9e3a 3838 aa3a
00000180: e86d b63a f355 c63a e00b df3a c08f f63a
00000190: b356 073b 9568 143b 6809 233b 56e9 2d3b
000001a0: 5cf6 3f3b d305 4b3b 9857 593b d6a7 613b
000001b0: b0cc 683b f495 723b aace 803b 98f8 843b
000001c0: 6e3f 8a3b c13c 913b 1c7c 993b d4ea a03b
000001d0: 31bd ac3b c398 b73b 2bb3 c03b f329 d53b
000001e0: 284a e0b9 5818 d9b9 a6e4 7f3f 3173 bbb9
000001f0: b333 a5b9 4ac0 99b9 7d98 7bb9 9982 79b9
00000200: cf2c 76b9 2f0b 8fb9 06ec a7b9 458d d8b9
00000210: bdfa e4b9 ddf0 d6b9 158e c6b9 1476 b1b9
00000220: 19c8 8cb9 2e1d 52b9 e5e2 e9b8 14f1 aab6
00000230: cd3f 0139 8e55 8839 5e45 c539 4b41 0e3a
00000240: 3ddb 3d3a 99bc 543a 2da6 7a3a 41eb 893a
00000250: 5636 933a fcc2 9e3a aab7 a13a 3c67 a73a
00000260: 3b02 a33a 2c88 a93a 5dc7 ac3a c8e3 b83a
00000270: 75ef c43a b341 d53a 6cab ee3a e3a0 033b
00000280: b38e 0f3b 4566 1d3b 1b17 2c3b 8ba3 363b
00000290: 15ae 483b dade 533b 246c 623b c482 6a3b
000002a0: 2487 713b 010d 7b3b 66df 843b cee7 883b
000002b0: 1436 8e3b 1573 953b 04fd 9d3b 758f a53b
000002c0: b275 b13b 5b65 bc3b 9e8d c53b 8a16 da3b
000002d0: ec25 e7b9 07d4 e1b9 10b3 e2b9 e7e6 7f3f
000002e0: 8370 b0b9 4245 a7b9 b791 8bb9 9bfe 88b9
000002f0: e622 8db9 706d 9eb9 acab b7b9 a7b9 e2b9
00000300: 7bd6 efb9 e9ce deb9 f77f d1b9 134c bcb9
00000310: e475 97b9 0756 66b9 835f 05b9 348d a9b7
00000320: da10 e138 b846 7f39 60a5 be39 187e 0b3a
00000330: d352 3d3a 66f8 533a bbe6 783a ca73 893a
00000340: 5557 923a 4ef8 9d3a 06bd a03a ccfb a53a
00000350: ff37 a13a 019e a83a 4d2c ab3a 844a b73a
00000360: 5231 c43a 5b55 d43a 9de9 ed3a fbb9 023b
00000370: f37d 0e3b 2e4a 1c3b 81cb 2a3b d062 353b
00000380: fb6d 473b 54cc 523b 6bcb 613b a406 6a3b
00000390: 4001 713b f548 7a3b 4cb6 843b 30e2 883b
000003a0: 91fc 8d3b bff4 943b 7457 9d3b c1e3 a43b
000003b0: 55f2 b03b 01e7 bb3b 621e c53b 7cd5 d93b
000003c0: 986b 94b9 85b5 8fb9 8721 92b9 f004 73b9
000003d0: 18f3 7f3f 0682 3fb9 5ee7 0ab9 6cd5 01b9
000003e0: 421b 06b9 9a23 2db9 3878 5cb9 7a5d 9ab9
000003f0: c6fd a4b9 a234 91b9 7791 7fb9 2338 50b9
0.99952376 -0.00045179314 -0.0004405381 -0.00037995144 -0.0003396807 -0.00031894253 -0.00027083114 -0.00026779328
-0.00027183333 -0.00030950317 -0.00035654925 -0.00044851203 -0.00047846933 -0.00044365507 -0.00040575746 -0.00036156637
-0.00028669904 -0.00021973118 -0.00012827474 -1.9183812e-05 0.00010517056 0.00024616695 0.0003627601 0.0005305864
0.0007151696 0.00080333994 0.0009401553 0.0010397682 0.0011103961 0.0011979784 0.0012166201 0.0012612193
0.0012297984 0.0012805659 0.0012965475 0.0013881532 0.001485392 0.0016059985 0.0017964257 0.001978039
0.0021597734 0.0023665852 0.0025966747 0.0027666192 0.0030403375 0.003208112 0.0034384052 0.0035681108
0.0036779642 0.003826766 0.004060617 0.0041854414 0.0043442366 0.0045530354 0.004807504 0.0050392933
0.005405961 0.0057423334 0.006023676 0.006648439 -0.00053197466 0.99948174 -0.000512916 -0.00045916272
-0.00041481006 -0.0003983345 -0.00034801953 -0.00034880306 -0.0003535996 -0.00038548643 -0.00043846882 -0.0005222018
-0.0005559866 -0.0005217083 -0.00049182214 -0.0004486244 -0.00037337863 -0.0003087434 -0.0002161903 -0.00010668764
1.7205128e-05 0.00015330702 0.00026917527 0.00043231522 0.0006194456 0.0007047608 0.00084572483 0.000945362
0.0010123797 0.0011028097 0.0011189521 0.0011637219 0.0011342316 0.0011897725 0.001211336 0.0012986725
0.0013918253 0.0015131816 0.0017017089 0.0018811151 0.0020651042 0.0022645344 0.0024877433 0.0026536784
0.0029291129 0.0030978813 0.0033163782 0.0034432313 0.0035522394 0.0037015649 0.0039308863 0.004057955
0.004218987 0.0044322913 0.0046839844 0.004910806 0.005271577 0.0056029274 0.0058807335 0.006505245
-0.0004277986 -0.00041407603 0.99958265 -0.00035753244 -0.0003150977 -0.000293257 -0.00023994032 -0.00023795142
-0.0002347708 -0.00027283418 -0.00032028573 -0.00041303984 -0.00043674363 -0.00040996718 -0.00037871362 -0.00033848046
-0.00026851965 -0.00020038031 -0.00011152568 -5.09446e-06 0.00012326166 0.00026003685 0.0003762645 0.00054265995
0.0007242447 0.00081152614 0.0009561505 0.0010522382 0.0011231403 0.0012112553 0.0012338061 0.0012771855
0.0012436578 0.0012934259 0.0013181973 0.001410597 0.0015024977 0.001627019 0.0018209047 0.002008491
0.0021905124 0.0024017256 0.002625889 0.0027868475 0.003062134 0.0032328875 0.003454932 0.0035783509
0.0036854232 0.0038307311 0.0040549515 0.004178024 0.0043399427 0.004560838 0.0048214216 0.005052502
0.0054156417 0.005749387 0.006028845 0.006655519 -0.00044088007 -0.00043073317 -0.0004323949 0.99961704
-0.00033653164 -0.00031904323 -0.00026620712 -0.00026129637 -0.00026919617 -0.00030217646 -0.00035032385 -0.000432444
-0.00045745433 -0.000424973 -0.00039958928 -0.00035914834 -0.000288888 -0.00021966557 -0.0001271945 -2.0212123e-05
0.00010731975 0.0002434504 0.00036362838 0.00053212186 0.00072221196 0.00080860255 0.0009494831 0.0010486778
0.0011164943 0.001205215 0.0012263365 0.0012663542 0.0012300013 0.0012864472 0.0013059467 0.0013983999
0.0014968312 0.0016199754 0.0018151287 0.0019947279 0.0021742552 0.0023847925 0.002606124 0.0027677305
0.0030430544 0.0032165246 0.0034453522 0.0035709525 0.0036774427 0.0038190458 0.004050052 0.0041773543
0.004333087 0.0045457776 0.004801685 0.005032033 0.005399982 0.005734325 0.006015585 0.006647764
-0.00028308923 -0.00027410328 -0.0002787227 -0.00023176125 0.99980307 -0.00018263617 -0.00013246897 -0.00012381905
-0.0001278939 -0.00016511828 -0.0002102562 -0.00029442814 -0.00031469594 -0.0002769577 -0.00024372885 -0.00019857338

gc1.fc.weight f4 [128, 30]
00000000: 1c2a ab3d 5350 853d 025c 1b3e 6ef5 223e
00000010: 7306 403c c95c 2cbd 4458 173e cfdd 5dbc
00000020: 9bd4 d8bd 5f46 14be 6ab0 edbd 3cb8 003e
00000030: 76f6 42be 558a 03be f02b 6e3d b8dc cf3d
00000040: 8db7 c5bd fb0a 0e3e 2971 153d 6c81 083e
00000050: 2bfa 223e 0147 9b3d 1b20 cb3d 04be 263d
00000060: 54c4 febc 3adc 103e 0dde e63b 20ac 893d
00000070: 6a15 0abd e273 ed3d a372 bb3c bd9d 2b3d
00000080: b72e 3d3e 368e 5e3d 0acb 583d 94c2 04be
00000090: 58e5 973d bee6 11be 02a8 313e 2b00 093e
000000a0: c94b 943d 7ad6 183e dd76 c23c 2e05 d6bd
000000b0: 439b 54bd 506c 42bd 027b 39bd 04a4 083e
000000c0: 8dd0 183e d554 7b3d 8708 193d eded 593c
000000d0: ae13 b8bc 73ad 61bd 3f76 4c3d 42d1 b4bb
000000e0: 048d e23c 2189 c0bb 96b6 24bc 3f31 01be
000000f0: 5537 11be dcd9 58bc c337 d83d f19a 1cbc
00000100: c82c 10be acb4 1ebd b86f 0d3e aa69 04be
00000110: 688a 1ebe b04e e73d 8a71 b93d 08f2 26be
00000120: 2bf9 0abd fcde 67bc 5703 13be d8d4 1bbe
00000130: 587c 97bd d385 f13c 041d 25bd f136 ba3d
00000140: 986c eebc 51ca 9cbb a47b c9bb 9f4e 11be
00000150: 4535 25be c4c0 7abc 0abd e83d 8f15 2ebe
00000160: 7147 0abd add4 e7bd fcce f13d 8451 05bd
00000170: 2f4e 263e e28c 18be ba7a 883d 387c 4e3d
00000180: 285d 143c c259 a7bd be1f 88bc be54 12bd
00000190: 8678 53bd 5133 34bd 8b88 07be ebc0 00bd
000001a0: 1029 083e 01ad 303d 032e a0bd 013a f1bd
000001b0: 2ca6 23be fdd7 c6bd fb5d 443d 5bae 91bd
000001c0: c56e 003c d068 d33d 1ec9 05be 508d a9bc
000001d0: 9a9a 333e 0887 97bb 2646 a0bd e9e3 1dbe
000001e0: bf17 513d 74e4 9a3c 8377 c8bd e117 123e
000001f0: 734e eebd c53c 2e3e 60c9 093c 38cd 553a
00000200: 7f22 a3bd ac8d 57bd 9a15 07bd 2550 253d
00000210: fa33 c63d 970a f4bc b83a d2bd 5b03 da3d
00000220: f6ff 26be e6a0 12be f0be 193e edbc 093d
00000230: f4fb 823a ef20 283e cce4 d13b 155e 00be
00000240: 6f5a d4bd 7a9d abba 76a9 b33d 6ac1 d0bd
00000250: a32e fcbd f778 233e 137d cdbd 7eea 1fbd
00000260: 2551 c1bd 6eb9 f33d 9bbf db3d be92 3cbe
00000270: 5fca 2b3e 068a bd3c ad9a e4bd cf21 193e
00000280: 674c ba3d a682 8abd 6b42 05be 3de7 bebc
00000290: 8911 40be 8361 15bd 641e 08be dd13 88bd
000002a0: 8641 f5bd 37f8 373e a2aa b93d 267c e13d
000002b0: 2adc e1bd 7b96 053e 0252 06be b58a 2c3e
000002c0: 3538 e5bb 5726 16bd 9256 d13d b592 333e
000002d0: 3f26 0c3e 52f6 b33d faf2 1fbe f464 e0bc
000002e0: e1a4 063e d15f 01be da09 d03d a994 323d
000002f0: 2432 dc3d 7a00 053e 2fdd 343d fa0e fabd
00000300: 8f7c 183e cee6 d43b 4508 00be b021 f4bd
00000310: 3a0d 953d 5342 14be 2d6f 463b bf85 b0bd
00000320: 62cb c7bd e4e8 12be c000 0ebe 8784 023e
00000330: b848 0b3e 96cf 343d 16cb 44be b891 40bd
00000340: d488 f4bd dcd0 db3d b924 973d 14a8 e3bd
00000350: 275c 3fbe 6b5b c0bc 548d c2bd 2595 983d
00000360: f058 c93d c23a 10be 42d7 f93d 4a05 353e
00000370: be0d 043e e87e e3bd 8d21 e63d acfd e1bd
00000380: 4b82 153d ab8a ff3d 77ad 273e 2ade e73d
00000390: a338 42bc 05b1 0ebd a8bf d8bd bb66 233e
000003a0: bc7e 0b3e 2833 aa3d 8a21 243c 8e61 873d
000003b0: e6e6 0d3e 9ee1 2bbe 5c43 1bbe 232e ba3d
000003c0: a75d 8bbd eb8c 14be 9421 123c 4397 cebd
000003d0: aa40 f73d ea43 2cbe 5b88 1a3e 11f5 4a3d
000003e0: b3db 1bbd ffae db3d 7831 fabd 6555 c4bd
000003f0: addc db3c e3e1 9abc 5deb e53d ff56 b83d
0.08357641 0.06509461 0.15171817 0.15913936 0.011720288 -0.042080674 0.14779764 -0.013541653
-0.10587426 -0.1447997 -0.11605914 0.1257028 -0.1903933 -0.12845738 0.05814737 0.10149521
-0.0965415 0.13871376 0.03648487 0.1333062 0.15915744 0.07581902 0.09918233 0.040708557
-0.031099476 0.1414651 0.0070455135 0.06722283 -0.03371183 0.115943685 0.022881811 0.041898478
0.18474852 0.05433484 0.05292801 -0.1296485 0.07416791 -0.14248177 0.17349246 0.1337897
0.07241017 0.14925566 0.023738319 -0.10450207 -0.05190588 -0.047466576 -0.045283325 0.13343817
0.14923306 0.0613602 0.037361648 0.013301355 -0.022470322 -0.055097055 0.049917456 -0.0055181095
0.027655132 -0.005875722 -0.0100532975 -0.12616442 -0.14181264 -0.0132355355 0.10557511 -0.009558425
-0.14079583 -0.03874652 0.13812149 -0.12930933 -0.15482485 0.11294305 0.09054859 -0.16303265
-0.03392903 -0.014152285 -0.14356743 -0.15217912 -0.073967636 0.029482758 -0.040310875 0.090925105
-0.029104516 -0.00478486 -0.0061487723 -0.14190148 -0.16133602 -0.015304748 0.11364181 -0.17000411
-0.033759538 -0.113198616 0.11807057 -0.032548442 0.16240762 -0.14897493 0.06664033 0.050411433
0.009055413 -0.08171417 -0.016616698 -0.035725348 -0.051628612 -0.04399425 -0.13235681 -0.03143398
0.13296914 0.04313374 -0.07821276 -0.117786415 -0.15981358 -0.09709165 0.04794119 -0.07113334
0.0078389095 0.10322726 -0.13065001 -0.020697266 0.17539445 -0.0046242513 -0.0782588 -0.15418972
0.051048037 0.018907763 -0.0978842 0.14266922 -0.11636057 0.17015369 0.008409828 0.0008155885
-0.07965564 -0.052625343 -0.032979585 0.040359635 0.096778825 -0.029790206 -0.10265106 0.10645171
-0.16308579 -0.1431919 0.15014243 0.03362744 0.0009993301 0.16418813 0.0064054485 -0.1253589
-0.10368811 -0.0013093196 0.087725565 -0.10193141 -0.12313583 0.15964113 -0.10033622 -0.03904199
-0.09439305 0.11900602 0.10729905 -0.18415353 0.16776417 0.023137104 -0.111623146 0.14954303
0.09096604 -0.067632005 -0.13013618 -0.023303622 -0.18756689 -0.036469948 -0.13292843 -0.066444136
-0.11975388 0.1796578 0.09065749 0.110100076 -0.11028321 0.13045685 -0.13117221 0.16849788
-0.006995226 -0.036657657 0.1022159 0.17536433 0.13686465 0.08787216 -0.15620032 -0.027391888
0.13148834 -0.12634207 0.10158129 0.043598805 0.10751751 0.12988463 0.04415625 -0.12209888
0.14891265 0.0064972406 -0.12503155 -0.11920488 0.072779134 -0.14478426 0.0030278668 -0.0861926
-0.09755589 -0.14346653 -0.13867474 0.12745868 0.13601959 0.044143282 -0.19218096 -0.04701397
-0.119401604 0.10733196 0.07380051 -0.11116043 -0.18687497 -0.023481091 -0.094996125 0.07450322
0.098314166 -0.14084914 0.1219926 0.17677799 0.12895867 -0.1110819 0.11236868 -0.11034712
0.03650121 0.12477621 0.16374765 0.11321671 -0.011854324 -0.034836788 -0.105834305 0.15957157
0.13622564 0.083105385 0.010017762 0.06610404 0.13857612 -0.16785285 -0.15162414 0.09090831
-0.06804972 -0.14506881 0.008919138 -0.10087445 0.120728806 -0.16822782 0.15091078 0.04955012
-0.03805132 0.10726737 -0.12216467 -0.095866 0.026838625 -0.01890654 0.112265326 0.09000968

gc1.fc.bias f4 [128]
00000000: 63d9 b4bd b71f cd3d 2378 8abc c449 53bd
00000010: 14aa 3bbd e355 f0bd fd4b 05be 3ba3 f63d
00000020: 3c4b 033e e44c 883b 84fe aebd 4fc3 173d
00000030: af59 8d3d 22ef 1abe b54e dc3d 074c 04be
00000040: 416c 01be 9fe1 09be 5ac5 47bd 1af3 eabc
00000050: 0c26 893d b27b 0f3e 2e9a 263e ae65 42bd
00000060: e216 eabd a81f 043d 7231 c2bd d369 c83d
00000070: ef4b 41bd 94be cd3c 27d0 183e 9278 fa3d
00000080: 4e67 9f3d 3da4 07be 83f8 45bd 2e6c c3bd
00000090: 1810 95bc 87cd 273e 57fc 5c3d 8da5 a4bc
000000a0: ef81 313e 0d1f ffbd 0e26 ab3d 8dec c23c
000000b0: 9a3d 16be 5bc3 f83d dd67 813d 311c 11bd
000000c0: a18e 333e 70f7 0cbe d9e0 843d b0cd 03be
000000d0: 9038 933d a322 0ebd c10c 993d eadc 283d
000000e0: d3f9 0b3d 1212 a53d 1f78 013e 832c 343e
000000f0: 4966 73bd 4be5 9f3d c422 ba3d 670d 21bd
00000100: b05b 1abd e2e0 a8bd 6a92 df3d ea01 84bd
00000110: d4ad 05be ecc8 f23d b20f aa3d 212a 083e
00000120: fbf4 0b3e 55bc b6bc e291 8abc be8c 21be
00000130: a718 83bd 47d9 1fbe 1217 2f3e c0a5 ce3d
00000140: b1f3 ffbc 11ec c9bd 9ba6 983d 2175 e4bd
00000150: 8110 1b3c 5e30 253e b19a ec3d 5aaf 58bd
00000160: 74b4 193d 1142 9cbd 2562 743d 8c4d d3bc
00000170: 72bd c23d c504 26be 77d4 0f3c 3adb 513d
00000180: 24be 833d 3a80 383e 01c5 72bb ca3c 093e
00000190: 856b 65bd f303 cfbd 1ae6 6a3c 6fa3 6e3d
000001a0: 72c2 eabc 4709 2bbe f14a 3a3e 3b50 efbc
000001b0: c932 96bd 79e9 33bd 3c1a cfbd 44be 423d
000001c0: 5ced febd 1042 a03d d5a2 d13d 74b4 98bd
000001d0: 2b6f 883d 2fd5 15bd a3d2 1abe 7973 a1bd
000001e0: e9d5 933c 6f9c 8b3d 1a22 243e c2d7 13bd
000001f0: d6c6 07be bbbc fbbd 08fa 323e 49d8 d43b
-0.08830526 0.10015815 -0.016902989 -0.05158402 -0.045816496 -0.117351316 -0.13017268 0.120428525
0.12821668 0.0041595567 -0.08544639 0.037051495 0.069018714 -0.15130284 0.107572 -0.12919627
-0.12638952 -0.13464974 -0.048772193 -0.028680373 0.0669671 0.1401203 0.16269752 -0.04746025
-0.11430146 0.032256752 -0.09482087 0.09785809 -0.047191557 0.025115289 0.14923154 0.12230028
0.07783376 -0.13246246 -0.048332702 -0.09542118 -0.01819615 0.16386996 0.053951588 -0.020098472
0.17334722 -0.12457094 0.08356868 0.023794437 -0.14671937 0.12146636 0.063186385 -0.035427276
0.17534877 -0.13766265 0.06488199 -0.12871432 0.07188523 -0.034701 0.07473136 0.041226305
0.034173798 0.08060087 0.12643479 0.17595105 -0.05942372 0.07807406 0.09088662 -0.039319422
-0.037685096 -0.08246018 0.10916598 -0.064456776 -0.13054591 0.11854729 0.08303775 0.13297321
0.13667671 -0.0223066 -0.016915265 -0.15776345 -0.064011864 -0.15610228 0.17098644 0.10090208
-0.03124413 -0.09859479 0.074536525 -0.11155153 0.009464384 0.16131732 0.115529425 -0.052901603
0.03752561 -0.07629789 0.05966391 -0.025793813 0.0950879 -0.16212757 0.008778683 0.05123446
0.06432751 0.18017665 -0.0037043693 0.13402095 -0.05601074 -0.10108175 0.014337087 0.05826133
-0.028657172 -0.16702758 0.1819265 -0.029213062 -0.07333905 -0.04392383 -0.10112426 0.047544733
-0.124476165 0.078251004 0.10236136 -0.07456294 0.066618286 -0.03658026 -0.15119414 -0.07883353
0.018046336 0.06816947 0.16028634 -0.036094435 -0.13259444 -0.12291857 0.17478192 0.0064955098

gc2.fc.weight f4 [128, 128]
00000000: 1ee9 6abd 05d4 bd3d 9040 f23b 483a 2bbd
00000010: 683c c53d 11e0 643b add3 25bd 0fee 873d
00000020: bbf7 7cbd a714 85bd 8c31 843d cb1f 98bd
00000030: 6e5d 953c 913f 52bd 7c93 78bd 89c7 1a3d
00000040: 489b b03d 84a6 58bd 591a d53c f50f 193c
00000050: b04c b0bc 665f 85bc 364a 38bd ba1c c53d
00000060: 7a11 033c cf44 823d e370 6e3d 302d 7a3d
00000070: 7c8a 24bd 0c93 133d 31fa 33b9 bfd4 043c
00000080: a51e acbd 23d8 abbd 49ac 463d 3c49 b63d
00000090: 901e 843d 2f57 5ebd ee49 893d 50b6 05bd
000000a0: 1787 673a efbf 363b f7a1 523d 5d0f 823d
000000b0: c3ae d8bd 761e 8fbd 3e5e 3ebd 0c10 8ebd
000000c0: 81c7 9d3b 4a53 653c 0c16 be38 06ad 713c
000000d0: 2212 cabc 95f5 07bc ed22 e9bc 0c48 233c
000000e0: 62cc 6abd 3d38 a83d a182 09bd 8428 0dbd
000000f0: 9e7f 883d 5143 ab3d 66ef 3abd 9d99 b3bd
00000100: 259c ce3d 59ea 053d 0134 8dbb ae01 d33a
00000110: 8b66 0fbd 07ec 213d a72b eebc 2bd4 3e3b
00000120: 2145 c63c d673 8c3d 0eb1 0d3d 9860 c7bb
00000130: dcc9 a33b b7a9 0d3c 11d1 13bd 3c5e a4bd
00000140: 1035 78bd 798a 57bc 069c ccbd 12e6 db3c
00000150: 0ac5 193d 16df 26bb 842d c4bd 4b53 c53d
00000160: d358 f83c 1a1f 92bd 918c 08bc fb24 06bd
00000170: 1d8c a3bc 4b7a 933d c407 553d 0f7b b7bd
00000180: 49ea 1a3d 08a9 9d3d b3b9 36bc 8235 173d
00000190: 434a bc3d b42a cebc b5cb 483d 9a71 863c
000001a0: 19d5 79bd cb2c 333d b52d 533d 9157 41bd
000001b0: 3d63 043c 17a1 2cbd 83f8 e23c d9ea 423d
000001c0: e59d 963c 64b0 bb3c a193 97bc a2fc 8f3d
000001d0: 8c0c 933d 0bba 463c 6cf6 9dbd 77b9 5c3d
000001e0: 8eb3 983d e181 d3bd 3216 5f3d 5da3 efbc
000001f0: bae5 213d 0cfc 4c3c 0ac7 b7bc 85bf 2a3d
00000200: 8a27 083c 7a10 cc3c 5a48 cbbd 91c9 643c
00000210: fc64 4bbc 1243 26bc 6de7 f33a 9cc3 7fbc
00000220: b847 7cbd 7af0 a4bc 2602 8ebd a351 713c
00000230: 7c60 973b 1dbf 36bc 11c3 073d c194 96bb
00000240: f043 95bd 4161 a2bd 697c a3bc c54d c4bd
00000250: c638 063d 85a7 2e3d e8ca 233d d310 c73d
00000260: 9f3d a7bd 1ddd bcbd 1f14 11bd 6cb7 f2bd
00000270: 72da aebd 9ac1 033d 0f4e b2bd 2aac 95bd
00000280: 9682 c7bc e3e5 dbbb 1634 55ba 92fd c3bd
00000290: 31aa dd3b 37b4 6d3d 97e6 a43d 1aa3 113d
000002a0: 0500 0f3d 292f 5c3d 8c38 413d 01a2 58bd
000002b0: e70c 50bd e429 ce3c 6a54 813c 2bfd babd
000002c0: a21e 32bd a685 86bd 8253 a93c 3c1f a93d
000002d0: d833 623d 9cf3 153d 4fae 46bd fbc4 a0bd
000002e0: 8fc0 983b 38f5 ab3d c879 463c 7a23 2fbb
000002f0: 25e0 b53d 3e01 c03c eaa5 9c3d fe23 f1bc
00000300: 598d a5bb 41ec 93bd 47d2 233c 7535 603c
00000310: 3c4d 283d 888a 6f3b 76bb b1bd 2c2c 943d
00000320: 1c32 013d 63fc 003d f6d9 483d 124e 4bbd
00000330: fb87 3f3d 2e6e 43bb 57f5 9abc 7674 66bd
00000340: 0eef 8cbd 6c8d 353d 6da7 88bd 84cd a53d
00000350: 124f 2cbd a4bc 813d 80ef 403d 6416 b1b8
00000360: e472 c33c 9ce5 fb3c 950e 063d f567 383d
00000370: 46c5 3c3d e6b5 e83c b305 4a3d 385e 50bd
00000380: 137d fd3c f23b 843d 4e00 75bd cfa5 5cbd
00000390: 45ae 973d e77d f63c 6212 683d 21dc 493c
000003a0: a352 00bc 6e21 5ebd 18f0 02bd ae1f 683c
000003b0: 6b5c 7a3d 7aa8 a6bd 1667 cabd 1ce1 bd3b
000003c0: b245 5fbc 70aa 99bd 59cd 9bbd 91c3 0dbc
000003d0: 975d 973d fbe0 8e3c 7ffd 13bd ce71 953d
000003e0: fd29 e73c f989 cb3c b64d 89bd d45e 37bd
000003f0: c5db 10bd e374 3abd bf84 5ebd b5f3 9b3c
-0.057351224 0.09268955 0.0073929504 -0.04180363 0.09630662 0.0034923593 -0.040485073 0.06637203
-0.06175969 -0.0649808 0.06454763 -0.07427939 0.018233027 -0.051330153 -0.060687527 0.037787948
0.086233675 -0.052893177 0.02601354 0.009342183 -0.021520942 -0.016280841 -0.044992648 0.0962462
0.007999772 0.063607804 0.058213126 0.06107825 -0.04017113 0.036028907 -0.00017163974 0.008107363
-0.084042825 -0.08390834 0.048504148 0.08900687 0.06451142 -0.054282364 0.06703554 -0.03264457
0.00088320806 0.0027885397 0.051423993 0.063505866 -0.10580208 -0.06988232 -0.046476595 -0.069366544
0.0048150425 0.013996908 9.0640126e-05 0.014750725 -0.02466685 -0.008298297 -0.028459037 0.009965908
-0.05732382 0.082138516 -0.033571843 -0.034462467 0.06664966 0.08362449 -0.045638464 -0.08769534
0.10088376 0.032694194 -0.004309178 0.0016098523 -0.035009902 0.039531734 -0.02907355 0.0029118161
0.024202885 0.068580315 0.03459268 -0.006084513 0.0049984287 0.00864642 -0.036088053 -0.08025786
-0.06059748 -0.013155573 -0.099906966 0.026843105 0.037541427 -0.002546256 -0.09578994 0.096350275
0.030315792 -0.071348384 -0.008334295 -0.03275011 -0.019964272 0.0720106 0.05200936 -0.089590184
0.037821088 0.07698256 -0.011152673 0.036916263 0.09193852 -0.025166847 0.049022395 0.016411591
-0.06099424 0.04374389 0.05155726 -0.04720265 0.008080301 -0.042145815 0.02770639 0.04758725
0.018385837 0.022911258 -0.018503012 0.07030608 0.071801275 0.012129317 -0.07713017 0.05388781
0.07456122 -0.10327507 0.054464526 -0.029252702 0.039525725 0.0125112645 -0.022433776 0.041686554
0.008310208 0.0249102 -0.09925909 0.013964073 -0.012414213 -0.010147827 0.0018608399 -0.015610602
-0.061591834 -0.0201342 -0.069340035 0.014728936 0.004619656 -0.011153963 0.033145014 -0.0045953696
-0.07288349 -0.07928706 -0.019956784 -0.09585146 0.032768987 0.042640228 0.03998843 0.09720006
-0.0816605 -0.092218615 -0.03541958 -0.11851391 -0.08537759 0.032167055 -0.08706295 -0.07308228
-0.02435426 -0.0067107542 -0.00081330666 -0.09569849 0.006764673 0.058033194 0.08051794 0.035555936
0.034912128 0.053755913 0.047173068 -0.052888874 -0.050793555 0.02516646 0.015787322 -0.09130319
-0.043486245 -0.0656846 0.020669702 0.082579106 0.055225223 0.036609277 -0.048506077 -0.07850071
0.0046616266 0.08396381 0.012113996 -0.0026724027 0.08880643 0.023438092 0.07648833 -0.029436108
-0.0050522503 -0.07222796 0.0099988645 0.01368462 0.04108928 0.0036551077 -0.086783335 0.072349876
0.03154193 0.031490695 0.04903599 -0.049635 0.04676054 -0.002982031 -0.018915815 -0.05626341
-0.068815336 0.044324324 -0.06672559 0.080958396 -0.042067595 0.063348085 0.047103405 -8.444188e-05
0.023858495 0.030749135 0.03272875 0.045021016 0.046086572 0.028407048 0.04932184 -0.050871104
0.03094343 0.06456746 -0.059814744 -0.053869065 0.07406286 0.030089332 0.056658156 0.012320549
-0.007832202 -0.0542311 -0.031967252 0.014167709 0.061123293 -0.08137603 -0.09882943 0.0057946574
-0.0136274565 -0.075032115 -0.07607526 -0.008652584 0.07390898 0.017441263 -0.036130425 0.07297097
0.028218264 0.024846064 -0.06704275 -0.04476817 -0.03536584 -0.045521628 -0.054325815 0.019037107

gc2.fc.bias f4 [128]
00000000: 6204 6ebd fec1 1abd ce7d 933d 2c1e 5d3d
00000010: 9b41 a53d 4bba 073d dc0d 2bbd 2560 2dbc
00000020: 9ba3 2e3a 5681 ac3d 90d2 d2bc 93e2 d13c
00000030: 9284 93bd a2fd 2bbc 2046 b6bc 470e 7d3d
00000040: 2ffc 4abd 7121 90bd 460b 61bd 0774 77bd
00000050: f600 903c d97c 86bc 90b2 f9bc 835c 8abb
00000060: bc7a c93a f7d2 973d 927b 2aba 8435 9c3c
00000070: 7068 efbc c293 81bd 0526 92bb a3e6 5ebd
00000080: be88 99bd 1a21 08bd 2d77 40bd 9e11 623c
00000090: 5273 63bd 19cd 48bc 9ed3 733d d402 223d
000000a0: da97 753d 91a8 8fbd 967f 133c 46a8 38bd
000000b0: 815b 14bd 0e99 733d fedf 0ebd 0c7d 863c
000000c0: 138c 9c3d 428e 36bd 9128 16bd 6c73 8abd
000000d0: c369 1f3d 28ff 9abd ebd1 b8bb efe1 92bd
000000e0: fe4d 873c 811b 823d 56f2 793d 2c4b 31bd
000000f0: d577 1cbc 1956 e1bc 862b 833b e256 47bd
00000100: e7cf 81bd 4442 72bc 21ce c93d 4f97 933d
00000110: fb01 afbc 5024 a13d b413 063c eb45 ee3c
00000120: 1106 d23c 6304 46bd c204 4d3d e8ac 31bd
00000130: 5cfd 1b3d 9392 ab3d bc61 003d 1c41 6d3d
00000140: 7257 b43d 3757 b03d 6bea 10bd 89f1 9ebd
00000150: c30f 9c3d ecea 9b3d 8b8a 5a3c b13a 0cbd
00000160: 7d8c 863c 966d 2b3d 76b8 6bbd 2d11 80bd
00000170: eba2 dcbc f913 7f3d 5546 7c3d 92c9 9a3d
00000180: 768c 903d 1ebe 92bd 416f 943d b4b4 32bc
00000190: fbbb b43d 55b2 093c a5c7 a7bc 3845 53bb
000001a0: eec7 93bc a077 703d d923 e1bc d6ec 82bc
000001b0: 24d0 303a aa8d 773d 077e 053c a75e a83d
000001c0: aa93 92bc 6480 37bd eb08 8cbc 8803 62bd
000001d0: 4932 f3bc 3471 513d 22c0 ba3d f953 cc3c
000001e0: a7a6 88bd d6bc fdbc 2a6e 0fbd 55f3 1c3c
000001f0: d279 68bd 5160 843d de68 213d f8d6 8b3c
-0.05810965 -0.03778266 0.0720173 0.053983852 0.08069154 0.033136647 -0.041761264 -0.010582005
0.00066619524 0.08423106 -0.02573517 0.025620734 -0.0720302 -0.0104974825 -0.022250235 0.061781194
-0.049556907 -0.070376284 -0.05494239 -0.060413387 0.017578583 -0.016416954 -0.030480653 -0.004222454
0.0015371661 0.07413285 -0.0006503399 0.019068487 -0.029224604 -0.06327011 -0.0044600987 -0.05441917
-0.074967846 -0.033234693 -0.046988655 0.013798146 -0.0555299 -0.01225593 0.059527986 0.03955348
0.05995927 -0.07014573 0.009002587 -0.045082353 -0.036220077 0.059472136 -0.034881584 0.016417049
0.076439045 -0.04456926 -0.03665978 -0.06760296 0.03891922 -0.075681984 -0.0056402585 -0.07172
0.016516682 0.06352902 0.061022125 -0.04328458 -0.009550055 -0.027506875 0.004002991 -0.048666842
-0.06338482 -0.014786307 0.09853769 0.07206594 -0.021363249 0.07868254 0.0081834085 0.029086074
0.025637658 -0.048344027 0.050053366 -0.043377787 0.03808342 0.08377566 0.031343207 0.05792342
0.08805741 0.08610385 -0.03537981 -0.07760913 0.07620194 0.07613167 0.013338695 -0.03423566
0.016424412 0.041852556 -0.057548963 -0.06253276 -0.026933154 0.062274907 0.06159051 0.07557978
0.07058041 -0.07165168 0.072477825 -0.010907341 0.08824917 0.008404334 -0.02048094 -0.0032237303
-0.01803967 0.058707833 -0.027482914 -0.015982073 0.00067448826 0.060437836 0.008147723 0.082211785
-0.017892677 -0.044800177 -0.017094096 -0.05517915 -0.029687064 0.05113335 0.09118678 0.024942385
-0.066724114 -0.030973833 -0.03501717 0.009579499 -0.056756802 0.064636834 0.03940665 0.017070279

temporal_conv.weight f4 [128, 128, 3]
00000000: 554f 0cbd f8e2 613c 3974 643b 9c6d c83c
00000010: 831f 873c a1bc 1ebd b52a 0b3d 5f31 d6bc
00000020: 352a 23bd f823 053d 2041 313d a01d 7fbc
00000030: 2712 86bd d2c1 9abd fbdb 893c 9088 4c3c
00000040: 1933 0d3c 17cf a73c 66a2 85bd 2a44 5bbd
00000050: 525f f9bb 1e40 ddbc d6af 8ebd a248 83b9
00000060: 7590 543a 8225 04bc 99f3 c93c 1b0e 0d3d
00000070: c633 493d 9eab 643c ff15 8abd 77b8 93bd
00000080: 3c21 3f3d 309b e2bb 6e1e 90ba caae e6bc
00000090: 6a1e f5bc ea75 163d 1a80 d23c a6d8 843a
000000a0: 7d5c ed3b 0875 0abd 8cb7 653c ebe9 f03b
000000b0: 8a85 da3c 7e13 6dbd d186 3dbd 0488 9e3c
000000c0: 2a89 0a3c c321 3d3d ef4c 27bd 5d6f 60bc
000000d0: 2489 c5bc 038f e9bc 3811 0cbd 4eed 653d
000000e0: 3397 a6bc 1c68 213d ce55 633d 1ae7 1abd
000000f0: 1c19 263c 1192 48bc 9c4e 263c 0046 56bb
00000100: 3079 773c 49b2 0fbd 63c7 89bc 5a60 173d
00000110: 78c9 3b3d ae9c cebc 8265 dbba 32a9 1c3d
00000120: 7953 2cbc 2be7 3abd 5b01 9ebc 374e 283b
00000130: cc20 bdbc 15bd d63b f54a d6bc ab82 793c
00000140: 9299 703c f871 9cbc 69bd 9cbc b7a4 80bc
00000150: 2e0e 49bb e780 57bd a558 c8bc 16cc 28bb
00000160: 5fe9 fc3b e44a 8c3c 28c1 dcbc 8753 723d
00000170: 9b26 e8bc 9e22 f23c f72f 93bb e0fb 00bd
00000180: a254 0b3d 0e89 30bc b4fb dd3b c9b7 d53b
00000190: 8fcb 903c f32e e83c 0314 ea3c ef3f 313d
000001a0: 9dfc 353d 871e 2fbd 3e24 55bd 5a4d 433a
000001b0: 5dbe 6fbc d2e5 27bd 3b89 f3b9 2724 db3b
000001c0: 59d1 343c 158a e7bc aeab c03c bc8d 413d
000001d0: 07da 8e3c 390c 94bc b3bf 5d3d b0cb 27bd
000001e0: c6f2 5bbd 7405 013c b0f8 30bd 81e5 bb3b
000001f0: 7668 15bd 415d 2f3d 49b0 25bd c551 2bbd
00000200: fe55 2e3d 5619 2dbb b5ab 64bd 5858 2c3d
00000210: 2b83 a1bc 42a5 7e3d 1a7e 59bc 828a fabc
00000220: ee12 0a3d a968 1cbc f7a4 863c 2ca1 23bc
00000230: 1fab 1f3c 9c9b 5ebc e852 fabc 6da5 933c
00000240: e6e8 ce3b 23bc 353d 441f 8f3c 699c ecbc
00000250: f26a d33b f4a4 823c 0b83 3c3d dce8 133c
00000260: 7da5 293d a78c 193d feb4 9cbc 3f12 23ba
00000270: 37f1 6fbc 3bd2 5d3d 5f84 1c3d 5579 8bb9
00000280: 8d1f c23b a1f6 3f3d caf6 013b 9a38 24bd
00000290: dc22 f9bc f08d 1abd d848 123d e614 e43b
000002a0: 91a9 8d3d 6b5e 5b3d f543 f73c cddf 43bd
000002b0: 015c 4d3d e605 2c3c 610d fcbc 8497 163c
000002c0: 394f 03bd a8df 27bd b298 303d 7ba3 183d
000002d0: edde 77bd b052 3dbd c13e d73c a2ec 763c
000002e0: 1a88 be3b 526a 433d 6581 a3bc 4682 2e3c
000002f0: 4b83 433d 1523 103c f33c 99bc 88f8 853c
00000300: 9f3f f93c f58f 423c 88e5 79bb 4487 79bb
00000310: 6280 2bbd a093 053d 47bf c33c a4df 03bc
00000320: b7e1 103d a711 6ebc fd82 0bbd 3fd3 b6bc
00000330: 2f25 29bd 2117 25bc 631d f03b 3844 703c
00000340: 387e 0b3d bf44 36bd 9e7f a33c c319 b93c
00000350: b2ad 033d 2097 16bd 29f0 30bd ba4c 1abc
00000360: 3e01 a9bd be6c aabd acd7 18bd 61b1 15bd
00000370: ed46 f7bc be80 f93b b4ad 4b39 e106 a03c
00000380: 1f07 413d 909c 3138 40dc d53c 5790 9c3c
00000390: 36ac 4abc b115 0d3d c1a8 493d c5c1 db3c
000003a0: 34d2 363d 19f3 f73c 7c65 5abd 33f9 8abc
000003b0: 15e7 1b3d e5d2 a43c e831 e03c f160 7dba
000003c0: 68ec 313d d831 82bb d675 c23c cc81 3d3d
000003d0: ec26 11bd de18 3a3c dfd6 62bb 43dc e4bc
000003e0: 32ad 4ebd ce90 01bd 37ad e5bb f436 423c
000003f0: 77d3 63bd d468 c93c 1eac 55bc 5fa8 563c
-0.034255344 0.013787024 0.0034859313 0.024466328 0.016494518 -0.03875411 0.033976275 -0.026146589
-0.039835174 0.032505006 0.043275 -0.015571028 -0.06546431 -0.075564995 0.016828528 0.012483731
0.00861814 0.02048449 -0.06525116 -0.053531803 -0.00761024 -0.027008113 -0.06967132 -0.00025040383
0.0008108684 -0.008065583 0.02465229 0.03443728 0.04912164 0.013956932 -0.06742477 -0.07212918
0.046662554 -0.0069154724 -0.0010995397 -0.028159518 -0.02992173 0.036733545 0.02569585 0.0010135367
0.0072436915 -0.033803016 0.014020812 0.007352104 0.026675005 -0.057879917 -0.04627115 0.019351967
0.008455554 0.046174776 -0.040844854 -0.013698426 -0.024113245 -0.028510576 -0.03419611 0.056134515
-0.02033577 0.039405927 0.05550175 -0.037818052 0.0101378225 -0.012241856 0.010150578 -0.0032695532
0.015104577 -0.035082135 -0.016818708 0.036957122 0.045846432 -0.025221195 -0.0016738626 0.038247295
-0.010517948 -0.045630615 -0.019287756 0.0025681385 -0.023086928 0.006553302 -0.02615879 0.015228908
0.0146850515 -0.019097313 -0.019133287 -0.015703542 -0.0030678618 -0.052613165 -0.024456332 -0.002575641
0.0077182497 0.017125554 -0.026947573 0.05916169 -0.028338721 0.029557522 -0.004491802 -0.031490207
0.03401626 -0.010774864 0.00677439 0.006522153 0.01767519 0.0283427 0.028573995 0.043273862
0.044430364 -0.042753723 -0.052036516 0.0007450186 -0.0146327885 -0.040990658 -0.00046450816 0.0066876593
0.0110362405 -0.028264085 0.023519363 0.04725431 0.017437948 -0.018072234 0.054137897 -0.040965736
-0.053698324 0.007874835 -0.043205917 0.005734146 -0.036476575 0.042813543 -0.04045132 -0.04182603
0.042562477 -0.0026412806 -0.055827815 0.04207644 -0.019715866 0.06216932 -0.013274694 -0.030583624
0.03370946 -0.009546437 0.016436083 -0.009987157 0.009745388 -0.013586905 -0.03055711 0.018023217
0.0063143848 0.044368874 0.017470963 -0.028883176 0.006451958 0.015947796 0.04602341 0.009027686
0.041417588 0.037487652 -0.019129273 -0.00062206754 -0.014644912 0.05415557 0.038212176 -0.00026602545
0.0059241713 0.046866063 0.0019830936 -0.040093042 -0.03041213 -0.03773302 0.035714 0.006960499
0.06917108 0.05355684 0.030183772 -0.047820855 0.05013657 0.010499453 -0.030768098 0.009191398
-0.032057974 -0.04098478 0.04311437 0.037265282 -0.060515333 -0.046221435 0.02627504 0.015071066
0.0058145644 0.047708817 -0.019959161 0.010651177 0.047732633 0.008797427 -0.01870582 0.01635386
0.030425845 0.011875142 -0.0038131196 -0.003807501 -0.041870482 0.03261149 0.02389492 -0.008048926
0.03537151 -0.014530576 -0.034060467 -0.022317527 -0.041295227 -0.010076315 0.007327722 0.014664702
0.03405592 -0.044499155 0.019958314 0.022595292 0.03214807 -0.036765218 -0.043197785 -0.009417707
-0.0825219 -0.08321522 -0.037315056 -0.036546115 -0.030185187 0.007614224 0.00019424298 0.01953453
0.04712593 4.23459e-05 0.026106 0.019111795 -0.01237016 0.034444515 0.049233202 0.026825795
0.04463406 0.030267285 -0.05331944 -0.01696453 0.038062174 0.020120094 0.027367547 -0.00096656295
0.043438345 -0.003973227 0.02373783 0.046266362 -0.03543751 0.011358468 -0.0034612936 -0.02793706
-0.05045814 -0.031632237 -0.007009174 0.011853922 -0.05562159 0.024586119 -0.013041524 0.013101666

temporal_conv.bias f4 [128]
00000000: 58f6 bc3c eea2 083d 13a3 4b3b d633 353d
00000010: 48e9 bdbc 2fa9 26bd d0c2 35bc 13bc 5b3d
00000020: a288 cdbc abeb 0e3d b2a5 fdbc 41cf 063d
00000030: 91af bebc f001 ee3c ab23 923c 30cd 453d
00000040: c60b a7bc f69d 95bb 938a 01bd 7f16 0d3d
00000050: b6c8 0a3d 8376 893c d38f f3bc a69e 88bc
00000060: 2fd7 3b3d 1d57 e73c f511 f63c 96a4 bb3b
00000070: 637e e4ba 36fb 6a3c 20cd ca3b 70d7 603d
00000080: 179f 6a3d b1f7 073d 554d 0c3c cb58 20bc
00000090: 3c2b 4c3c d762 fabc 105f bf3c 3f61 7a3c
000000a0: 29d0 1c3d 53d8 2bbd 1060 b8bb c36b cabb
000000b0: cb0c f83c ef60 d1bb dd36 4bbc 6353 c7bc
000000c0: 4987 93bc 13d3 c43b 82bb ebbb e0e8 8fbc
000000d0: d62d 143d a784 6c3b 6b22 253d 9265 323d
000000e0: d68b 0f3d 5d55 8f3c 4ce3 573d c6a4 273d
000000f0: 367b cc3a 11f1 593d ce92 f43c dc60 40bd
00000100: 65dc f93c e15f e63c b5ad 073b cf28 2cbc
00000110: c1e7 6cbc 1f1c 463d 7728 2d3d 60cf 06bd
00000120: 3dc4 083d 2bb5 183b 9205 1d3d 672e 62bc
00000130: af21 c4ba b35f 89bc 11cb b5bb 05db d43b
00000140: 580a fd3c 5f72 003c 0b16 dcba da04 003d
00000150: e6f6 debc 4f27 ef3c d48b 5f3d c813 ce3c
00000160: e042 323d 0961 a3bc 3310 133d 45b1 043d
00000170: 82ee 753d 4abf f8bc 85e3 8dbc bb47 913c
00000180: 2751 a338 3e33 173d 7209 48bc 9e9b 113b
00000190: 3f70 a73b d3f8 a9bc d132 f5bb 2e48 4b3b
000001a0: f2fd 073d c165 09bc 42a3 5a39 285e 59bd
000001b0: 42ed 0abc 8a81 d3bb 8029 ab3c c635 0c3c
000001c0: f925 33bc df6a 0ebd 5070 a5bb b478 313d
000001d0: eca8 9b3c 912b 4f3d c949 7a3d c760 193c
000001e0: 4bb2 7b3d 5588 39bc 6f56 2e3d 3737 2cbc
000001f0: ee46 93bb f39f 6e3d 7b9e 6bbb f722 003d
0.023066685 0.033358507 0.0031072542 0.044238888 -0.023182526 -0.04068869 -0.01109381 0.05364616
-0.025089566 0.03489272 -0.030962799 0.032912496 -0.023277076 0.029053658 0.017839273 0.048291385
-0.020391356 -0.0045659496 -0.031626295 0.034445282 0.03388282 0.016780144 -0.029731667 -0.016677212
0.045859512 0.028239781 0.03003786 0.0057264073 -0.0017432686 0.01434212 0.0061890036 0.054892957
0.057280626 0.0331952 0.008563359 -0.009786795 0.01246148 -0.030564709 0.023360759 0.015281974
0.038284454 -0.04195435 -0.005626686 -0.006177397 0.030279538 -0.006389729 -0.012403217 -0.024331754
-0.018008845 0.0060066073 -0.0071939835 -0.017567098 0.036176525 0.003608981 0.040316027 0.043553896
0.035045467 0.01749676 0.052707 0.040928625 0.0015600685 0.053208414 0.029855158 -0.046967372
0.0305006 0.02812189 0.0020702903 -0.010507776 -0.014459551 0.048366662 0.04227492 -0.032912612
0.033390272 0.0023301344 0.03833539 -0.0138050085 -0.0014963652 -0.016769266 -0.005547889 0.0064958357
0.030888721 0.007839768 -0.0016791237 0.031254627 -0.02721734 0.029193548 0.05457671 0.025155917
0.04352081 -0.01994373 0.03590412 0.03239562 0.060041912 -0.030364651 -0.017320404 0.017734399
7.7875615e-05 0.036914103 -0.012209283 0.0022218 0.0051098163 -0.020748531 -0.0074828644 0.0031018364
0.033201165 -0.008386076 0.00020850918 -0.05306831 -0.008479418 -0.0064546512 0.020893812 0.008557742
-0.010934346 -0.03476989 -0.005048789 0.043328002 0.019001447 0.050578658 0.061105523 0.009361452
0.06144933 -0.011324008 0.0425629 -0.010511211 -0.0044945395 0.05825801 -0.0035952616 0.031283345

fc.weight f4 [30, 128]
00000000: b5ac 1dbd 7b6b 97bc 2778 1d3d c267 9dbc
00000010: 913e af3d 58c0 903b eff5 953d 6cd8 923d
00000020: 72ab a63d 472f b53a 4164 c0bc 7796 19bd
00000030: cf60 3c3c ae81 643b 5222 9cbd 00da 21bc
00000040: 7d61 603d f2e2 90bc c141 7cbd d483 a83c
00000050: 18a0 4a3c 9815 963d 0e78 21bd 7e95 dd3d
00000060: 2e6f 8dbd 05fd 6cbd 3336 abbc 414a bf3d
00000070: 0f25 853d dbcb d3bb e32a 1ebd f0fc 43bd
00000080: a8a4 113c 2bea 583b 18a5 32bd 63de a3bd
00000090: f2cd 7dbb 9a57 523d 5fe1 acbd cf6e 52bc
000000a0: 50c1 2abb 72ea cf3c a76a 6b3d cfe1 8abd
000000b0: 17ad 923d f462 e4bd 089b 1d3c 5b0d da3c
000000c0: aeb0 bd3c 6df3 cabc 4f9c 953c 1699 bebd
000000d0: 8be2 74bd 1f1a 503d 8cfb 28bc 1d4e 33bd
000000e0: 7313 973d 644a 0e3d 2d3f 09bd 2519 bdbc
000000f0: 71b7 c93c 6b35 49bc 1e4d 843d 1460 03bd
00000100: aa63 fdbc 451c abbd bb84 48bd e1d4 a83d
00000110: 21fe 423d e2d8 16bd fcc4 3b3c 42ca 39bd
00000120: 6206 c4bd e662 a53d 87e4 a43d 7523 adbc
00000130: e64b 42bc d29f ba3d c47d d3bd 84e5 7c3d
00000140: a51a a8bd 02b8 ca3c eaee 2e3d df6e 783d
00000150: 7165 f1bc d74a 8bbc c2eb a03c dfef 873d
00000160: e486 3abc cbec 813d b8ec 6c3d 8a14 a4bd
00000170: 0f99 e43d 115e babd e446 a3bd 3f37 cd3d
00000180: 37b2 413d b212 82bd b68b ecbb 98fa 3bbd
00000190: f221 ee3c dccc 9c3d 1dde 9f3d 3ade d8bb
000001a0: 3004 c6bd d616 97bd af3d 583c 6733 7d3d
000001b0: 5733 7cbc 5fb2 ee3c e77d c93c d1f0 753d
000001c0: c611 86bd d195 bdbc 8ddd 49bd 1155 913c
000001d0: 7ca4 98bd bbce 583b 4f6c 01bb 091f 79bd
000001e0: 80ee 663d 1224 9c3d e200 823d 813f f4bc
000001f0: 4430 b1bd 63fd e0bc ca92 90bc f57d 753c
00000200: b96d d539 4158 86bc 4ecf aa3d 86e6 7c3d
00000210: 122b e53a 0290 a8bd b221 4fbd 7451 14bd
00000220: 469b ac3d 9c3c 46bd 4f75 a73d bd2a 1ebd
00000230: 90a1 4f3d 611a 293d 012b 7ebd 8b02 843d
00000240: 76d8 813b 9624 2cbd 2159 d7bb c5fa 773d
00000250: ae58 06bd a7e8 c4bb 72af 623d 7373 97bd
00000260: 9cfb ce3c 1d24 023d d0b6 093d 48aa 25bd
00000270: 5421 893d e524 45bc 0941 55bd be2c ddbd
00000280: dc28 5f3d f7df b4bb e492 8d3d f833 93bd
00000290: f5c2 c03d 4922 803d 5016 9ebd 7408 b23d
000002a0: d867 85bd a63e 983d ec70 8c3b 5ada 94bd
000002b0: 53b1 42bd 091d 4e3d 83ca 063d ad0d c73c
000002c0: eaee 37bd cf9e b53d c853 86bc dfdb 6c3d
000002d0: 63e5 203d ebbe d3bb 8861 54bc f106 89bd
000002e0: 49bb 08bd 9d6b 63bd 11f2 6cbb 49ec 283d
000002f0: 603e 603d 2010 dc3c b7c8 b9bd 2ee6 e33c
00000300: dbc7 0c3d 9a65 e33d 4273 debc 5256 7ebd
00000310: 0862 d0bc 637f 163c 14f5 3abc ee9b 42bd
00000320: e709 583d d3f9 993d 0a36 44bd 88d1 9f3c
00000330: f0fa 3bbd e1d9 8dbd b34d 1ebd 1e37 f93b
00000340: ebc7 e7bc b324 023d 65a7 4c3d a608 ca3c
00000350: 846c 9f3d 66e2 2f3c da03 9d3b 9eb3 e1bc
00000360: 3fdd cdbc dc0e 73bd 4387 1b3d 4146 f53a
00000370: 46f2 33bb 31a0 f83c 9585 55bd 4687 54bd
00000380: eeb8 02bd 4cbe aabb 0b96 b53d 63d3 06bd
00000390: 7474 763d b1aa c63d e4ac 803d cd7a 60bb
000003a0: 92e7 9c3c aa5a 1f3d 727e 113d 7947 4a3d
000003b0: c275 1d3d e11b c13c 3805 fabc bbcf 093c
000003c0: bd05 d83c 2c23 31bd 2ad3 a33d 27af ce3d
000003d0: 5b4c 8bbd faaf 4fbb a83d c6bd 90e8 b1bd
000003e0: afac 5e3d 4085 673c 9ea1 5b3d f3f9 c93d
000003f0: 4a19 37bd 5b09 473d 3bfa 1fbc f900 e53b
-0.038494784 -0.018483868 0.038444664 -0.019214515 0.085568555 0.0044174604 0.07322299 0.071701854
0.08138169 0.0013823294 -0.023485305 -0.03749701 0.01149769 0.0034867334 -0.076237336 -0.009878635
0.054780472 -0.017686341 -0.061586145 0.020570673 0.012367271 0.073283374 -0.039421134 0.10819529
-0.069059715 -0.057858486 -0.020899868 0.09340335 0.06501209 -0.0064635104 -0.03861512 -0.047848642
0.008889355 0.003309856 -0.043614477 -0.08001401 -0.003872749 0.051353075 -0.084414236 -0.012843802
-0.0026055165 0.025380347 0.05747476 -0.06781351 0.071619205 -0.11151686 0.009619482 0.026617697
0.023155537 -0.024774278 0.01826301 -0.093065426 -0.05978636 0.05080616 -0.01031388 -0.043775667
0.073767565 0.034738913 -0.033507515 -0.023083279 0.024623604 -0.012280802 0.064600214 -0.03207405
-0.030931313 -0.08355001 -0.048954707 0.082437284 0.047605637 -0.03682793 0.011460539 -0.045358904
-0.0957153 0.08075504 0.08051401 -0.021135071 -0.011858916 0.091125146 -0.10326722 0.06174232
-0.08208207 0.024745945 0.042708315 0.06065261 -0.029467316 -0.01700346 0.019643668 0.06637549
-0.0113846995 0.06343993 0.05784294 -0.0801173 0.11162006 -0.09099973 -0.07972506 0.10020303
0.0472891 -0.06351222 -0.0072188033 -0.04589328 0.02906892 0.07656261 0.078060366 -0.0066182883
-0.096687675 -0.073774025 0.0131983 0.0618166 -0.0153931 0.029137788 0.024596168 0.060044114
-0.06546359 -0.023142727 -0.049283553 0.017740758 -0.07453248 0.0033082205 -0.0019748395 -0.060820613
0.056379795 0.07624067 0.06347825 -0.029815437 -0.08651784 -0.027464574 -0.01764812 0.014983644
0.00040708276 -0.016399505 0.083403215 0.06174328 0.001748415 -0.08230592 -0.050569244 -0.036210492
0.084280536 -0.048397645 0.08176672 -0.038614977 0.050691187 0.041284923 -0.06205273 0.064457975
0.0039625717 -0.04202708 -0.0065719043 0.060541887 -0.032799415 -0.0060091796 0.0553431 -0.07395067
0.025266461 0.03177272 0.03362161 -0.040445596 0.0669581 -0.012032722 -0.052063975 -0.107995495
0.054482326 -0.0055198628 0.06912783 -0.071876466 0.09412185 0.062565394 -0.077190995 0.086930186
-0.06513947 0.07433824 0.0042859223 -0.0726821 -0.04753239 0.05032066 0.032907974 0.024298513
-0.04490558 0.08868181 -0.016397372 0.057826873 0.03928126 -0.006461968 -0.012962706 -0.06690777
-0.033381734 -0.05552255 -0.0036155025 0.041240964 0.054746985 0.026863158 -0.090714864 0.02781972
0.034370285 0.11103363 -0.027154569 -0.06209404 -0.02543737 0.009185645 -0.01141097 -0.047511987
0.05274382 0.07518353 -0.0479031 0.019509092 -0.04589361 -0.06926323 -0.03864832 0.0076054474
-0.02829357 0.03177328 0.049964327 0.024662327 0.077843696 0.01073513 0.004791719 -0.027551468
-0.025129912 -0.059340343 0.037970793 0.0018712954 -0.0027457639 0.030349823 -0.052129347 -0.05188682
-0.031914644 -0.0052106734 0.08866509 -0.032916438 0.060169652 0.097005256 0.06282976 -0.0034252882
0.01915339 0.038904823 0.03552098 0.049384568 0.03844238 0.023572864 -0.030520067 0.008411343
0.026369924 -0.043246433 0.07999261 0.100920014 -0.06801673 -0.0031690584 -0.09679729 -0.08686936
0.054363903 0.01413089 0.053620927 0.09862127 -0.044701852 0.048592906 -0.009764249 0.0069886413

fc.bias f4 [30]
00000000: 7d58 26bd 4008 20bd 7bd0 90bd 1b38 a13b
00000010: 05b8 80bd 909f e83c f0b6 5d3d ec4b b53c
00000020: ddd7 ecbc ccee b7bd dead 683c ff08 af3d
00000030: 5f0e 2abc c345 7b3d 2953 493d 18bb 58bd
00000040: e231 7f3d 66c5 48bd dcf9 16bd 1565 543d
00000050: 3ad2 b03d e666 713d a73d aa3b fea9 9cbc
00000060: f317 fc3c 43ed 553d c979 3abd d7b8 653d
00000070: de2f 9bbb 0a14 873d
-0.040611733 -0.039070368 -0.070710145 0.0049200184 -0.06285099 0.028396398 0.05412954 0.022130929
-0.028911525 -0.08981094 0.014201609 0.08546638 -0.010379403 0.061345827 0.049151573 -0.0529128
0.06230343 -0.04901638 -0.03685938 0.05185421 0.086338475 0.058936022 0.005195338 -0.019124027
0.030773139 0.052228224 -0.0455263 0.05608448 -0.004735931 0.06595619
