GWN/best_models/best_model_w120_h10.pth (torch, 354571 bytes, 9 tensors)

adapt_adj f4 [120, 120]
000000 e7 3b 7f 3f af 35 4b bb b4 51 4c bb 35 07 46 bb
       0.9970078 -0.003100734 -0.0031176629 -0.0030216698
000010 5b f9 43 bb 86 03 40 bb c7 8c 3e bb bf ec 3f bb
       -0.0029903266 -0.0029298975 -0.002907561 -0.0029285399
000020 41 26 3f bb 13 e5 40 bb 91 b6 3a bb de 18 39 bb
       -0.0029167088 -0.0029433414 -0.0028490166 -0.0028243582
000030 1a 53 38 bb ce 16 2f bb 90 bb 2c bb 6f 0e 29 bb
       -0.0028125704 -0.0026716474 -0.0026356913 -0.0025795957
000040 1a 4f 22 bb 8f 4e 1d bb db 41 13 bb 89 46 0e bb
       -0.0024766386 -0.0024003123 -0.0022469673 -0.0021709523
000050 f9 67 07 bb 50 30 04 bb 8a 4f 04 bb 35 6c fa ba
       -0.0020661338 -0.0020170398 -0.002018901 -0.0019105735
000060 7a e2 eb ba 40 8b df ba 2e b4 e9 ba 6a bd f5 ba
       -0.0017996572 -0.001705505 -0.0017830187 -0.0018748466
000070 b4 61 00 bb 03 62 03 bb 94 1d 03 bb 2f 2d 06 bb
       -0.0019589486 -0.0020047433 -0.0020006644 -0.002047371
000080 20 7f 0d bb b2 40 0e bb 49 43 13 bb 51 49 14 bb
       -0.0021590665 -0.0021706042 -0.0022470525 -0.0022626708
000090 34 bd 12 bb d2 e0 14 bb 83 1a 17 bb cf d1 14 bb
       -0.0022390606 -0.002271701 -0.0023056574 -0.0022708063
0000a0 e0 ef 0c bb 3d 37 08 bb bf ab 03 bb e3 38 02 bb
       -0.0021505281 -0.0020784878 -0.0020091382 -0.0019870333
0000b0 35 25 fd ba 75 35 f5 ba f6 c3 f3 ba 2a 39 fc ba
       -0.0019313457 -0.0018707948 -0.001859783 -0.001924311
0000c0 7b 6e fd ba d0 f4 f0 ba a8 36 fa ba 24 17 f4 ba
       -0.0019335294 -0.0018383507 -0.0019089775 -0.0018622619
0000d0 a2 69 ea ba 53 9d e4 ba 9b 7d e7 ba ee 3c e0 ba
       -0.0017884264 -0.0017441906 -0.0017661335 -0.0017108002
0000e0 55 35 cf ba 6f 81 c3 ba c7 fc ba ba 22 82 ae ba
       -0.0015808741 -0.0014915894 -0.0014266007 -0.0013313929
0000f0 8c 82 a9 ba b3 01 9a ba 13 8a 90 ba 19 ba 7e ba
       -0.0012932583 -0.0011749774 -0.0011027477 -0.0009717062
000100 82 67 5b ba 35 ef 3a ba fd 8f 1f ba 77 f9 19 ba
       -0.0008369611 -0.00071309815 -0.00060868246 -0.000587366
000110 93 13 0d ba a0 36 e4 b9 01 28 e4 b9 c9 f1 a5 b9
       -0.000538164 -0.00043528248 -0.00043517354 -0.00031651396
000120 d5 a5 62 b9 cb 0c 3e b9 d5 ce f8 b8 db 7a a5 b8
       -0.00021614817 -0.00018124578 -0.00011864087 -7.890697e-05
000130 57 46 00 b9 41 74 9f b8 c4 2a 97 36 f9 e8 9c 38
       -0.00012233235 -7.603365e-05 4.5051293e-06 7.482054e-05
000140 bd 29 48 39 66 cd b0 39 9f d1 09 3a 15 eb 29 3a
       0.00019089035 0.0003372237 0.0005257371 0.00064818683
000150 a4 b3 5e 3a dc e4 7d 3a 28 29 9b 3a 4c 4a b5 3a
       0.00084953965 0.0009685287 0.0011837827 0.0013831346
000160 cf 7e c4 3a 28 f1 d4 3a 96 e3 d9 3a 96 e0 f5 3a
       0.0014991405 0.0016246187 0.0016623612 0.0018758948
000170 b9 7a 07 3b 19 7e 0c 3b 17 d1 14 3b df 13 13 3b
       0.0020672514 0.0021437465 0.0022707635 0.0022442264
000180 e4 b3 19 3b e4 b9 25 3b b4 b2 2c 3b 01 87 31 3b
       0.002345317 0.0025287801 0.0026351633 0.0027088525
000190 88 95 3d 3b 4a 5c 49 3b d1 ea 51 3b 2d 83 61 3b
       0.002892824 0.0030725175 0.003203083 0.0034410462
0001a0 be 56 73 3b d4 4a 7d 3b 07 d6 89 3b 52 c3 8f 3b
       0.003713056 0.0038649337 0.0042064223 0.0043872977
0001b0 0c 28 9b 3b 4f 5b a2 3b 34 2e a7 3b b0 49 ac 3b
       0.0047349986 0.0049547325 0.0051019434 0.0052578077
0001c0 ec 7c b2 3b 72 ad b7 3b 60 60 bd 3b 89 8a c4 3b
       0.0054470208 0.005605393 0.005779311 0.00599796
0001d0 9d a1 ce 3b 14 5a da 3b 3f 27 e2 3b a3 4c f1 3b
       0.006305887 0.00666357 0.006901651 0.007363872
0001e0 55 41 39 bb 0c 40 7f 3f bb ea 40 bb fd 8d 3a bb
       -0.00282677 0.997071 -0.0029436785 -0.002846598
0001f0 e6 78 38 bb 61 83 34 bb a3 1b 33 bb 80 81 34 bb
       -0.0028148233 -0.0027544128 -0.0027329705 -0.0027543008
000200 22 d4 33 bb 9d 5f 35 bb 0d 8d 2e bb 90 d2 2c bb
       -0.0027439673 -0.0027675398 -0.0026634366 -0.0026370622
000210 fd 15 2c bb 7d 97 22 bb a1 f4 1f bb 77 04 1c bb
       -0.0026258223 -0.0024809532 -0.0024407285 -0.0023806372
000220 23 f5 14 bb 86 d4 0f bb a7 87 05 bb 44 5a 00 bb
       -0.002272912 -0.0021946742 -0.0020375045 -0.0019585053
000230 38 a2 f2 ba 25 e8 eb ba 1d 39 ec ba d6 a5 de ba
       -0.001851148 -0.0017998262 -0.0018022392 -0.0016986679
000240 d2 22 d0 ba dd 9a c2 ba a4 b1 cb ba c7 68 d7 ba
       -0.0015879518 -0.0014847178 -0.0015540612 -0.0016434424
000250 71 d9 e1 ba 43 33 e8 ba 5d 9a e8 ba 0c 84 ef ba
       -0.001723094 -0.0017715472 -0.0017746199 -0.0018273606
000260 0c b8 fd ba aa 42 ff ba 72 b8 04 bb e2 69 05 bb
       -0.0019357218 -0.0019474823 -0.002025154 -0.00203573
000270 cc ee 03 bb f3 88 05 bb 09 5d 07 bb 62 70 04 bb
       -0.0020131348 -0.0020375818 -0.0020654819 -0.0020208587
000280 7d f2 f8 ba 63 70 ef ba 06 60 e5 ba f2 0e e3 ba
       -0.0018993166 -0.0018267747 -0.0017499931 -0.001732318
000290 83 6a db ba 17 9c d3 ba 9e fa d2 ba 5f c9 da ba
       -0.0016740117 -0.0016144541 -0.0016096418 -0.0016692093
0002a0 e3 5c db ba 04 74 ce ba 7c 66 d6 ba f5 4e d0 ba
       -0.0016736056 -0.0015751128 -0.0016357447 -0.0015892672
0002b0 14 25 c7 ba 1c 21 c1 ba 70 f0 c4 ba 82 00 be ba
       -0.0015193545 -0.0014734599 -0.0015025269 -0.0014496001
0002c0 b3 00 ac ba 9a 54 a0 ba 13 94 97 ba ce 6e 8b ba
       -0.0013122767 -0.0012232244 -0.0011564515 -0.0010637881
0002d0 47 62 85 ba 20 d6 6b ba eb c2 55 ba 12 04 35 ba
       -0.0010176384 -0.00089964457 -0.000815435 -0.00069052086
0002e0 3c a5 10 ba 9c 77 e3 b9 0a 3d ac b9 ff 29 a1 b9
       -0.0005517786 -0.0004338593 -0.00032851874 -0.00030739603
0002f0 dd 67 8d b9 28 40 2b b9 26 75 25 b9 fc a0 3b b8
       -0.00026971 -0.00016331731 -0.00015779267 -4.4734203e-05
000300 69 31 53 38 8f 94 a8 38 18 4e 1a 39 21 0f 44 39
       5.0352337e-05 8.0385355e-05 0.00014715677 0.00018697653
000310 c5 8c 13 39 b4 6a 46 39 50 69 8e 39 bd 9a b6 39
       0.00014071453 0.00018922501 0.00027162815 0.00034829034
000320 84 37 f1 39 d4 53 1f 3a a4 6c 53 3a c3 d3 73 3a
       0.00046008464 0.000607786 0.00080652 0.00093012693
000330 bc 7f 94 3a c8 a4 a4 3a 13 0e c1 3a 6b a3 da 3a
       0.0011329572 0.0012561316 0.0014728926 0.0016680782
000340 e4 45 e9 3a 23 c7 fb 3a 1f 2e 00 3b b6 fe 0d 3b
       0.0017797318 0.0019209128 0.001955874 0.0021666712
000350 04 a4 1a 3b fc 72 1f 3b 8e 6d 27 3b dd 88 25 3b
       0.0023596296 0.002433001 0.0025547477 0.0025258579
000360 c5 fe 2c 3b 44 03 39 3b da ad 40 3b cc c2 45 3b
       0.0026396972 0.0028230706 0.0029400499 0.0030175922
000370 38 3e 52 3b cf ed 5d 3b 5f b0 66 3b 0a 45 76 3b
       0.0032080542 0.0033863669 0.003520034 0.0037577772
000380 03 99 83 3b ee 8c 88 3b ac c4 93 3b ee eb 99 3b
       0.004016043 0.0041671908 0.004509529 0.0046973145
000390 4d 04 a5 3b d9 33 ac 3b 30 94 b0 3b 69 a2 b5 3b
       0.005035913 0.005255204 0.005388759 0.0055430424
0003a0 85 e0 bb 3b 85 31 c1 3b a6 d8 c6 3b aa 47 ce 3b
       0.005733552 0.0058957958 0.006068307 0.006295164
0003b0 51 41 d8 3b de d3 e3 3b 95 c1 eb 3b cf 4c fb 3b
       0.006599583 0.006952747 0.0071947076 0.0076690684
0003c0 f0 0b 3c bb 8e d8 42 bb 94 3c 7f 3f c1 fb 3c bb
       -0.0028693639 -0.0029731127 0.9970181 -0.002883658
0003d0 99 0e 3b bb bb 3e 37 bb 04 a1 35 bb 84 3b 37 bb
       -0.0028542636 -0.0027960974 -0.002771438 -0.0027959058
0003e0 55 6e 36 bb 03 0d 38 bb a0 f8 31 bb 70 8e 30 bb
       -0.002783676 -0.0028083927 -0.0027156249 -0.0026940368
0003f0 97 10 30 bb 21 dd 26 bb c2 8f 24 bb 84 b8 20 bb
       -0.0026865357 -0.0025461393 -0.00251101 -0.0024524042

gc1.fc.weight f4 [128, 30]
000000 2b 33 26 be 61 16 0e be 87 9f 13 be 38 55 0c 3e
       -0.16230457 -0.13875724 -0.14416324 0.13704383
000010 1f 9e 2e 3e 91 3c d6 bc f3 1e ca bd fe 2c fb 3d
       0.17052506 -0.026151927 -0.09869184 0.12264441
000020 20 a0 5f 3b 7f a3 8f 3c 68 a0 21 bd ea e2 1c be
       0.0034122542 0.017534016 -0.039459616 -0.15320936
000030 6d d3 08 be 5f a3 96 3c 33 dd 93 3b 34 d1 2d be
       -0.13361903 0.018388448 0.004512453 -0.16974336
000040 af fd 28 3e f6 79 dd bd 1f e0 b0 bc 6c c9 2b be
       0.16503023 -0.10814278 -0.021591244 -0.16776055
000050 57 ca ad 3d ad 69 17 be 25 b5 34 3e 34 30 e9 3d
       0.08485859 -0.14786406 0.17647226 0.11386147
000060 b0 e2 76 bd e6 7a b5 bc 80 e7 13 be b8 43 cb bd
       -0.06027478 -0.02215333 -0.14443779 -0.09925026
000070 05 bb 0d 3d 96 cb 87 3d 5b 0a 42 be fa e6 11 3d
       0.034602184 0.06630628 -0.18949263 0.035620667
000080 e5 fc 1d 3d aa c8 61 3d 2a 16 b4 3c c4 38 aa 3d
       0.038571257 0.05512301 0.021983225 0.083116084
000090 e4 a8 5f bd 69 49 4c 3e 48 c3 c3 3d d0 72 16 3e
       -0.054604426 0.19949879 0.09558731 0.14692235
0000a0 0f 40 2c 3d d2 8c 9f 3b c6 2e 1e 3e 50 1e 59 bd
       0.04205328 0.004869082 0.1544753 -0.053007424
0000b0 4b af 29 be a8 80 49 3d ae eb ab 3d 98 d1 dd bd
       -0.16570775 0.04919496 0.08394562 -0.108309925
0000c0 e5 b7 39 be c3 9c 2c be 2c 4f 19 be 5d ef 1d be
       -0.18136556 -0.16856675 -0.14971608 -0.15423341
0000d0 bb cf 2e 3e 82 7b 21 3e 01 45 4b 3b ae 75 2c 3e
       0.1707143 0.1576977 0.0031016471 0.16841766
0000e0 c0 8a 2d 3e fb 70 bf 3c e4 83 28 3b 09 a4 7a bd
       0.1694746 0.023369303 0.0025713379 -0.061191592
0000f0 bb 89 08 3e eb 90 06 be 56 e7 07 3e ff 3e 1c 3e
       0.1333379 -0.1314122 0.13271841 0.15258406
000100 52 9a 7c bd 8d df b4 bd ab a6 18 3e 7f 45 57 3e
       -0.06167061 -0.088317014 0.14907329 0.21022604
000110 03 a2 1d 3d 29 23 19 be 6d 94 99 3d cd 58 ff 3d
       0.038484585 -0.14954819 0.07499013 0.12468109
000120 64 d3 85 bd b5 d3 93 3d fe 63 f9 3b d1 f5 eb 3d
       -0.0653446 0.07218114 0.007610797 0.11521495
000130 2e ba da bd bb 05 1b 3d 9d 6a c9 bc 42 36 66 3d
       -0.10680042 0.037847262 -0.02458697 0.056204088
000140 38 0d 33 be 43 bf 13 3e 6d 84 02 be d5 92 22 bd
       -0.17485511 0.1442843 -0.12745829 -0.03969081
000150 33 f4 8e bd 61 1b 94 3d 40 75 e7 3d 32 de 1b be
       -0.06980171 0.072317846 0.113016605 -0.1522148
000160 31 5b 97 bc 3e f7 a2 bd 62 e9 37 be 2e 09 97 bd
       -0.0184761 -0.07957314 -0.17960122 -0.07374798
000170 e5 cc dc bd f1 6d 8b 3d 41 0b 72 bd 31 c6 c1 bd
       -0.10781268 0.06808079 -0.059092764 -0.0946163
000180 db 78 eb bb f6 09 11 be 74 b5 2a 3e bf b3 a4 3d
       -0.007186038 -0.14163956 0.16670781 0.08042096
000190 bd fd 0d 3d 8c 05 04 bd ce 41 c7 3d f8 c8 a3 bc
       0.03466581 -0.032231852 0.09729348 -0.01999329
0001a0 6f c7 1c 3e aa 7f c9 bc b2 22 f7 3c 6f 37 b8 bb
       0.15310453 -0.024597008 0.030167911 -0.0056218426
0001b0 cc c4 e6 bd 3a 9c d0 3c 4d 90 d5 3d ef 64 f1 3d
       -0.11268005 0.02546512 0.10427914 0.1178683
0001c0 0f 61 b6 3c c3 50 72 bd 04 13 89 bd 56 46 2e 3e
       0.022263078 -0.05915905 -0.0669308 0.17019019
0001d0 6e f8 86 3c 38 f7 e9 bd 17 18 4a bd f9 d1 23 3d
       0.016475882 -0.11424106 -0.04933938 0.039995167
0001e0 be c1 01 3e 99 1e 72 3c b8 47 04 be da 7d 8e bd
       0.12671563 0.014777803 -0.12917984 -0.06957598
0001f0 10 c5 37 bc c8 6e 0f be ed 28 c2 3d 62 7c 0e be
       -0.011216417 -0.14007103 0.09480462 -0.13914636
000200 23 e6 16 3d b5 b4 21 3e 33 50 46 be d2 9b 4c be
       0.03684057 0.1579159 -0.19366531 -0.19981316
000210 ea ef 67 3d 98 e2 20 bd cf 7d 26 3c d7 38 28 be
       0.056625284 -0.039278597 0.010161831 -0.16427933
000220 42 e6 32 3e 1a 65 83 bb c7 32 c0 bc 25 4c 23 3e
       0.17470649 -0.004009855 -0.023461713 0.15947016
000230 23 b9 46 3d 82 25 2c 3e 21 1c 24 bc c0 2f f7 bd
       0.048516404 0.16811183 -0.010016472 -0.120696545
000240 6a bf 58 bb 73 df c4 bd 27 91 29 3e e5 62 11 3e
       -0.0033073076 -0.09612932 0.16559277 0.14197882
000250 b6 bb 08 bc ba 21 39 3e b9 52 c6 3d 55 0f d6 3d
       -0.008345535 0.18079272 0.09683747 0.10452143
000260 7e 69 05 3e ec 27 2d 3e 08 f6 20 bd 1e 06 c6 bd
       0.13028523 0.1690976 -0.039297134 -0.096691355
000270 46 05 1e be 67 f9 3c bd 3f 0c 16 be 81 9e 04 be
       -0.15431699 -0.046136286 -0.14653109 -0.1295109
000280 f4 bb 11 3e 05 09 7a ba 04 c4 0c 3d 77 3d 40 3c
       0.14231855 -0.0009538087 0.034366623 0.011733404
000290 70 fe 2e be de c8 2c 3e 02 ac 31 3e 1f 71 29 3e
       -0.17089248 0.168735 0.17350772 0.16547059
0002a0 92 9d 6d bd dc bd 21 3e 11 87 ef 3d 9c 9e 9a 3d
       -0.0580116 0.15795082 0.11695684 0.075497836
0002b0 56 b7 28 be fa d2 0a 3e 79 2a d7 3d 90 d6 c6 3c
       -0.16476187 0.13557044 0.10506148 0.024272233
0002c0 80 a0 82 3c a0 05 dd 3d 16 9b 70 3d b9 3a ce bc
       0.015945673 0.107920885 0.05874165 -0.025174486
0002d0 7e c7 0a 3e 00 29 2c 3b c8 7b 8f 3d 78 41 17 be
       0.13552663 0.0026269555 0.07006031 -0.14771068
0002e0 e3 25 80 3d 39 b9 22 3e f2 82 18 bd c5 c0 f8 3d
       0.06257226 0.1589097 -0.037234254 0.12146143
0002f0 44 b0 42 be 71 74 b9 bd d4 5f 31 3e 21 dd cf 3d
       -0.19012552 -0.090554126 0.17321712 0.10149599
000300 2c c6 30 bd 9c fe 8d 3d 09 42 aa 3d 1c 8d a4 bd
       -0.04315774 0.069333285 0.083133765 -0.08034727
000310 11 75 63 bb 0a a9 d2 3c f9 91 ec bd f3 c6 a7 bd
       -0.0034707228 0.02571537 -0.115512796 -0.081922434
000320 b3 a9 5f bc 26 97 10 3e 73 34 16 bd cc 64 3a bd
       -0.013651299 0.14120159 -0.036671113 -0.045506284
000330 69 12 a4 3d e4 ca 8a 3d 7c f8 9d bb 51 e3 95 3d
       0.08011324 0.067769796 -0.0048208814 0.07318748
000340 6e cf ac bd 53 0e 93 3d a2 74 0f 3e c2 bd 34 be
       -0.084380016 0.071804665 0.14009336 -0.17650512
000350 6c 55 0f bd e7 73 0c be 59 60 44 be f3 ce e8 3d
       -0.034993574 -0.13716088 -0.19177379 0.113675974
000360 ba 71 19 bc e2 5d 06 3e db 57 ad bd 4d c8 e9 3d
       -0.009365493 0.13121751 -0.08464023 0.114151575
000370 79 4e c1 3d 2b a1 12 bd fc 0f 20 be 43 31 7c bd
       0.094387956 -0.035798233 -0.15631098 -0.061570417
000380 35 0f 36 3d 5e f5 2a 3e 33 2e de bd 8e 0f 25 3e
       0.044448096 0.16695163 -0.108486556 0.16119215
000390 b0 9c bf 3c 43 7c 88 bd 4b 5d 0d be 0b b2 d0 bd
       0.023390144 -0.06664326 -0.1380512 -0.10190209
0003a0 d9 b8 4d bd e0 ca d3 3c 7a 54 e6 3d dc 88 18 bd
       -0.050225113 0.025853574 0.112465814 -0.037239894
0003b0 1c 13 f0 3c 1f 22 c1 bc 0b c0 81 bd 0a cc b4 bd
       0.029305987 -0.02357584 -0.063354574 -0.0882798
0003c0 cc 6d 1f be d0 64 8a bd 87 ac 17 3e b1 e2 e0 3d
       -0.15569228 -0.0675751 0.14811908 0.10980738
0003d0 3f bf 25 be 9d b8 e0 3a 66 53 22 be 1b 37 b8 3c
       -0.16186236 0.0017144863 -0.15852126 0.022487214
0003e0 23 68 1e 3c 97 67 1b 3d fb 6b 60 bd a9 89 2b be
       0.009668383 0.037940588 -0.05479048 -0.16751732
0003f0 71 e8 6b bd 6b d9 39 3e ad 4d c1 bc 11 62 3e 3e
       -0.05759472 0.18149345 -0.023596609 0.18592097

gc1.fc.bias f4 [128]
000000 c5 27 21 3e 6a 26 fe 3d 68 e1 21 be 60 c1 78 3c
       0.15737827 0.12409671 -0.15808642 0.015182823
000010 a4 0f 0a be 92 4e 31 be 9a 32 13 be ab 03 19 3c
       -0.13482529 -0.17315128 -0.14374772 0.009339253
000020 b4 84 97 bd c8 ec e1 bd 60 c8 36 bc 7a 12 8e 3d
       -0.07398358 -0.110314906 -0.011156172 0.06937118
000030 f8 a7 f8 3b 92 79 1c 3e f0 c0 19 be 4f a6 a1 bd
       0.007588383 0.1528075 -0.15015006 -0.07893049
000040 c5 d7 45 bc 9f 7c 2e 3e e8 02 11 3e 5f f0 2c 3e
       -0.012075369 0.17039727 0.14161265 0.1688857
000050 d7 9c 2c 3d 4c 23 97 3b bb ef f5 3d fb 7a 10 3e
       0.04214176 0.004612362 0.120086156 0.14109413
000060 79 50 06 3e b9 b1 9a bd f1 9c 67 bd 09 25 ea bd
       0.13116635 -0.07553429 -0.056546155 -0.11432845
000070 3c 12 de bd 5e 05 e7 3d 3b 29 b8 3c 55 81 34 bd
       -0.10843322 0.112803206 0.022480598 -0.044068653
000080 6b c2 0a 3e cd de e2 3d 5b b8 0b be 58 87 28 be
       0.13550727 0.11077652 -0.13644545 -0.1645788
000090 13 c4 75 3b 7c 07 e3 3d bf 9c d9 3d 07 19 e4 3d
       0.0037500903 0.11085412 0.106256 0.11137586
0000a0 ce af 33 3e 76 83 d1 bd 77 b7 d9 3b c8 4a ed 3d
       0.17547533 -0.10230152 0.006644185 0.11586529
0000b0 c9 53 53 3d 3e 41 2e 3e a0 51 4a 3d 41 bb 91 bd
       0.051593576 0.17017075 0.04939425 -0.07115794
0000c0 f1 90 53 bd 3a 8d 26 be 55 58 06 be a2 85 0b be
       -0.0516519 -0.16264811 -0.13119633 -0.13625196
0000d0 a3 bc 21 3e 4e 2b 19 be a9 30 e0 3d ea 9c 66 3d
       0.15794615 -0.14957926 0.10946781 0.05630199
0000e0 9c 6f 24 be d1 01 cc 3d 98 7b b9 bd 15 49 86 3d
       -0.160582 0.09961284 -0.09056777 0.06556908
0000f0 c8 f7 28 be 74 44 37 3e b1 55 97 3d 7f 42 09 3e
       -0.16500771 0.17897207 0.07389391 0.13404272
000100 52 97 9c 3d 5b d1 f0 3d 19 7e e6 3d bb cd 01 3d
       0.076460496 0.117586814 0.1125452 0.03169034
000110 6a 79 5f 3d fe de 3d 3d 58 9d 46 3d 25 18 f6 3d
       0.05455915 0.04635524 0.0484899 0.12016324
000120 44 d9 94 bd 48 40 1a 3e d5 b6 01 be 9c b1 26 bd
       -0.07268003 0.15063584 -0.12667401 -0.040696725
000130 8d 2d c7 3d 64 17 ae bd 6a c4 42 be 46 0e 5b bd
       0.09725485 -0.08500555 -0.19020239 -0.05348041
000140 aa f6 08 be a8 bd b7 3d 10 83 29 bc 6c 93 1f 3e
       -0.13375345 0.08971721 -0.010346189 0.1558358
000150 d3 e6 0a be 9b 3c 33 be dd 00 2b be 67 65 11 be
       -0.13564615 -0.17503588 -0.16699548 -0.14198838
000160 6c 5b 11 3d d4 84 58 bc e8 e0 e8 bd 6d 20 74 bd
       0.035487577 -0.013215262 -0.113710225 -0.059601236
000170 07 99 09 be 8e 87 1d be fd f8 8b 3d d8 2f ea bd
       -0.13437282 -0.15383741 0.068346 -0.11434907
000180 62 b4 ad bd 57 4a d0 bd 3e 95 1c 3d a9 a5 0b 3e
       -0.08481671 -0.10170429 0.038228266 0.13637413
000190 68 92 f4 bd 5a 35 05 be 07 a3 0f 3d dd 62 11 bd
       -0.11941987 -0.13008633 0.035067584 -0.035494674
0001a0 5d 43 06 be 48 97 cc 3d 14 cc 34 3d cf 35 00 3e
       -0.13111635 0.09989792 0.044139937 0.12520526
0001b0 d5 7c a2 bd d4 2e 1c be d6 0f 1a be 06 9c ce 3d
       -0.07933966 -0.15252239 -0.15045103 0.10088353
0001c0 40 c6 dd bd 2d 7d 0c be e0 9f 7f 3d 3f b7 6e bd
       -0.10828829 -0.13719626 0.062408328 -0.058280226
0001d0 40 1a ef 3c 10 6f f8 3d 40 7c 56 3c 76 b4 4f 3d
       0.029187322 0.121305585 0.013091147 0.05070921
0001e0 b0 65 ca 3d 58 bd 89 bd d6 21 17 be 30 c8 34 3e
       0.098826766 -0.067255676 -0.14759001 0.1765449
0001f0 5e b8 47 bd 70 6a 25 be 73 ad 1c be 2c 40 a2 bd
       -0.04875981 -0.16153884 -0.1530054 -0.07922396

gc2.fc.weight f4 [128, 128]
000000 08 44 fe 3c b0 7a 1b bc c0 b2 a9 3c ca d0 fa bd
       0.0310383 -0.0094897 0.020715117 -0.122468546
000010 44 39 ae bd bd 09 e2 3c 95 a7 b8 3d 49 60 5f 3d
       -0.08507016 0.027592534 0.09016339 0.054535184
000020 77 f2 7f bd 68 14 69 3d 31 07 1b 3c dc 32 50 bd
       -0.062487092 0.056904227 0.009462164 -0.050829753
000030 a3 d0 56 3d 4b 3e 9d bd ec 4c 3a bd a9 29 f1 3a
       0.052445065 -0.07677897 -0.045483515 0.0018399257
000040 cc 60 1d 3a 1d 42 93 3d 0d e7 ea 3c d1 84 58 3d
       0.00060034986 0.071903445 0.028674627 0.05286104
000050 4b 2b c6 3c 26 0f cf bd 19 16 66 bb f5 2c 0b bd
       0.024190566 -0.10110311 -0.0035108386 -0.03397842
000060 b0 cb ca 3b 3b f3 14 3d f7 5a f0 bc ff 8b 6c bd
       0.006188832 0.036364775 -0.02934025 -0.0577507
000070 53 b3 9c bd c7 18 17 bc 06 34 b0 3d 1c c9 84 bd
       -0.07651391 -0.009222216 0.08603673 -0.06483671
000080 81 64 97 3d 74 67 91 bd c2 67 45 3d 8c d6 b7 bc
       0.073922165 -0.0709981 0.048194654 -0.022441171
000090 13 c3 51 bd a0 f1 85 3d 22 55 e1 bd c2 78 76 3d
       -0.051211428 0.06540227 -0.11002566 0.060173757
0000a0 b4 83 3e ba 96 44 ab 3c d1 53 93 bd 0a 00 78 bd
       -0.000726755 0.020906728 -0.07193721 -0.060546912
0000b0 5f 7c 9b bd 15 65 bc bd 56 d8 21 3d 4b 0b 31 3d
       -0.07592081 -0.09198967 0.039512955 0.04322366
0000c0 13 d3 ce 3d 7e 79 8e bc 54 5b 9e bd fe b1 97 3d
       0.10098853 -0.017391916 -0.07732263 0.07406996
0000d0 dd 1d 99 3d 6a 40 80 3c 04 f2 68 bd da 6f 55 3d
       0.07476399 0.015655715 -0.05687143 0.052108623
0000e0 57 d5 ab 3d 19 be 38 bd b1 45 bf 3d e2 ad c2 bc
       0.08390301 -0.045103166 0.093394645 -0.023764554
0000f0 34 9f e0 3c b1 c4 6a bd 1d 82 77 3d 7e b0 df 3c
       0.027419664 -0.057316486 0.06042682 0.027305838
000100 9d ac 9b 3c 97 5a bb 3d 04 3f 71 bc 25 90 ac bc
       0.019003207 0.09148138 -0.014724497 -0.021064827
000110 28 7a ec 3b 04 58 76 3d 59 fb 2a bd 45 90 6d bd
       0.0072167106 0.060142532 -0.04174361 -0.057998914
000120 ec 94 2f bd 0f 04 0e 3d c3 16 15 3d 74 8f 9d 3d
       -0.042866632 0.03467184 0.03639866 0.07693377
000130 4c 9a 35 3b a2 c1 d3 bb 18 ed fa 39 cc bc 30 bd
       0.0027710376 -0.006462292 0.00047860364 -0.0431488
000140 0b 7c b4 3d 0e 7b 64 3d e2 8c 8a bb 5e 81 a9 3a
       0.08812722 0.055781417 -0.0042282203 0.0012932231
000150 47 d1 81 3c bb 56 c8 3c a8 fe cf bd 74 36 23 bd
       0.015846862 0.024455419 -0.10155994 -0.039846852
000160 6c 6c 7e bc 26 85 c0 bd 32 5f 64 bd ff da 89 3d
       -0.0155287795 -0.09400396 -0.055754848 0.06731223
000170 05 15 23 bd ea 94 0c 3d f0 a3 98 bd b3 2a 0e 3d
       -0.039814968 0.034321703 -0.074531436 0.03470869
000180 33 45 d3 3b c6 24 79 3d 70 a7 31 3d 15 e2 97 bd
       0.006447458 0.060826086 0.04337257 -0.074161686
000190 2d 02 d0 ba 2c ee 72 3d fb 10 95 3d 97 53 96 bd
       -0.0015869789 0.05930917 0.072786294 -0.07340162
0001a0 30 9c e7 bc a8 d1 bf bd 49 b4 b5 3d 98 6e 0b 3d
       -0.028272718 -0.09366161 0.08872277 0.034041017
0001b0 c4 24 52 3b 25 b0 e3 bd 27 af e3 bb 44 10 b3 3d
       0.003206537 -0.11117581 -0.00694837 0.08743337
0001c0 de 44 26 bc e0 f5 18 bd 8e 4c 83 3c 98 14 01 bd
       -0.010148255 -0.03734386 0.016027715 -0.03151378
0001d0 54 1d fb bc 65 93 73 3c fe 2f ea 3c 63 a5 8e bc
       -0.030653633 0.014866685 0.028587338 -0.017412847
0001e0 48 84 50 3c 27 57 b1 bc 1e 81 79 bb 0d c6 8a bd
       0.012726851 -0.021648003 -0.0038071345 -0.067760564
0001f0 9c a3 8d bd cb 25 b1 bd 52 2d b0 bd f9 f3 84 3d
       -0.06915972 -0.086497866 -0.08602394 0.064918466
000200 64 f2 e6 bc 05 ec 75 bd 49 25 e7 3c 7e 59 37 3d
       -0.028191753 -0.06003954 0.028216021 0.04476308
000210 f5 f5 45 3d b0 96 15 bd a3 7d 9e bd bd ad 17 3d
       0.048330266 -0.03652066 -0.07738807 0.037030924
000220 8c 8e a9 3b 41 76 8d 3d d0 5b c5 bd ee ae 01 bd
       0.0051744636 0.06907321 -0.096366525 -0.031660967
000230 32 52 a9 3d 13 ee 87 bd 31 f6 9d bd a4 0d a9 bc
       0.08267631 -0.06637206 -0.07712973 -0.020636387
000240 99 c5 0d 3d 40 95 9c 3d e3 a4 06 bd b9 92 9f bb
       0.034612272 0.07645655 -0.032872092 -0.0048697856
000250 d8 ae ac bc 5c 77 93 bd 30 e0 50 bd 54 0c 6c 3d
       -0.021079466 -0.072005 -0.05099505 0.057628945
000260 f8 5b cb bd ae 7f 52 bd 9e 6b 33 3a d3 33 37 bd
       -0.09929651 -0.051391296 0.00068443443 -0.044727158
000270 9e 13 7d 3d 33 6b 91 bd 6c bc 17 bc fd 1c 84 3d
       0.061786287 -0.07100525 -0.009261232 0.064508416
000280 bc d1 80 3d 49 e8 e2 bc f2 c7 f3 3c 6f 04 5c 3d
       0.06290004 -0.027698653 0.029758427 0.053715166
000290 ad d6 6e 3c b5 e4 c3 39 e6 9c b8 bd 73 c1 7e 3d
       0.01457755 0.00037363698 -0.09014301 0.062196206
0002a0 f7 c1 ba bc 86 6e f6 3d 17 f9 94 3d d8 43 a2 3c
       -0.022797568 0.120327994 0.072740726 0.019807741
0002b0 ce 62 1a 3d 56 69 95 bc ab 25 c4 bd 6c 70 8b 3d
       0.037691884 -0.018238705 -0.09577497 0.06808552
0002c0 98 55 a5 bd 59 f2 25 3c 78 bb 9d 3d 19 f6 8d bc
       -0.08072966 0.010128581 0.077017725 -0.017329263
0002d0 79 d9 70 3c d6 0c 9e bd 31 ce e5 3c 04 9e 5b bd
       0.014700287 -0.07717292 0.028052421 -0.053617492
0002e0 f8 57 82 3d e1 25 7f 3d 40 ff 03 bd 1d 74 6f 3d
       0.06364435 0.062291984 -0.032225847 0.058460344
0002f0 df 81 7b bb a1 80 a3 3d 62 19 ae 3d 40 de 28 bd
       -0.003837697 0.079835184 0.08500935 -0.04122758
000300 bf 1f 93 3d 17 59 86 3d 6b e4 d9 bc 0b dc 8d 3d
       0.071837895 0.06559961 -0.026598176 0.069267355
000310 60 7d f5 bc 48 ec 23 bd 6d 7e 13 bc 8c 24 86 38
       -0.02996701 -0.040020257 -0.00900231 6.396425e-05
000320 f1 35 db 3d 58 05 2b 3d 5d c6 20 3c 5e ad 6c bc
       0.10703648 0.041753143 0.0098129185 -0.014445631
000330 bf d9 b8 bd c5 b5 0e 3d a1 79 68 3d 2f dd 6f 3d
       -0.09025907 0.034841318 0.05675662 0.058560546
000340 3b 6f b1 bd ea 2d 33 bd 88 61 cf bc 73 20 38 bd
       -0.08663794 -0.04374496 -0.025315061 -0.04495282
000350 99 cb f2 3b 0a 22 8f 3d d6 21 85 ba 43 dc be bc
       0.0074095246 0.06988914 -0.0010157179 -0.023298388
000360 81 7b 98 3c 41 87 ef 3c 67 b1 af bd 6d da 5f bd
       0.018613579 0.029239299 -0.08578759 -0.054651666
000370 1a 89 52 bd 4d d6 a2 bd 9c d2 9d 3c 66 a2 a4 3b
       -0.05140028 -0.07951031 0.019265465 0.005024242
000380 fe 06 40 3d 03 a8 97 bd ff 67 5f bd 93 da ad bd
       0.04688167 -0.074050926 -0.054542538 -0.08488955
000390 7b b2 33 bc b7 58 46 bd 09 22 58 bd 26 da 47 bd
       -0.010967846 -0.04842445 -0.052766833 -0.048792027
0003a0 12 70 8e bd b4 0c 21 3d c4 cd 59 3c b2 55 21 3d
       -0.069549695 0.039318755 0.013293687 0.039388366
0003b0 45 1a a4 bd 98 f6 2d 3c 8f 10 b0 bd 26 16 b5 3d
       -0.08012823 0.010617875 -0.08596908 0.08842115
0003c0 db 2a 6c 3d f0 e7 ae bd 0e e0 f1 3c 2e f6 db 3c
       0.057658058 -0.08540332 0.029525783 0.026850786
0003d0 9f 14 67 3d 43 c0 2e bb 62 31 db bc 12 a9 0f bd
       0.05641615 -0.002666489 -0.026756946 -0.035073347
0003e0 48 7b 56 3d 51 74 56 bc 38 de 3e ba 26 24 b3 bd
       0.052363664 -0.013089255 -0.0007281038 -0.08747129
0003f0 db db 7e 3c 6a f2 b0 3d 57 26 bd 3c 10 f4 b3 3a
       0.015555347 0.08639987 0.02308957 0.0013729353

gc2.fc.bias f4 [128]
000000 78 76 e3 3b 7a 15 8a bd 4e 03 07 3d 2e d3 6a bd
       0.006941613 -0.067423776 0.032962136 -0.057330303
000010 9f 44 35 bd a1 7b 90 3c 2a 2d 83 bd 32 d2 e5 3c
       -0.044254895 0.017637076 -0.06405099 0.02805433
000020 d6 04 32 bd 24 ed 17 3c ec 7c ad 3d e7 1f 31 3d
       -0.043461643 0.009272847 0.084710926 0.043243315
000030 bd ec 9e bd a9 a8 81 bc c3 11 d4 3d 05 16 53 3c
       -0.07759998 -0.015827494 0.1035495 0.012883668
000040 d9 21 76 bd 21 fa c3 3d dc 20 8c bd d5 1e 3a 3d
       -0.060090873 0.09569193 -0.06842205 0.04543956
000050 ca 8d 32 bd 01 78 98 3d 54 6c eb bc 21 50 71 bc
       -0.04359225 0.07444764 -0.028738178 -0.014728577
000060 13 0d 9c 3d b5 c0 cc 3c 76 da 96 bd 0d 84 25 bd
       0.07619681 0.024994234 -0.07365887 -0.040409137
000070 e6 21 41 3c a9 6b 5a 3d 9d 4c 87 bc 4d 7c 93 bd
       0.011787867 0.05332533 -0.016516024 -0.07201443
000080 9d 1d 38 3d 08 d3 1f 3c 4d 80 08 3d 04 37 37 bc
       0.044950116 0.009754904 0.033325482 -0.01118255
000090 2c 86 ef bc e4 fe 43 3d 09 c2 7c bc 32 9a 0a 3d
       -0.029238783 0.047850505 -0.015427121 0.03383846
0000a0 23 86 66 bd 4c 71 b2 bc 1e 53 8d bb 64 84 ad 3b
       -0.056280266 -0.02178254 -0.004312887 0.005295323
0000b0 c3 4a 90 bd f1 e0 94 3d a8 1d a7 3d b0 c4 33 3d
       -0.0704551 0.07269467 0.08159953 0.043888748
0000c0 b5 5b ce 3d 8e fc 42 3d c5 b7 52 bb 05 20 a6 bd
       0.100760855 0.047604136 -0.0032152992 -0.08111576
0000d0 3f a6 6c 3d ad 27 58 bd 94 9d 7a bd 6d fd 72 3c
       0.057775732 -0.052772213 -0.061185434 0.014830929
0000e0 b1 c6 79 bd 5b 79 b9 3c c3 06 ca 3d 8c 72 e9 3c
       -0.060980503 0.022640875 0.09864571 0.028497003
0000f0 4c dd 80 bd 34 e6 f6 3c fa 65 24 3d ac 76 b9 3c
       -0.06292209 0.030139066 0.040136315 0.022639595
000100 dd 8c 25 3d 86 76 a0 bc 2c ec 2e 3d f3 49 0b 3c
       0.04041754 -0.019587766 0.0427057 0.008501518
000110 b7 a4 0c 3d 2a e7 91 bd 24 bf 2d 3d 0e 26 69 bd
       0.03433677 -0.07124169 0.042418614 -0.056921057
000120 d5 bb 0b bd 61 46 2a 3d 0f 47 80 bd 11 42 97 bc
       -0.034114677 0.041571025 -0.06263553 -0.01846412
000130 dc 39 4d ba 92 05 92 3d 23 f5 8d 3d 9e 86 85 b9
       -0.0007828751 0.07129969 0.06931522 -0.00025468034
000140 5c f9 02 3d 50 1a 89 3d f6 88 a8 3b 1b 3b c9 bc
       0.03197609 0.06694472 0.00514328 -0.024564316
000150 3a 9a c2 39 70 65 ec 3c e9 bc 88 3a 56 fa ee bc
       0.0003711747 0.028856963 0.0010432276 -0.029172104
000160 8f 7b c3 3d 3d 2a 14 3b a4 59 34 bd a4 19 ff bc
       0.09545051 0.0022608184 -0.0440308 -0.031140156
000170 ad a1 9f bd 6e 04 31 bd 3a e7 07 3d c0 ae 07 bd
       -0.07794509 -0.043217115 0.0331795 -0.03312564
000180 61 f1 26 3d 34 38 31 3d f3 b5 51 3d a3 84 f8 3b
       0.04075754 0.04326649 0.05119891 0.007584171
000190 cb 12 41 3d 48 15 03 bb 8e a6 2f 3d ee c2 89 3d
       0.047137063 -0.0020001698 0.04288345 0.06726633
0001a0 c6 92 10 bd 1c 2f bb 3b 9a f9 f5 3c ab 63 84 3d
       -0.035296224 0.005712403 0.030026246 0.06464323
0001b0 35 2f 28 bc a0 ac af bd 6f 7c 79 bd de 40 54 3c
       -0.010265161 -0.085778475 -0.060909685 0.012954919
0001c0 dd 45 31 bd 83 98 85 bc 3f b2 4e 3d ba 75 6e bb
       -0.043279517 -0.016308075 0.050462957 -0.0036386088
0001d0 c0 20 89 3d 41 fa 16 3d d8 8f 87 3d d4 77 91 bd
       0.066957 0.036859754 0.06619233 -0.071029335
0001e0 5a c8 19 3c fe 2b 59 3d f6 22 1e bb 02 8a d6 3c
       0.009386146 0.05302047 -0.0024129725 0.026188854
0001f0 4a 05 c8 bd 1a 19 39 bd a7 13 4f bd 20 00 9e 3d
       -0.09766634 -0.045189954 -0.05055585 0.077148676

temporal_conv.weight f4 [128, 128, 3]
000000 16 dc ca 3c 8f 83 0c bd ca 0a ce bc 19 e2 ab 3c
       0.024763148 -0.03430515 -0.025151629 0.020981835
000010 95 19 ad 3c 46 e2 63 bb 81 fd 28 3b 98 fb 9a 3c
       0.021130363 -0.003477232 0.0025785866 0.018918797
000020 91 04 c0 3a 08 e2 5e 3d 71 dc 84 3d 5f 68 e9 3c
       0.0014649798 0.05441478 0.06487358 0.02849215
000030 47 8d 0c bd ce bc e5 3c f2 d8 a5 bc 22 1a 62 3d
       -0.03431442 0.02804413 -0.02024505 0.055200703
000040 61 f9 5d 3d d0 c6 53 bc 22 de 49 3d 48 27 46 3d
       0.054192904 -0.012925819 0.049284108 0.048377305
000050 a0 81 15 bd 85 c7 dc 3b 0c c2 97 3c df 19 1b 3c
       -0.036500573 0.006737652 0.018525146 0.009466617
000060 e1 c0 60 bc e4 29 80 3c 9d 57 f0 bc 6b 92 1e bb
       -0.013717861 0.015644975 -0.029338652 -0.0024196159
000070 62 44 e5 bb 0e 61 f9 39 fe 12 aa bc b9 23 d3 bc
       -0.0069966773 0.00047565292 -0.02076101 -0.02577387
000080 6e 5a 2c 3d 28 3c dd ba e8 48 97 bc 6e 56 ee bc
       0.042078428 -0.001687889 -0.018467382 -0.029093947
000090 43 08 0e 3c 16 c6 d2 bc 08 55 16 bc f0 a1 fd ba
       0.008668962 -0.02572922 -0.0091755465 -0.0019350629
0000a0 b0 23 ed 3a 5a e1 b2 bc 9a 7b 24 bd d9 76 71 bd
       0.0018092301 -0.021835972 -0.040156938 -0.058951233
0000b0 8c d3 27 3d e3 95 88 3c bf 25 80 bc e9 eb f9 3c
       0.04097323 0.016673034 -0.015642999 0.030507999
0000c0 02 19 27 bc f8 10 91 bd ba d9 ff 39 7c 10 a4 3c
       -0.010198833 -0.07083315 0.0004879961 0.020027392
0000d0 99 82 c9 bc a6 da 19 3c 05 44 54 3b d5 f9 3f 3d
       -0.024598407 0.009390509 0.0032389176 0.046869118
0000e0 59 59 90 3c e7 4f cd 3c 04 97 00 3d e4 a8 63 3c
       0.01762073 0.025062514 0.03139402 0.013895247
0000f0 d3 7a 25 3c 14 a4 2b 3d 44 32 a4 ba 5e d4 9f bc
       0.010100084 0.041904524 -0.0012527187 -0.019510444
000100 0e 5c b5 3c 83 3f 01 3d b4 81 32 3c 60 61 16 3c
       0.022138622 0.03155471 0.010895181 0.009178489
000110 17 3c 34 3d b9 79 a9 bd 25 6a f0 ba df f8 5e bc
       0.04400262 -0.0827517 -0.001834218 -0.01360914
000120 57 23 e0 bc 11 ac 3f 3d 50 30 ce bc 77 a9 95 3b
       -0.027360601 0.046794955 -0.025169522 0.004567321
000130 b3 e0 6f 3d ca 7b 28 3d 9d f2 31 3d 8e 71 77 3d
       0.0585639 0.04113368 0.043444265 0.06041103
000140 df af 1c 3d 16 7d ce bc 7b 1b 0b 3d 7d 47 0b 3c
       0.03825366 -0.02520613 0.033961754 0.008500931
000150 58 e7 86 bc 10 7c 8d bb 05 9b 0d 3b ff 09 1d 3c
       -0.016467735 -0.004317768 0.0021607291 0.009584903
000160 72 99 40 bc 9a c8 89 bb ef 5b ce 3b 4f dc d5 3c
       -0.011755334 -0.004204822 0.0062975804 0.026106028
000170 d5 dc 9d bc d7 e4 f3 3c aa cb 40 bd 69 d1 62 3c
       -0.01927034 0.029772205 -0.04706923 0.013843873
000180 38 d8 50 3d d2 f4 f9 3c b5 12 11 bc c8 8b 04 bc
       0.050987452 0.030512247 -0.008854558 -0.008089967
000190 ae ac ad 3c 86 a4 2e bd 86 c9 6a bc 2b 65 22 3d
       0.021200504 -0.04263737 -0.0143302735 0.039647263
0001a0 dc 5e ac 3c 07 b2 99 3d 42 22 45 3d 54 6f 25 3d
       0.021041326 0.07504659 0.048128374 0.040389374
0001b0 4a d2 bb bb b6 05 f5 3c 69 6f ee 3c 22 df e3 bc
       -0.0057318555 0.02990995 0.029105859 -0.027816359
0001c0 d6 99 8f bc 3f f2 ec bb 51 b3 4c 3d bc 96 d2 bc
       -0.01752941 -0.0072310264 0.049975697 -0.025706641
0001d0 11 cc 29 bd 64 72 37 3d 12 c0 43 bc 58 42 07 bd
       -0.04145438 0.044786826 -0.011947649 -0.033022255
0001e0 96 91 bb bc 07 29 2f bd 61 f3 2e bd 96 5a e1 bb
       -0.02289657 -0.042763736 -0.042712573 -0.0068772538
0001f0 6b 09 8b 3d 7f 14 f8 bc d1 1f a6 bc 2a 0c c0 3c
       0.06788906 -0.03028321 -0.020278843 0.0234433
000200 9f 9b 38 3d 52 9a ff bc d6 41 ee bc 2e 36 ea 3c
       0.045070287 -0.031201515 -0.029084127 0.028590288
000210 28 ca 8d bc 43 bd 21 bd fe 9c 5c bc 47 00 68 bc
       -0.01730831 -0.039487135 -0.013465164 -0.014160222
000220 d5 11 54 3d 9d a5 d0 bc c1 e1 8c bc 59 6c 52 3d
       0.05177482 -0.025469596 -0.017197492 0.05137286
000230 b6 a5 37 3d 9e 3f 87 3b 95 32 58 bc db 02 ee bb
       0.04483577 0.004127457 -0.013195653 -0.007263524
000240 ad e3 a4 bc f1 d0 a5 3c 96 e8 22 3d 6d 87 83 3b
       -0.020128096 0.020241233 0.039772592 0.0040139467
000250 c7 79 06 bc ed 6f e4 bc 44 e9 33 3d 4b 73 f9 3b
       -0.008207745 -0.027885402 0.04392363 0.007612621
000260 6d 2d 1f 3d b9 ff 06 bc 17 fb 2e bc a3 43 53 bc
       0.03886168 -0.00823968 -0.010679982 -0.012894544
000270 45 fd 98 bd 02 98 07 bd 6e 30 1d bd 70 2f d9 bc
       -0.07470182 -0.03310395 -0.038376264 -0.026511878
000280 97 b3 02 bd 9d 80 95 3c 21 c0 ea 3c a5 04 90 3c
       -0.03190955 0.018249804 0.028656067 0.01758034
000290 2e 4a 6b 3b 30 3f a9 3c 83 52 54 3d ea e4 3a bd
       0.003590237 0.020660013 0.0518365 -0.045628466
0002a0 84 3f 88 bd 75 46 d2 bb ea 49 1d bd 44 ef 93 3c
       -0.0665274 -0.0064170905 -0.038400568 0.018058427
0002b0 a7 92 07 3c 37 c4 88 3c 0f 1b c6 3c 0b ed 26 3d
       0.008274711 0.016695125 0.024182824 0.040753406
0002c0 74 11 14 3d 3b ae c5 3c 57 cb 19 3d 51 ae 38 bb
       0.036149457 0.024130931 0.037547436 -0.0028180073
0002d0 cb 6d 0a bd 98 2e 31 bd 42 0c fc ba 50 39 27 3d
       -0.033796113 -0.043257326 -0.0019229727 0.04082614
0002e0 71 9c f9 3c e4 44 e0 bc 2b 8f 80 3b b4 39 8c 3c
       0.030470105 -0.0273766 0.003923317 0.017117359
0002f0 31 2f bb bc 20 30 dc 3b 29 a4 b3 3c 68 dc 5a 3c
       -0.022849651 0.006719604 0.021928864 0.013358213
000300 ca 5e 5b 3d e1 2d 41 3c 08 75 a7 3c e0 67 af b8
       0.053557195 0.011790724 0.020441547 -8.3639985e-05
000310 f6 1d 64 3c 12 d0 39 3c c1 aa 72 bd 48 0b 5d 3c
       0.013923159 0.011341112 -0.059244875 0.013491459
000320 77 1b 8f 3c 40 b2 99 bc dc 95 21 3d 43 22 36 3d
       0.017469151 -0.018761754 0.039449558 0.04446627
000330 10 9b 19 bb 39 6f 2c bc a3 86 3e bd 99 f9 31 3d
       -0.0023438372 -0.010524564 -0.04651512 0.043450925
000340 ef 3e 44 bc 76 5e 3e bd c2 19 14 3c e3 78 23 bc
       -0.011977895 -0.046476804 0.009039344 -0.009977552
000350 70 02 4d bc 0f f1 24 3c a0 ec 88 bb 2d 0d ce 3c
       -0.012512788 0.0100672385 -0.0041785985 0.025152767
000360 13 8f 69 3c 75 a7 34 3d 71 50 21 bd c6 ce 1a bc
       0.014255303 0.044105012 -0.039383356 -0.009448713
000370 81 cc fc bc 62 83 ac bb 57 3d 31 bd 32 a6 32 3d
       -0.030859234 -0.0052646855 -0.04327139 0.043615527
000380 a4 75 d2 bc 52 2e 08 bd d9 64 13 3d f5 bf 75 bc
       -0.025690861 -0.0332473 0.035984848 -0.014999379
000390 30 47 04 3d f2 2f 23 3c ce 08 08 ba 3f 0e 73 3c
       0.032294452 0.0099601615 -0.00051893 0.0148349395
0003a0 c4 9e 73 3c 1b 1c 8d bc 1e ff 0e 3d 1c 47 8e bc
       0.014869396 -0.017225316 0.034911267 -0.017367892
0003b0 ad f7 93 bc be 04 5c 3d 88 45 fb bc d9 92 be bc
       -0.018062437 0.05371546 -0.030672804 -0.023263382
0003c0 b9 63 a8 bc ae 92 c6 bc 06 cc 48 3d 82 cb bc 3c
       -0.020555364 -0.024239864 0.049022697 0.023046259
0003d0 2a 98 2a bd 7a 99 9b bc 12 1e 48 bc 59 e5 07 bd
       -0.04164902 -0.018994082 -0.012214201 -0.033177707
0003e0 1f 51 eb ba 34 85 70 bd c0 f1 b9 3a 62 be 0c 3d
       -0.0017953253 -0.058720782 0.0014186427 0.03436125
0003f0 b3 1d 40 3c 6f 52 06 3d 41 1d 3b 3c 36 59 50 3d
       0.011725831 0.03279346 0.011420549 0.05086633

temporal_conv.bias f4 [128]
000000 10 9f af 39 ee 9b 2c bd 3f 10 10 3d d7 af 9d 3c
       0.00033497112 -0.042140894 0.035171743 0.019248886
000010 7a 1d 3a 3d 9b 02 09 3c 48 37 88 3a 60 0e ab bc
       0.045438267 0.008362438 0.0010392452 -0.020880878
000020 97 dc 85 bb 9c 2a a8 bc 62 8a c3 bc 21 23 76 3c
       -0.0040851342 -0.02052813 -0.023869697 0.015023024
000030 d1 71 5a 3d 1b 1e 70 ba df 63 e5 3c 89 db 2e 3c
       0.0533312 -0.00091597595 0.028001724 0.010672458
000040 a2 e1 e6 bc 2a 3f e6 bc 55 5a 0b 3d 6f 31 87 3d
       -0.028183762 -0.02810629 0.034021694 0.066012256
000050 8d 35 f9 bc ce ab 22 3b 3e b2 bb bc 1a 6a 7a 3c
       -0.030421043 0.0024821642 -0.022912141 0.015284086
000060 f8 36 21 3d 62 3e 6f ba 69 ff 89 3d 43 75 0f bd
       0.039359063 -0.0009126422 0.06738169 -0.03502394
000070 d7 73 78 3b c8 8d cc 3b 56 df bd 3c d0 3e 25 3d
       0.0037910843 0.0062424876 0.023177784 0.040343106
000080 9e 55 ee 3c 5f 07 00 bd 65 e7 0f bd a9 7f 81 3a
       0.02909356 -0.03125703 -0.035132784 0.0009879965
000090 5c 78 6e 3d f8 59 90 3b 28 ae 6d 3d bd 50 03 3d
       0.058220252 0.0044052564 0.058027416 0.03205942
0000a0 99 24 57 bb 6e 85 f6 bc 8c d7 97 bc 5d b4 ed 3c
       -0.003282821 -0.030092921 -0.018535398 0.029016668
0000b0 4b 27 5a 3d 04 8c 4d 3d a4 b1 c2 3c 95 dd 1f 3c
       0.05326013 0.050182357 0.023766346 0.009757419
0000c0 b4 c7 fc 3c df 89 12 bd 37 90 66 3d 19 a9 1a 3d
       0.030856945 -0.035776015 0.056289878 0.03775892
0000d0 50 c5 b7 3c d0 50 e3 bb 61 86 8e bc ed 6e 3c 3d
       0.022432953 -0.006937124 -0.017398061 0.046004225
0000e0 af c1 dd 3c bc 34 fc bc 83 85 11 bc 2c 08 20 bd
       0.027069895 -0.030786864 -0.008881929 -0.039070293
0000f0 6d 8e 5e 3b fe 58 69 3d 1a 47 15 3a a3 aa cc 3b
       0.0033959404 0.056969635 0.0005694494 0.0062459274
000100 cb cb d0 bc a2 39 ce bc 7e 93 1a bc ab d8 15 3d
       -0.025487801 -0.025173966 -0.009434579 0.036583584
000110 9d 58 8a 3d 6f 1b 59 bd ff 12 19 3d 3c 05 67 bc
       0.06755183 -0.05300468 0.03737163 -0.014100369
000120 12 73 2e 3d db ba 8a bc 3b 68 f9 bb 85 5f c7 3c
       0.04259021 -0.016934803 -0.007611302 0.02433754
000130 11 ac 26 3c e2 c3 4d bd a1 88 b2 bb c8 f0 40 3c
       0.01017286 -0.050235637 -0.0054484163 0.011776157
000140 c5 25 f9 b9 96 04 3b 3d 4e 1c 0b bc 19 16 bb 3c
       -0.0004752112 0.04565867 -0.008490635 0.022837685
000150 1b 32 be bc e9 6f 5a 3d 73 1a 8a bc 7b 08 21 3d
       -0.023217252 0.053329382 -0.016858315 0.03931473
000160 2e 42 e3 bc 03 18 ce bc 72 45 0d bd 88 d9 6a 3d
       -0.027741518 -0.025157934 -0.034490056 0.05733636
000170 de a1 90 3c 5b c7 31 3d 8a a5 d0 3c 37 89 3f bc
       0.01765531 0.04340301 0.02546956 -0.011690429
000180 f7 a8 31 3d 8f c4 09 bd be b0 c8 bc ba 6c 24 bd
       0.043374028 -0.03363472 -0.02449834 -0.040142752
000190 a6 a0 2a 3d b4 d3 be 3c 99 fe ee bc 3c b3 ea 39
       0.041657113 0.023294307 -0.029174136 0.00044765498
0001a0 8e 25 b7 3c 27 e3 8e 3c d1 b5 00 3b 67 35 82 3c
       0.022356775 0.017442299 0.001963962 0.015894605
0001b0 4b 74 5e 3a 9f 15 ad 3c 08 c2 b1 3c 43 e1 7a 3d
       0.0008485957 0.021128474 0.021698967 0.061249983
0001c0 b5 84 03 3d 37 2b 38 3d 03 1a 74 3d 4a 44 d4 3c
       0.03210898 0.044963088 0.05959512 0.025911469
0001d0 cd 9b 2e bd 34 13 c0 bc 5f f3 09 3d fd 6d 12 bd
       -0.042629052 -0.023446657 0.033679362 -0.035749424
0001e0 89 7c 52 3d 44 49 3a 3d c0 86 7a bc 47 06 ed 3b
       0.051388297 0.045480028 -0.015290916 0.0072334143
0001f0 f4 af f1 bc 26 d4 b7 bc ad a8 48 3d 54 82 8f bb
       -0.029502846 -0.022440027 0.048988987 -0.00437955

fc.weight f4 [30, 128]
000000 fb af c0 bd f2 b5 91 bb 11 11 9c bc 2a 14 4a bc
       -0.094085656 -0.0044467384 -0.019051107 -0.012333909
000010 a1 ae 96 bd d4 eb 41 3d 60 25 ab 3d 7b 99 23 3d
       -0.073575266 0.047344044 0.08356738 0.039941292
000020 d7 2a 1c 3d 08 56 8d bd 24 39 fc bc 38 1e 69 bd
       0.038126793 -0.06901175 -0.030788966 -0.056913584
000030 11 b8 be bd e8 c8 a0 bd 89 72 44 bd 48 7a 3d 3d
       -0.09312452 -0.0785082 -0.04796079 0.046259195
000040 61 1e 3f 3d 83 d9 82 bd 90 fa ff 3b 37 e8 d0 3c
       0.04665983 -0.06389143 0.007811852 0.025501354
000050 ed 21 4e bc ef 96 17 bd 22 dd ab bd 40 e9 91 3d
       -0.012581331 -0.037009176 -0.08391787 0.07124567
000060 6e 6a 27 3d 46 71 43 3b ca 43 0b bd dc ce 97 bd
       0.040872984 0.0029822155 -0.034000196 -0.07412502
000070 e4 d6 ab bc b3 86 b0 3b a2 10 4f 3d 2d aa d5 ba
       -0.020976491 0.005387151 0.05055297 -0.0016301327
000080 78 0e bc bd e9 00 b1 bd 16 36 1a be 0b fa 0a 3d
       -0.09182447 -0.08642752 -0.15059695 0.033929866
000090 41 7b 4c bd 48 d6 9e 3d df 75 ef bc 9d ed 71 3d
       -0.04992223 0.07755715 -0.02923101 0.059064496
0000a0 78 d3 cd bd 89 03 23 bd b6 a9 b4 3d f9 7b 20 3d
       -0.100501 -0.039798293 0.08821432 0.03918073
0000b0 b4 6e ed 3d e7 eb 4c bd a1 65 56 3d b2 e2 0c bc
       0.115933806 -0.05002966 0.052343015 -0.00859897
0000c0 af f7 d2 b9 f2 e5 ed 3c 3c af c6 3c 36 8a 90 bd
       -0.0004023886 0.02904031 0.02425348 -0.07057612
0000d0 cf 68 bc bc 91 1f a6 3d 99 14 c9 3c 02 83 9c bd
       -0.022999195 0.081114896 0.024545955 -0.07642175
0000e0 14 69 b3 3c e0 76 52 bd d1 41 01 3d 90 dd 3e bd
       0.021900691 -0.0513829 0.031556908 -0.046598017
0000f0 00 40 a5 3b 36 43 2e 3d 7a 01 da 3d 27 24 ad bd
       0.00504303 0.042544566 0.10644813 -0.08454161
000100 05 b9 d6 3c 63 8b 9e bc 09 87 9a 3c 99 67 86 bd
       0.026211271 -0.019353574 0.018863218 -0.065627284
000110 ff 16 3d 3d 14 ac cf bb e0 1c 96 3d e3 f1 ae bc
       0.04616451 -0.006337652 0.07329726 -0.021355575
000120 89 e1 6b bc 0b 2e 95 bc e0 9c ad bd cb 2a 82 3d
       -0.0143970335 -0.018210432 -0.08477187 0.06355818
000130 28 c9 ee 3d f1 2f 96 3d fa 11 b7 bd 1b f4 5f 3d
       0.11659461 0.07333363 -0.08938976 0.054676156
000140 a5 ea 86 bd 5b 47 53 3d 47 06 4c bd 91 39 85 3d
       -0.06587724 0.05158172 -0.049810674 0.065051205
000150 ad d8 0e 3d 32 c9 04 bd 39 c7 ad bd fa 51 2b bd
       0.034874607 -0.032418437 -0.08485264 -0.041826226
000160 90 be 1b 3d c9 71 bf bd 21 65 ae bc 7a d8 03 3c
       0.03802353 -0.09347875 -0.021288456 0.0080472175
000170 9d 5d 91 3d 77 6c 3c 3d c1 0b 6a bc 9c 0b 8f bc
       0.070979334 0.046001878 -0.014285029 -0.01746159
000180 0a f6 0d 3d de 3b be 3d 14 61 fc bb a9 84 13 3d
       0.03465847 0.092887625 -0.0077020023 0.036015186
000190 4f f9 c2 3d cf 8d 0c bd cd 28 0d 3d ff e9 ca bb
       0.09520208 -0.034314927 0.03446274 -0.0061924453
0001a0 8b b5 4b bd 4a 29 d0 3d af fb 4c bd 82 11 1c 3d
       -0.04973368 0.10164125 -0.05004471 0.038102634
0001b0 18 ee 3e bd cc a9 64 3c bc cd 98 bc b6 e3 98 39
       -0.046613783 0.013956498 -0.01865279 0.00029161357
0001c0 70 95 9d bd 63 69 75 bd 15 94 d6 3b 1a 2c 98 bd
       -0.076945186 -0.059914958 0.0065484145 -0.07430287
0001d0 66 2a b3 bd 40 6c 54 3d 61 9e fc 3c ce 2e 0c 3c
       -0.08748321 0.051861048 0.03083724 0.008556081
0001e0 86 51 9a 3d 4f 21 b7 3d d7 f2 28 3d 5f 85 83 bd
       0.075350806 0.089419 0.041247215 -0.06421923
0001f0 61 62 5a bb 4d 48 6f 3c 3c d2 de bd 55 f3 7d 3d
       -0.0033322799 0.01460464 -0.10879943 0.061999638
000200 1a a6 81 bb 96 c6 b2 3b 36 dd 80 3d f8 5e 84 3c
       -0.0039565684 0.005455802 0.06292193 0.016158566
000210 1e 10 66 bd ce 13 9d 3d f8 81 0c 3d 4d ff 41 bd
       -0.056167714 0.07669793 0.034303635 -0.047362614
000220 c8 35 b9 3c 88 b8 42 3d 38 7c 44 3d 85 77 85 bd
       0.022608653 0.047539264 0.047970027 -0.06516937
000230 f7 03 14 bd 2f 8e ed 3c 02 5c 52 3d 1c 9b d5 bc
       -0.036136594 0.028998462 0.051357277 -0.026074938
000240 c5 c9 78 bd ef e4 90 bd d1 1c cf 3b 47 b6 4f 3d
       -0.060739297 -0.070749156 0.006320574 0.050710943
000250 79 b6 20 bd a4 31 cd bc de 2d 44 bc 59 61 73 3d
       -0.03923652 -0.025048085 -0.011973826 0.05941901
000260 24 94 26 bd b6 69 45 3d 98 36 a1 bd 48 77 df bc
       -0.04066862 0.048196517 -0.07871741 -0.027278557
000270 57 52 d2 bc ab 6f b6 bc f0 9c 2d 3d 1f 7f f4 3c
       -0.025674028 -0.022270044 0.042385995 0.029845772
000280 9a c2 85 bc 5e 53 99 3d 21 3c 32 3d b9 1f 67 3c
       -0.016328145 0.07486604 0.043514375 0.014106684
000290 5e eb 4f bc d0 29 1f 3c 4b 25 60 bd 65 01 7c bc
       -0.012690393 0.009714559 -0.054723065 -0.015381192
0002a0 ca 3d aa 3d 58 37 80 3d 85 bd 60 bd a4 3c ca 3c
       0.083125666 0.06260556 -0.05486824 0.024687119
0002b0 29 e4 76 bc e8 88 32 3d 60 ad 9e bc c1 9f fd 3c
       -0.015069046 0.043587595 -0.019369781 0.030959966
0002c0 83 a0 35 3d 75 39 3e 3d 67 58 00 bd 6a b2 a7 bc
       0.04434253 0.046441514 -0.031334307 -0.020470817
0002d0 27 a7 92 bd 54 76 5e 3d cd 7f 24 bd cf 7b af 3c
       -0.07160788 0.054312065 -0.040160943 0.021421341
0002e0 1e cf e0 bc eb 22 09 bd 8b 3e eb 3c 8b 53 ce bd
       -0.027442511 -0.033480566 0.028716346 -0.10074528
0002f0 35 8e 2d 3d 46 35 75 bd 83 e2 d0 bc 61 e5 75 bb
       0.042371947 -0.05986526 -0.025498634 -0.0037520754
000300 69 38 a3 3d 21 fc ea bc 71 64 9d bd 59 8b 35 3d
       0.07969744 -0.028684678 -0.07685173 0.044322345
000310 ae 43 7c bd fa 85 71 bd de 53 53 3c ca 8e b3 3d
       -0.061587982 -0.05896566 0.012898413 0.08767469
000320 ac c2 a8 3c 98 6e 04 bd 1c 56 a0 3d 2c f2 1c 3d
       0.02060064 -0.032332033 0.07828924 0.03831689
000330 2f 0a 1e bd c8 94 1a bd 11 b4 b3 3d 17 ad 0b bd
       -0.03858393 -0.037739545 0.08774579 -0.03410062
000340 bb 01 cb 3d 31 a4 d6 3d ee 93 9c 3c c6 5e 12 bd
       0.099124394 0.10480536 0.019113507 -0.035734914
000350 27 bc 32 bd 11 61 fa 3c 81 20 61 3d fa 27 0b bd
       -0.043636467 0.030563863 0.05496264 -0.03397367
000360 80 e0 74 3d f9 0c eb 3d de 41 dd 3d 78 06 83 bc
       0.059784412 0.11477084 0.10803579 -0.015994295
000370 1b 1d 0e bd 74 c6 ba bd 5d 6a cc bd 8b 90 48 3d
       -0.034695726 -0.09119883 -0.09981225 0.048965972
000380 1e 06 80 3d a8 7c 8c bd 9c 3f 8d 3d 6c 26 a9 bc
       0.06251167 -0.06859714 0.06896898 -0.020648204
000390 5e bb 9c 3c b9 df 6a 3d 66 d6 8d bd 24 39 b1 bd
       0.019132312 0.057342265 -0.06925659 -0.08653477
0003a0 44 af 49 3d 5b 75 86 bd 54 fb 3d 3d 3d 6b 6f bc
       0.049239412 -0.065653525 0.046382263 -0.01461297
0003b0 26 13 94 3c ca 4d 6e 3d c4 b1 84 bd 0f f0 4b bd
       0.018075537 0.058179654 -0.064792186 -0.049789485
0003c0 60 b2 71 bd 70 85 1e 3b 61 da 08 3d 63 92 0a 3d
       -0.059008002 0.0024188422 0.033411387 0.03383101
0003d0 d6 e6 44 bc 8b c0 db bc a4 61 1b 3d 6b 2c dc 3d
       -0.012017926 -0.02682521 0.037934914 0.107506596
0003e0 9b b9 39 bd da 12 80 3d 1b d5 cc bb b2 ac 06 3d
       -0.045343023 0.06253596 -0.00625099 0.03287954
0003f0 01 b7 5f bd 73 e4 0e bd 6d cf 68 3b 7b da 6a bc
       -0.054617886 -0.034885835 0.0035524026 -0.014334316

fc.bias f4 [30]
000000 7d 7c 9e 3b ae 97 44 3d 35 9d 64 3c f5 06 db 3d
       0.0048366175 0.047996216 0.013953497 0.10694686
000010 35 08 89 bd 1e 67 d4 3c 4f ce b3 3d 25 4e 42 bd
       -0.066910185 0.025928076 0.087795846 -0.047437806
000020 b5 26 6b bd f3 a4 a9 3c a3 02 f2 bb c7 69 6d bc
       -0.05740996 0.020708537 -0.007385568 -0.014490551
000030 e1 a2 3e bb e0 78 a2 3d a5 1b a8 3b 8f 50 03 3c
       -0.0029088783 0.07933211 0.0051302486 0.008014812
000040 42 a8 ab 3d 8e 26 c8 3d c7 a5 7c bd b4 9c 92 3d
       0.08381702 0.09772979 -0.061681535 0.07158795
000050 d1 b9 62 3d 77 98 03 3d 33 2e 9b ba a7 5a 44 bd
       0.05535299 0.032127824 -0.001183933 -0.047938015
000060 e8 02 a0 bc 7c aa 22 bd 1c f2 b6 bc 17 66 83 bd
       -0.019532636 -0.039713368 -0.022332244 -0.064159565
000070 8e d0 83 bc 46 5f 8a 3d
       -0.016090658 0.06756453
