GWN/best_model_w30_h1.pth (torch, 300619 bytes, 9 tensors)

adapt_adj f4 [30, 30]
00000000: a5d2 803f c53e d13b d462 d13b 8f1f d23b
00000010: 06be d43b c044 d83b 38bd d93b 05e0 dc3b
00000020: 0fc7 e13b 71cd e53b f8ea e93b 9fd1 ec3b
00000030: 3e6d f03b e501 f43b 2ded f73b 6117 fe3b
00000040: 54c2 013c 8856 043c 28cb 073c a3df 0a3c
00000050: 647d 0e3c f1a3 113c 878c 163c 1299 1b3c
00000060: 7e6f 1f3c 0247 233c 1511 283c b171 2e3c
00000070: da0d 353c 5223 413c 8bd2 cf3b d9cd 803f
00000080: 7134 ce3b c1d3 ce3b e87e d13b 5328 d53b
00000090: 8767 d63b d36b d93b b963 de3b e064 e23b
000000a0: 2da4 e63b 085c e93b fec9 ec3b c094 f03b
000000b0: 9667 f43b 6686 fa3b 8300 003c 5c98 023c
000000c0: d1ff 053c f7ee 083c 6975 0c3c 2792 0f3c
000000d0: aa64 143c 616b 193c 9d0c 1d3c dfe1 203c
000000e0: 4392 253c 64db 2b3c 1262 323c a15b 3e3c
000000f0: 6fe2 d53b b703 d43b c9d3 803f f967 d43b
00000100: b1ec d63b 716a da3b b2eb db3b 12c7 de3b
00000110: b3b5 e33b 5898 e73b 4ed5 eb3b 7cb4 ee3b
00000120: fe2d f23b aef2 f53b 44b8 f93b d3bb ff3b
00000130: 01a7 023c 6641 053c 60c0 083c e0cb 0b3c
00000140: b357 0f3c 8683 123c 1847 173c 4644 1c3c
00000150: c2ea 1f3c 75a9 233c 214e 283c 0093 2e3c
00000160: d245 353c 0d65 413c 7f4a d53b 8d59 d33b
00000170: ef22 d33b 2dd3 803f 8bb4 d53b 5435 d93b
00000180: a469 da3b 8a7b dd3b de5a e23b 1f51 e63b
00000190: f256 ea3b fb1b ed3b 3e78 f03b 0c0d f43b
000001a0: 7cf6 f73b 77eb fd3b 9bbc 013c c974 043c
000001b0: 3be5 073c 4de2 0a3c 835e 0e3c b6a2 113c
000001c0: 5153 163c 184a 1b3c 5af2 1e3c a2aa 223c
000001d0: f856 273c 5d84 2d3c 9923 343c 612c 403c
000001e0: 8470 d33b 519c d13b 0252 d13b 0962 d13b
000001f0: 86d3 803f 6b34 d73b 7e4a d83b 8f6a db3b
00000200: fd4a e03b fc5f e43b 5184 e83b 8537 eb3b
00000210: 21b1 ee3b 6c1b f23b ccff f53b a52d fc3b
00000220: 74ee 003c c684 033c 34fe 063c 7b08 0a3c
00000230: bd88 0d3c 54b7 103c 688a 153c 5f76 1a3c
00000240: 5b1c 1e3c 21b1 213c 9b58 263c e994 2c3c
00000250: 5d11 333c 122b 3f3c 8f1d d53b 0b12 d33b
00000260: d4cd d23b aff2 d23b 6302 d53b e9d7 803f
00000270: c831 d93b cc2d dc3b cef2 e03b e4e4 e43b
00000280: 9414 e93b 82d1 eb3b c221 ef3b f7b8 f23b
00000290: ceae f63b 50f6 fc3b 4c55 013c 86ec 033c
000002a0: b35c 073c 5b72 0a3c 9312 0e3c e544 113c
000002b0: d903 163c f7f6 1a3c 2aae 1e3c db6f 223c
000002c0: 5816 273c bc4f 2d3c 44e3 333c 9ffd 3f3c
000002d0: cb14 d73b 0311 d53b fbbb d43b 5fd4 d43b
000002e0: fad7 d63b dafb d93b ddda 803f 4eb8 dd3b
000002f0: 8591 e23b e769 e63b 75a3 ea3b 0264 ed3b
00000300: e1c3 f03b d33b f43b 1d12 f83b 2961 fe3b
00000310: e5fc 013c dea4 043c 1236 083c 0e4b 0b3c
00000320: efd8 0e3c 3927 123c 3412 173c fc0b 1c3c
00000330: 44c6 1f3c de85 233c 141a 283c 9c66 2e3c
00000340: 43fb 343c 3e11 413c 27c3 d53b 4fc8 d33b
00000350: 0c66 d33b 5ba5 d33b d8b0 d53b a0b8 d83b
00000360: 3774 d93b 0bdc 803f cc03 e13b 7ad6 e43b
00000370: a704 e93b 73c2 eb3b 5d33 ef3b 88ba f23b
00000380: 8776 f63b fcee fc3b 745d 013c 6bf2 033c
00000390: 4c8b 073c 269d 0a3c 0734 0e3c c36e 113c
000003a0: 7961 163c 0b64 1b3c bb1d 1f3c 75e9 223c
000003b0: 0597 273c 20d4 2d3c d85d 343c cf81 403c
000003c0: 0181 d33b 136b d13b 0425 d13b c531 d13b
000003d0: 4c4a d33b 6344 d63b c609 d73b e897 d93b
000003e0: 09de 803f 3f18 e23b 1b54 e63b 5401 e93b
000003f0: 758d ec3b 2013 f03b ade2 f33b 0bfd f93b
1.0064284 0.0063856565 0.006389955 0.0064124535 0.006492379 0.0065999925 0.006644871 0.0067405724
0.0068901847 0.007013016 0.007138606 0.007227137 0.0073372414 0.007446515 0.0075661154 0.007754252
0.007919867 0.008077271 0.008288182 0.008476171 0.008696888 0.008889184 0.009188778 0.009496944
0.009731172 0.00996566 0.010257979 0.010647223 0.011050666 0.011788206 0.0063422373 1.006282
0.0062928726 0.006311864 0.006393302 0.006505051 0.006543103 0.006635168 0.00678679 0.006908998
0.0070386142 0.0071215667 0.007226228 0.007341951 0.0074586375 0.007645416 0.007812622 0.007970896
0.008178667 0.008357755 0.008572915 0.008762873 0.009057203 0.00936398 0.009585527 0.009819477
0.010105672 0.0104893185 0.01088764 0.011618526 0.006527237 0.0064701694 1.0064632 0.006482121
0.0065589775 0.006665521 0.0067114467 0.0067986334 0.0069491505 0.0070677213 0.0071970588 0.007284699
0.0073907366 0.0075057363 0.007620843 0.007804373 0.007974387 0.008133268 0.008346647 0.008532494
0.0087489365 0.00894249 0.009233259 0.009537762 0.0097605605 0.009989132 0.010272534 0.010655165
0.01106401 0.011803878 0.0065091248 0.0064498843 0.0064433734 1.0064446 0.0065217665 0.0066286717
0.0066654254 0.006759112 0.006907805 0.0070287134 0.007151478 0.0072360015 0.0073385527 0.0074478444
0.007567225 0.007749017 0.007918502 0.008084484 0.008294399 0.008476806 0.008689526 0.008888891
0.009175138 0.009478115 0.009701336 0.009928377 0.010213606 0.01059064 0.010994815 0.011729331
0.006452622 0.006396808 0.00638795 0.0063898605 1.0064552 0.006567528 0.006600677 0.0066960524
0.006844877 0.00696945 0.0070958515 0.0071782493 0.007284299 0.007388523 0.0075073 0.007695871
0.007869352 0.008027261 0.008239318 0.008424873 0.008638558 0.008832771 0.009127237 0.009427636
0.009650315 0.009868891 0.010152961 0.01053355 0.010929433 0.011667984 0.006503768 0.00644136
0.006433228 0.0064376215 0.0065005287 1.006589 0.006628249 0.0067193266 0.006864882 0.0069852937
0.007113049 0.007196606 0.0072977254 0.0074073034 0.0075281626 0.0077197924 0.0078938715 0.008051997
0.008261847 0.008450116 0.008671421 0.008866523 0.009156191 0.009458295 0.009685079 0.009914364
0.010198198 0.010578092 0.010979477 0.011718183 0.006563758 0.006502272 0.0064921356 0.006495043
0.006556508 0.0066523375 1.0066792 0.0067663556 0.00691432 0.0070316675 0.007160599 0.007244588
0.0073475693 0.0074534207 0.0075705186 0.0077630472 0.00793383 0.008095948 0.008313673 0.008501781
0.008718713 0.008920484 0.009220649 0.009524342 0.00975186 0.009980647 0.010260124 0.010644581
0.011046234 0.011783896 0.006523508 0.0064630876 0.006451374 0.006458921 0.0065213256 0.006613806
0.0066361683 1.0067152 0.0068669077 0.0069835754 0.0071111503 0.007194811 0.007299824 0.00740749
0.007521454 0.007718919 0.007895816 0.008053402 0.008272957 0.008460319 0.0086793965 0.008876505
0.009178513 0.009484301 0.009711678 0.009943356 0.010228877 0.010609657 0.011008702 0.011749699
0.0064545874 0.006390938 0.0063825864 0.006384107 0.006448066 0.006538914 0.0065624444 0.006640423
1.006776 0.006899863 0.007029069 0.007110754 0.0072190114 0.0073264986 0.0074427933 0.007629042

gc1.fc.weight f4 [128, 30]
00000000: b072 dc3d ae14 cfbd aab8 3dbe c2a9 e83d
00000010: 550a 13be 34b4 35be faeb cdbd a771 163d
00000020: c82f 34be eaca c93d 3cc0 c13d c0a4 86bd
00000030: 3f13 2a3e bef1 5a3d 0e45 2c3e dbeb 7c3d
00000040: 1997 5b3d 19b6 d1bd 9967 11be 11aa 143d
00000050: 8f76 323e 6928 cabc 8341 d1bc 1556 333d
00000060: 466f b6bd beff 853d 0907 c83c 43b1 d53c
00000070: f922 f03d 7eaa 7ebd 82aa b4bd 9739 29be
00000080: dbfc cc3c c692 283e fe31 a6bd b2db 93bd
00000090: 3443 5b3e d360 d63c 40e2 92bd 0935 813d
000000a0: df1a c3bc 7700 153e 24e2 8cbd 9469 2b3e
000000b0: ab11 e93d 50c6 2b3e bc1b 49be 4908 f43d
000000c0: 4b56 683d 98d5 003e 78d9 74bd 8fb0 bdbd
000000d0: f0ab b93d 76ee babd 6a7b 01be 7e49 783c
000000e0: c996 34be 520c a03d 4bbe 5d3e c349 d1bd
000000f0: bbac 3cbd 093c 35bd 117a 0abe fcd1 e1bc
00000100: 22d9 0fbe 4b1c 7c3d 1579 4bbe 10d8 4b3e
00000110: 69f0 193c 5dac 373e 2bcd 363e 837a ccbd
00000120: 71ad 8039 5629 af3d 4f65 8abd 59d0 c7bd
00000130: f4e5 063e 1104 18bd a609 3a3d 8417 303d
00000140: 047f 8f3d 300b 193e 1940 08bb 9f97 cc3c
00000150: 9e03 353d 73f1 a2bd cd28 21be 2e96 933b
00000160: 541b afbd a7c9 bfbd 3bc9 9c3c 6ab0 0ebd
00000170: fa8b aebc 3f56 b43d 8165 f93d 6263 063e
00000180: a779 a53c 64e7 1e3e 58b9 00bd 5a2a e9bd
00000190: e6c2 80bd 4bdd 68bd eb74 313e ccc1 fbbd
000001a0: 714f 48bc fb46 7b3a dada 703c 0143 bfbc
000001b0: c9d7 36be 4b11 ef3d a00f f4bc 4a21 ed3c
000001c0: 7e7c 40be 359d b0bd 24bd bdbd 34c3 dd3d
000001d0: e4ea 48bd 604f b0bd 962f 32be 583a dcbd
000001e0: 6112 1abe 952a 253d 29b4 fb3d b9e1 1bbe
000001f0: c910 903c 7706 3c3e 6a3b 2dbe 338e 9bbd
00000200: 79a2 8abd 9bae 2b3e 1624 a7bd 0582 813d
00000210: 752c e33c 474c 1c3e 098d 1dbd e972 f1bc
00000220: fcaa 08bd 0881 2d3e c497 153d ed28 2f3e
00000230: cb28 083e 4566 8fbd d1a0 8f3d 0935 2dbc
00000240: 5dd3 383e cca7 e4bc 11ba 41bb c85f 153e
00000250: cf82 d6bd 584d 48bd 99cb 9c3d 8392 013e
00000260: 5040 0d3e 3eca 02bd 00a7 8e3d 8663 be3d
00000270: f8c4 253e 38ce 5e3e 3e57 02be 4fa2 04bd
00000280: c57d 97bd b542 3fbd 42fb c73d 79bb e03d
00000290: aea8 04be 79a8 dfbd 68e4 66bd 08dd 8dbb
000002a0: d26e 28be 07ce a83c 29d1 29bd 9bd0 3bbd
000002b0: 3208 063e 5300 06bc 9e3c bbbb 92f6 82bd
000002c0: c99f c13b 7f62 903c 1c0c e2bc c8ac 203e
000002d0: 0188 d0bd 0c84 073e f74a 2d3e 4376 f63d
000002e0: aafc 48bd 7302 3d3e 2d5b 9fbd 5bef e93d
000002f0: f95a 4fbd a333 0cbe 3b5c fabd 2eda 0f3e
00000300: b462 673c b13d a43d 2a83 18be 1943 0c3e
00000310: 1a6b ca3c 96af 2abe ccff 27be fad8 273e
00000320: 9219 12be 9703 00be fd70 333d 70ff 383d
00000330: 1049 1bbe 0631 a0bd 789e e83d fdfc 863d
00000340: fa8d 89bc e251 863d 84d1 0c3e ceff 1c3d
00000350: 4c01 e73b 8428 24bd ab8c 0b3e b9d2 213e
00000360: 9c91 23be 1356 f3bd 2b27 1ebe fbfe a9bc
00000370: 7837 f13d 009c 02be 14ea 7d3d 25d5 e73d
00000380: 14cb 2bbe a2bb 083e 1eb6 80bc 7e7a a2bc
00000390: 3d2d 263e aeef 9dbd 2e58 08be ee08 883d
000003a0: 52a6 28be 2ba3 223e fb73 2dbe 07e7 0fbe
000003b0: 0171 88bd 783f 843d 2623 b63d 521d eabd
000003c0: 5c3e 36bd 8f7a 2ebd a018 f53d 2235 e0bd
000003d0: 4ae7 023e c4f3 21be 293a 11be 5fd4 37be
000003e0: a02b 00be f9c6 8bbc a487 d63d 026b b7bd
000003f0: 819f 293e b292 953d 8f44 17be 318b b33c
0.107640624 -0.10111366 -0.18527475 0.11360504 -0.1435941 -0.17744523 -0.100547746 0.03672948
-0.17596352 0.09853156 0.09460494 -0.06574392 0.16608904 0.0534532 0.16823217 0.061748367
0.053610895 -0.102398105 -0.14199676 0.036295 0.17428039 -0.024677472 -0.025543934 0.043783266
-0.089079425 0.065429196 0.024417417 0.026085502 0.117254205 -0.062174313 -0.08821584 -0.16525875
0.025022915 0.1646224 -0.08115004 -0.07219638 0.21412355 0.026169216 -0.0717206 0.06308944
-0.023816524 0.14550959 -0.068790704 0.16739494 0.11380323 0.16774869 -0.19639486 0.11915643
0.05672292 0.1258148 -0.059777707 -0.092621915 0.090659976 -0.09127514 -0.12644735 0.015154241
-0.17635645 0.0781485 0.21654622 -0.10219147 -0.046063166 -0.044246707 -0.13523127 -0.027565949
-0.14047673 0.06155042 -0.19870408 0.1990664 0.009395697 0.17936845 0.17851703 -0.09984305
0.00024543286 0.08552806 -0.06757604 -0.09756536 0.13173658 -0.037113253 0.045419358 0.042991176
0.07006648 0.14945674 -0.0020790158 0.024974642 0.044192903 -0.07956209 -0.1573822 0.004503987
-0.08550134 -0.09364634 0.019138923 -0.03483621 -0.02130698 0.08805513 0.121775635 0.13123849
0.02019961 0.15517956 -0.031426758 -0.11385031 -0.06287174 -0.056851666 0.17329757 -0.12292823
-0.012225972 0.0009585467 0.014700616 -0.02334738 -0.17855753 0.1167322 -0.029792607 0.028946538
-0.1879749 -0.08623735 -0.09264591 0.10828248 -0.049052134 -0.086088896 -0.17400965 -0.10753316
-0.15046073 0.040323813 0.12290222 -0.15222825 0.017586129 0.18361841 -0.16917196 -0.07595482
-0.067692704 0.16765825 -0.0816118 0.063236274 0.02773116 0.15263472 -0.03846458 -0.029473739
-0.03336619 0.16943753 0.036521688 0.17105456 0.13296811 -0.07001928 0.07013095 -0.010571727
0.18049379 -0.027912043 -0.0029560367 0.14587319 -0.104741685 -0.048901886 0.07656021 0.12653546
0.13794065 -0.031931154 0.069654465 0.09296326 0.16188419 0.21758354 -0.12728593 -0.032381352
-0.073970355 -0.046694476 0.097647205 0.109732576 -0.12954971 -0.109208055 -0.05637017 -0.0043293275
-0.16448525 0.020606054 -0.041459236 -0.04585324 0.13089064 -0.008178788 -0.0057140132 -0.06394686
0.0059089405 0.017625092 -0.027593665 0.15690911 -0.10182191 0.13233966 0.16923128 0.120342754
-0.049069084 0.18457966 -0.07781062 0.114226066 -0.050623868 -0.13691573 -0.12224623 0.14048073
0.014122654 0.08019579 -0.14893785 0.1369747 0.024709273 -0.16668543 -0.16406173 0.16391364
-0.14267567 -0.1250137 0.043808926 0.04516548 -0.1516459 -0.078218505 0.113583505 0.065912224
-0.016791333 0.06558587 0.13751799 0.03832989 0.007049715 -0.0400777 0.1362788 0.1580304
-0.15973514 -0.11881652 -0.15444629 -0.020751467 0.11778158 -0.12754822 0.061990812 0.11319951
-0.16776687 0.13352826 -0.01571184 -0.0198338 0.16228195 -0.07711731 -0.13314888 0.06642328
-0.16469696 0.15882556 -0.16938774 -0.14052974 -0.06662179 0.06457418 0.08893423 -0.11431374
-0.044493064 -0.04259735 0.119675875 -0.10947634 0.12783542 -0.15815645 -0.14182343 -0.17952107
-0.12516642 -0.017062651 0.1047509 -0.08955957 0.16564752 0.073033705 -0.14772247 0.021916958

gc1.fc.bias f4 [128]
00000000: 7014 4a3d 59cf 3e3d 3534 fabc 3561 b5bd
00000010: 2efc 07be 4f83 71bc faed afbd b055 b73d
00000020: dafd 103e cc64 0e3d e3dd 2ebe d7d7 443c
00000030: c535 1abe 9b38 28be 6a7d 333e a23d 31be
00000040: ce5f b5bd 9d71 00be 6860 2cbe 19ca 5c3d
00000050: 3925 0cbe 285b a13d 1573 2c3e 3df6 323e
00000060: 6070 a73d 8c0d 0c3e 4934 573d 0d4e dd3b
00000070: d600 a2bd 038c 93bd 8b75 7ebd 63c7 b93d
00000080: 6726 1b3e 3624 603d 6a55 0abe e2e1 183e
00000090: 5476 a6bd 055e b5bb 8ce7 a53a 51fd 04be
000000a0: 97d6 b7bd ac6c a6bc 61aa 0a3d 5a42 f1bd
000000b0: 0db1 5dbd 3dbf 0c3e 28c6 45bd 6e82 26bd
000000c0: 42c5 363e 5bc4 b53c 9148 653c dada 9b3d
000000d0: 835f c33c b562 ca3d 6d25 863d fb7f 3abd
000000e0: 0312 243d b2cb d63d a14a bf3d ba83 b63d
000000f0: 5f34 173e cce7 13be 5d2a 263e 71fe 023c
00000100: e8c8 9e3d f0b3 953b b47a 28be 142a 963d
00000110: 189e d93c 1990 443d 45ce 81bd dba5 42bc
00000120: 526a a9bc 60df 10be 5b17 d93d 811b 2d3e
00000130: 3807 7b3d e323 39bd c36d ccbc 2ff1 b63c
00000140: c505 e8bc 2ecf 243e ffe8 ce3d bd6b 353e
00000150: d9c1 d5bb b5e6 143e 8ab0 babd 2a0c 093e
00000160: 34a4 0cbe 693c b83c d9a1 c93d dcba fabd
00000170: 7453 99bd a70d d63d 4286 f23d f62d 213e
00000180: a80b 0b3d c573 96bd f84e 31be 0eae 84bd
00000190: 92a9 313e 9f96 2a3d e9d8 41bd 6ab6 a73b
000001a0: 3abb 723c 78c2 85bb eda7 ccbd bd84 8e3d
000001b0: 4446 683d 6aeb 2e3e 1b22 c43c c17d 893d
000001c0: 4709 e1bb 5193 fbbc 84de 4e3c c771 103e
000001d0: 9ebb 8fbd 81c9 1e3e 9f77 3a3e dba0 1a3b
000001e0: 9bf8 d7bd 94a2 d5bd 86c8 a6bd cfa1 ddbd
000001f0: eb3b 8ebc 2bbe 2e3e d657 25be feee 1bbe
0.049335897 0.04658446 -0.030542472 -0.088564314 -0.13279793 -0.014740779 -0.08590312 0.089518905
0.14159337 0.034764096 -0.1707683 0.012014351 -0.15059574 -0.16427843 0.1752831 -0.17308667
-0.08856164 -0.1254334 -0.16833651 0.053903673 -0.13686074 0.07878715 0.16840775 0.17476745
0.08175731 0.13677043 0.052540097 0.006753689 -0.07910316 -0.072044395 -0.062123816 0.09071233
0.15151368 0.054722033 -0.13509145 0.14929917 -0.08128038 -0.0055348896 0.0012657507 -0.12987258
-0.08976477 -0.02031549 0.033853892 -0.11780234 -0.054123927 0.13744827 -0.04828468 -0.04065173
0.17848685 0.022188356 0.013994352 0.07610102 0.023849254 0.09882108 0.06550107 -0.045532208
0.04005624 0.104880705 0.09340406 0.089118436 0.14766072 -0.14443892 0.16227098 0.007995234
0.077531636 0.0045685694 -0.16453058 0.073322445 0.026564643 0.047988985 -0.06338171 -0.011880363
-0.02068058 -0.14147711 0.10600158 0.16905023 0.06128618 -0.04520024 -0.024954682 0.022331802
-0.028323064 0.16094658 0.10103034 0.1771688 -0.0065233526 0.14541133 -0.091157034 0.13383546
-0.13734514 0.022489743 0.09845323 -0.12242672 -0.074866205 0.10451823 0.11842014 0.15740189
0.033946663 -0.073463 -0.1731528 -0.06478511 0.17349842 0.04164755 -0.047326002 0.005118181
0.014815146 -0.0040820204 -0.09992967 0.069589116 0.056707636 0.17081991 0.023942044 0.06713439
-0.006867561 -0.030709894 0.012626294 0.14105903 -0.07018207 0.15506555 0.18209694 0.0023594412
-0.105454646 -0.104314 -0.081437156 -0.10821878 -0.017362555 0.17064731 -0.16146788 -0.15227887

gc2.fc.weight f4 [128, 128]
00000000: 0326 dd3c 524b 5dbd f6ec 203d da32 033c
00000010: a37f 2fbd 2d88 43bd 1ba9 be3c 18a8 b2bd
00000020: 0d1a 23bd eac9 74bd b337 a7bd 014b 3ebc
00000030: 33d7 8bbd 2e1d c53d b302 72bc 62b8 c43d
00000040: a44d db3d 7974 08bd 2add 94bd 7da8 683d
00000050: 52e3 54bd ac27 a73b 18b9 71bd b58b 403d
00000060: df87 883d 37d4 3f3c 6d0b 2abd 20e9 973c
00000070: 5aaa 02bd 0900 92bc 8897 393c 555a 243d
00000080: 1563 fdbd 5881 b2bd b338 c93c fce7 c63d
00000090: 8e95 e1bc 0504 00bd 2166 03bd 518d 023d
000000a0: 3a49 8abd 8ef9 c7ba cefe 8e3d f0c3 03bd
000000b0: 7ac2 6fbd fb86 753d 65f5 9dbc 059b 77bd
000000c0: 45ae 473c 7c1b 8abd 5c5b 213c 2144 c2bc
000000d0: 69a2 fbbd f7df 59bd 4508 b63d 9dc0 b73c
000000e0: fce9 853c ee41 e53c df49 d4bc d931 98bb
000000f0: 80e6 cfbb 784b b53d 2e2f b33d 76c6 38bd
00000100: c1b8 8e3d 348e d73c 9608 45bd 5ece febc
00000110: b034 f13d b9a5 d1bc c1b6 70bd 8be9 763d
00000120: 67ed d1bd 256d 87bc aa51 7ebd 7ff6 19bc
00000130: 8951 0dbd 4fea d53c d866 cf3d 52e5 8d3d
00000140: fa2a d7bc 1359 9cbd dbab 863d 3bdc 06be
00000150: 03b8 313c e035 763d de3e 48bd 1bff 923d
00000160: 7129 c23d 39b2 25bd 9702 ef3d 023b 4bbd
00000170: e299 3c3d 496b 68bd 4ccf 0abd 6548 ee3d
00000180: b2d1 dfbc 32ed c9bd 3379 e8bc 90a3 653d
00000190: dec2 983c c215 8fbd 9cd9 c3bb 58fa 60bd
000001a0: c900 683b 3609 873d 6679 7a3d a393 5b3d
000001b0: 6c18 85bd 69da b93d 151a 64bd e0a3 c6bd
000001c0: 7021 743d dbe4 973d 3b63 543c 5c8a ec3d
000001d0: 9515 aa3d 8569 8d3d 8733 a83d e2ab 8bbc
000001e0: b0f1 c33d 63fe 033d 9a02 723d 22e6 603d
000001f0: 7745 093d 1841 57bd eeb3 153e 8b8b 6d3d
00000200: 6cf2 333d 5244 233d de80 ad3d f953 7dbd
00000210: 2707 093d 8f0d ee3c b74d 553c 4af5 84bd
00000220: c12e 203d 92bb d9bd b624 01bc ad6f 483d
00000230: 09cb 97bc 73b3 2cbd bdc9 523d 37dd 1c3c
00000240: 28d1 5cbb c4ee be3a 15be cf3c 18b5 b0bd
00000250: 8e9a 023c 1679 e43c d3bc 80bd 1fcc a63c
00000260: 0edb 593c a015 db3c 7097 9dbd 9403 a93d
00000270: d360 44bc 324d 833d 800b c6bd f2e3 5cbd
00000280: 235b 7fbd e296 3dbd 04e2 b3bd 309d cfbc
00000290: 9672 ddbb 0b17 9c3c e2f3 ef3b d2bd 1a3d
000002a0: 7880 843d 54c4 253d ae97 48bb 4f06 9b3d
000002b0: 1097 033c 963d 85bd 1c14 dcbc c6c7 573d
000002c0: 5137 353d 2033 0cbd de87 c7bd 9051 e7bc
000002d0: adfc 9fbd a87d 843d 5f42 f43c 287a 55bd
000002e0: 7451 88bc 131f 29bd e80c c7bd 0bc1 0a3d
000002f0: e828 08bd 8df4 a5bd aff2 123c d384 c8bc
00000300: c290 fcbc 5dd3 a5bd dbd5 023b c810 b63c
00000310: 45ca 5e3d 78ce b63d d541 13bd 1df3 cf3c
00000320: 943f 403d 85ca f13c f517 8f3d 1741 e6bc
00000330: 8d43 2dbc 18a8 16bc ff87 42bc 8797 70bd
00000340: d6c0 c03c 241c 3cbc 78cb 4c3d 47d6 e8bc
00000350: a1be 6c3d bc44 723b aede 9c3d 4bda 7a3d
00000360: f7f0 9a3d d812 e53c a8f3 033d b1fd 89bc
00000370: 5ef1 b6bb 60b8 9abd 9ec6 57bd dc96 ba3d
00000380: 12a7 a63d d0f3 a0bd c84f 10bd f147 1fbd
00000390: efc5 40bd 0e74 983d 0dca f83b 9e19 35bd
000003a0: a5a4 253d 6ddb e4bc d91d 81bd b0cb eebc
000003b0: f5ba 503d 23f5 313d e8e6 9bbd 6466 93bd
000003c0: 66b7 49bd 1c96 b5bd 52e3 343d 7a50 523d
000003d0: 192d 463d 0996 333d 6416 0bbd 9b43 9d3d
000003e0: 2d7d 1d3d f5b6 7c3d 7d80 97bd 92c3 683d
000003f0: aee5 0bbc fb86 b4bd 394f ee3c 86c0 87bd
0.026995664 -0.05402691 0.039288484 0.008007729 -0.042846333 -0.04773729 0.023273995 -0.087234676
-0.039819766 -0.059762873 -0.08164921 -0.011614562 -0.06828155 0.09624706 -0.014771151 0.09605481
0.10708168 -0.033314202 -0.07268746 0.056801308 -0.051974602 0.005101165 -0.05901441 0.047008235
0.0666654 0.011708311 -0.041514803 0.01854378 -0.03190074 -0.017822282 0.011327632 0.04012521
-0.12372414 -0.087160766 0.02456317 0.09712216 -0.027537134 -0.031253833 -0.03207982 0.03187305
-0.06752248 -0.0015256868 0.06982194 -0.032169282 -0.058535077 0.05994318 -0.019282052 -0.060450573
0.012187545 -0.067435235 0.009848442 -0.023714127 -0.12286837 -0.053192105 0.08888296 0.022430712
0.016346924 0.02798554 -0.02591413 -0.004644614 -0.0063446164 0.08852285 0.08749233 -0.045111142
0.06968833 0.026312925 -0.04810389 -0.031104263 0.117776275 -0.025591718 -0.058768038 0.060281318
-0.10250359 -0.016531536 -0.0620896 -0.009397148 -0.034501586 0.026112704 0.10127038 0.06928505
-0.02626561 -0.07634177 0.065757476 -0.13169949 0.0108470945 0.060109973 -0.04888808 0.07177564
0.094805606 -0.04045317 0.11670416 -0.04961682 0.04604519 -0.05674294 -0.0338891 0.11634902
-0.02732167 -0.098596945 -0.028378105 0.05606419 0.018647607 -0.06986572 -0.005976869 -0.054926246
0.0035400859 0.06593554 0.06115093 0.053607594 -0.06498799 0.090748616 -0.055688936 -0.096992254
0.0596022 0.074166976 0.0129631115 0.115498275 0.08304898 0.06904892 0.08212953 -0.017049734
0.095675826 0.032225024 0.059084512 0.05490697 0.033513512 -0.052552313 0.14619419 0.057994407
0.043932363 0.039860077 0.08471845 -0.06184766 0.033454087 0.0290592 0.013019017 -0.06492098
0.039107088 -0.10631479 -0.007882288 0.048934627 -0.018529432 -0.042163324 0.051461924 0.009574226
-0.0033694003 0.0014567007 0.025359193 -0.08628291 0.007971419 0.02788977 -0.06286015 0.020361004
0.013296856 0.02674371 -0.076949 0.082526356 -0.011985975 0.06411208 -0.09670162 -0.053928323
-0.062342774 -0.04628647 -0.087833434 -0.025343508 -0.0067580445 0.019053956 0.0073227743 0.037778683
0.06469816 0.040470436 -0.0030607986 0.07569563 0.008031622 -0.06505887 -0.026865058 0.052680753
0.044242207 -0.034228444 -0.097427115 -0.028237134 -0.07811866 0.064692795 0.029816804 -0.05211845
-0.016640402 -0.0412894 -0.097192585 0.033875506 -0.033242136 -0.08103285 0.008968993 -0.024477398
-0.030830745 -0.08096955 0.0019963894 0.022224799 0.054392118 0.089260995 -0.035951454 0.02538448
0.046935633 0.029515514 0.06986991 -0.02810721 -0.010575187 -0.00919535 -0.011873244 -0.058738258
0.023529451 -0.011481319 0.04999873 -0.028422488 0.057798985 0.0036967238 0.0765966 0.061243337
0.07565492 0.027963087 0.03221479 -0.016844602 -0.0055829724 -0.07554698 -0.05267965 0.091108054
0.08137335 -0.078590035 -0.035232335 -0.038886968 -0.047063764 0.07444011 0.0075924457 -0.044213884
0.04044022 -0.027936662 -0.06304521 -0.02914986 0.050959546 0.04344667 -0.07612401 -0.07197264
-0.049247168 -0.08866522 0.044162102 0.05134628 0.048382852 0.043844257 -0.0339569 0.0767891
0.038449455 0.06169792 -0.07397554 0.056827135 -0.008538647 -0.08814808 0.02909051 -0.06628518

gc2.fc.bias f4 [128]
00000000: 5548 3fbc 1644 2b3d a13a a73c ccc9 5f3d
00000010: 8e74 063d c46b 67bd fb3a f6bc cff3 5f3d
00000020: 6fbf 503b a2fa a83d db19 60bc 4a94 2a3d
00000030: 074b 6a3d 4ac0 9a3d d47d 7fbd bfa1 893d
00000040: 96f1 633d 4a27 8f3d de42 ff3c 31a0 28bd
00000050: ffa5 8a3d 142a 70bb a410 b73d 7f49 74bd
00000060: 24cd 533d f6b2 fe3c a450 9a3d 200f ac3c
00000070: b7bc e23a bd8f 6d3d 0387 043d 4861 14bc
00000080: ce41 cf3d c1e8 c9bc 823d 643d f0eb b23d
00000090: bed9 27bc 16e8 843d 79d1 713d fc74 553d
000000a0: 3015 51bc 9854 a63b cb08 853d 2dca 6abb
000000b0: f1dd 613a f494 7c3d 2e54 363d 8702 52bd
000000c0: 268e 583c 214e 5e3d 3384 7cbc 7fbb 95bc
000000d0: a99a 4c3c f941 3a3d 80e6 d9bc f89a a9bd
000000e0: 5883 c23d 7ce9 1b3d c1e1 afbc b0e8 ab3d
000000f0: d518 303d ea32 de3b 4011 823d 8b5a 19bd
00000100: 8a5e caba ebae f0bc f4b7 38bd 691b 2f3c
00000110: 85d0 b6bc 8a1a 5fbd 51af 20bd 511a 5c3d
00000120: 9c43 5abd 6a8a 173d b538 50bd ef0f 7c3c
00000130: 6744 833d cbc5 93bd fc2b be3a 2af3 d73c
00000140: efcf a53d 60d3 963c ad36 5fbc 6b2e ef3c
00000150: 17bb 5fbd fea2 3c3d 96ab cf3d 2ef5 ab3c
00000160: b1c7 aa3c b29b 10bc f3ae b2bc b7df d23c
00000170: 43a2 c1bc 0517 5ebd 995d 62bd acb5 8d3d
00000180: 45a2 f7bc 0f30 edbc 44df 78bc eeda 94bd
00000190: afd6 623d 0b6d 04bd 4a8b 66bc d639 283c
000001a0: 0a57 5a3d 457f 05bd f9dd 4e3c e15d 8fbd
000001b0: 2bb1 b53c bdf2 1c3d b241 68bd b20b 74bc
000001c0: f856 4b3d 58fd 89bb 780f 9dbc 594b 3f3d
000001d0: f904 663d 7c4c a1ba dfee 273d 0f62 90bd
000001e0: 95cf ac3c 5c84 9f3c da4e 883d 86d5 7c3c
000001f0: 5d68 7b3d 2711 f8bb f051 e83c e388 a6bd
-0.01167496 0.04181298 0.020413699 0.054635808 0.032826 -0.056499258 -0.030057421 0.054675873
0.0031852385 0.082509294 -0.013678039 0.041645326 0.057200458 0.075562075 -0.06237586 0.06720304
0.055650316 0.06989916 0.031159814 -0.041168395 0.067699425 -0.0036646174 0.08938721 -0.059640404
0.05170931 0.031091195 0.07534912 0.021003306 0.0017298673 0.057998408 0.03235532 -0.009056397
0.10119973 -0.024647119 0.05572272 0.08736408 -0.010244785 0.064895794 0.05903766 0.052113518
-0.012761399 0.0050760023 0.06495818 -0.0035826073 0.00086161407 0.06166549 0.044513874 -0.05127194
0.013217485 0.05427373 -0.015412378 -0.018277882 0.012488046 0.045473073 -0.026599169 -0.08281511
0.09497708 0.038064465 -0.021469953 0.08393991 0.04299243 0.006780972 0.063509464 -0.037439864
-0.0015439552 -0.029380282 -0.045097306 0.010687687 -0.022316227 -0.05446867 -0.039229695 0.053736035
-0.053287134 0.036997236 -0.05083533 0.015384658 0.06409531 -0.072154604 0.0014508958 0.026361067
0.08096301 0.018411338 -0.013623876 0.029196938 -0.054621782 0.04605388 0.10140149 0.020990934
0.020847173 -0.008826183 -0.021811938 0.025741441 -0.023636943 -0.054221172 -0.055265043 0.06919417
-0.030228743 -0.02895358 -0.015189949 -0.0726832 0.05538052 -0.032330554 -0.014071295 0.010267695
0.053305663 -0.032592077 0.012626165 -0.07000328 0.022179207 0.03831743 -0.056703277 -0.0148953665
0.049643487 -0.004211109 -0.019172415 0.046702716 0.056157086 -0.0012306119 0.04099929 -0.07049953
0.021095077 0.019472294 0.06655665 0.015431767 0.061378825 -0.007570404 0.028359383 -0.08131578

temporal_conv.weight f4 [128, 128, 3]
00000000: 8601 c33c 3627 0f3d 3a2f 333d 221f 343d
00000010: 3641 26bd 5dac 50bc 33ce 453c 38d4 013c
00000020: 171e 383d 65f0 1d3d 02dc 32bc 4fdb 913b
00000030: e469 60bc 5023 663b 1889 13bb c2b3 343d
00000040: 1341 5c3c 2001 463d 880b 0fba 9cc1 8abc
00000050: 5c7d b23c dfdf 803c 5960 663d d390 6ebb
00000060: bfd2 74bc f93a b8bc 7a55 d73c 0224 f83c
00000070: 0028 7b3c 3242 2abd f5b4 0e3c e320 57bd
00000080: 27d8 00bd cf52 93bc 2680 9ebb 8300 3dbd
00000090: a68e bdbc a906 82bd e796 d9bc 1340 123d
000000a0: ee0c 283d c5d5 39bd a76d dfbb f154 3bbd
000000b0: c979 9bbc a561 4c3c 5465 a23c c587 4f3d
000000c0: e63d 5abc c06f a1bb 3254 1bbd 61cc 0f3c
000000d0: e370 95bc 84cb 753c 8c89 af3c e36d 42bd
000000e0: 3780 6dbb dbfe 49bd 2c7b 0dbb 806f 81bc
000000f0: 8403 b43c 7e40 15bd 8389 7dbc 350d 303d
00000100: ca13 0e3d f1ca 673c 2a92 1cbd e0b6 463c
00000110: cf48 aebc ef2b f33c ef96 99bc 5d9d 03bd
00000120: ccf9 913d 81b0 b13d 5b6e d23c df0e 053d
00000130: 6df3 2fbd abe8 8c3c 09a5 fc3b 58bb ea3c
00000140: c88c 023d 30f8 a9bc 8c8c 36bd 5e54 7b3c
00000150: 661a 69bb e6e3 4dbd 097f ddbc 64c7 3dbd
00000160: 733b ac3c 925e 453c 5bce db3c 7486 4bbc
00000170: 209b 87bc 3373 43bd c24a 12bd 0dc6 023d
00000180: d4cb c6bb 1538 83bc b4dd 24bd 0bfd eabb
00000190: e138 bcbc ead0 d5bb 1b9a 3d3c 79bb 16bd
000001a0: fac6 d43c 3eb9 4dbc 4406 373c 78c6 aa3c
000001b0: 06b1 03bd e2c4 b43b 6cd0 353d b715 fc3c
000001c0: ec3c c03c ccb5 09bc 02d5 39bd ac63 96bb
000001d0: 87a0 8e3c ba6e 10bd 61bc 6c3d 4318 cfbc
000001e0: c619 56bd 5d17 4bbc 9787 80ba 353f 5b3d
000001f0: 7713 df3c 9247 9c3c e0c4 3bbd f9dc 003d
00000200: 81dd 053d 7f25 e33c 4bbf ab3c cfb1 793c
00000210: 4aba d6bc d7f2 47bc f4e7 393a 34a7 353d
00000220: ab42 283d a8a9 083c f726 7b3c d234 52bb
00000230: 19fc 223b 9f78 173d dade a9bc fe07 7ebc
00000240: 26b7 40bd 41f0 5b3c eb44 34bd eb92 073d
00000250: a4cb 28bc 01cf efbc 2c10 27bd 674c 3fbd
00000260: ec8b 42bd 7c3a 7ebd 3a7d 37bd c6e5 04bd
00000270: 2dae ac3c bbf6 4bbd 99ea 2b3b ed2e 19bd
00000280: 1468 93bc a6ac 8e3c 1610 08bc 5f25 24bd
00000290: b5d9 94bc 23ac f7bb de26 9d3b 03f9 873c
000002a0: 3150 47bd 81f6 833c 2de3 723c becb 213b
000002b0: 0eba 9b3c 7bf8 e03c 9d46 1c3d 9094 00bd
000002c0: 9ec1 eb3c bf2f d83c 5e21 b4bc 14e3 2c3d
000002d0: c4eb 07bd 503c 4d3b 7c43 54bb f29b 1bbc
000002e0: 7a8f c6bc d4cf 633c 8cc8 a1ba 9a23 983c
000002f0: ad82 033d 32c1 7dbc a05f adbc bcff f43c
00000300: 28e4 db3c a45e efbc 0abb ea3b b7e6 863d
00000310: e3cd 80bc 2e99 3cbd 3295 2dbd bc85 75bd
00000320: f94b d63c 02e1 bfbc 6d70 31ba b906 093d
00000330: bb54 703d fd86 fabc 431f 343c 9931 4ebc
00000340: 785b 2c3c 7f5f 2abd 8ca4 71bc 9669 713d
00000350: b3e0 48bd 003f 7fbc 3fac 02bd c520 4abd
00000360: 57bb eb3c 806b 26bd eade ee3c 88ed febc
00000370: 0610 5dbd 9359 3cbd 15ef 14bd 0f8f f8bc
00000380: 9e7a 283d 00f0 c03c 0b71 79bd 1dfe 4a3d
00000390: aeda 4b3c 6ba0 f7bc f5bb 2cbd d78d 013d
000003a0: f4d0 c33c fe66 023d f072 663d a611 483d
000003b0: 5535 abba d1fc 7abb bb23 8cbd a2ff 37bd
000003c0: 11e5 03bc 0f6d 4cbc d426 e73b aae4 823c
000003d0: 1122 53bd 2a2a a9bc 7d45 dcbc 17f6 8a3c
000003e0: e3a8 763b 8660 bd3b babd 07bd 6aa0 50bd
000003f0: 5ff7 1ebd 861a 31bd 075c 2b3d ef56 d4bc
0.023804437 0.034949504 0.04374621 0.043975003 -0.040589534 -0.012736407 0.0120730875 0.007924132
0.04495057 0.038559336 -0.010916712 0.0044511924 -0.013697121 0.0035116263 -0.0022512134 0.044116743
0.013443249 0.048340917 -0.00054567354 -0.016938023 0.021788292 0.01573175 0.056244228 -0.003640224
-0.014942824 -0.022489058 0.026285876 0.030290607 0.015329361 -0.041567035 0.008710136 -0.052521598
-0.03145614 -0.017983822 -0.004837054 -0.046143066 -0.02313931 -0.063489266 -0.026561214 0.035705637
0.041027956 -0.045369882 -0.0068184915 -0.045735303 -0.01897897 0.012474452 0.019823708 0.05066659
-0.013320422 -0.0049266517 -0.03792209 0.008776755 -0.018242305 0.015002135 0.021427892 -0.047468077
-0.0036239752 -0.049315315 -0.0021588309 -0.015800238 0.021974333 -0.036438458 -0.01547468 0.042981345
0.03468684 0.014147506 -0.03822533 0.012128562 -0.021274952 0.029684035 -0.018748729 -0.032132495
0.07127723 0.086762436 0.025687387 0.032484885 -0.04295676 0.017200788 0.0077101034 0.028653786
0.03187254 -0.020748228 -0.04456763 0.015339939 -0.0035568713 -0.05026617 -0.027038114 -0.04633273
0.021024441 0.012046473 0.026831796 -0.012422193 -0.016553462 -0.047717284 -0.035715826 0.031927157
-0.0060667787 -0.016017953 -0.040250495 -0.0071712784 -0.02297634 -0.0065251486 0.011572386 -0.03679988
0.025973786 -0.012556372 0.011170927 0.02084659 -0.032151245 0.0055166343 0.04438822 0.030772073
0.02346655 -0.00840516 -0.045369156 -0.0045895185 0.01741053 -0.035261847 0.05779684 -0.025280124
-0.052270673 -0.012395707 -0.0009806034 0.053527076 0.027230961 0.019077096 -0.04584205 0.031460736
0.032681946 0.02772784 0.020965239 0.015240147 -0.026211876 -0.012203894 0.00070917537 0.04434891
0.041079205 0.00834123 0.015329114 -0.003207494 0.00248695 0.036980268 -0.020736147 -0.015504835
-0.047049664 0.01342398 -0.044011038 0.033099096 -0.010302458 -0.029273512 -0.040786907 -0.046703722
-0.04749672 -0.062067494 -0.04479716 -0.03244569 0.021079147 -0.049795847 0.002623236 -0.037398268
-0.017993964 0.01741631 -0.008304616 -0.040074702 -0.018170217 -0.007558362 0.004795893 0.01659823
-0.04866046 0.016108753 0.014824671 0.002468809 0.019009616 0.027462235 0.03815328 -0.03139168
0.028778847 0.026389955 -0.021988567 0.042208746 -0.033183828 0.0031316467 -0.0032388857 -0.0094976295
-0.024238337 0.013904531 -0.0012343093 0.018571664 0.032107044 -0.015487956 -0.021163762 0.0299071
0.026842192 -0.029219933 0.00716341 0.06586974 -0.015723174 -0.04604452 -0.042378612 -0.059941992
0.026159273 -0.023422722 -0.0006768767 0.033453677 0.058674555 -0.030581946 0.0109937815 -0.012585067
0.010519855 -0.04159498 -0.014748704 0.058938585 -0.049042415 -0.015578985 -0.031902548 -0.049347658
0.028775854 -0.040629864 0.029159028 -0.031119123 -0.05397036 -0.045983862 -0.03636082 -0.030341653
0.04113256 0.02355194 -0.06089882 0.049558748 0.012442274 -0.03022786 -0.042171437 0.03162941
0.023903348 0.031836502 0.056261957 0.048844956 -0.0013062159 -0.0038297663 -0.068427525 -0.044921525
-0.008050219 -0.0124771735 0.007054189 0.015978176 -0.05154616 -0.020649988 -0.026888603 0.016963048
0.0037637285 0.0057793288 -0.03313992 -0.050934233 -0.03881013 -0.043238185 0.04183581 -0.02592036

temporal_conv.bias f4 [128]
00000000: 91b1 ec3c 2d65 88bc a4cd 48ba 7797 db3c
00000010: 65a1 773d 86be a23c 572c 583d d215 b13b
00000020: 83e1 8d3c f61b 183c ca30 0f3d 9bfe d3bc
00000030: f05a 0cbd 68d4 cb3c 1341 ed3c a5b7 b43c
00000040: 8fff f03b 6319 17bd 2d6c 2b3d c8ee 7a3d
00000050: 8170 24bd 5685 b5bb 646c aa3c c7d3 11bd
00000060: 1481 873c 418a d63b 5336 083d 32c9 543d
00000070: 7678 ca3c 5c52 15bd a10c d6bb 8e01 aabc
00000080: 5314 1abc a39e 563d ed8b 383c 0a08 6cbc
00000090: d1a8 3f3c 349d cebc 33c8 933c 33ed 053c
000000a0: 3707 c9bc 32fd 923d 1769 853d c1a4 12bc
000000b0: 33cf 22bb f220 c03c d0d0 b13b 907f 123d
000000c0: 46c2 543d 9fd4 713d 95be 403d b0ac 79bc
000000d0: 6c3b 4c3d 33c0 593c 2e04 43bc 028d d2bc
000000e0: 715e 093c 2d83 29bd f42e 53bc 838c 913b
000000f0: 7cd1 c3bc 17eb fbbc cf7f 0f3d f60f a3bc
00000100: 1095 073c 2095 613d 537d adbb 7bbb 5d3c
00000110: 3f29 173d 2c01 27bd dd09 7abc 05de 7e3d
00000120: f458 c93c fa0a b73c 4749 873d 64cc 583d
00000130: c998 c3bb e7ce 043d 30d0 793c b8a4 e7ba
00000140: 3d89 233c 530a f53c 39ea f53c 69fa 06bd
00000150: d00f 14bd e2bb 893c 9135 ff3c cc98 003d
00000160: fbbc 7dbd 0e54 553d db2a 4d3d b4d9 083c
00000170: c938 ff3c a4b8 5fbc 9d4f 0fbd 9243 2e3d
00000180: 2312 193d a7c8 103d 8afd 4c3c 9b14 34bc
00000190: 09ab 30bd ab98 a9bc 435a 3c3d e605 0dba
000001a0: a0ac 4c3d 67cd 71bd b6d5 78bc 23b9 383d
000001b0: f926 19bc 68ca 6bbd 5811 bebc a5ec 493d
000001c0: 53f7 333d 1dcb b6bb 8bfb 07bc 946d 72bd
000001d0: 5ef5 a83c 86cf e23c 72ef 043d 6ee5 2a3d
000001e0: 0ad4 8bbb 0691 7d3d 110f 8bbc 91dd 0d3d
000001f0: 4b23 5bbc f6c5 7a3d 1219 39bd 1e92 b1bc
0.028893264 -0.016649807 -0.00076600374 0.026805623 0.060456652 0.01986624 0.05277666 0.0054042125
0.017319446 0.00928401 0.03495864 -0.025878241 -0.034266412 0.024881557 0.028961694 0.022060225
0.0073546837 -0.036889445 0.04185121 0.061262876 -0.040146355 -0.0055395765 0.020803638 -0.035602357
0.016541041 0.006547243 0.033254933 0.051949687 0.024715643 -0.036455497 -0.006532267 -0.020752694
-0.00940426 0.05239738 0.01126383 -0.014406214 0.011697964 -0.025221445 0.018039798 0.0081742285
-0.024539573 0.071771994 0.06514185 -0.008950413 -0.0024842739 0.02345321 0.0054265037 0.035766184
0.051943086 0.059040662 0.047056753 -0.015238926 0.049861357 0.013290453 -0.011902852 -0.025702003
0.008384333 -0.041384865 -0.0128896125 0.004441799 -0.0239036 -0.030751748 0.035033997 -0.019905072
0.008275285 0.055073857 -0.005294481 0.013533468 0.03690457 -0.040772602 -0.015261141 0.062223453
0.024578549 0.022344101 0.066057734 0.052929297 -0.005969141 0.03242388 0.01524739 -0.0017672991
0.009981451 0.02991215 0.030018913 -0.032953653 -0.036147892 0.016813222 0.031153472 0.03139572
-0.061947804 0.052082114 0.0500897 0.008352686 0.031155007 -0.013654862 -0.034988035 0.04254491
0.037370812 0.035347607 0.01251162 -0.010991241 -0.04313186 -0.02070268 0.045984518 -0.0005379602
0.049969316 -0.059033778 -0.015187671 0.045098435 -0.009347671 -0.057566077 -0.02320163 0.049297947
0.04393704 -0.005578412 -0.008299719 -0.059186533 0.020624813 0.027686846 0.032454915 0.041722707
-0.0042672204 0.061905883 -0.016974958 0.03463513 -0.013375114 0.061223947 -0.045189925 -0.02167612

fc.weight f4 [30, 128]
00000000: cdd0 733d 7fc0 34bd 1371 acbd 199a 16bd
00000010: c8b4 163d 674f 90bc f4cf 033c 5d44 ccbc
00000020: 007a 70bd b7cd 48bc 9f09 be3d a3ec c83d
00000030: 97ca 553d 259c 7cbd 9364 a13d c583 33bd
00000040: bdc5 0e3c 4004 753d fa12 053c 7ef1 b0bd
00000050: ff9d 67bd 5200 35bd bbc4 9e3d a0c6 17bd
00000060: 19c4 3a3d 9add 8f3d d09e 923a 8713 ba3c
00000070: 34b9 db3c 8d5b 0cbd cc6a a2bd 5512 14bd
00000080: 3172 173d 2065 ab3b 7fdd 2cbd 59bd 12bd
00000090: e358 1c3d 272b a6bd b065 1fbd cd54 fc3c
000000a0: 03c1 cebd 4ac2 0ebd 9682 ea3d 7f29 43bd
000000b0: 9e72 e63d d89a b6bd c446 c03d ca63 103d
000000c0: 80c1 25bd 39da 153d 3a86 5cbd 6238 0fbb
000000d0: b59f 063d 4190 b33d 4c4a 95bc 9302 45bd
000000e0: a5ff 8f3c f050 8b3c 9fd7 10bd b0a2 92bd
000000f0: 7879 2f3d 4b38 323d 0a27 29bd cb0a 48bd
00000100: e70c df3c fc93 ebbc 1e44 54bd ab1a 213d
00000110: fe0c c83c 40f5 6fbd 32af 00be d3c5 dc3d
00000120: 9ab7 de3c 9c6a 92bd 28f6 98bd fab2 ac3d
00000130: b09f 693d 94ce 88bd 0d47 21bd b13c 4a3d
00000140: 5170 9abd d0bf 92bd a904 bebb d07c a7bd
00000150: a26e ce3c eb6b 61bd bec2 afbd 8222 c1bc
00000160: d18a 8fbc 78f0 aabd 11d7 a63d d3ab 923d
00000170: 32e1 643d e032 9c3c ecc7 933d 3f02 263d
00000180: 95d2 193d 8d2d 96bc 2842 5b3d 4458 4abd
00000190: 5f2a 9c3c 2c94 a7bd 614a 12bc 7179 ab3d
000001a0: 3cb3 17bd 6ff4 723d 6c1b 96bc 385f cf3c
000001b0: fb7b a1bc 05a0 323d 6056 0e3c 7ce4 5f3d
000001c0: 47a4 d2bc a55f a63d d2cc 803b 1af7 f53c
000001d0: b8f5 cabb c8f0 383d 061c ed3c 6bd2 81bd
000001e0: d27e 77bd a10c 9e3c 5d89 153c c985 463d
000001f0: 4088 7fbc 0731 4ebd 706f 8b3d 5641 3f3d
00000200: 06f1 c43d 9aa6 73bb 2858 523d a652 a8bd
00000210: 9e84 5fbd 46c1 4dbd 7c0b 2bbd c996 7ebc
00000220: d77d 3b3c 42be 1c3b a0c2 a8bc 4696 93bc
00000230: 00d9 a6bd bcca 6dbd 1dfc 43bd 8bb0 34bb
00000240: 7364 c63d d7a1 823d a3cd 313d f846 333d
00000250: 6129 d83d 8644 b7bd e227 8f3d 13f1 a63d
00000260: 9cbb 6bbd 2f42 b53c f0d8 19bc 0f61 913d
00000270: e4a4 e23d b468 96bd efd5 ab3c eaf1 cdbc
00000280: 3166 0abd 675d 9d3d ecc0 c7bd cb53 90bd
00000290: 0cf4 ba3b 8615 90bd 0d9c 98bd 727d a43c
000002a0: 5672 123d c121 71bd b640 c0bc 178d 163d
000002b0: b11b 36bd b6c1 6dbc 068c 533b f8de 82bd
000002c0: 0c23 9d3d 5809 0fbc 1d22 58bd 5b40 a03c
000002d0: e7a5 1b3d 5306 6a3d 2eed 85bd a379 26bd
000002e0: 67bd a43d 7bad 9ebd 6170 b23a b72e 0fbd
000002f0: cf2c bb3d b31c 993d 7fef 31bd 67fb a9bd
00000300: 9a91 97bd 9495 86bc 2211 813d 8f4d 7a3c
00000310: ff7d 3fbd b696 233c f262 253d 2a77 43bd
00000320: e38c c63b 67d0 97bd 68ff 8cbd 7127 7ebd
00000330: 297b d2bc 4cd8 873d 15fe 483c 3304 29bd
00000340: 4cc8 b93d 47a6 b53d 5f32 bd3d 3889 36bd
00000350: e9b5 9a3c a7e2 a03b 026c 783d 352c 3dbd
00000360: 7962 03bd f892 3ebd 3ccd 8cbc 5a24 dc3c
00000370: 1d9d 3cbd 547b 933c 43de 7c3c 82e7 1fb9
00000380: 336d 093d cd19 4ebd 1f04 d8bb 66d9 48bc
00000390: 9fec c53d d5f2 79bd 43c8 0dbd 3083 8abd
000003a0: 64e5 193b faf3 923d 8335 ad3d 4818 893d
000003b0: 7245 ccbc 5ee7 82bd 25dc 3a3d 175f 6dbd
000003c0: 0856 c03d 7433 433d 2bab 59bc 2b91 83bc
000003d0: 0c6c 07bd 50d4 873d c8a7 5a3d 252c a83d
000003e0: 2a8a 02bd 361a 99bc 8b7b 563d 3671 32bb
000003f0: 0132 413d bf51 40bd 1ec6 583c 9a49 7ebc
0.0595253 -0.04412889 -0.08420005 -0.036768053 0.0367935 -0.017615987 0.008045185 -0.024934942
-0.0587101 -0.0122560775 0.09279179 0.0981076 0.052195158 -0.06167235 0.07880511 -0.043826837
0.008714137 0.059818506 0.0081222 -0.08639811 -0.05654716 -0.04418976 0.07752367 -0.037054658
0.04559717 0.07024689 0.0011186246 0.02271439 0.02682171 -0.034266997 -0.07930526 -0.036150295
0.036974136 0.005230561 -0.042203423 -0.035825107 0.038170706 -0.081136994 -0.038915336 0.030802155
-0.10095408 -0.034853257 0.114506885 -0.047646996 0.1125233 -0.08916253 0.093884975 0.035251416
-0.04046774 0.036585066 -0.053838946 -0.0021853675 0.032867152 0.087677486 -0.018223904 -0.048098158
0.017577955 0.017006367 -0.035361882 -0.071599364 0.04284045 0.043510716 -0.041296996 -0.048838418
0.027227832 -0.028757088 -0.051822774 0.039332073 0.024420258 -0.058583498 -0.12566832 0.107799195
0.027187157 -0.071492404 -0.074688256 0.084325746 0.057037055 -0.06680027 -0.0393744 0.049374286
-0.07540954 -0.071654916 -0.0057988954 -0.08178103 0.025199238 -0.05503456 -0.08582066 -0.023576025
-0.017522248 -0.08346647 0.081464894 0.07161679 0.055878825 0.019067228 0.072158664 0.040529486
0.037554342 -0.018332267 0.05352989 -0.049400583 0.019063173 -0.081825584 -0.008928866 0.083727725
-0.037036166 0.05931514 -0.018323623 0.025313959 -0.019712439 0.043609638 0.008687586 0.05466126
-0.0257131 0.081237115 0.0039306665 0.030025054 -0.0061938427 0.045151502 0.028944027 -0.06338962
-0.06042368 0.019293131 0.009126988 0.04846743 -0.015596449 -0.050339725 0.068083644 0.04669317
0.09616284 -0.003717816 0.051353604 -0.08218889 -0.054569833 -0.050233148 -0.041759 -0.01553888
0.011443577 0.0023917113 -0.020600617 -0.018015992 -0.08146858 -0.05805467 -0.047847856 -0.0027571048
0.09687128 0.06378525 0.043409 0.043768853 0.105547674 -0.08948617 0.06990029 0.0815145
-0.057551965 0.022126285 -0.009390101 0.070985906 0.11066607 -0.07344189 0.020976035 -0.025139768
-0.033788864 0.07683831 -0.09753594 -0.07047232 0.005705362 -0.07035355 -0.07451639 0.020079348
0.03575357 -0.05887008 -0.023468357 0.036755648 -0.044460002 -0.014511516 0.0032279505 -0.06390184
0.076727 -0.008730255 -0.052766908 0.019561937 0.038000014 0.057134937 -0.06539379 -0.040643346
0.08043938 -0.077479325 0.0013613814 -0.03495666 0.09139406 0.07476177 -0.043441292 -0.08299904
-0.07400818 -0.016428746 0.06302096 0.0152772805 -0.04675102 0.009984663 0.040377565 -0.047721066
0.0060592755 -0.074127965 -0.068846524 -0.062049333 -0.025693493 0.06633052 0.012267609 -0.04126377
0.09071407 0.088696055 0.09238123 -0.044564456 0.01888557 0.0049098316 0.06064988 -0.046184737
-0.032076333 -0.04652688 -0.017187707 0.026872803 -0.046048272 0.018003143 0.015433851 -0.00015249665
0.033551406 -0.050317574 -0.006592288 -0.012258863 0.096642725 -0.0610226 -0.034614813 -0.06763303
0.0023482675 0.07175441 0.08457472 0.066940844 -0.024935458 -0.06391786 0.045620102 -0.057952013
0.09391409 0.04765649 -0.0132854385 -0.016060432 -0.033062026 0.06632292 0.053382665 0.08211545
-0.031870045 -0.018689256 0.052363914 -0.0027228124 0.047166828 -0.04695296 0.013230829 -0.015520478

fc.bias f4 [30]
00000000: e633 733d 4bb9 c13d 5abe 90bb 90d2 923c
00000010: 1140 363c 758b 87bd 8874 60bd e3a8 293c
00000020: d7f0 1bbd d0b8 8abd bdd2 08bd 685b e33c
00000030: bcf7 f73c 37eb 0cbd 8570 08bd 3fc8 7f3d
00000040: 3e89 023d 2b9c 073d 087a 153d e248 57bd
00000050: 3376 f9bb d2a8 213d 980b 563c 44aa a6bc
00000060: 17a9 c8bc 1ca4 5fbd 74b7 bdbc ab14 8cbd
00000070: fb67 20bb dc94 693d
0.059375666 0.0945917 -0.004417223 0.01792267 0.011123673 -0.06618396 -0.054798633 0.010355207
-0.03807148 -0.067735314 -0.0334041 0.027753547 0.030269496 -0.034404006 -0.033310432 0.06244683
0.031869166 0.033107918 0.03649333 -0.05255974 -0.0076129674 0.03946764 0.013064288 -0.02034486
-0.02449469 -0.054599866 -0.023158766 -0.068398796 -0.002447604 0.05702673
