GWN/best_model_w30_h1.pth (torch, 300619 bytes, 9 tensors)

adapt_adj f4 [30, 30]
0	0x3f7ebce6	0.99506986
1	0xbbb7818b	-0.0056001595
2	0xbbbaae34	-0.005697036
3	0xbbc36169	-0.00596254
4	0xbbbc6303	-0.005749108
5	0xbbb6cb01	-0.005578399
6	0xbbb9e921	-0.005673543
7	0xbbaf5c9a	-0.005351615
8	0xbb9216db	-0.004458291
9	0xbb8d2b66	-0.004308152
10	0xbb8072aa	-0.003919919
11	0xbb76d0a4	-0.003766098
12	0xbb530f21	-0.0032205062
13	0xbb30e8ea	-0.0026994296
14	0xbb0b6aee	-0.0021273452
15	0xba7ec14b	-0.0009718134
16	0x3974f6eb	0.00023361637
17	0x3aa75906	0.001276762
18	0x3b1e529c	0.0024158126
19	0x3b7b7b8d	0.0038373203
20	0x3baec310	0.005333312
21	0x3be053bf	0.006845921
22	0x3c146804	0.009058002
23	0x3c3b9973	0.011450159
24	0x3c5dfd8a	0.013549218
25	0x3c7ec0da	0.015548909
26	0x3c96ce59	0.018408941
27	0x3cb5a01b	0.02217107
28	0x3cd74bb5	0.026281217
29	0x3d0a48c7	0.033760812
30	0xbb9a55d5	-0.004709939
31	0x3f7e9e4f	0.9946031
32	0xbbb47b8c	-0.005507892
33	0xbbbc79d8	-0.0057518296
34	0xbbb584fe	-0.0055395355
35	0xbbb0983e	-0.0053892424
36	0xbbb381ac	-0.0054781046
37	0xbba87507	-0.005140904
38	0xbb8bf2dc	-0.0042708945
39	0xbb85c25c	-0.0040820073
40	0xbb726dde	-0.0036991755
41	0xbb6604ad	-0.0035098002
42	0xbb43e70a	-0.0029892349
43	0xbb22720c	-0.0024787216
44	0xbafa9077	-0.001911654
45	0xba511b8f	-0.0007976824
46	0x39c7ec96	0.00038132508
47	0x3ab7939a	0.0014005781
48	0x3b259415	0.0025265266
49	0x3b810f46	0.0039385883
50	0x3bb11944	0.005404623
51	0x3be194e4	0.006884204
52	0x3c140ca0	0.009036213
53	0x3c39f347	0.011349506
54	0x3c5b1972	0.013372766
55	0x3c7b13d7	0.015324554
56	0x3c946e7d	0.018119091
57	0x3cb23fe7	0.021758987
58	0x3cd2f975	0.025753716
59	0x3d071b03	0.032984745
60	0xbb98cf56	-0.0046633882
61	0xbbaf30f2	-0.005346411
62	0x3f7e9a11	0.99453837
63	0xbbbadc27	-0.0057025137
64	0xbbb40cc9	-0.005494688
65	0xbbae89a0	-0.005326465
66	0xbbb232b8	-0.005438175
67	0xbba73ad3	-0.005103448
68	0xbb8a3e38	-0.004218843
69	0xbb851d9c	-0.0040623676
70	0xbb7092db	-0.0036708626
71	0xbb645a06	-0.0034843697
72	0xbb413a62	-0.0029484262
73	0xbb2000c1	-0.0024414512
74	0xbaf82a3c	-0.0018933485
75	0xba4b4bd4	-0.0007755135
76	0x39cf8876	0.00039583788
77	0x3abb2286	0.0014277257
78	0x3b27f97c	0.0025630882
79	0x3b822eff	0.0039728875
80	0x3bb2fac7	0.005462024
81	0x3be37101	0.0069409613
82	0x3c150596	0.00909557
83	0x3c3aceeb	0.011401872
84	0x3c5bcd50	0.0134156495
85	0x3c7b73d8	0.0153474435
86	0x3c9471d5	0.018120686
87	0x3cb21b72	0.021741603
88	0x3cd27b89	0.025693672
89	0x3d06c4dc	0.032902583
90	0xbb980439	-0.0046391753
91	0xbbad5099	-0.005289149
92	0xbbb0a739	-0.0053910282
93	0x3f7e8ffa	0.9943844
94	0xbbb0ffa9	-0.005401571
95	0xbbabbeec	-0.0052412655
96	0xbbae97ec	-0.005328169
97	0xbba3a64e	-0.0049941903
98	0xbb874ff0	-0.0041294023
99	0xbb81c2e7	-0.0039600017
100	0xbb6b5473	-0.003590849
101	0xbb5f2ded	-0.0034054474
102	0xbb3ced8b	-0.002882811
103	0xbb1a52cb	-0.0023547884
104	0xbaecded0	-0.0018071774
105	0xba393330	-0.00070648175
106	0x39f7a724	0.0004723604
107	0x3ac4cfa7	0.0015015499
108	0x3b2d4621	0.0026439505
109	0x3b843df6	0.0040357066
110	0x3bb4d7d3	0.0055188923
111	0x3be52298	0.0069926493
112	0x3c152066	0.009101963
113	0x3c3a9e40	0.011390269
114	0x3c5b67a9	0.013391414
115	0x3c7ae571	0.015313492
116	0x3c93ef22	0.018058363
117	0x3cb15a5e	0.021649536
118	0x3cd18e97	0.025580687
119	0x3d05de0a	0.032682456
120	0xbb9b96aa	-0.004748185
121	0xbbb14603	-0.0054099574
122	0xbbb42d59	-0.00549857
123	0xbbbbf7ae	-0.005736313
124	0x3f7e9525	0.99446326
125	0xbbb02799	-0.005375814
126	0xbbb35992	-0.005473324
127	0xbba8230a	-0.00513113
128	0xbb8bbf89	-0.004264776
129	0xbb865ab5	-0.0041001686
130	0xbb740659	-0.0037235229
131	0xbb697a0e	-0.0035625729
132	0xbb458556	-0.003013929
133	0xbb2281df	-0.0024796647
134	0xbaf7e52d	-0.0018912904
135	0xba496bfa	-0.0007683631
136	0x39df2445	0.00042560897
137	0x3ac02f48	0.0014662528
138	0x3b2a583e	0.0025992538
139	0x3b837fb7	0.0040130275
140	0x3bb4b834	0.005515123
141	0x3be56974	0.0070010964
142	0x3c15a4f5	0.009133567
143	0x3c3b60b1	0.011436627
144	0x3c5c8ec4	0.013461772
145	0x3c7c907b	0.015415306
146	0x3c95334e	0.01821294
147	0x3cb30693	0.02185372
148	0x3cd3ac5e	0.025839027
149	0x3d0776bb	0.033072215
150	0xbb9e5167	-0.0048314813
151	0xbbb49720	-0.0055111796
152	0xbbb7ae48	-0.0056054927
153	0xbbbf6fc2	-0.00584218
154	0xbbb9233a	-0.0056499513
155	0x3f7e9659	0.9944816
156	0xbbb7e988	-0.005612556
157	0xbbac6952	-0.0052615786
158	0xbb8f40dc	-0.0043717455
159	0xbb89a2f5	-0.004200334
160	0xbb7a6301	-0.0038205984
161	0xbb6f59ff	-0.0036522148
162	0xbb4aeb0a	-0.0030962848
163	0xbb267be4	-0.0025403434
164	0xbafe9a07	-0.0019424566
165	0xba4f341d	-0.0007904189
166	0x39d62c2d	0.00040850174
167	0x3abdda5a	0.001448463
168	0x3b2c24a5	0.002626696
169	0x3b8536b1	0.0040653576
170	0x3bb80dbf	0.005616873
171	0x3be9ec3f	0.0071387584
172	0x3c1877fe	0.009305952
173	0x3c3f03c8	0.011658616
174	0x3c605483	0.013692024
175	0x3c805f38	0.015670404
176	0x3c979ee2	0.018508378
177	0x3cb5da4f	0.022198824
178	0x3cd6ddc9	0.026228802
179	0x3d098eab	0.033583324
180	0xbba025cd	-0.0048873187
181	0xbbb64229	-0.005562086
182	0xbbb96763	-0.0056580766
183	0xbbc06574	-0.005871469
184	0xbbb9b89c	-0.005667759
185	0xbbb4a381	-0.0055126552
186	0x3f7e8f0a	0.9943701
187	0xbbace250	-0.005276002
188	0xbb8f8944	-0.004380377
189	0xbb8991d2	-0.0041982913
190	0xbb7919ff	-0.003800988
191	0xbb6d510b	-0.0036211635
192	0xbb48df3b	-0.0030650634
193	0xbb246bfc	-0.0025088778
194	0xbaf7102d	-0.0018849425
195	0xba3d3379	-0.0007217448
196	0x3a00a1f3	0.0004906945
197	0x3ac81ca8	0.0015267329
198	0x3b30118c	0.0026865928
199	0x3b8730fd	0.004125713
200	0x3bba5ccd	0.0056873322
201	0x3bec75c1	0.007216186
202	0x3c19cab7	0.00938671
203	0x3c407c32	0.0117483605
204	0x3c620084	0.013794068
205	0x3c811208	0.015755668
206	0x3c9835ac	0.01858028
207	0x3cb66b13	0.022267854
208	0x3cd7678e	0.026294496
209	0x3d09c506	0.03363516
210	0xbba7b126	-0.0051175533
211	0xbbbecb9a	-0.005822611
212	0xbbc150d2	-0.005899527
213	0xbbc90814	-0.006134996
214	0xbbc18861	-0.00590615
215	0xbbbc9fdd	-0.005756362
216	0xbbbfe184	-0.005855741
217	0x3f7e964a	0.9944807
218	0xbb96e7c7	-0.0046052667
219	0xbb9089ba	-0.0044109495
220	0xbb835ebf	-0.0040090973
221	0xbb7bef18	-0.0038442072
222	0xbb579a1a	-0.0032898248
223	0xbb31aff6	-0.0027112938
224	0xbb08c5cd	-0.0020869852
225	0xba6aec81	-0.00089616334
226	0x39b878f5	0.00035185335
227	0x3aba24fc	0.0014201696
228	0x3b29d88f	0.0025916432
229	0x3b83f99c	0.0040275585
230	0x3bb7e199	0.00561161
231	0x3beaa72a	0.007161041
232	0x3c197816	0.00936701
233	0x3c412726	0.011789119
234	0x3c63229d	0.013863233
235	0x3c81fb5e	0.015866932
236	0x3c999e81	0.018752338
237	0x3cb840d1	0.022491844
238	0x3cda012e	0.02661189
239	0x3d0bcb38	0.03412935
240	0xbbb2ed42	-0.0054604122
241	0xbbcb622f	-0.0062067728
242	0xbbcde32c	-0.0062831845
243	0xbbd57399	-0.0065140245
244	0xbbcdeb03	-0.006284119
245	0xbbc86634	-0.006115699
246	0xbbccad06	-0.006246212
247	0xbbc13990	-0.0058967546
248	0x3f7ebad7	0.99503845
249	0xbb9cad14	-0.0047813747
250	0xbb8f02b1	-0.0043643345
251	0xbb894fcf	-0.004190422
252	0xbb6db32a	-0.003627012
253	0xbb46f3f6	-0.0030357814
254	0xbb1d336b	-0.0023986946
255	0xba977b10	-0.0011557061

gc1.fc.weight f4 [128, 30]
0	0x3dec3c36	0.11534922
1	0x3e25ad4e	0.16179392
2	0xbcdf6176	-0.027268153
3	0x3e1cb17c	0.1530208
4	0xbce67d1e	-0.028135832
5	0x3d9579a9	0.072985955
6	0xbde9761c	-0.11399481
7	0x3e08010a	0.13281646
8	0x3e434ea4	0.19072968
9	0xbdf16bfa	-0.11788173
10	0x3e398faf	0.18121217
11	0x3d54117e	0.051774494
12	0x3e324371	0.1740854
13	0xbbccd5f4	-0.006251091
14	0x3de71d68	0.11284906
15	0xbbf24e03	-0.0073945536
16	0x3e1c77ed	0.15280123
17	0x3d8ba2aa	0.06818135
18	0xbdf06be1	-0.11739326
19	0x3d3ad62d	0.04561441
20	0xbdee9bb8	-0.11650795
21	0x3c461924	0.012090955
22	0xbd7172e7	-0.05894747
23	0x3e086a64	0.13321835
24	0xbddb10aa	-0.10696538
25	0xbdb5ed35	-0.08883134
26	0xbd953028	-0.07284576
27	0xbdb0e7f8	-0.086379945
28	0x3df2d1ce	0.11856423
29	0xbe3643a4	-0.1779924
30	0x3e4419d5	0.19150479
31	0xbe042a75	-0.12906821
32	0x3dfcce29	0.123440094
33	0x3d8ded8f	0.06930076
34	0xbd7f0894	-0.06226404
35	0x3ddaafe6	0.10678081
36	0x3d3c04f4	0.04590316
37	0x3dec3fa8	0.11535579
38	0x3d36a3a9	0.044589672
39	0xbd228b75	-0.039683778
40	0x3d929571	0.0715741
41	0xbcb67251	-0.022271307
42	0x3de5e8f9	0.11226077
43	0x3e4c5509	0.19954313
44	0x3ddd8c59	0.10817785
45	0xbda2dd34	-0.079523474
46	0x3dfa838c	0.12232122
47	0x3d7416fb	0.05959223
48	0x3deb57a9	0.11491329
49	0xbdec4505	-0.11536602
50	0xbe2585fb	-0.1616439
51	0xbd3e9220	-0.046526074
52	0xbe1c002e	-0.15234444
53	0x3dd9584f	0.10612547
54	0x3db1fed7	0.08691185
55	0x3dbdc89a	0.09266777
56	0x3d3323b6	0.04373523
57	0x3c87d810	0.016582519
58	0x3e449868	0.19198763
59	0xbdc3282d	-0.09529147
60	0x3d1ef67f	0.038809296
61	0xbdcd6129	-0.100282975
62	0x3d384999	0.044992063
63	0xbd62f410	-0.055408537
64	0x3db0d70a	0.086347654
65	0xbd32e470	-0.043674886
66	0x3e301223	0.17194419
67	0xbe100f15	-0.14068253
68	0xbe04cd4e	-0.12968943
69	0xbd9c31f2	-0.07626714
70	0x3e4d2a52	0.20035675
71	0x3dbf1818	0.093307674
72	0x3e3ef136	0.18646702
73	0xbe0f93e9	-0.14021267
74	0xbe4a706a	-0.19769445
75	0xbe01670d	-0.12636967
76	0xbdcb9a2f	-0.099415176
77	0x3d8b5f37	0.0680527
78	0x3d8d5024	0.06900051
79	0x3e3900ed	0.1806676
80	0xbdb73b06	-0.08946805
81	0xbdf4a708	-0.11945921
82	0x3e0ca6ef	0.13735555
83	0xbcc37375	-0.023858765
84	0x3df625fe	0.12018965
85	0xbcfc4e28	-0.030798987
86	0x3dfe99fa	0.124317124
87	0xbe04d939	-0.12973489
88	0xbdcea6a2	-0.100903764
89	0x3cb24f24	0.021766253
90	0x3ccc1dcd	0.024916554
91	0xbd7e7e10	-0.06213194
92	0x3df93117	0.12167566
93	0x3e07d350	0.13264203
94	0xbe1ac7e3	-0.15115313
95	0xbdb29c18	-0.08721179
96	0x3e1e1dd5	0.15441068
97	0xbcebe26e	-0.028794494
98	0xbd92213c	-0.07135245
99	0xbe46ba7b	-0.19407074
100	0xbdf61acc	-0.1201683
101	0x3cf319fa	0.029675473
102	0xbd22ea0e	-0.039773993
103	0xbe12124e	-0.14264795
104	0x3c94fdc1	0.018187406
105	0xbe0e54f6	-0.13899598
106	0xbe2e92db	-0.17048208
107	0xbdd7a7d3	-0.10530057
108	0xbe3817bf	-0.17977808
109	0xbe076e86	-0.13225755
110	0x3e26bc82	0.16282848
111	0x3cae0c29	0.021246033
112	0x3ca91fbd	0.020645017
113	0xbe26590a	-0.16244903
114	0xbe0a239c	-0.13490146
115	0xbd8eec62	-0.0697868
116	0x3d4abcb6	0.049496375
117	0xbe2ec457	-0.17067085
118	0xbdc0ddfe	-0.09417342
119	0xbdbe0a50	-0.09279311
120	0xbb897585	-0.0041949176
121	0xbd8e52a5	-0.06949357
122	0xbd05e64c	-0.03269033
123	0xbdf618aa	-0.12016423
124	0xbe0f028e	-0.13965818
125	0xbe11db7d	-0.14243884
126	0xbd834fae	-0.06411682
127	0xbe2a9cab	-0.16661327
128	0x3e27cc21	0.16386463
129	0xbd64c3ab	-0.055850666
130	0x3e10e673	0.1415041
131	0x3d249ca5	0.04018845
132	0xbe18f427	-0.14936887
133	0x3e08a64b	0.13344686
134	0xbdb28eaa	-0.08718617
135	0xbda647c5	-0.08119158
136	0xbe24dd4c	-0.16100043
137	0xbe4c3dd6	-0.19945464
138	0x3d7f3794	0.062308863
139	0xbd2beabd	-0.04197191
140	0x3daa8981	0.08327008
141	0xbe16e0ce	-0.14734194
142	0x3dcc2cb8	0.09969467
143	0xbe278335	-0.16358645
144	0xbd093f3e	-0.033507578
145	0x3d02451e	0.031804197
146	0x3db07871	0.086167224
147	0x3e1950c8	0.14972222
148	0x3e26e98a	0.16300026
149	0xbe04721c	-0.12934154
150	0x3d771767	0.060325053
151	0xbd443cb3	-0.04790945
152	0xbc858622	-0.016299311
153	0xbe21620c	-0.15760058
154	0x3e40fafe	0.18845746
155	0xbe08ab2f	-0.13346551
156	0x3e07e43b	0.13270657
157	0x3d0d9b98	0.034572214
158	0x3d541aa8	0.051783234
159	0xbd96d376	-0.07364552
160	0x3e4c456a	0.19948354
161	0x3d7b9f44	0.061431184
162	0x3d67dbba	0.056606032
163	0xbe20c8ee	-0.15701649
164	0x3dc05a05	0.0939217
165	0xbb8a6b1d	-0.0042241947
166	0xbdb53785	-0.0884848
167	0x3e3daae2	0.18522218
168	0x3d244360	0.040103316
169	0xbd8d8968	-0.06910974
170	0xbdbfc2a3	-0.09363296
171	0x3cfb81b8	0.030701503
172	0x3dee9fa3	0.11651542
173	0xbd1b2c32	-0.037883945
174	0xbdb09cd9	-0.08623666
175	0xbdce5b9a	-0.10076065
176	0xbe29ef2a	-0.1659514
177	0x3dc89f2f	0.09795987
178	0x3e26fdd6	0.16307768
179	0xbe48a5af	-0.19594453
180	0x3cbfde80	0.023421526
181	0x3dd9877b	0.10621544
182	0x3d2e1355	0.042498905
183	0xbdae208e	-0.08502303
184	0x3de275f1	0.11057652
185	0x3df48635	0.119396605
186	0x3d7b5d73	0.061368417
187	0x3c498842	0.012300553
188	0xbd88c365	-0.066778935
189	0x3ce1a517	0.027544541
190	0xbc881326	-0.016610693
191	0xbd63f4e8	-0.055653483
192	0x3dddd6d7	0.10831993
193	0x3e107542	0.1410723
194	0x38de5b59	0.000106028
195	0xbd309227	-0.04310813
196	0xbce8be06	-0.028410923
197	0xbd074c96	-0.033032022
198	0x3c7913d2	0.015202479
199	0x3d5411b1	0.051774684
200	0xbe45f82a	-0.19332948
201	0xbd9fd6d5	-0.07804648
202	0x3e327124	0.17425972
203	0x3da2880a	0.07936104
204	0xbcae9c1a	-0.02131467
205	0xbe0b6bfb	-0.1361541
206	0xbe054c09	-0.13017286
207	0xbe2c1317	-0.16804157
208	0xbd820de2	-0.06350304
209	0x3d324f78	0.04353282
210	0x3e2300c3	0.1591826
211	0x3d9668d0	0.0734421
212	0xbe39b141	-0.18134023
213	0xbe1ea102	-0.15491107
214	0xbd0dacde	-0.034588687
215	0x3e254075	0.1613787
216	0x3d2c109e	0.042008035
217	0xbd8f1f15	-0.0698835
218	0x3da6e182	0.08148481
219	0xbd9b59e5	-0.075855054
220	0xbdedd895	-0.11613575
221	0x3e02bf2f	0.12768243
222	0xbdaee1a3	-0.085391305
223	0xbd6c197a	-0.057641484
224	0xbe5ad9d7	-0.21372162
225	0x3df89a4d	0.121388055
226	0x3df21d4a	0.11821993
227	0x3d5043c6	0.050845884
228	0xbe47181f	-0.19442795
229	0xbe35eb2b	-0.1776549
230	0xbe5b5766	-0.21420059
231	0x3e0b3aee	0.13596699
232	0x3dae3e2a	0.085079506
233	0x3e144418	0.144791
234	0x3db7e413	0.089790486
235	0x3cabc8fb	0.020969858
236	0xbc95ec22	-0.018301073
237	0xbe0ed763	-0.13949351
238	0xbe08559e	-0.1331391
239	0xbe40269e	-0.18764731
240	0x3dd0fe45	0.10204748
241	0xbdb1a370	-0.08673751
242	0xbd5907dd	-0.052986015
243	0xbdd23d00	-0.10265541
244	0xbd0c84d5	-0.034306366
245	0xbe1d1b49	-0.1534244
246	0xbddc6aeb	-0.107625805
247	0xbb99f25f	-0.0046980823
248	0xbd60a761	-0.054847125
249	0x3df7d884	0.12101844
250	0xbd3f1aa1	-0.046656255
251	0xbdffe916	-0.124956295
252	0xbc747ef5	-0.014922847
253	0xbd9462ee	-0.07245432
254	0xbddae4ff	-0.10688209
255	0xbe2b73f2	-0.16743448

gc1.fc.bias f4 [128]
0	0xbe0492f3	-0.12946682
1	0x3d994eb3	0.07485714
2	0x3e1688ed	0.1470067
3	0xbaff6713	-0.0019485675
4	0x3d752a44	0.05985476
5	0x3dc28f9a	0.09500046
6	0xbe27efd0	-0.16400075
7	0xbd224d49	-0.039624486
8	0xbc99ac60	-0.018758953
9	0xbdc23e70	-0.09484565
10	0x3e043c84	0.1291371
11	0x3e59ce73	0.2127016
12	0x3d1c984e	0.038231187
13	0x3e046800	0.12930298
14	0xbe02b6a0	-0.12764978
15	0x3d454373	0.048160028
16	0xbc4fdfec	-0.0126876645
17	0xbdb1efad	-0.08688293
18	0x3d8516ae	0.064984664
19	0x3d938e17	0.07204836
20	0x3c24b9ab	0.010054032
21	0x3dd874ec	0.10569176
22	0x3dd3fb31	0.10350645
23	0x3e3fe4aa	0.18739572
24	0x3d062d17	0.032757845
25	0x3c41ad55	0.011821111
26	0x3bbf2096	0.005832742
27	0x3d1e08ac	0.03858249
28	0xbded0689	-0.11573512
29	0xbca7f2ea	-0.020501573
30	0xbdf559f7	-0.1198005
31	0xbde54474	-0.11194697
32	0xbdfbeca3	-0.12300994
33	0x3e19c2f2	0.15015772
34	0xbdad46ec	-0.08460793
35	0xbc865de5	-0.016402194
36	0x3d488ff4	0.04896541
37	0x3e324b64	0.17411572
38	0x3dbf101f	0.09329247
39	0xbdfac854	-0.12245241
40	0x3e3b314a	0.18280521
41	0xbe1ef530	-0.15523219
42	0x3d5b2bba	0.053508498
43	0x3e2e0a50	0.16996121
44	0x3e2de8e6	0.16983375
45	0xbd373a77	-0.04473349
46	0xbddbf46f	-0.107399814
47	0x3d894b47	0.06703811
48	0x3e224ab4	0.1584881
49	0xbd8f8ce4	-0.07009295
50	0xbc9716e4	-0.018443532
51	0xbdc78bda	-0.097434714
52	0x3da21e7a	0.07915969
53	0x3d433f32	0.04766769
54	0x3dc95d6b	0.09832271
55	0xbd221c37	-0.03957769
56	0xbe0ebb9e	-0.13938758
57	0xbd640fdc	-0.055679187
58	0xbe053e4a	-0.13012043
59	0xbd271c7f	-0.04079866
60	0x3dae3b8f	0.08507454
61	0xbe052454	-0.1300214
62	0x3d312aff	0.043253895
63	0xbe0088f1	-0.12552239
64	0xbdf0d955	-0.11760203
65	0xbde3d811	-0.11125196
66	0xbd27980e	-0.040916495
67	0xbda5ba3b	-0.08092161
68	0x3d6c801f	0.057739373
69	0x3df80b1d	0.12111495
70	0x3e347799	0.17623748
71	0x3d8561ab	0.06512769
72	0x3c6c8bee	0.014437659
73	0xbb0cabb2	-0.0021464643
74	0x3e0eeebc	0.13958257
75	0xbdb339d0	-0.08751261
76	0x3e131757	0.14364372
77	0xbe268920	-0.16263247
78	0xbe04f858	-0.1298536
79	0x3d85d32b	0.06534418
80	0xbd707d76	-0.0587134
81	0x3daa1d63	0.08306386
82	0x3e3c45eb	0.18386047
83	0x3deb52ab	0.11490377
84	0x3e49b6dc	0.19698662
85	0xbd0a4281	-0.03375483
86	0xbd639bc8	-0.055568486
87	0xbc0a953a	-0.00845843
88	0xbc78c41a	-0.015183473
89	0xbd96b632	-0.0735897
90	0xbb8e6a6d	-0.004346183
91	0x3e3114d1	0.17293097
92	0xbdb20dcd	-0.086940385
93	0x3e0927e2	0.1339412
94	0x3de6353f	0.11240625
95	0x3df85e17	0.12127321
96	0x3d9ce929	0.07661659
97	0xbd103fd0	-0.035217106
98	0x3dc4b5a8	0.09604961
99	0xbd9999da	-0.07500048
100	0xbd8c323a	-0.068455175
101	0x3e6171ad	0.2201602
102	0x3e2f8e70	0.1714418
103	0xbdea6fb8	-0.1144709
104	0x3e1bfb99	0.15232696
105	0x3d4c7471	0.049915735
106	0x3dd8930a	0.105749205
107	0x3e4bb592	0.19893482
108	0xbca92fd2	-0.020652685
109	0xbd1f9e00	-0.03896904
110	0x3e00bc01	0.12571718
111	0xbd182ea7	-0.037153866
112	0xbcf6aa08	-0.030110374
113	0xbd6ca462	-0.057773955
114	0x3e4f1fb4	0.20226938
115	0x3dcd286b	0.10017475
116	0xbbcdc4dc	-0.006279571
117	0x3c413262	0.011791797
118	0x3cd1e6d1	0.025622757
119	0xbdbbc453	-0.09168305
120	0x3da57c24	0.080803186
121	0xbdf97067	-0.12179642
122	0xbb0ea9bf	-0.0021768657
123	0xbc7644e6	-0.015031075
124	0xbd5a4457	-0.05328783
125	0x3e32cf62	0.17461923
126	0x3d938acf	0.0720421
127	0x3dcd7692	0.10032381

gc2.fc.weight f4 [128, 128]
0	0xbd9108c0	-0.07081747
1	0x3d3ad684	0.045614734
2	0x3d280df5	0.041028935
3	0x3d59004c	0.0529788
4	0xbc7f9bed	-0.01560114
5	0xbbd0d89c	-0.006373478
6	0xbd8d93b3	-0.06912937
7	0x3d246716	0.040137373
8	0x3d65a16c	0.056062147
9	0x3d532bd7	0.05155548
10	0x3d3cc107	0.046082523
11	0x3d71f066	0.059067152
12	0x3e0d542d	0.13801642
13	0x3d0d18db	0.034447532
14	0x3d249539	0.040181372
15	0x3d09854e	0.033574395
16	0xbd378240	-0.04480195
17	0x3d58c489	0.052921806
18	0x3d353d0a	0.044247665
19	0xbd59f12a	-0.053208508
20	0xbd5cd31a	-0.05391226
21	0xbd2df7f6	-0.042472802
22	0xbd5e8cf1	-0.05433363
23	0x3d2e9b0e	0.04262834
24	0x3d9f3808	0.07774359
25	0xbc2b85a3	-0.010468873
26	0x3d2fa2a1	0.042879704
27	0x3bce773a	0.006300834
28	0x3c949ac1	0.018140199
29	0xbd021b03	-0.03176404
30	0xbd2e2f53	-0.0425256
31	0xbd0a5714	-0.03377445
32	0x3dba4048	0.09094292
33	0x3cdb8d49	0.026800768
34	0xbd5754e9	-0.05257121
35	0x3cf9c84d	0.030491019
36	0xbdd79c27	-0.105278306
37	0xbc151c44	-0.009100977
38	0x3d90671d	0.07050917
39	0x3be62bf2	0.0070242817
40	0x3cbf3605	0.023341188
41	0xbdb558b6	-0.08854811
42	0xbc05e334	-0.008171845
43	0x3d3a0db3	0.04542322
44	0xbd602526	-0.054722928
45	0xbd2a7352	-0.041613884
46	0x3d8941f4	0.06702033
47	0x3ce73958	0.028225586
48	0x3d8b9afa	0.06816669
49	0xbd6f20c4	-0.058380857
50	0x3d97548e	0.073891744
51	0x3b868006	0.004104617
52	0x3d0d2079	0.034454796
53	0x3dab2bb0	0.08357942
54	0xbd8ec77e	-0.06971644
55	0x3d181f90	0.037139475
56	0xbd1f9565	-0.038960833
57	0x3d78c527	0.060734894
58	0x3d24a93c	0.040200457
59	0x3c8f5b4c	0.017499588
60	0xbcd86729	-0.026416378
61	0x3d73caa9	0.059519444
62	0xbd11603f	-0.035492178
63	0x3cdabb4f	0.026700644
64	0x3db060b9	0.086121984
65	0xbd7113cd	-0.058856774
66	0xbc93577d	-0.017986054
67	0x3d6fb4df	0.0585221
68	0x3cd1a503	0.025591379
69	0x3bd6e51e	0.0065580746
70	0x3d875947	0.06608825
71	0xbc7716be	-0.015081106
72	0x3cb02220	0.021500647
73	0x3d56cce7	0.052441504
74	0xbc018426	-0.007905042
75	0x3d70a85e	0.058754317
76	0x3d77d317	0.060504045
77	0x3d9c2db5	0.076259054
78	0xbb8ad5f2	-0.00423693
79	0x3daa4a17	0.08314913
80	0xbcc4f7d6	-0.024043959
81	0x3d32cd16	0.043652616
82	0x3d203030	0.039108455
83	0x3d8d38e8	0.0689562
84	0xbd964495	-0.073373
85	0x3cceb404	0.025232323
86	0xbd04bc64	-0.032406226
87	0x3d9b4d26	0.07583074
88	0x3d18580a	0.037193336
89	0xbdab8608	-0.08375174
90	0x3b5b3ee0	0.0033454224
91	0x3d0fe78c	0.03513293
92	0x3d350be7	0.044200804
93	0x3dd231b4	0.10263386
94	0x3d2e65d7	0.04257759
95	0x3c73a01c	0.014869716
96	0x3d98293b	0.07429739
97	0xbdbe36e7	-0.092878155
98	0x3d6f2128	0.05838123
99	0xbca9ff87	-0.020751728
100	0x3ddd1ab5	0.107961096
101	0x3ccc3afe	0.024930473
102	0x3c55f95c	0.01305994
103	0x3d78388b	0.0606008
104	0xbd3b5e94	-0.045744494
105	0x3cf17289	0.02947356
106	0x3cedc344	0.029023774
107	0xbcf08794	-0.029361524
108	0x3c9935bc	0.01870238
109	0xbdc068d8	-0.09394997
110	0xbd1749c5	-0.036935586
111	0x3d9b5ae3	0.07585695
112	0x3d6f44bc	0.05841516
113	0xbda63115	-0.081148304
114	0x3d19e014	0.037567213
115	0x3cde6c0e	0.027151134
116	0x3dc8ba2a	0.09801133
117	0xbdabaae1	-0.08382202
118	0xbc9753df	-0.01847261
119	0xbd3247c5	-0.043525476
120	0xbd5700b3	-0.0524909
121	0x3b37d8de	0.0028052847
122	0xbd8b7e21	-0.068111666
123	0x3d931744	0.07182172
124	0xbcad6f9c	-0.021171384
125	0x3d2e9dd9	0.042631004
126	0xbd1c2c64	-0.03812827
127	0x3ca61b65	0.020276735
128	0xbdabf2cc	-0.08395919
129	0x3d8c837a	0.06861015
130	0x3dbd264b	0.092358194
131	0x3d9feca4	0.078088075
132	0x3aa8a68a	0.0012867015
133	0x3d5976d1	0.053091828
134	0xbd765f8b	-0.06014971
135	0x3d9290ca	0.071565226
136	0x3c3f27fa	0.011667246
137	0xbd8e108a	-0.06936748
138	0xbd809660	-0.06278682
139	0xbd98116b	-0.07425197
140	0x3c714dbc	0.014728006
141	0xbccb03e9	-0.024782138
142	0xbd4ccfad	-0.050002743
143	0x3dbffadb	0.09374019
144	0xbd2f7e2b	-0.042844933
145	0x3d264677	0.040594544
146	0x3bbde88e	0.005795545
147	0x3d3a5bc8	0.045497686
148	0xbd4539a9	-0.048150692
149	0x3d8ae0e1	0.067811735
150	0xbb392dea	-0.0028256127
151	0xbd6b8232	-0.05749721
152	0x3db79aa8	0.08965045
153	0xbc8134dd	-0.015772277
154	0xbd7d0b88	-0.061778575
155	0x3c930d40	0.017950654
156	0xbc9d1025	-0.019172737
157	0xbd9962e9	-0.07489569
158	0xbca0a5d4	-0.019610323
159	0xbc677219	-0.014126324
160	0xbd36f009	-0.04466251
161	0xbd13b8d0	-0.036064923
162	0xbcb81f12	-0.022475753
163	0xbd350cfb	-0.044201832
164	0xbd15d0e3	-0.036576163
165	0x3d86902f	0.065704696
166	0xbd79daeb	-0.060999792
167	0xbd068ae0	-0.032847285
168	0xbda3fddf	-0.080074064
169	0xbc756621	-0.014977963
170	0xbc74b4a3	-0.014935645
171	0xbd66efb9	-0.05638096
172	0x3d2ae2c4	0.041720167
173	0xbdc6b3ff	-0.097023
174	0x3db6674d	0.08906422
175	0x3cd85108	0.026405826
176	0xbcbd8ea6	-0.02313931
177	0xbd8992c8	-0.067174494
178	0x3cf99948	0.030468598
179	0x3d62b9fb	0.055353146
180	0xbdc85897	-0.09782522
181	0xbd00c3ef	-0.031436857
182	0x3d9fd50d	0.07804308
183	0xbd2f6fa9	-0.042831097
184	0xbda8366b	-0.082135044
185	0xbd1c3d91	-0.03814465
186	0xbbd102dd	-0.006378515
187	0xbc0e108a	-0.008670935
188	0xbd7c6186	-0.061616443
189	0xbd849766	-0.064741895
190	0x3b012afa	0.0019709454
191	0x3d0bb7a5	0.034110684
192	0x3dc0df2f	0.09417569
193	0xbc2862e0	-0.01027748
194	0x3d253ea8	0.040342957
195	0xbc391ec9	-0.011298844
196	0x3c9cbe7d	0.0191338
197	0x3d993416	0.07480638
198	0x3ccccc70	0.024999827
199	0xbd419c5d	-0.04726826
200	0x3db17f2d	0.08666835
201	0xbdd345d0	-0.1031605
202	0xbc1bfec7	-0.009521193
203	0xbb79ef80	-0.0038137138
204	0xbd9df3a7	-0.077124886
205	0xbda690e3	-0.08133104
206	0xbd95494e	-0.072893724
207	0x3d08c13c	0.033387408
208	0xbc8cbd99	-0.017180251
209	0x3c97ea0a	0.018544216
210	0xbd27d25c	-0.0409721
211	0x3d3e8f15	0.046523172
212	0xbc924797	-0.017856402
213	0x3d40a932	0.047036357
214	0x3d4fd732	0.050742336
215	0xbdaa8c19	-0.08327503
216	0xbd474ccd	-0.048657227
217	0x3d36754e	0.044545464
218	0x3d7b5489	0.061359916
219	0xbdccf125	-0.10006932
220	0x3ba0def9	0.004909393
221	0xbd1dca75	-0.038523156
222	0x3d890324	0.06690052
223	0x3d86516b	0.06558498
224	0x3e37c37d	0.17945667
225	0xbd8e37fb	-0.06944271
226	0xbc91bfa0	-0.01779157
227	0x3ddd4926	0.108049676
228	0xbd0cd38a	-0.034381427
229	0x3ce1e2c8	0.027573958
230	0xbd4e0e83	-0.05030681
231	0xbd9a84fa	-0.075448945
232	0xbcbfd404	-0.023416527
233	0xbbcd5cf7	-0.006267186
234	0xbb85031f	-0.00405921
235	0xbdbe34b2	-0.092873946
236	0xbb8f62ef	-0.0043758075
237	0x3bc97cd4	0.006148914
238	0xbd5e8552	-0.054326363
239	0x3d424d0c	0.04743676
240	0xbd87f495	-0.06638447
241	0x3b22466e	0.0024761218
242	0xbd765eaf	-0.06014889
243	0x3cdccbd6	0.026952665
244	0xbc0515e9	-0.0081229
245	0x3dc2edb5	0.09517995
246	0x3db50b69	0.08840067
247	0x3d441d74	0.04787965
248	0x3d28c7dc	0.041206226
249	0xbd676fe3	-0.056503188
250	0x3d7fd016	0.062454306
251	0x3d8c4dd8	0.06850785
252	0xbda6c8bf	-0.08143758
253	0xbd99fc03	-0.075187705
254	0x3d7c5ab1	0.061609928
255	0xba7f3678	-0.00097355945

gc2.fc.bias f4 [128]
0	0xbcea1739	-0.028575527
1	0x3c42673e	0.011865435
2	0xbc06a2b2	-0.0082175005
3	0xbd3dd5c6	-0.04634645
4	0x3c0b9846	0.008520192
5	0x3c94f35f	0.018182455
6	0xbcedd26c	-0.029031001
7	0xbccb93a7	-0.02485068
8	0x3d4167aa	0.047218002
9	0xbd4a2ce8	-0.049359232
10	0x3b6ac3aa	0.0035822191
11	0x3da7ed4b	0.08199557
12	0xbcb49366	-0.022042941
13	0xbd5e8b53	-0.05433209
14	0xbd1ded9f	-0.03855669
15	0xbd5d1359	-0.05397353
16	0x3d97c027	0.07409697
17	0xbd3f35d7	-0.046682205
18	0x3d28f3ee	0.041248254
19	0x3d344e9a	0.044020273
20	0xbc827013	-0.015922582
21	0x3d08569a	0.033285715
22	0x3db42cff	0.08797645
23	0x3bbf0224	0.0058291126
24	0x3d2ebe5b	0.042662006
25	0xbcc3854e	-0.023867276
26	0x3dadef49	0.08492906
27	0xbd885d0f	-0.066583745
28	0x3bc83e17	0.0061109173
29	0x3bf28016	0.007400523
30	0xbd61dd9e	-0.05514299
31	0xbd54fb5f	-0.05199754
32	0x3d8bba3c	0.06822631
33	0xbd560ece	-0.052260213
34	0x3c898433	0.01678667
35	0x3dbb5262	0.09146573
36	0xbd5d02b1	-0.053957645
37	0x3dd5efa6	0.104461
38	0x3dabca18	0.08388156
39	0x3ba7ae94	0.005117247
40	0x3d45b760	0.048270583
41	0xbbd1cbee	-0.006402484
42	0xbbc914dd	-0.0061365203
43	0x3d697c8e	0.05700355
44	0x3cfc3074	0.030784823
45	0x3d20978c	0.039207026
46	0x3dcdaba6	0.10042505
47	0xba1cb93c	-0.000597853
48	0xbae2187a	-0.0017249726
49	0xbd84f6b6	-0.06492369
50	0xbd860c34	-0.06545296
51	0xbd138c19	-0.03602228
52	0xbd0c3998	-0.034234613
53	0x3dc1847d	0.09449098
54	0xbc06943e	-0.008214055
55	0x3bdc03a9	0.0067143035
56	0x3d977075	0.07394496
57	0xbd184188	-0.03717187
58	0x3cbb7152	0.022881184
59	0xbd8248a0	-0.06361508
60	0x3d9810aa	0.074250534
61	0xbdb6913d	-0.08914421
62	0x3d94ed3a	0.0727181
63	0xbbded9a4	-0.006800847
64	0xbd3e0671	-0.04639286
65	0xbc1353fd	-0.008992192
66	0xbd61df84	-0.0551448
67	0xbc5b36e5	-0.013379787
68	0x3da4d570	0.080485225
69	0x3dc8c979	0.09804053
70	0x3d7310b4	0.0593421
71	0xbd3d59e4	-0.046228305
72	0xbc396985	-0.011316662
73	0x3d5a0983	0.053231727
74	0xbd81b576	-0.06333439
75	0xbd7c1e85	-0.061552543
76	0xbdaf293c	-0.08552787
77	0x3dba0e87	0.09084802
78	0x3d3c1fbe	0.04592871
79	0xbd1fa8f6	-0.038979493
80	0xbc956547	-0.01823677
81	0x3d126c5f	0.035747882
82	0x3d7df99c	0.062005624
83	0x3cf5b960	0.02999562
84	0x3d5dda67	0.054163363
85	0x3cec1f7f	0.028823612
86	0xbbbcd2bd	-0.0057624266
87	0x3d4abbfd	0.049495686
88	0x3d91a3f3	0.07111349
89	0x3b329018	0.002724653
90	0x3caa501b	0.02079015
91	0xbd3ac83d	-0.04560112
92	0xbd3a2101	-0.04544163
93	0xbd8d5cbc	-0.06902453
94	0x3d2e4245	0.04254367
95	0xbcc42028	-0.023941115
96	0x3d4a1868	0.049339682
97	0x3c1db3dd	0.009625402
98	0x3d417d5a	0.047238685
99	0xbd4f925e	-0.050676696
100	0x3db09bdd	0.086234786
101	0xbd9df687	-0.07713037
102	0xbc851286	-0.016244184
103	0x3bd19596	0.006396006
104	0x3cf61d8c	0.030043386
105	0x3bd99a39	0.006640699
106	0xbd9d073b	-0.07667395
107	0xbd4c27bb	-0.049842577
108	0xbd39171a	-0.045188047
109	0x3dda5739	0.10661168
110	0x3d0b7747	0.0340493
111	0x3d50ebd6	0.05100616
112	0xbcff7f98	-0.031188771
113	0x3d996f9c	0.07491991
114	0xbd1b7386	-0.03795197
115	0x3d2ed0b6	0.04267951
116	0x3d3d54c8	0.04622343
117	0x3dcd67f7	0.10029595
118	0x3d181494	0.037129
119	0x3c0eb99e	0.008711247
120	0x3dbc65d5	0.091991104
121	0x3da1da67	0.07902985
122	0xbd1f92c9	-0.038958345
123	0xbc8c75d3	-0.017146027
124	0x3d9fedfd	0.078090645
125	0xbc7be4f3	-0.01537441
126	0xbb816f28	-0.0039500184
127	0xbb944a1d	-0.0045254366

temporal_conv.weight f4 [128, 128, 3]
0	0x3cbe7d71	0.023253174
1	0xbd529091	-0.0514074
2	0x3ceef92f	0.029171554
3	0xbaaf4b89	-0.0013373952
4	0x3c937bde	0.0180034
5	0xbd1e65d0	-0.038671315
6	0xbc3127c8	-0.010812707
7	0x3d0fbce2	0.035092242
8	0xbcbb384a	-0.02285399
9	0x3b8eddbe	0.00435993
10	0x3ba115e0	0.004915938
11	0xbcead4e9	-0.028665977
12	0x3d294d45	0.041333456
13	0xbd694694	-0.056952074
14	0x3bb9538e	0.0056557124
15	0xbc8e3174	-0.017357565
16	0x3d1c3053	0.038132023
17	0x3cf7f97d	0.030270332
18	0xbd404a9e	-0.04694616
19	0xbc3a4b98	-0.011370562
20	0x3d3c8beb	0.046031874
21	0x3b99d305	0.004694345
22	0x3ccd31b8	0.025048122
23	0xbd2a58f0	-0.041588724
24	0xbcadd120	-0.021217883
25	0xbd6b3b3b	-0.057429533
26	0xbd169bef	-0.036769804
27	0xbd2d7e04	-0.042356506
28	0xbc6ec656	-0.014573654
29	0x3bd9e775	0.0066499063
30	0xbd4c1043	-0.049820196
31	0xbc926bdb	-0.017873695
32	0xb9073006	-0.00012892493
33	0x3d31cb4e	0.043406777
34	0xbcb3d5a1	-0.021952452
35	0xbd092da4	-0.033490792
36	0x3aa90afc	0.001289695
37	0xbb4aa3af	-0.0030920317
38	0x39ed87c5	0.0004530532
39	0xbc8ba31e	-0.017045554
40	0xbc141a46	-0.009039467
41	0x3d21ce95	0.039503653
42	0xbd41c147	-0.047303464
43	0x3c6254ba	0.013814146
44	0xbcb43133	-0.021996116
45	0x3c729b1f	0.014807492
46	0xbcdb5dd2	-0.026778135
47	0xbd23558b	-0.039876502
48	0x3caf3728	0.021388605
49	0x3c67d4fe	0.014149902
50	0x3cccdb32	0.025006864
51	0xbca24bc3	-0.019811517
52	0x3c0e2d38	0.008677773
53	0x3d15f1c7	0.03660753
54	0x3cfcfb42	0.030881528
55	0x3cd1590f	0.025555162
56	0xbc2b150f	-0.0104420325
57	0xbd0a3190	-0.033738673
58	0xbb4aea91	-0.0030962566
59	0xbd0c2acd	-0.034220506
60	0xbcb5a253	-0.022172129
61	0xba4ab031	-0.0007731943
62	0x3c946336	0.018113714
63	0xbc522ab3	-0.012827563
64	0x3c43fb30	0.011961743
65	0xbd32b320	-0.04362786
66	0x3c85d140	0.01633513
67	0xbd08a3af	-0.033359226
68	0xbd2aeff8	-0.04173276
69	0xbb12a3a6	-0.0022375374
70	0x3d195e83	0.03744365
71	0x3bf30092	0.0074158395
72	0x3c259b35	0.010107805
73	0xbc746642	-0.014916958
74	0x3b33849d	0.0027392276
75	0xbb8519f3	-0.0040619313
76	0xbd03d5e4	-0.032186404
77	0x3d29626f	0.04135364
78	0xbd2265f2	-0.039648004
79	0x3c979649	0.018504279
80	0x3d0cc4da	0.03436742
81	0xbd0b0fba	-0.033950545
82	0x3d1657ff	0.036705013
83	0x3ca8be42	0.020598534
84	0x3d169caf	0.03677052
85	0x3c50cbe7	0.012743927
86	0xbcf5c489	-0.030000942
87	0x3d002cb4	0.031292632
88	0x3d28e39d	0.041232694
89	0x3d0022f5	0.031283338
90	0x3c926f0b	0.017875215
91	0x3bfb5ba2	0.0076708356
92	0x3b6766df	0.0035309119
93	0x3d35487b	0.044258576
94	0xbcfc797f	-0.030819653
95	0x3c3c2cf8	0.011485331
96	0xbc12e08f	-0.008964672
97	0x3d1cdf44	0.03829886
98	0x3cee5492	0.02909306
99	0xbd19eea4	-0.0375811
100	0x3c8d16fe	0.017222878
101	0xbc87e002	-0.016586307
102	0x3ce48d4b	0.027899405
103	0xbd4f830d	-0.05066209
104	0xbd3cadd2	-0.046064205
105	0x3c86da2f	0.01646146
106	0xbca811cb	-0.020516297
107	0x3c57c215	0.013168831
108	0x3d0db948	0.034600526
109	0xbd3078f5	-0.043084104
110	0xbbd2bd18	-0.006431233
111	0xbcd1d9fe	-0.025616642
112	0x3ca43d75	0.020048836
113	0xbc9e5452	-0.019327316
114	0x3d119dfa	0.03555105
115	0xbbbf012b	-0.0058289967
116	0x3c71b92e	0.014753623
117	0xbd06693f	-0.032815214
118	0xbc1d1961	-0.00958857
119	0xbd3b5406	-0.045734428
120	0xbcfc74bd	-0.030817384
121	0xbcb8b693	-0.022547996
122	0xbd2f52ac	-0.04280345
123	0xbc0af679	-0.008481615
124	0x3c969857	0.018383188
125	0xbcf7554f	-0.030192045
126	0xbb6194a9	-0.0034420884
127	0x3d1c4020	0.038147092
128	0xbcfcde4a	-0.030867714
129	0x3beb054e	0.007172263
130	0xbc966bce	-0.018361952
131	0x3d2dd838	0.04244253
132	0xbc4c947c	-0.012486573
133	0x3d0c2835	0.034218032
134	0xbc893381	-0.016748192
135	0xbd410673	-0.04712529
136	0xbbc79425	-0.0060906583
137	0xbcf94fc1	-0.030433537
138	0xbd123fa7	-0.035705235
139	0x3ce50f29	0.02796133
140	0x3d410c29	0.047130737
141	0xbd092192	-0.03347928
142	0xbd4ff387	-0.050769355
143	0x3c7d43f4	0.015458096
144	0xbd485023	-0.04890455
145	0xbca83d6f	-0.020537106
146	0x3cad6e6f	0.021170823
147	0x3c95001e	0.018188532
148	0x3bf642e1	0.007515297
149	0x3cb7ca4c	0.02243533
150	0xbd0d31d3	-0.034471344
151	0xbcb6fed7	-0.022338314
152	0xbc88ace9	-0.016684012
153	0xbd505c74	-0.05086942
154	0xbceeaab6	-0.029134136
155	0x3bdd85fa	0.006760356
156	0x3bc25f87	0.005931798
157	0xbcf41232	-0.029793832
158	0x3d112889	0.035439048
159	0xbd128bde	-0.03577792
160	0xbba5103c	-0.0050373357
161	0x3d348af0	0.044077814
162	0x3ce3b404	0.0277958
163	0x3d2cf0fa	0.042222
164	0x3c688e5e	0.014194099
165	0xbd2f58e7	-0.042809393
166	0xbccc65db	-0.024950912
167	0xbc6fe990	-0.014643088
168	0xbd335ad8	-0.043787807
169	0xbcd146f6	-0.025546532
170	0xbd43d924	-0.047814503
171	0xbcc5347c	-0.024072878
172	0xbd507405	-0.050891895
173	0x3d4c5543	0.049886
174	0x3a06c277	0.0005140672
175	0x3d27f838	0.041008204
176	0x3cee97d7	0.029125137
177	0x3d2d2e68	0.042280585
178	0xbcbbf149	-0.022942202
179	0xbcc5a2d0	-0.024125487
180	0xbcece688	-0.02891852
181	0xbd5d496a	-0.05402509
182	0xbb46dee9	-0.0030345267
183	0x3bf5e53c	0.0075041335
184	0x3cee2190	0.029068738
185	0xbc1e2af6	-0.009653797
186	0x3c0d130c	0.008610498
187	0x3c60e0c5	0.013725464
188	0x3c2aa8a4	0.010416184
189	0x3bb3122a	0.005464812
190	0xbcd77edb	-0.026305607
191	0x3ce36f0c	0.027762912
192	0xbd4af300	-0.04954815
193	0x3bc56401	0.0060238843
194	0x3cdd1fc6	0.02699269
195	0x3cca8263	0.024720376
196	0x3c78e702	0.015191795
197	0xbbfe10ff	-0.007753491
198	0x3cf8f16b	0.030388555
199	0xbd5e6116	-0.054291807
200	0xbc2ef187	-0.010677702
201	0xbccffeb4	-0.025390007
202	0x3ccb0e45	0.024787078
203	0x3d37b818	0.0448533
204	0xbc9cd6a4	-0.019145317
205	0x3b94a67c	0.004536448
206	0xbbf1af34	-0.007375622
207	0xbca91ad5	-0.020642677
208	0x3c682d6d	0.014170987
209	0x3c44b91a	0.012007022
210	0xbd03e7db	-0.032203536
211	0x3b5fff39	0.0034179224
212	0x3d3ccc41	0.04609323
213	0xbd2b1d3b	-0.041775923
214	0xbc691893	-0.01422705
215	0xbd398c0e	-0.045299582
216	0xbc9aa212	-0.01887611
217	0x3d2d250f	0.04227167
218	0x3d07f2c4	0.033190504
219	0xbd5d8c80	-0.05408907
220	0xbd5396d1	-0.0516575
221	0x3b0663e7	0.0020506324
222	0xbc528f96	-0.012851616
223	0x3d00a8d5	0.03141101
224	0xbc668543	-0.014069858
225	0x3d1e86d2	0.038702793
226	0xbcf73cb0	-0.030180305
227	0xbc185688	-0.009297974
228	0xbbe548ba	-0.006997195
229	0xbd03dd96	-0.032193743
230	0x3b0deb0a	0.0021654987
231	0xbc97d48d	-0.01853397
232	0xbd0213a6	-0.03175702
233	0xbd248084	-0.040161625
234	0xb8acc741	-8.238713e-05
235	0x3d428661	0.047491435
236	0x3ca2448e	0.01980808
237	0xbd1fdea8	-0.0390307
238	0xbcd32b63	-0.025777524
239	0x3d094af4	0.033518746
240	0xbcbc8d04	-0.02301646
241	0xbc15a81d	-0.00913432
242	0xbcc490cd	-0.023994828
243	0x3c89c10e	0.016815688
244	0xbd2c245b	-0.04202686
245	0xbd461eeb	-0.04836933
246	0xbd3ab7d5	-0.045585472
247	0xbd55b86e	-0.05217784
248	0x3ba0c798	0.004906606
249	0x37fa8fc9	2.9869278e-05
250	0xbcc4e32b	-0.024034103
251	0x3cad451c	0.021151118
252	0xbb383d54	-0.0028112726
253	0x3b9b7afe	0.0047448864
254	0x3cda070f	0.026614694
255	0x3b2f2ca6	0.0026729493

temporal_conv.bias f4 [128]
0	0xbd106597	-0.035253134
1	0x3d848656	0.06470935
2	0x3b951b82	0.0045503983
3	0xbcecbc17	-0.028898282
4	0x3c280b80	0.010256648
5	0xbd39203b	-0.045196753
6	0xbd0e2ff2	-0.034713693
7	0xbc512f1b	-0.0127675785
8	0xbc2b3137	-0.010448745
9	0xbcae775d	-0.021297151
10	0xbce7ddbe	-0.028303977
11	0xbbc0935f	-0.005876943
12	0x3d134a1d	0.03595935
13	0x3d7d2952	0.061806984
14	0x3cc60349	0.024171488
15	0xbcced0f5	-0.025246123
16	0x3cdf1a14	0.027234115
17	0xbcf56c14	-0.029958762
18	0x3cac5632	0.021037195
19	0x3b363ffa	0.002780913
20	0x3c9e3533	0.019312477
21	0x3c8d039e	0.017213639
22	0x3d164fc1	0.036697153
23	0x3d178ad3	0.036997627
24	0xbd36576e	-0.044516973
25	0x3d303de8	0.04302779
26	0xbc4fe20b	-0.01268817
27	0x3cad5f60	0.021163642
28	0xbcec4bcf	-0.028844742
29	0x3d43db72	0.0478167
30	0x3d2a479a	0.04157219
31	0xbc0780f6	-0.008270493
32	0x3d2b66a5	0.041845936
33	0x3ce618d2	0.028088007
34	0x3b9bb429	0.0047517014
35	0xbd031c27	-0.03200927
36	0x3c022127	0.007942474
37	0xbc52c3bb	-0.012864049
38	0x3d5c2a9d	0.053751577
39	0xbb210d1d	-0.0024574467
40	0xbd29478e	-0.041328005
41	0xbacc5b1f	-0.0015591121
42	0xbba11e03	-0.0049169078
43	0x3d763c4e	0.060116105
44	0x3d18b3a5	0.037280697
45	0x3c10aac5	0.008829777
46	0xbd4e0e05	-0.05030634
47	0xbd1d09f8	-0.038339585
48	0x3d5e15d8	0.05422005
49	0x3b8d0dc2	0.0043046186
50	0xbbefbf3f	-0.0073164995
51	0x3bca77ae	0.0061788177
52	0x3d84b6d5	0.06480185
53	0x3c478934	0.012178708
54	0x3d366ec4	0.044539228
55	0x3cf6adab	0.030112108
56	0x3c927596	0.017878335
57	0x3cdaffa2	0.026733223
58	0xb72e7292	-1.0397884e-05
59	0x3c8c4116	0.01712088
60	0x3c0a8c95	0.008456369
61	0xbc621e96	-0.013801238
62	0x3b24bf4a	0.0025138431
63	0xbcedf2cf	-0.029046444
64	0xbd159ea4	-0.036528245
65	0x3d123ac3	0.03570057
66	0x3d0a92cc	0.033831403
67	0x3d6367dc	0.05551897
68	0x3d1b283f	0.03788018
69	0x3cfac973	0.030613637
70	0x3c7f3542	0.0155766625
71	0x3cdd318e	0.027001169
72	0x3d831cf8	0.0640201
73	0x3d84154c	0.064493746
74	0x3bdeaab8	0.0067952536
75	0xbcce398b	-0.025173923
76	0x3d355b21	0.04427636
77	0x3d23838e	0.039920382
78	0x3cbbee01	0.022940638
79	0x3d5e2054	0.05423005
80	0x3d186266	0.037203215
81	0xbce3d0cb	-0.027809521
82	0x3d8a486f	0.06752097
83	0xbce18ea5	-0.027533839
84	0x3c7f364a	0.015576908
85	0xbd80648e	-0.06269179
86	0x3d012f56	0.031539284
87	0xbbd2541a	-0.006418717
88	0x3caa3898	0.02077894
89	0xbc819b9f	-0.015821276
90	0x3bb1ba26	0.005423802
91	0x3d78cf2d	0.060744453
92	0xbd221b41	-0.039576773
93	0x3d6d63b6	0.05795642
94	0xbd6a7323	-0.05723871
95	0xbd4b47a1	-0.049628858
96	0xbd55caae	-0.052195244
97	0x3d087e95	0.033323843
98	0x3cc1ae7d	0.023642773
99	0xbc432c82	-0.011912467
100	0x3c880809	0.016605394
101	0xbcafd4e3	-0.021463817
102	0xbd23d571	-0.039998475
103	0x3b2f262e	0.0026725638
104	0xbca08e20	-0.01959902
105	0xbcced23b	-0.02524673
106	0xbaf3adf1	-0.0018591267
107	0xbc5a733d	-0.013333139
108	0xbc96ed5a	-0.018423725
109	0x3d0a7ba6	0.033809327
110	0x3d32f8ec	0.04369442
111	0x3cc6acea	0.024252374
112	0xbd0f638c	-0.035007045
113	0x3ca81ecd	0.0205225
114	0x3d340bcd	0.043956567
115	0xbcf013fb	-0.029306402
116	0x3d4e1315	0.050311167
117	0x3c63e760	0.013910145
118	0xbcc085e1	-0.023501338
119	0x3d0e8dbf	0.03480315
120	0x3c69edb3	0.014277863
121	0xbd1cd176	-0.038285695
122	0xba8a2bbd	-0.00105416
123	0x3d082dd4	0.03324683
124	0x3d210ee7	0.039320853
125	0x3d5fefad	0.054671932
126	0xbcd9db56	-0.026593845
127	0x3d935425	0.07193784

fc.weight f4 [30, 128]
0	0x3d12b202	0.035814293
1	0x3c79e742	0.01525289
2	0xbc38913d	-0.011265096
3	0xbc5b5e80	-0.01338923
4	0xbdc001f5	-0.09375373
5	0x3d0fcad5	0.035105545
6	0x3daaf013	0.08346572
7	0x3cc20a57	0.023686571
8	0x3d5f68ea	0.054543413
9	0x3d89e402	0.06732942
10	0xbd83ab52	-0.06429161
11	0xbd4809b6	-0.048837386
12	0xbc9239f7	-0.017849905
13	0x3d6ddb93	0.05807073
14	0x3db0df4f	0.08636343
15	0x3da11a4e	0.07866345
16	0x3d09936a	0.03358785
17	0x3d801cf7	0.062555246
18	0x3e01f55e	0.12691256
19	0x3d03af7a	0.03214977
20	0xbc1768cd	-0.009241295
21	0xbce23c52	-0.027616654
22	0xbc2854ee	-0.010274155
23	0x3de77127	0.11300879
24	0xbdc81db8	-0.097712934
25	0x3c3e3b19	0.01161077
26	0x3c4faa7d	0.012674925
27	0xbcd8b57d	-0.026453728
28	0xbdc2c3d3	-0.09510007
29	0xbda84ad9	-0.08217401
30	0xbc581213	-0.013187903
31	0xbd90c89d	-0.07069514
32	0x3d021330	0.03175658
33	0xbdc38591	-0.0954696
34	0xbccc3873	-0.02492926
35	0x39e86e63	0.00044332733
36	0x3cf5b433	0.029993152
37	0x3d982ca4	0.074303895
38	0x3dbb6e26	0.091518685
39	0xbcdee26e	-0.02720758
40	0xbdcd15d2	-0.100139275
41	0xbcc4310f	-0.023949174
42	0x3ccf5613	0.025309598
43	0x3cfddf50	0.030990273
44	0x3dab85ac	0.08375105
45	0xbdcedc12	-0.10100569
46	0xbca3903a	-0.019966234
47	0x3d82c112	0.063844815
48	0x3d9a3837	0.075302534
49	0xbcbef215	-0.023308793
50	0x3ca0b0cb	0.019615551
51	0x3db52e2a	0.08846696
52	0xbb904ee8	-0.0044039376
53	0x3bf9cc56	0.0076232357
54	0x3b33858c	0.0027392833
55	0xbd55f908	-0.052239448
56	0xbdd5743a	-0.10422559
57	0x3d84b982	0.06480695
58	0x3c629c7d	0.013831255
59	0xbdb55d14	-0.08855644
60	0x3c05b298	0.008160256
61	0xbd0ffcab	-0.035153072
62	0x3d996689	0.0749026
63	0xbd47587f	-0.04866838
64	0x3d955c6c	0.07293019
65	0x3d4dac1b	0.05021296
66	0x3aea6ea7	0.001788576
67	0x3c5097e6	0.012731528
68	0x3d225465	0.039631266
69	0x3d58864b	0.052862447
70	0xbd6c17cd	-0.057639886
71	0xbc1b3c2a	-0.009474793
72	0xbdc183f4	-0.09448996
73	0x3d2b24e2	0.04178322
74	0xbd701f34	-0.058623508
75	0x3d86c88d	0.06581221
76	0xbd3355f4	-0.043783143
77	0x3df921f6	0.12164681
78	0x3d7e44eb	0.062077444
79	0xbdc6c8d3	-0.09706273
80	0x3aa5db34	0.0012653829
81	0x3d32d01a	0.043655492
82	0xbd9681b4	-0.07348958
83	0xba38dff9	-0.00070524175
84	0x3d1784ce	0.036991887
85	0x3d3aa145	0.045563955
86	0xbdd96100	-0.106142044
87	0xbc8c47ae	-0.017124023
88	0x3d013b36	0.03155061
89	0xbd2cf5f7	-0.042226758
90	0xbd93c6d1	-0.072156556
91	0xbd8c8610	-0.06861508
92	0x3cd744a9	0.026277857
93	0xbd352442	-0.04422403
94	0xbe160d38	-0.1465348
95	0x3d10e3a9	0.035373364
96	0xbc4486f2	-0.011995064
97	0x3b753729	0.0037416911
98	0x3d401a32	0.04689998
99	0xbd825762	-0.06364323
100	0xbc8b2e63	-0.016989892
101	0xbcc424b1	-0.023943277
102	0x3d558cac	0.05213611
103	0xbd33bf41	-0.043883566
104	0x3c911100	0.017708302
105	0xbd920f48	-0.07131821
106	0x3d8da79e	0.06916736
107	0x3ba93634	0.005163932
108	0xbca29690	-0.019847184
109	0xbdbd98b4	-0.092576414
110	0x3d4e7395	0.050403196
111	0x3d1d2b4a	0.03837136
112	0x3d624db2	0.055249877
113	0xbda33f69	-0.07971079
114	0xba872dc1	-0.0010313318
115	0xbd757d6a	-0.059934057
116	0xbd912b9e	-0.070883974
117	0xbdbb675a	-0.09150572
118	0x3d10696c	0.035256788
119	0xbd0a4e29	-0.033765946
120	0x3d4f53fc	0.050617203
121	0xbc6a286d	-0.014291865
122	0xbd04d9c7	-0.03243425
123	0x3cf473c5	0.02984036
124	0xbdce283f	-0.1006627
125	0xbd7b7424	-0.061390057
126	0x3cebbedd	0.028777534
127	0xbbbffccd	-0.0058589936
128	0xbc114bfd	-0.008868215
129	0xbc751973	-0.014959681
130	0x3c1d3ad9	0.00959655
131	0x3d40e1eb	0.047090452
132	0xbb946b9b	-0.004529429
133	0xbd0694e1	-0.032856826
134	0xbdcb84bf	-0.09937429
135	0x3c646c73	0.013941872
136	0x3cf45f80	0.029830694
137	0xbd7d54ac	-0.061848328
138	0xbd2764d3	-0.040867638
139	0xbd119415	-0.035541613
140	0x3dd9b488	0.10630137
141	0xbdd7cf60	-0.105376005
142	0x3d56d5bb	0.052449923
143	0xbd6c81d6	-0.05774101
144	0xbd981cf3	-0.074273966
145	0x3db9357e	0.09043406
146	0x3a9a3f23	0.0011768084
147	0x3cc8502c	0.024452291
148	0xbc35847b	-0.011078949
149	0xbd90b237	-0.07065242
150	0xbadfbfd1	-0.0017070716
151	0x3c7bf298	0.015377663
152	0x3dd353e0	0.10318732
153	0xbd66de95	-0.056364615
154	0x3d9ccd9c	0.076564044
155	0x3dbf70e5	0.09347705
156	0xbc243390	-0.010022059
157	0xbce8f708	-0.028438106
158	0x3dbde515	0.092722096
159	0x3cebe5ae	0.028796043
160	0xbdb94e4f	-0.09048139
161	0xbda9b30d	-0.08286104
162	0xbdb048f7	-0.08607667
163	0xbd51a369	-0.05118123
164	0x3c968bc1	0.018377187
165	0xbd87f980	-0.06639385
166	0x3db5f85f	0.08885264
167	0x3b92574c	0.004465973
168	0x3d1a54e0	0.0376786
169	0xbd864549	-0.06556184
170	0x3dbb52d1	0.09146655
171	0x3d34dd6f	0.044156488
172	0x3d6089ef	0.054819044
173	0x3d04ed32	0.03245277
174	0xbd87bf5e	-0.06628297
175	0x3d8481ad	0.06470046
176	0xbd23e123	-0.04000963
177	0xbd3eac40	-0.04655099
178	0x3d9653bf	0.07340192
179	0xbda76766	-0.081740186
180	0x3d123284	0.035692707
181	0xbd97dead	-0.07415519
182	0xbda2af56	-0.07943599
183	0x3d191392	0.03737218
184	0x3c6155a2	0.013753327
185	0x3dcbec6c	0.09957203
186	0x3d86c192	0.06579889
187	0xbdb6c1d5	-0.08923689
188	0x3d888278	0.0666551
189	0x3daaf76e	0.08347975
190	0xbc6ec0d8	-0.014572345
191	0x3cea72b9	0.028619157
192	0x3d6b342e	0.05742281
193	0xbda9da43	-0.08293583
194	0x3d2a70c8	0.041611463
195	0x3d9958cb	0.07487639
196	0xbda62e36	-0.08114283
197	0x3cedd13a	0.029030431
198	0x3d95cd52	0.07314552
199	0x3d13da7a	0.036097027
200	0xbc3520a9	-0.01105515
201	0x3ca32365	0.019914338
202	0x3d97e3e2	0.07416512
203	0x3d036b9c	0.032085046
204	0xbdae1bd4	-0.085014015
205	0xbd4fb37e	-0.050708286
206	0x3d8f76c3	0.07005074
207	0x3d71e063	0.059051882
208	0xbd80feb7	-0.06298583
209	0xbda0b3e9	-0.07846815
210	0x3d22b422	0.03972257
211	0x3dc299d7	0.09501999
212	0xbd571e9d	-0.05251943
213	0xbe096c0c	-0.13420123
214	0xbcae1ba8	-0.021253422
215	0xbbf8899c	-0.0075847637
216	0x3d2050ab	0.03913943
217	0x3d6a5eaa	0.057219185
218	0xbd68b5c1	-0.05681396
219	0x3cf8f6fc	0.030391209
220	0xbd65009f	-0.055908795
221	0x3ceb19ca	0.02869882
222	0xbd48278d	-0.048865844
223	0xbcbb2d97	-0.022848887
224	0x3c18376e	0.009290559
225	0x3bb885fc	0.0056312066
226	0x3cee6dd1	0.029105099
227	0xbca12372	-0.019670222
228	0x3c6718fe	0.01410508
229	0xbd66ae44	-0.056318536
230	0xbce03b0a	-0.027371902
231	0xbd6fd497	-0.05855235
232	0x3d3c2b20	0.045939565
233	0xbccf7cb7	-0.025328023
234	0x3caef16b	0.021355351
235	0xbd5b8ad5	-0.053599197
236	0x3d30744f	0.04307967
237	0xbdac0822	-0.08399989
238	0xbb313743	-0.0027040995
239	0xbdab8395	-0.08374707
240	0xbda67ec5	-0.08129648
241	0xbd7db6e3	-0.061941992
242	0x3dc38869	0.095475025
243	0x3d95c09c	0.07312128
244	0x3cf09973	0.029370045
245	0x3c196a55	0.00936373
246	0x3d816c1c	0.06319448
247	0xbd6cca3d	-0.057810057
248	0x3d88b1f1	0.06674565
249	0x3d0e5731	0.03475112
250	0x3d5bf500	0.053700447
251	0x3d104f9d	0.035232175
252	0xbc661ff7	-0.014045707
253	0xbd7975b5	-0.06090327
254	0xbcfe819d	-0.031067664
255	0xbc5cd56d	-0.013478619

fc.bias f4 [30]
0	0xbca2ca4a	-0.01987185
1	0x3d018a8c	0.03162627
2	0x3db29e96	0.08721654
3	0x3d97905d	0.07400582
4	0x3c6ce3bb	0.014458592
5	0x3d50da81	0.05098963
6	0xbc9e449b	-0.019319823
7	0x3d957bf7	0.07299035
8	0x3d5bb5f3	0.053640317
9	0xbcf56848	-0.029956952
10	0x3c19b8bf	0.009382426
11	0x3c36f973	0.011167872
12	0x3d6c7e29	0.057737503
13	0xbc1f958c	-0.009740245
14	0x3d7288de	0.059212558
15	0xbd5f8bfe	-0.054576866
16	0xbc7277b4	-0.014799047
17	0xbcb50f8b	-0.022102138
18	0xbcf3f7e0	-0.029781282
19	0xbda0abc4	-0.07845262
20	0x3d8fdb31	0.07024229
21	0xbdc82df5	-0.097743906
22	0xbd807569	-0.06272394
23	0x3b839924	0.0040160585
24	0x3cdf9553	0.027292883
25	0x3c0490ed	0.008091194
26	0xbb55e331	-0.0032636637
27	0x3cbafd22	0.022825781
28	0xbd9afe5f	-0.07568049
29	0xbd0c1988	-0.034204036
