GWN/best_model_w30_h2.pth (torch, 300619 bytes, 9 tensors)

adapt_adj f4 [30, 30]
00000000: 44d5 803f c477 d23b 1de4 d13b 5187 d23b
00000010: 81a9 d33b 368e d63b e10e d73b 245b d83b
00000020: 1b86 db3b e445 e13b 8dfe e73b dc7a ec3b
00000030: ad3e ef3b 8b02 f13b 72a0 f53b 09e4 f93b
00000040: 89a9 ff3b 0446 023c 88b7 043c 567f 073c
00000050: be07 0a3c e404 0c3c 1d29 0f3c 54d1 133c
00000060: 131e 1a3c b063 1e3c 02b9 223c 4688 273c
00000070: 2dfe 2d3c f606 3c3c 8455 cf3b e6cb 803f
00000080: bb47 cb3b 17fc cb3b 8715 cd3b 31e4 cf3b
00000090: 3f4c d03b a1a0 d13b 94d6 d43b caa3 da3b
000000a0: 6a4e e13b 6982 e53b 7c40 e83b c919 ea3b
000000b0: e580 ee3b d7d5 f23b 425a f83b f93f fd3b
000000c0: 241e 013c efe4 033c ac80 063c 9b86 083c
000000d0: 0eb0 0b3c 9f31 103c 6076 163c 32b5 1a3c
000000e0: e00f 1f3c 9dcc 233c ac2e 2a3c c326 383c
000000f0: 8299 d23b 6748 cf3b 24ce 803f 5f9a ce3b
00000100: 9db4 cf3b e6ae d23b 1527 d33b 5f74 d43b
00000110: 8e92 d73b a323 dd3b beac e33b 5208 e83b
00000120: 75c5 ea3b c891 ec3b dcdf f03b af26 f53b
00000130: e5d9 fa3b c1a0 ff3b aa43 023c f91d 053c
00000140: d0a2 073c fbad 093c 57b7 0c3c be4b 113c
00000150: 838c 173c ddb4 1b3c 7e05 203c 95d3 243c
00000160: e133 2b3c 4f44 393c 1dc6 d33b 3c79 d03b
00000170: cb83 cf3b 7fcf 803f d6ac d03b ae94 d33b
00000180: 370a d43b ec44 d53b 2e7b d83b ca19 de3b
00000190: 6ec9 e43b 3557 e93b 8525 ec3b fd1d ee3b
000001a0: 3291 f23b c7cf f63b faba fc3b 60c1 003c
000001b0: b029 033c 20fe 053c 6b91 083c b6a3 0a3c
000001c0: 3ad3 0d3c a749 123c 4087 183c 24b1 1c3c
000001d0: 0103 213c 87bb 253c 9a2d 2c3c 8650 3a3c
000001e0: f137 cf3b 300d cc3b 54f7 ca3b 1bcb ca3b
000001f0: 3ecb 803f 0828 ce3b 34bf ce3b 1122 d03b
00000200: d632 d33b 08fa d83b da84 df3b 6eea e33b
00000210: d1c4 e63b 1ecc e83b e379 ed3b df99 f13b
00000220: 6866 f73b 6d60 fc3b 1a84 003c c747 033c
00000230: f0ec 053c 1eef 073c 4306 0b3c e7a8 0f3c
00000240: 24e2 153c eb09 1a3c ae35 1e3c c0e2 223c
00000250: 453f 293c d646 373c ecbc d53b 3859 d23b
00000260: dd33 d13b e806 d13b a4a1 d13b 16d4 803f
00000270: 129a d43b 7c46 d63b eda6 d93b 9887 df3b
00000280: 2d46 e63b deb2 ea3b 1790 ed3b 2c70 ef3b
00000290: f61a f43b 4f82 f83b e973 fe3b 49b3 013c
000002a0: ed38 043c 2d0f 073c a1ac 093c 75d5 0b3c
000002b0: 9c1f 0f3c d1b8 133c 9b15 1a3c 6648 1e3c
000002c0: e483 223c 9d4b 273c 50bc 2d3c 59e5 3b3c
000002d0: caf4 d33b eac7 d03b 82b0 cf3b 42ca cf3b
000002e0: e04c d03b 2df8 d23b 31d3 803f 63b3 d43b
000002f0: 5315 d83b 8a2b de3b 5af0 e43b 4e69 e93b
00000300: 2a4a ec3b 4d06 ee3b abab f23b 0053 f73b
00000310: 2762 fd3b 802b 013c 0da8 033c 739e 063c
00000320: f21c 093c a248 0b3c 058d 0e3c 5752 133c
00000330: 099f 193c 4fd1 1d3c 791c 223c 17f5 263c
00000340: 774d 2d3c ad7a 3b3c dd44 d03b d607 cd3b
00000350: 54fc cb3b ee13 cc3b b4b0 cc3b 8834 cf3b
00000360: b883 cf3b a2d0 803f 57ee d33b 08fc d93b
00000370: bfdb e03b 1965 e53b f514 e83b daa0 e93b
00000380: 351b ee3b fbc4 f23b e3f2 f83b 711b fe3b
00000390: 029a 013c 5ba6 043c 334e 073c 7a7b 093c
000003a0: f2bd 0c3c f94c 113c 90bb 173c 07e9 1b3c
000003b0: d749 203c cbf6 243c e137 2b3c e034 393c
000003c0: f7f9 d23b 96af cf3b 2cd4 ce3b aef5 ce3b
000003d0: 9080 cf3b 7e0e d23b cd47 d23b c95a d33b
000003e0: 46d6 803f 7c32 dc3b 0f2c e33b 0bc6 e73b
000003f0: 5b85 ea3b cf64 ec3b 39df f03b 6456 f53b
1.0065084 0.0064229686 0.006405367 0.0064248224 0.0064594154 0.0065477146 0.006563053 0.0066026617
0.006699336 0.0068747867 0.0070799054 0.0072167944 0.0073011727 0.0073550395 0.007495933 0.007626061
0.0078021926 0.007951263 0.008100398 0.008270105 0.008424697 0.008546088 0.0087378295 0.009022076
0.009406584 0.009667322 0.009931805 0.010225361 0.010619682 0.011476269 0.006327333 1.0062225
0.0062036193 0.00622512 0.00625867 0.006344341 0.0063567455 0.0063973223 0.0064953063 0.006672357
0.0068758028 0.0070040715 0.0070877653 0.007144187 0.007278549 0.0074107456 0.007579119 0.0077285734
0.007880721 0.0080501875 0.008209389 0.008332874 0.008525861 0.008800893 0.009183496 0.009442614
0.009708375 0.009997514 0.010387104 0.01123971 0.006426991 0.0063257697 1.0062909 0.0063050236
0.0063386695 0.006429541 0.006443868 0.006483599 0.00657875 0.006748633 0.0069480827 0.00708107
0.007164652 0.007219527 0.007350905 0.007481418 0.0076553696 0.007801146 0.007950703 0.008124822
0.008278564 0.008403297 0.0085886335 0.008868156 0.009249809 0.00950357 0.009766934 0.010060211
0.010449381 0.01130779 0.006462826 0.0063621085 0.0063328496 1.0063323 0.00636826 0.006456933
0.0064709443 0.0065084603 0.006606481 0.0067779766 0.00698202 0.0071209916 0.007206621 0.0072667585
0.0074025625 0.007532093 0.007712719 0.007858604 0.008005545 0.008178264 0.008335452 0.008461883
0.008656317 0.008928693 0.00930959 0.009563718 0.009827376 0.010115511 0.010508919 0.011371737
0.0063238074 0.006227158 0.0061940346 0.006188763 1.0062025 0.006291393 0.0063094143 0.0063517173
0.006445269 0.006621603 0.006821257 0.0069554364 0.0070425053 0.007104411 0.007247196 0.007373079
0.0075500496 0.0077019245 0.0078439955 0.0080127185 0.008174166 0.008296756 0.00848538 0.008768297
0.009148154 0.009401779 0.009656353 0.009941757 0.010330026 0.011186322 0.0065227654 0.006419327
0.0063843564 0.006378997 0.006397443 1.0064723 0.006488093 0.006539164 0.0066422136 0.006821584
0.0070274086 0.007162436 0.007249843 0.007307073 0.007449503 0.0075838934 0.0077652824 0.00791628
0.008070213 0.008243364 0.008402974 0.008534779 0.008735564 0.009016232 0.009404565 0.009660816
0.0099191405 0.010210899 0.010603979 0.011468255 0.00646839 0.006371488 0.00633818 0.0063412497
0.0063568205 0.0064382763 1.006445 0.006491111 0.006594339 0.0067800926 0.00698666 0.007123149
0.0072109895 0.0072639347 0.0074057183 0.007547736 0.007732648 0.007883906 0.008035672 0.008216488
0.0083687175 0.008501204 0.008700614 0.008991799 0.009376296 0.009632423 0.009894484 0.01019027
0.010577551 0.011442822 0.0063558654 0.0062570376 0.006225148 0.0062279617 0.0062466506 0.006323401
0.006332841 1.006367 0.0064676213 0.006652359 0.0068621333 0.007000577 0.0070825764 0.0071297707
0.007266427 0.007408736 0.0075973137 0.007754736 0.0079102535 0.008096303 0.00825839 0.0083912555
0.008590208 0.008868449 0.009261027 0.009516007 0.00978323 0.010068606 0.010450334 0.01130411
0.0064384895 0.00633807 0.006311914 0.0063159084 0.0063324645 0.006410419 0.0064172507 0.0064500314
1.0065391 0.0067198854 0.0069327424 0.007073169 0.0071570105 0.0072141658 0.007350829 0.007487105

gc1.fc.weight f4 [128, 30]
00000000: 4dec b5bd a11b d7bd 019e 8ebd 2a92 06be
00000010: ef80 983b a78d 93bd 17ad ee3d ecb2 dabd
00000020: 66e5 113d a7b8 7ebc ca8a f73c d72f 9ebd
00000030: f0bb 1e3c e905 e23d 3b0a 23be 9989 b1bd
00000040: 2072 0a3d 9043 06be 15fe f4bd e49f 1fbe
00000050: ce82 e4bd 59f3 18be eaf5 93bd 58c0 acbd
00000060: 1b9a a6bd e94e bb3d 8eed a73b b0cd 233e
00000070: e46f b7bb 443b 8cbd 8618 653d 6094 223e
00000080: b3d2 62bc da55 0cbe c10c 733c fb10 babd
00000090: 4bde 22be 02ba aebd 016d 0dbb e0fb 173e
000000a0: d317 b43d 1ce7 24be e61a f6bb 5a6e ae3d
000000b0: 3959 0c3e 4a13 dd3d fcd3 f9bd 7f49 853d
000000c0: dc34 34bd 4a51 92bd 705c 303c 0538 df3d
000000d0: 4060 abbb 1c8a b13c da71 16be 4d53 01be
000000e0: 8122 fa3d 27db eabc 6d8b 13be 707e 73bd
000000f0: 6b47 1dbe 6c4c 33bd b58c 01be 178d 95bd
00000100: d4e2 b23d e9c5 0d3e c20f 693d 8521 ae3d
00000110: 8915 0fbe 1fd3 8a3d dae6 073e 11c9 fcbd
00000120: e838 bab9 eca9 2c3d fb9f 06bc 84d5 123e
00000130: 639a 25be 05a0 2a3e 0309 99bd 9c44 14be
00000140: d383 1dbe 9813 6f3c 673e e53d 36b8 6e3d
00000150: aa8e 30be 1300 a13d 7639 08be 4235 913d
00000160: 76dc 15be 1058 a4bd 624f 9d3d 0fd1 dc3d
00000170: cffe 09be 0ed4 92bd a48b d8bd 17c5 14bd
00000180: 0823 a13d f677 273b 85be cabd 7fac e03d
00000190: f21c 6d3d 2591 783d ab81 33bd 3b86 b33c
000001a0: c428 e63d 61bf 1d3d 03f6 803c dca4 e73b
000001b0: 58bb e9bd 0be2 05bc 3db2 ee3d 8567 d53d
000001c0: e479 313e 48ea 863b 7732 2c3e 11b0 36be
000001d0: 82b7 e8bd 35f1 f23d f680 2c3e dd38 cfbd
000001e0: 3b65 4ebb 77f1 443d c2ae 1d3d 10e7 07be
000001f0: 16e2 efbb 4236 04be 7092 263e 4d7a 7ebc
00000200: b4fd d23d b0e4 853b d546 2ebe ecef 0c3e
00000210: bb17 243e 20bc adbd 873b 01be 8979 bd3d
00000220: 5514 b1bd 0060 18be 9d17 473d 0330 66bd
00000230: b4d2 1c3e 4d39 2dbe 4b87 b1bd d515 2fbe
00000240: 041b 3b3d 6625 d03c ebd4 f0bd 7fe9 c73d
00000250: 80d8 98bd 5fa4 0d3e 8814 d2bd e2ae ffbd
00000260: 0239 153e 5be5 2a3e 30b6 26be 06fc 7d3d
00000270: c7d4 22bc 6112 17be 9683 1cbe 167d 48bd
00000280: 52eb 24be d48c 69bd af38 b0bb 3b2c e63d
00000290: 82cf 1b3d 708e b4bd a00a 76bd fe6b c8bc
000002a0: 1677 ae3d c1a1 003e c26d 1dbe 5707 853d
000002b0: c57b 29be 2bfd 45be 363d 95bd 3a7f 0bbe
000002c0: 2575 2b3e b4f8 163e f196 fdbd 301c 1ebd
000002d0: 32c6 183e 4568 7b3d 1bff b43d ef8b b5bd
000002e0: b8b4 1f3e 9b12 093e 0898 0e3e 11f1 73bc
000002f0: 99e0 bcbd c55d 5abd 8e06 75bd a1c6 b73d
00000300: 22ed 06be 360c ecbb 4fad 9e3c 673f 2f3c
00000310: d3b2 e33d 10fb e9bd 98de 2b3e 957e bbbd
00000320: 8e72 af3d 5a30 e43d d0b1 1dbe c486 0c3e
00000330: 0e04 f23c 515c 0bbe 93dd 0dbd b17b 373e
00000340: e65b 343e 93d7 a3bd 4807 ffbd 538e 48bc
00000350: a929 0fbe b2cd 303d 1a85 3a3e 3cc1 4abd
00000360: 1acc 8c3d 8d49 c63d dc2a 54be 62d1 173e
00000370: 6292 843d ea69 03be 2f9e 223d eb1a a5bd
00000380: 0819 99ba bdbe 243e 8c67 1ebe 3b18 1abd
00000390: 6a01 c23d 806e 883d 5671 31be 44c6 1dbe
000003a0: 4267 963c 188c 96bd d5ec 293e 2932 223e
000003b0: 4b14 c83c e458 97bd af2b 193d abf8 e6bd
000003c0: 525c 2ebe ac92 2e3e d8d8 183e 17cc 32be
000003d0: f4bc 30be cffa 02be 4914 673d bc2d 143e
000003e0: e760 34bd 76dd 12be 560b 4c3d fcc0 ffbc
000003f0: a6a9 6f3c 3994 9fbd 4f1b 23be 339b 3bbe
-0.088829614 -0.10503317 -0.069637306 -0.13141695 0.004654042 -0.072047524 0.11654108 -0.10678658
0.035619162 -0.015546954 0.030217547 -0.077239685 0.0096883625 0.110362835 -0.15921871 -0.08668823
0.033800244 -0.1311171 -0.11962525 -0.15588337 -0.111577615 -0.1493658 -0.07224639 -0.08435124
-0.08134862 0.0914591 0.0051247543 0.15996432 -0.005598055 -0.068472415 0.05593159 0.15876913
-0.01384418 -0.13704625 0.014834584 -0.0908527 -0.1590511 -0.08531572 -0.0021579864 0.14842176
0.087936066 -0.16103786 -0.0075105308 0.08517142 0.1370591 0.10794695 -0.12198636 0.06508159
-0.043995723 -0.07144411 0.010764226 0.10899357 -0.0052299798 0.021672301 -0.14691868 -0.12629433
0.12213612 -0.028668953 -0.14408655 -0.059446752 -0.15359275 -0.043774053 -0.12651332 -0.073023014
0.0873467 0.13845028 0.056899793 0.08502487 -0.13973059 0.067785494 0.13271657 -0.12343038
-0.00035519083 0.042154238 -0.008216853 0.14339262 -0.16172175 0.16662605 -0.07472422 -0.14479297
-0.15382318 0.014592074 0.11193543 0.058281146 -0.17241922 0.07861342 -0.1330317 0.07090236
-0.1463488 -0.08024609 0.07681157 0.10782062 -0.13476108 -0.071693525 -0.10573509 -0.036320772
0.0786801 0.002555368 -0.0989962 0.10970401 0.057888933 0.060685296 -0.043824833 0.021914592
0.11238244 0.03851259 0.015742308 0.0070692133 -0.11412686 -0.008171569 0.1165509 0.104201354
0.17331654 0.004117284 0.16816126 -0.17840602 -0.11363126 0.11862413 0.1684607 -0.10118268
-0.0031493444 0.04808184 0.03849674 -0.13271737 -0.0073206527 -0.12911323 0.16266799 -0.0155320885
0.10302296 0.0040860996 -0.17019208 0.13763398 0.16024677 -0.084831476 -0.12620364 0.092516966
-0.08646456 -0.14880371 0.048606504 -0.05619813 0.15314752 -0.1691639 -0.08668383 -0.17098172
0.04568006 0.025408458 -0.11759361 0.09761333 -0.07463169 0.13832234 -0.10257822 -0.12484528
0.14572528 0.16689055 -0.16280437 0.062007926 -0.009938425 -0.14753105 -0.15284571 -0.048947416
-0.16105393 -0.05701907 -0.005377851 0.11238905 0.03803969 -0.0881623 -0.060068727 -0.024465557
0.085188076 0.12561704 -0.153739 0.064955406 -0.1655112 -0.19334857 -0.07287066 -0.13622752
0.16743906 0.1474331 -0.123823054 -0.0386011 0.14919356 0.061378736 0.0883772 -0.08864581
0.15596282 0.13386004 0.13925183 -0.014889018 -0.09222526 -0.05331208 -0.059820704 0.08973432
-0.13176396 -0.007203604 0.01936975 0.010696269 0.111180924 -0.114248395 0.16784132 -0.09155003
0.085667714 0.11142035 -0.15399861 0.13723284 0.029542949 -0.13609435 -0.034635138 0.17918278
0.17613181 -0.08000102 -0.12452561 -0.012240964 -0.13980736 0.043164916 0.18214837 -0.04950069
0.06874867 0.096819974 -0.20719475 0.14825967 0.06473233 -0.12833372 0.039701637 -0.08061775
-0.0011680434 0.16088386 -0.15469187 -0.037620764 0.09472926 0.06661701 -0.1732839 -0.15407664
0.018359784 -0.073509395 0.1659425 0.15839447 0.024423739 -0.073900014 0.037395176 -0.112778984
-0.17027405 0.17048138 0.1492647 -0.17460667 -0.1725958 -0.12790988 0.05641583 0.14470571
-0.044037726 -0.14342293 0.0498155 -0.031219952 0.01462785 -0.07791943 -0.15928386 -0.18320923

gc1.fc.bias f4 [128]
00000000: 5882 543d 49b8 30be a90e a93c f782 213e
00000010: 5309 35bd f3fd 7abd 86ba febd dc4f 19be
00000020: 6c1c e83c 3c12 6ebc 30e7 1bbe 7d22 f1bd
00000030: d2c6 a9bd ff12 abbc 82b0 9dbd 0d0e e83c
00000040: fc7f a4bd 44cb aa3d a01c 033e 7dbf 2f3e
00000050: 4ca4 aabd 37a6 153d 7d4c d7bd bce5 b5bd
00000060: a1e9 07be 6dae 1a3e e2c8 e3bd b7e4 7dbd
00000070: 9a53 c93c ba44 c83c bea3 a83d dd1c cc3d
00000080: 25ff 20be ec67 f43c 2ce5 083d 836a 433e
00000090: 24f7 b0bd 18e9 f53d ea3b 2dbd a05c ee3d
000000a0: 4682 2e3e 8ad9 44bd 0842 21bc c158 3f3d
000000b0: 78e1 2a3e d0e1 b3bd f904 b13d 5b3c 953d
000000c0: 7b56 52bd 8ff9 db3d 51a6 363c 7206 06be
000000d0: 4336 34be b691 ebbd af55 963d 7910 8ebc
000000e0: fa8d 4b3d 91f5 1f3e d8ce 0cbc ffef 2e3e
000000f0: 8d38 1ebe 1488 233e d8df 16be d365 05bd
00000100: 94c2 193e 7c2f 2e3c e311 f9bd d95d ad3d
00000110: df93 e93c 59bc ee3d 29bf 4abd 07cb 233d
00000120: a007 d2bc 0821 e1bc 8629 b53d f2d2 49bd
00000130: f8ce b33d 3af3 083e 9568 2abe 4d33 123e
00000140: c364 cbbd baad b03c 682e ae3c 71aa 173e
00000150: fb13 253e 561b c73c b9a6 7f3d 662b 273e
00000160: fb83 bfbd d741 523d 86d2 0dbd c1b4 b53c
00000170: 6312 2f3b d05b 063d 7bfe 153e ec97 053e
00000180: 002b 2dbe 4b0e 053d ed44 293e 2ccc 23be
00000190: 8e1f 0bbc c3f8 be3d adc0 cc3d 6345 1e3e
000001a0: 4cd8 cc3d e6d6 423d 7cf2 4d3d bfbe 3cbd
000001b0: fe5e 60bc bd43 6b3d 6f20 b9bc e9f6 83bd
000001c0: 2f35 cebd 2ad1 fa3c 9dd7 05be 717f dbbd
000001d0: 1fe1 1b3e 22bc 993c f86a d43d 8921 a63d
000001e0: 08b0 1a3e 648b 093d 7880 0d3e b017 eb3d
000001f0: e949 93bc d916 24be b1fb 2cbe 70c8 25bd
0.051882118 -0.17257799 0.020636873 0.15772615 -0.044198345 -0.06127734 -0.1243792 -0.1497187
0.028333865 -0.014530715 -0.1522491 -0.11774156 -0.08289875 -0.020883081 -0.07699682 0.028327012
-0.080322236 0.08339551 0.12803888 0.1716289 -0.083321184 0.036535468 -0.10512636 -0.08881709
-0.13272716 0.151056 -0.111223 -0.061985698 0.024575997 0.024446834 0.08234356 0.09966443
-0.1572233 0.02983471 0.03342168 0.190836 -0.08640888 0.1200735 -0.042293467 0.116387606
0.17041883 -0.048059024 -0.009842403 0.0467155 0.16687572 -0.08783305 0.086435266 0.072869025
-0.051352005 0.10740959 0.011148051 -0.13088396 -0.17598824 -0.115024015 0.073405616 -0.01734184
0.049695946 0.1562102 -0.008594237 0.17083739 -0.1545126 0.15969878 -0.14733827 -0.03256781
0.15015632 0.010631438 -0.12161615 0.08465166 0.028512893 0.11657018 -0.04949871 0.039988544
-0.025638402 -0.02748157 0.088458106 -0.04927344 0.087797105 0.13374034 -0.16641457 0.14277382
-0.09931328 0.021567214 0.021262363 0.14811112 0.16120903 0.024305027 0.06241486 0.16325149
-0.09351345 0.05133232 -0.0346246 0.022180917 0.002671384 0.032802403 0.14647858 0.13046235
-0.16910934 0.032484334 0.165302 -0.15995854 -0.00849141 0.09324791 0.099976875 0.15456156
0.10002193 0.047568224 0.05028008 -0.046080347 -0.013694523 0.057437647 -0.022598473 -0.06443579
-0.10068738 0.030617315 -0.13070531 -0.10717667 0.15222596 0.018766467 0.10371965 0.08111865
0.15106213 0.0335802 0.13818538 0.114791274 -0.017979579 -0.1602434 -0.16892888 -0.040474355

gc2.fc.weight f4 [128, 128]
00000000: e515 8d3c 8b15 a33d a123 a1bb d578 72bc
00000010: f15b 9d3c 2c2a c33c 5185 aebd 6c17 4d3d
00000020: b3b9 913d 7337 3abd 0977 2f3d c8f2 313c
00000030: ca8c dfbd be56 bbbd 67ec 64bd 26cb 7d3d
00000040: 5083 a73d 7627 c6bd 6d7a 0fbc a903 ea3c
00000050: 7ff8 123d 3dd0 babd ff7d ab3b 0df5 febc
00000060: eec9 5abc 6985 52bd c67b 2cba 1554 2abc
00000070: d622 903d bba4 5ebd 4eca 463d e925 463d
00000080: d1ea 403d c4bd 28bd f606 e5bb 08fb b6bc
00000090: 7389 bc3c a2de 6ebd 29ed 4c3d 3f60 57bd
000000a0: d4d9 2abd 4791 c1bd 6521 a63d ff36 4d3c
000000b0: 6f42 6fbd 23a0 13bd 5568 323d 1229 86bd
000000c0: 75c3 e73c 3231 ffbb 5cbb 9dbd 4a41 99bc
000000d0: 7073 25bd 9a20 29bd 8441 3b3d 587f 4d3d
000000e0: 3df3 1e3d 629c d1bc a976 0dbc 5739 7fbd
000000f0: 985e c1bc 5297 813c 9d5d 35bd e986 963b
00000100: 5937 34bb a49c 8b3d ebfa a23d 9590 0bbd
00000110: 04b8 90bc 5996 c53c 2f80 40bd 7813 763d
00000120: 06ef 7d3d 465b c73c 1daa e0bc 1c02 033d
00000130: 886a 4dbd 8de5 9bbc 0879 2e3c 48c7 73bd
00000140: 923a 173c 9fa9 65bc b8ee fd3c 7899 f0bd
00000150: 7d14 94bc baf4 ae3d 9dec 213b d04c 353d
00000160: be5b 443c 79c1 03bd 9a20 493d b6d9 873d
00000170: c8f0 913d 150b 9dbc 164d d03c 0a34 36bd
00000180: 08a2 853c a640 573d 4df9 8d3c 3082 853c
00000190: 5b88 5b3d 83a5 42bd 62d1 903d 45b9 583d
000001a0: d4c6 4c3c 9aea 43bb 1c34 983c b417 553d
000001b0: 239d 86bd aebe 983d 19b9 5abd b047 3ebd
000001c0: e884 bfbc 77be 2cbd 9f5c a7bd c253 5c3d
000001d0: 064e 9e3d dd8b e8bc 051f 273c fdbb 673d
000001e0: 9413 f9bc df2d 1f3d 379b 11bd eacc 9f3d
000001f0: 4e27 883d eceb 163d d48b 15bd 1cd4 94bc
00000200: 3e5f b43d 8add 5fbd a88b 443d 1488 a83d
00000210: bdeb 663d 9247 7c3d 8f7d b1bd 8df1 883d
00000220: 2a97 bdbc b977 bf3c 6501 46bd 4d55 863d
00000230: 18cd 15bd d14d 423d 2f90 6f3d bf8b 14bb
00000240: f5d2 93bd dbfb 9dbd ecb4 893d 7da2 bdbc
00000250: d8a0 353c 4888 e7b9 19a8 7c3d 590c 80ba
00000260: e880 b73d 0aa1 cebc 710f 2bbd bf0b 563d
00000270: 67c1 473c 4e8e 843d 07a2 063c 198a 893d
00000280: d9d8 cebc 74b2 4a3d 88e3 c93c c8d5 e5bc
00000290: 93f8 103d 9e11 50bd e0cc 843b 13ef 66bd
000002a0: cc9f 663d cf1f 1fbc 048e 3e3d a193 e5bc
000002b0: 303c f8bb 94a2 9ebc 4cef c3bd bbca 713c
000002c0: eaa7 8cbd ce19 0a3d b9f8 10bd c80f dd3b
000002d0: 7bf8 86bc 3061 32bb 3c11 c83a ee46 c43c
000002e0: 7a1e 0c3d 1216 a4bd 9b0e 013d d6ec 73bd
000002f0: d917 b1bc 663b 6a3d e5de 82bd 40c8 823c
00000300: e806 843d 00ea 7ebd d22c af3d 70e6 a63d
00000310: 7e85 6ebd c134 a8bd 764f 9c3d 8939 93bd
00000320: d433 3dbc 41d1 f23a 53a5 0abd 6ed6 2ebd
00000330: 3984 433d 7bc9 8d3d 8031 04bc 1d5c d3bd
00000340: b75a e03c d0da 20bd a024 be3c 7e75 773c
00000350: 1753 1d3d f38f 84bd 0691 763d 0313 b8bc
00000360: 6c6a 8f3d 9263 c13d 7d78 243d 6b00 e03c
00000370: c5db dfbd 32fa 46bd c2f2 97bd 72de 8dbd
00000380: 3f9e 92bd 27fd 913c e5bb 41bd e94d 5ebc
00000390: 574e 30bd 3354 313d dc3a 983d a030 fc3c
000003a0: 4c20 1fbd 47d4 9e3d 705b 73bd e3e6 4a3d
000003b0: bd2e b239 f246 313c e555 58bd 018c 96bd
000003c0: 9443 62bc b9d5 2c3d 2adc 0d3b a4c7 7e3d
000003d0: 28f1 5bbd ed6c 393d 12df ae3d 4c8d 253d
000003e0: 452f 393d 1f1a 613c d1ec 9d3d 378a 61bd
000003f0: d57b d03b e2b5 89bd b460 92bd 5ecc 543d
0.017222354 0.07963093 -0.0049175774 -0.014799316 0.01920888 0.02382382 -0.08521522 0.050071165
0.071154974 -0.045463037 0.04283813 0.010861106 -0.10915525 -0.09147404 -0.055889513 0.061961316
0.08179343 -0.09675495 -0.008757216 0.028566198 0.035881516 -0.091217496 0.0052335258 -0.031122709
-0.013353808 -0.05139676 -0.0006579723 -0.010396023 0.070378944 -0.054356318 0.048532777 0.048375998
0.04709894 -0.0411966 -0.006989355 -0.022336498 0.02301476 -0.058317788 0.05003086 -0.05258202
-0.041711643 -0.094515376 0.08111838 0.012525319 -0.058412965 -0.03604139 0.04355653 -0.06550802
0.028291443 -0.007787847 -0.077017516 -0.01870789 -0.040393293 -0.041290857 0.045716777 0.050170273
0.03880619 -0.025587264 -0.008634248 -0.062310543 -0.023604676 0.015819225 -0.04427873 0.0045937193
-0.002749881 0.06816986 0.07958015 -0.03407343 -0.01766587 0.024119543 -0.046997245 0.06007716
0.06199553 0.024335515 -0.027424866 0.031984434 -0.050150424 -0.019030357 0.010648973 -0.05951622
0.009230273 -0.014017492 0.030997619 -0.11748022 -0.018076176 0.08542772 0.0024707683 0.044262707
0.011984764 -0.03216693 0.049103357 0.06633322 0.071260035 -0.019170323 0.025427382 -0.044483222
0.016312614 0.052551888 0.01733079 0.01629743 0.053596836 -0.047521126 0.070711866 0.05291106
0.012498576 -0.0029894472 0.018579535 0.05202456 -0.0657294 0.07458244 -0.05339918 -0.046455085
-0.023378804 -0.04217383 -0.08171963 0.053790815 0.077297255 -0.028387005 0.010200267 0.056575764
-0.030404843 0.038862105 -0.035548415 0.07802756 0.06648122 0.036846086 -0.036510304 -0.018167548
0.088072285 -0.054654635 0.04798475 0.0822908 0.05637716 0.061591692 -0.086665265 0.06686697
-0.02314337 0.023372518 -0.048341174 0.065592386 -0.036572546 0.047437493 0.058487114 -0.0022666303
-0.07217971 -0.07714053 0.06723961 -0.02314877 0.011085711 -0.0004416129 0.061683748 -0.0009769305
0.08960134 -0.025223274 -0.041762773 0.052257296 0.012192107 0.06472455 0.008217341 0.06715793
-0.025249885 0.049486592 0.024644628 -0.02805604 0.03539331 -0.05079805 0.0040527433 -0.056380343
0.056304738 -0.009712174 0.046522155 -0.028024497 -0.0075755343 -0.019364633 -0.09567127 0.014757807
-0.068679646 0.033716016 -0.03539345 0.006746266 -0.016475907 -0.0027218573 0.0015263925 0.023959603
0.034208752 -0.08012022 0.03150807 -0.059552036 -0.021617817 0.057185553 -0.0639017 0.015964627
0.0644663 -0.06223488 0.08553471 0.08149421 -0.058232777 -0.08213187 0.076323435 -0.07188708
-0.011548001 0.0018525497 -0.03384907 -0.042684965 0.04773352 0.06923195 -0.008068442 -0.103203036
0.027387006 -0.039271176 0.023210824 0.015103696 0.03840932 -0.06472769 0.0601969 -0.022470003
0.0700272 0.0944282 0.04015397 0.02734395 -0.109305896 -0.04857845 -0.07419349 -0.06927194
-0.07159089 0.017820908 -0.04729833 -0.01356838 -0.04304346 0.04329319 0.074331015 0.030784905
-0.03884916 0.077553324 -0.059413373 0.049536597 0.00033985628 0.010820137 -0.05281629 -0.073509224
-0.013810057 0.04219601 0.002164612 0.06220211 -0.05369678 0.045269895 0.08538641 0.040417954
0.045211095 0.013739138 0.07711185 -0.055063453 0.006362418 -0.067241445 -0.07147351 0.051952712

gc2.fc.bias f4 [128]
00000000: d274 373d ca2c 963d e034 50bd 5405 dcbc
00000010: 330e 4c3d 4f51 773d fd17 09bd fac5 813d
00000020: d1cd 603d fb23 5abd f2a1 a5bc 7b01 2a3d
00000030: 5b7c 8cbd 1b93 93bc 6858 9dbd 423d 913d
00000040: f304 fabc 26a3 94bb 20eb 4abd 3d18 01bc
00000050: 3f91 e1bc 8648 0f3d 116b 3abd 600c 873d
00000060: 1f3e e3bc 2bdf a13c e61d 193d 16fb efba
00000070: 2f55 c4bc b4fc 7fbd 5480 16bd 07d9 13bd
00000080: f314 2cbd bf95 48bd d94f 8dbd 3122 9e3c
00000090: 39e9 783d e38c 003d 5ed4 ae3c 0f37 683d
000000a0: eb41 863c 6dfc 9abc 34ef 34bd d404 c7bb
000000b0: 0748 4bbc 927d cc3d c9b0 9f3d d847 aebc
000000c0: 648b 4f3d cf35 94bd 568c 8cbd 38fc 5abc
000000d0: b534 afbd 714c 083d 26e4 573d 96bd 583b
000000e0: 86ca 793d a074 a93d 9da6 b7bc 79ad 93bc
000000f0: 45d7 93bc 2ef7 2dbd df29 373a 0e22 70bd
00000100: 720a 9bbd 6257 503a d364 ae3d eb40 a3bd
00000110: c2a7 4bbd 6c77 a43d a66d 60bc 22b7 89bd
00000120: 9ce7 173c 6c69 463d 8a09 183d 9182 b0bd
00000130: 45de a53d 7248 4cbb 8e29 5dbd e4ac 4dbb
00000140: b440 bf3d 4fa5 403c 5307 bcbc 17cd 8ebd
00000150: d52a 73bd 2aba 46bd 0683 973c 767d 1cbd
00000160: aa2e 753d cfac 80bd c16e a53d 109c 843d
00000170: 8ff4 8abb 918a 81bc 3d76 8e3d c6ca e5bc
00000180: 77a0 383d 3e0b 3c3d 2a2f fb3a 7c8c 07bd
00000190: 3247 413c 8699 083d b0bc 2c3d 7158 d33c
000001a0: 984b 173d 9412 63bb 2dfe 96bd 5a93 32bd
000001b0: 849c 1c3d 724c 31bd 693e ffbc 7649 90bd
000001c0: 8973 c9ba fa1e eb3c 90ee 99bd 0546 7d3d
000001d0: bc20 bb3d f734 033d 793c 193d 8b79 76bc
000001e0: 1b30 7f3d 89ab aebc e310 18bd cb1f 73bd
000001f0: 6260 6dbd 7e5b 5fbd 804c 69bc 709d 8c3d
0.044789143 0.073327616 -0.050831676 -0.02685801 0.04981823 0.060380276 -0.033470143 0.06336589
0.05488378 -0.05325697 -0.020218823 0.041505318 -0.068596564 -0.018014481 -0.07682878 0.07091762
-0.030519938 -0.0045360504 -0.04954064 -0.007879314 -0.027535079 0.034981273 -0.045512263 0.06594157
-0.027739583 0.019759735 0.03738203 -0.0018309082 -0.0239664 -0.062496856 -0.036743477 -0.036095645
-0.042012166 -0.048970934 -0.06899995 0.019303413 0.060769293 0.03138436 0.021341499 0.056693133
0.016388854 -0.018919194 -0.044173434 -0.0060735736 -0.012407309 0.09984888 0.07797391 -0.021274492
0.050670043 -0.07236826 -0.068627045 -0.013365798 -0.08554975 0.033276025 0.052707814 0.0033071986
0.060984157 0.082741976 -0.022418315 -0.018027054 -0.018046984 -0.042472057 0.0006987135 -0.058626227
-0.07570352 0.00079475914 0.085153244 -0.079713665 -0.049720533 0.080305904 -0.013698017 -0.06724383
0.009271529 0.048440382 0.037118472 -0.086186536 0.08099035 -0.003117111 -0.053994708 -0.0031383568
0.09338513 0.011758163 -0.022952711 -0.069727115 -0.05936702 -0.048517384 0.018495094 -0.038205586
0.059858955 -0.062829606 0.08077765 0.06475079 -0.0042405794 -0.015813144 0.06956146 -0.028050791
0.045074906 0.04590916 0.0019163836 -0.03309296 0.011796759 0.033349536 0.042172134 0.025799008
0.036937326 -0.0034648525 -0.07372699 -0.043597557 0.038235202 -0.043285795 -0.03115769 -0.070452616
-0.0015369515 0.028701294 -0.07516205 0.061834354 0.09137103 0.032032933 0.037411187 -0.015043627
0.062301736 -0.021322029 -0.03712548 -0.059356492 -0.057953246 -0.054530613 -0.01423943 0.06865966

temporal_conv.weight f4 [128, 128, 3]
00000000: 6e7e 10bc 7e4b 593c 03da 4f3d 20f0 f3bc
00000010: 840e 3e3c e55f 413d 8d8c dbbc 646e 55bc
00000020: f12a 0ebd ac8f 113d 4ffd 933b ceec 0137
00000030: 021c 043b 6da4 e63c ec43 37bc aa64 833c
00000040: dba6 4f3d 20b7 f6bc e1cc aabc 8a77 ea3c
00000050: 8ef2 473d 0a84 6c3c 6675 8a3c 7c5d 413c
00000060: a217 60bd 7e34 8bbc a148 193d 0e43 6b3d
00000070: c1dd 0fbd 2e23 4bbd e16c 253d 8d5e 4bbc
00000080: 9190 13bc 9dce 4ebc 5e0e 1b3d d32d 25bd
00000090: c26e 40bd 9064 283d 3d93 913c b736 603d
000000a0: 9761 103d e7d2 1e3d 471a 4ebc 9534 553d
000000b0: 3e4e 85bb 5f34 f4bc af24 46bd b4f6 143c
000000c0: 3d0b 0cba 023f 1f3d 5873 c4bc 4619 7a3c
000000d0: fdab 59bb 83bb 933a 2184 2e3d e52f 5d3b
000000e0: c5f2 35bd 322b b53c f759 38bd 5853 3cbc
000000f0: 35ce 88bc 509b 13bd e81a e43c c6c2 d53c
00000100: de7f da3b 441a 0fbd f077 e13c 2105 ec3b
00000110: 29f4 0dbd 7bc9 4d3d a378 f53c ecc6 113c
00000120: 9b75 98bc d0ab b4bc b8a5 dcbc e436 683c
00000130: 65c0 5b3d 4240 173c d8b6 74bc dcd7 163d
00000140: fdd8 90bb 9c8a 233d b580 513c e483 18bd
00000150: b03c a33a 67a7 c63c 62e4 37bd 85ba 943c
00000160: 0126 483d 91c0 bb3c 0aaf 3e3d b042 b63c
00000170: 1982 403d 0f49 023d 42de 173d 67d2 28bd
00000180: 7b1e c2bc 0f4c c73c 66a2 1ebd 9e03 043c
00000190: aa97 c83c 1d13 063d 6e28 433d 9514 a53c
000001a0: 4f0b 3ebd 03bc 293d f15a 613c e2b6 84bc
000001b0: d02c f73c 849e 073c 8bbd 16bd 1ee1 3a3a
000001c0: a7b7 17bc 14d8 9bbc cf2b 01bd f461 233d
000001d0: bd0a 1dbd 1a96 653d 729e 5c3d f52b 1d3c
000001e0: 5899 053d 6e21 d4bb 1709 8f3c b7e1 253c
000001f0: 5627 86bd f125 3e3d 04f0 143d a93f bbbc
00000200: 3445 4e3d 1491 383c 817c 2a3d 9643 81bb
00000210: 0bc1 2c3b 415b c93c 3dd2 153d 8cad 0b3d
00000220: e5d5 9d3c 0a02 9cbc 7725 a43b 84d0 053d
00000230: e5da c1bc c09a fcbc 64ab ad3c 44a5 3f3c
00000240: 1e42 7bbd 77c2 65bd 8e7d 14bd a092 f4bc
00000250: 4979 8b3b dc23 e93c 88b1 5abc f611 8cbc
00000260: 52a5 953c 1c14 433c be6c dabc 2112 06bd
00000270: 7b61 8b3a aa9e 843d 4810 0c3d c27d 1d3d
00000280: 4183 dc3a 23b1 e1ba 2d13 843c 8cee 403d
00000290: 74a4 a73c bacc 2abd 5082 303d eea8 45bd
000002a0: 196e 6ebd a67f d1bc 6b70 1ebd 250f b93c
000002b0: e87a 0e3d ba0e d0bb 452d efbb 273c 273d
000002c0: 8a1e fc3c 11e5 083d 7d60 16bc 75e5 0a3d
000002d0: 1c6f f6bc 2e62 a93c 52fe 1f3d 0228 2ebd
000002e0: c44c 10bd 29ba ce3c 5142 fabc c893 f5bc
000002f0: d1af f13c 2122 033c 0b42 3d3d 3606 b7bc
00000300: 8109 8dbd 917d 18bd d6e3 8a3c 0315 11bc
00000310: 0b01 31bd 978c edbc 3ef2 603d c91e 0f3c
00000320: 47e0 94bc d86b 343d 2f7b 323d 607a 333d
00000330: 7502 623d 436e debc fdf0 283d 27cf 4fbc
00000340: c060 583d fc90 19bc 4952 563c c2a9 bbbc
00000350: f310 3b3d 4f39 133d 069f e63a d8df 3e3d
00000360: 624b a73c 10b5 9c3c 4582 043d df61 3abd
00000370: edbc f03b b36a 06bd 5a39 cbbc d767 173d
00000380: a4f2 96bb 4d3a 143a 4785 3b3a 56d7 29bd
00000390: 1bcf 7dbc 852f 80bc 278e 12bd 2140 8f3c
000003a0: fae9 a8bc 21d1 383d e8ef d23c f423 013c
000003b0: acd1 69bc e67a 45bd ac27 05bd da0e ecbc
000003c0: 3770 e1bc 5926 1d3d f33d eabc de91 d83c
000003d0: aed5 953c b0ff 78bc 1468 61bd 41ef 66bd
000003e0: ae07 253d dd61 043d 8417 06bb 52e7 863c
000003f0: 583e 75bd 3b95 87bc 328a 1abc 9417 663c
-0.008819206 0.013262628 0.05074502 -0.029777586 0.0116001405 0.047210593 -0.026800418 -0.013026807
-0.03470892 0.035537407 0.0045162807 7.744135e-06 0.0020158296 0.028154576 -0.011185627 0.016039211
0.050696235 -0.030116618 -0.020849647 0.028621454 0.048815303 0.014435777 0.016901683 0.011802074
-0.054710038 -0.016992804 0.03742278 0.057436995 -0.03512359 -0.049594097 0.04038704 -0.012412679
-0.009006635 -0.012622503 0.0378555 -0.040326905 -0.046980627 0.04111153 0.017770404 0.05473968
0.03524932 0.03877535 -0.012579507 0.0520521 -0.004068165 -0.029810129 -0.048374828 0.009092022
-0.0005342251 0.03887845 -0.023980781 0.015264815 -0.0033214085 0.0011271093 0.042606477 0.0033750471
-0.044420976 0.022115324 -0.045007672 -0.01149448 -0.01669989 -0.03603679 0.027844861 0.026093852
0.006668075 -0.03493716 0.027523011 0.00720276 -0.034656677 0.050240975 0.02996475 0.008897524
-0.018610766 -0.022054583 -0.02693449 0.014173243 0.05365028 0.009231629 -0.0149361715 0.036826953
-0.0044203983 0.03992711 0.012787034 -0.037235156 0.0012453999 0.024249746 -0.044895537 0.018155346
0.04886437 0.022918971 0.04655365 0.022248596 0.04699907 0.031807955 0.037077196 -0.04121628
-0.023696175 0.02432826 -0.038729094 0.008057503 0.024486382 0.03273307 0.04764598 0.020151416
-0.046397503 0.041439068 0.013754592 -0.016200487 0.030172735 0.008277539 -0.036801856 0.0007128882
-0.009260095 -0.019023933 -0.03153592 0.039888337 -0.03834032 0.05605135 0.053862043 0.009593
0.032616943 -0.0064737117 0.017460389 0.010124615 -0.065504715 0.046422902 0.03636171 -0.022857504
0.050358966 0.011265058 0.041622642 -0.0039448244 0.002636018 0.024579646 0.036577452 0.034101054
0.019267032 -0.019043941 0.005009349 0.03266956 -0.023663947 -0.03083551 0.02119989 0.011697117
-0.06134235 -0.05609366 -0.03625255 -0.029855072 0.0042564017 0.028459482 -0.013347991 -0.017098408
0.018267307 0.01190665 -0.02666318 -0.032732133 0.001063391 0.06475575 0.034195215 0.03845001
0.0016823785 -0.0017218929 0.016122425 0.047102496 0.02046416 -0.04169915 0.043093026 -0.048256807
-0.058210466 -0.025573563 -0.03868143 0.02259023 0.03478518 -0.006349412 -0.0072990977 0.04082885
0.03077628 0.03342158 -0.009178278 0.033910234 -0.030082278 0.020676699 0.039060898 -0.042518623
-0.03522946 0.025235252 -0.0305492 -0.029977694 0.029502781 0.008003742 0.04620556 -0.022341829
-0.06886578 -0.037229124 0.016954344 -0.008855107 -0.043213885 -0.028997703 0.05491852 0.008735367
-0.01817335 0.04404816 0.04357451 0.043817878 0.055178124 -0.027152186 0.04124545 -0.012683666
0.052826643 -0.009372946 0.013081142 -0.022908095 0.04567046 0.035943326 0.0017595 0.046600193
0.020421688 0.019129306 0.032350797 -0.045503493 0.0073467405 -0.0328166 -0.02480762 0.036964264
-0.0046065617 0.00056544394 0.0007153344 -0.041465126 -0.015491272 -0.01564766 -0.0357801 0.017486634
-0.020619381 0.045121316 0.025749162 0.007882107 -0.014271181 -0.04821291 -0.032508537 -0.028815676
-0.027519329 0.03836665 -0.028593993 0.026436742 0.018290367 -0.015197679 -0.055030897 -0.056380514
0.040290527 0.032319892 -0.0020460794 0.016467724 -0.05987391 -0.01655065 -0.009432362 0.014043707

temporal_conv.bias f4 [128]
00000000: adf3 b7bc 4c0b 0ebd 3c75 503d 9af9 463d
00000010: 464b d6bc 5848 3e3c 396f 4a3d 20b5 a2bc
00000020: 2865 6f3c e4c6 5b3b 3377 333d cadd 243c
00000030: 22ec 01bc a8ae de3c 5564 d43c 4fca 98bd
00000040: 734c 2d3a 142c 0ebd e170 413d c7a5 4d3c
00000050: b38f 223d b009 893d fc23 363b b6d3 803d
00000060: 26a3 a3bc d096 763c f09c 713d 06f9 d4bc
00000070: a96c d43c efb2 d6bc bb86 b3bc 1c2d 91bb
00000080: b2fb aebc be8d 1c3d b8a8 47bd 6e01 d13c
00000090: 2341 b53c b7f8 cc3c 4854 20bc 3880 03bd
000000a0: dc0b d0bc 046a d5bb eef5 ccbc be3f 65bc
000000b0: 02f5 4e3d 50f7 783d 09ef 823d 21f1 603d
000000c0: c09c d63c 06bf 263d 017f ce3b d586 0abd
000000d0: 333d 173d 30d7 1d3d 7153 233d 2860 0ebd
000000e0: 8425 d6bc 576c c33b 6f2a f53c 9ba8 15bc
000000f0: d21d bc3c 1185 efba ec44 36bd 515d 073d
00000100: 3fd4 413d 8b3b d6bc b77f d93c 44ef 13bd
00000110: 1eeb f73c 3d8f 11bd 7df8 413d 1b98 3bbc
00000120: 3902 00bd 6610 1f3d ab82 593c 32a0 b53c
00000130: 2137 203b 1629 a73c 6314 adbc bec0 0b3d
00000140: b334 4a3b 6da8 983c 232b edbc 5314 16bd
00000150: 218b 253c 2a97 ed3c 6ece e1bb dccd 21bd
00000160: cc17 743d 34a6 f6bc bf87 a33b 7a1b 1f3d
00000170: 08d9 80ba ef80 d3bb fddf 01bd 774f cfbb
00000180: a1b3 8ebc c83e debc c936 183d e1c9 863c
00000190: caf8 6f3c c35f f43c f82c fbbb 625a f9bc
000001a0: f5c5 b03c 49b8 67bc a555 ea3c 9e8e 2abd
000001b0: d500 603d 753e e63c 597a 693d 673d c33c
000001c0: 444f 923a a029 40bc 7b6e 42ba 145f 0fbd
000001d0: 21fa 773d ca68 fa3c 37a9 f8bb 2f54 d7b9
000001e0: 2298 013d d1ad e0bc ade7 4f3d 333e bcba
000001f0: 01b2 e9bc 6f11 063d a3af 053d 1ca9 37bd
-0.02245506 -0.034678742 0.050893053 0.048577882 -0.02615894 0.011613928 0.049422476 -0.019861758
0.01461152 0.0033535296 0.04381485 0.010062644 -0.007929834 0.027182892 0.025926748 -0.07460462
0.0006610818 -0.034710005 0.04722679 0.012551731 0.039687824 0.06691301 0.0027792444 0.06290381
-0.019975256 0.015050605 0.058987558 -0.02599765 0.02593072 -0.026208369 -0.02191483 -0.0044304263
-0.021360252 0.038221113 -0.048744887 0.025513377 0.022125786 0.02502094 -0.009785719 -0.0321047
-0.02539628 -0.006512882 -0.025019612 -0.013992248 0.050526626 0.06078273 0.063932486 0.05491746
0.026197791 0.040709518 0.006301761 -0.033819992 0.0369236 0.038535297 0.039874498 -0.03475967
-0.026140936 0.005963843 0.02992746 -0.009134437 0.022963438 -0.001827391 -0.044499323 0.033047978
0.047321554 -0.02615144 0.026550157 -0.036116853 0.03026348 -0.035536993 0.047356118 -0.011449839
-0.03125212 0.038834 0.013275783 0.022171114 0.0024446922 0.020405333 -0.021127885 0.03411936
0.0030854165 0.018635 -0.028951233 -0.036640476 0.010103972 0.029002745 -0.0068910634 -0.039502963
0.059593007 -0.030108549 0.0049905474 0.038844563 -0.0009830305 -0.006454579 -0.031707752 -0.0063266116
-0.017419638 -0.027129546 0.037161622 0.016453685 0.014646718 0.029830819 -0.007665273 -0.030438606
0.021578768 -0.014143058 0.028605292 -0.041639917 0.054688293 0.028105954 0.057001445 0.02383299
0.0011162539 -0.011728674 -0.00074169756 -0.035002783 0.060541276 0.030567545 -0.0075885314 -0.00041070717
0.031639226 -0.027426632 0.050758053 -0.0014361799 -0.028527262 0.03273147 0.032638203 -0.04483901

fc.weight f4 [30, 128]
00000000: c2d9 773c 7535 583a 1f64 05bd 8ba2 8dbd
00000010: de9c 453c 722f 81bc b403 5e3c f97b 8b3c
00000020: 12a1 8cbd 3bbd 763c 55fa 5e3d 3542 573d
00000030: 4246 1fbc 4728 aebb 3b8f a23d 0ab8 68bc
00000040: bc2d 363d ffae 9fbc 76e1 273d 370c d6bc
00000050: f89f 46bd 4978 9e3c ddb8 013b 4708 2abd
00000060: a2bd eabb adf6 af3c 5d5f 9ebc 63b9 f0bb
00000070: 68e3 b1bc 5216 c9bd df95 d6bc 1d2f 0d3d
00000080: 0a24 afba 3f74 24bd 80fb 813d be6e 56bd
00000090: 659f 5dbd fa01 0e3d f167 d13c 5bc6 173d
000000a0: fdc7 133b 50e4 77bd ce23 23bd b1c2 a0bd
000000b0: 1ee1 abbd 45a5 d93d 453c 793c a595 483c
000000c0: b13d cc3c 6b73 30bd 4e37 9bbc 3575 7dbd
000000d0: 71bc 07bd 40ec 303d c4a2 9e3b aa1f 0bbd
000000e0: 01fe c53d 2254 45bd 46c6 3d3c de0c c8bb
000000f0: 3eb8 d13c f02a a93d ea5e 8cbd 2678 e43d
00000100: 6b30 8c3d f840 d23d 37cc 5c3d 04b9 bbbd
00000110: 6b58 2e3d 5ab8 1b3b d023 82bd a0d5 1a3d
00000120: 5094 dbbc 51f6 f13d 2784 b3bd efce d03c
00000130: 1907 4abc 6c69 2dbd 3503 853b 736d cabd
00000140: 7df2 ee3d 4e37 c13d 24bc dbbd 8110 be3c
00000150: 5748 f13d 6080 41bd a3eb 99bb 2bdc 34bd
00000160: e83c 4dbd 0042 b23d 35c9 8c3c 7937 c83b
00000170: a8e9 d63d 47b3 903d 9654 b93d 2c32 b6bd
00000180: deb1 10bd 6e4d 733d 985f c0bd 25e3 513d
00000190: 2474 3a3d 54ec 003d 14c1 b4bd c3bc 693d
000001a0: b569 943b 7151 0fbd dacc 1fbd e4d2 5ebd
000001b0: 413a d4bc 7ca9 85bc 63b5 96bd 0a21 da3d
000001c0: 3058 083d 9b36 983c caf1 7ebd 379d 61bc
000001d0: f520 b1bd c2c1 09bc 53fa d0bc bf73 af3c
000001e0: 1abf 3abc 3cf6 6abd 6a04 893d 3cac 99bd
000001f0: 15e1 0bbd 1aab d43d e00f d33c 729f 00bd
00000200: 6449 753d 36fb 2dbd 24dd 15bd 5651 21bd
00000210: 92de 8b3d 1fa4 153c ba15 debc 9448 babd
00000220: 48c6 e6bc a052 c63c acf1 03bd ac64 123d
00000230: f729 17bd 5914 78bd 7763 95bd e8f4 0f3d
00000240: f497 f2bc 267c 943d 7b22 b73d 9485 793d
00000250: 1468 a8bd e794 d43b 303b 87bc 8c67 7d3d
00000260: b3c1 bbbd 57dc e8bc 4ac7 51ba 0e34 8ebd
00000270: 6ff3 c8bc 8bd6 99bc 9e04 dfbc 494d 24bd
00000280: 77f6 de3a 4fb0 d43d 5f31 863c 0a0b 2dba
00000290: 6bc6 9c3d aa33 fdbc f253 b13d c72b 573d
000002a0: 4cb7 d73d 2de5 6abd e9ad 1ebd 8b8c bd3d
000002b0: d955 85bc 52fe 60bd 9bc5 b83d 56a4 cf3c
000002c0: 7195 2ebd edf8 c1bd b7d8 aabc 2365 a53b
000002d0: 7f4a b03d d495 95bd 39ff f73c 7c12 6e3b
000002e0: 6674 34bc 5171 ab3c 73ff 9dbc 9ef0 533c
000002f0: 3304 c73c 56d5 9b3d 6146 4a3b 77bd 0cbd
00000300: 6200 b6bc 05b3 6e3d f941 c03b 3e6f 253d
00000310: d92e 443d bf5d fa3c 9fb6 aabd 5170 bcbd
00000320: 30cf 50bd 29c4 3f3c d006 293b 643e ac3d
00000330: ff12 613d 1c25 d8bc ff67 25bd 0c10 6f3d
00000340: 67a4 82bb dbad 87bd 68e8 dc3d 7a64 94bd
00000350: 7159 863d 2d65 013c 12ef cf3d c204 b33d
00000360: 6604 d43c 11d0 a23d c577 403d 1c9f f93c
00000370: 0a23 493d 91e8 1ebd 350d 993d f097 babd
00000380: 48c4 40ba c2b0 a3bd 0d2a 76bd b3a8 9dbd
00000390: 61ef 043d 5844 7fbc d54f 573d de98 cbbd
000003a0: b2dd a83d 0aef 6bbd 79d4 afbd 0865 d03c
000003b0: 2adb 883d 7d4e bbbc baba a1bd 5017 b5bd
000003c0: 6124 963d 6b70 a3bd 5f3f 2cbb 5c67 e5bb
000003d0: 1185 c63d 2e24 a43c 160a 00bc 66c9 35bc
000003e0: 6e3d 3dbd caa9 67bc 390e 1bbc 59eb 66bd
000003f0: 5235 ac3c 26dd 193c b6e5 2c3d a1ca 6f3c
0.015127601 0.0008247712 -0.032566186 -0.06915768 0.012061326 -0.015769694 0.013550688 0.017026888
-0.06866659 0.0150597645 0.054437954 0.052553374 -0.009721341 -0.00531486 0.07937475 -0.014204035
0.04447721 -0.019492624 0.0409865 -0.026128871 -0.0484924 0.019344466 0.0019794025 -0.0415118
-0.0071637193 0.021479929 -0.019332582 -0.0073463186 -0.021714881 -0.098187104 -0.026194511 0.03446876
-0.0013362181 -0.040149923 0.06346798 -0.052351706 -0.05410709 0.034669854 0.025562258 0.0370544
0.0022549622 -0.06052047 -0.039829068 -0.078496344 -0.08392547 0.10627226 0.015212123 0.012242709
0.02493176 -0.04307882 -0.01894727 -0.061879355 -0.033138696 0.043194056 0.0048411805 -0.033965744
0.09667588 -0.04817594 0.011582917 -0.0061050495 0.025600549 0.08260143 -0.06854041 0.11155729
0.068451725 0.10266298 0.053905692 -0.09166148 0.04256479 0.0023761005 -0.06354487 0.037801385
-0.02680412 0.11814559 -0.087654404 0.025489299 -0.012330794 -0.042336866 0.00405922 -0.09884157
0.11667345 0.09434377 -0.10729244 0.023201229 0.11781376 -0.04724157 -0.0046972795 -0.04415528
-0.050106913 0.08703995 0.017185787 0.0061101285 0.10493785 0.070654444 0.090493366 -0.08896288
-0.035325877 0.059400015 -0.09393233 0.051242013 0.045520917 0.03147538 -0.08825889 0.057064783
0.004529203 -0.034989778 -0.03901372 -0.05440034 -0.025906684 -0.016316168 -0.073588155 0.10650833
0.033287227 0.018580725 -0.062242307 -0.013770393 -0.08648864 -0.008408012 -0.025509989 0.021417497
-0.011398101 -0.057363734 0.06690295 -0.07503554 -0.0341502 0.103841975 0.025764406 -0.03140206
0.059884444 -0.0424759 -0.03658785 -0.03938421 0.06829561 0.009133368 -0.02710997 -0.090958744
-0.02817072 0.02420932 -0.032212898 0.03574054 -0.036905255 -0.06056628 -0.07294362 0.03514567
-0.029613473 0.07250242 0.089421235 0.060918406 -0.08222976 0.006487477 -0.016507715 0.061866328
-0.091678046 -0.028425379 -0.00080024137 -0.069435224 -0.02453014 -0.01877906 -0.027223881 -0.040112767
0.0017010708 0.10385191 0.016380964 -0.0006601071 0.07655033 -0.030908424 0.086585894 0.052531984
0.10533008 -0.057347465 -0.038740072 0.09255322 -0.016276287 -0.05493004 0.09022065 0.025346916
-0.042622987 -0.09471307 -0.02085529 0.005047457 0.08607959 -0.07303968 0.030273067 0.0036326936
-0.01101408 0.020928057 -0.019286847 0.012935786 0.024293995 0.0760905 0.0030864703 -0.034360375
-0.02221698 0.058276195 0.0058672396 0.040389292 0.04789624 0.03056228 -0.083356135 -0.0920111
-0.05097884 0.011704483 0.0025791414 0.084103376 0.054949757 -0.026384883 -0.04038238 0.058364913
-0.0039868834 -0.06624957 0.107865155 -0.07245727 0.06560028 0.007897657 0.10153021 0.08741142
0.025881004 0.07949842 0.04698922 0.030471377 0.04910568 -0.03879601 0.07473222 -0.09111011
-0.0007353467 -0.07992698 -0.060098697 -0.076981924 0.032454852 -0.015580259 0.052566368 -0.099412665
0.0824541 -0.057601012 -0.08585448 0.0254388 0.06682427 -0.022864575 -0.078969434 -0.08842337
0.073311575 -0.079804264 -0.002628289 -0.007000847 0.09693349 0.020036783 -0.007814905 -0.01109538
-0.046201162 -0.014139602 -0.00946384 -0.05637679 0.021021519 0.009391105 0.042211257 0.014635713

fc.bias f4 [30]
00000000: b7b9 053d 22ab 363d 3295 d83c 8952 7a3d
00000010: 876f ec3c 4548 233d 2452 793d beac 69bd
00000020: 01ea 4a3d b3ac eb3c c1f9 843d 43ce 0bbc
00000030: bb49 893d a7f8 a1bc dea0 20bd 2663 e3bc
00000040: 7e84 493d fe35 283d 8655 503d 6d6d c9bc
00000050: 6e56 053d 050a dd3b e53f 52bd 78f1 98bc
00000060: 839d 38bd 4542 c93d d4e4 40bc 31ab d4bc
00000070: 1968 2cbd 05fb 50bd
0.032647815 0.0445968 0.02643833 0.061113868 0.028861774 0.039863843 0.06086935 -0.057049505
0.04953957 0.028768873 0.06492949 -0.008533063 0.06703516 -0.019771887 -0.039215915 -0.027757239
0.04919862 0.041067116 0.05086281 -0.024588311 0.03255313 0.006745579 -0.051330466 -0.018669829
-0.04507209 0.09827093 -0.011773307 -0.025960537 -0.042091463 -0.05102064
